logs/h1/h1_torque_decap/model_0.pt (torch, 739420 bytes, 48 tensors)

std f4 [10]
000000 98 06 4d 3f b2 fe 4d 3f 47 94 4e 3f 42 c9 4d 3f
       0.80088186 0.8046676 0.80695003 0.8038522
000010 9f 6f 4c 3f 92 99 4e 3f 4c d0 4d 3f fe 04 4e 3f
       0.7985782 0.8070308 0.8039596 0.8047637
000020 90 35 4d 3f 25 70 4c 3f
       0.80159855 0.7985862

actor.0.weight f4 [32, 64]
000000 5f ab a1 bd 72 e4 4c bd c1 dd 85 3b e6 13 00 3d
       -0.078940146 -0.05002255 0.004085273 0.031268977
000010 77 27 00 3d 3f 6d 19 3d d9 47 cc bd d2 9d c0 bd
       0.031287637 0.0374577 -0.09974641 -0.09405102
000020 09 4b d8 3d dc c3 cf bd 5c 4d f3 bc d1 34 ae 3d
       0.10561187 -0.10144779 -0.029699974 0.08506168
000030 39 c8 a7 3d 95 c1 61 3d 3e 30 c0 bc 3a 64 34 3d
       0.08192486 0.055116255 -0.023460504 0.044040896
000040 66 65 38 3d d7 55 a7 bd aa 35 c2 bd dd 06 0f 3c
       0.045018576 -0.081706695 -0.09482892 0.008729664
000050 8d 9d c9 3d f9 1b 10 bd 88 90 2d 3d 17 4c e5 3d
       0.098445036 -0.035182927 0.042374164 0.111961536
000060 25 3d 50 3d a6 29 50 3d e2 e3 13 bd 95 09 58 3d
       0.050839562 0.05082097 -0.036105998 0.052743513
000070 38 dd fd bd 0f 36 01 bd e8 b3 d0 3c ca e6 77 bd
       -0.1239571 -0.031545695 0.025476411 -0.060522832
000080 19 e9 01 3e dc c2 ad bd 65 89 a7 bd c2 26 db 3d
       0.12686576 -0.08484432 -0.08180503 0.10700752
000090 30 0d c7 bc ce e4 d0 3c 81 67 9e 3c e5 d3 07 3e
       -0.02429828 0.025499728 0.019336464 0.13264425
0000a0 d0 1d 60 3c 54 33 14 bd 39 27 01 bd 5b 0e 62 bd
       0.013678983 -0.036181763 -0.031531546 -0.05518947
0000b0 d4 f8 a8 bd 12 c7 57 3d 14 7c 56 bc 71 fb 56 bd
       -0.08250585 0.052680083 -0.013091106 -0.052485887
0000c0 cf 52 1a bd 6f 1a 80 bc 24 c9 1e 3d 44 3c ef bd
       -0.03767663 -0.015637605 0.03876604 -0.11681417
0000d0 0c 7e e3 3d 90 28 ac bd 49 66 e6 3d d4 66 ba bc
       0.11108026 -0.08406174 0.11249978 -0.02275411
0000e0 c6 96 4a 3d 8c 22 26 3d 78 5e c9 bd eb 69 ec bd
       0.049460195 0.04056029 -0.098324716 -0.1154364
0000f0 4a 69 a6 3c 44 1c 91 bc 79 65 4f bd 96 d5 4f bd
       0.020313878 -0.017713673 -0.05063388 -0.0507408
000100 0c ea a0 bd a1 7f 3d 3d 27 f9 f0 bd 64 02 a8 bd
       -0.07857141 0.046264295 -0.11766272 -0.08203581
000110 5f 02 93 3d 6e c4 91 3d c9 5f 66 bd 9e 1b ff bd
       0.071781866 0.07117544 -0.05624369 -0.124564394
000120 9d 7e 90 3d 5c 4a ed 3d d3 74 9d bd ce b7 e1 3d
       0.070553996 0.115864486 -0.07688298 0.11021386
000130 6d 22 4c bd bc 9a 99 3d c4 fa a1 3d 47 5d c6 bd
       -0.04983752 0.07500216 0.07909158 -0.0968576
000140 b9 a3 2a 3d 65 29 9c bd dc 08 6e bd 60 b0 9c 3b
       0.041660044 -0.07625083 -0.058113918 0.0047817677
000150 93 69 8b bd 9b e5 89 3d ae bb d9 3d b7 a4 69 bc
       -0.06807246 0.06733247 0.106315 -0.0142604625
000160 a6 b5 13 3d bb 49 f3 bd d0 70 8c 3b 29 eb ae bd
       0.036061905 -0.11879297 0.0042859092 -0.08540947
000170 16 74 c0 bc 63 48 bf bd e9 17 98 bd 5a 06 ee 3c
       -0.023492854 -0.093399785 -0.074264355 0.029055763
000180 11 a6 e9 bd 6d 20 ec bc 61 e6 59 bd 2a 20 f3 3d
       -0.11408628 -0.028824056 -0.053198222 0.11871369
000190 29 b9 46 bd 1f 99 a6 bb 6c 50 03 bd e0 b4 74 bd
       -0.048516426 -0.0050841714 -0.03205912 -0.05974281
0001a0 1a 89 8f 3d 62 2b d9 bc 78 46 6f 3d 5a ea 60 bd
       0.07008572 -0.026509944 0.058416814 -0.054910995
0001b0 30 8a 83 3d 67 c1 01 3e ab db 0c 3e 3c 08 0b 3e
       0.064228415 0.12671433 0.13755672 0.1357736
0001c0 5f bc 31 bd 4e de 00 be e2 52 15 bd 08 cf 0d be
       -0.043392535 -0.12584803 -0.036455996 -0.13848507
0001d0 44 e9 e0 3c d4 99 c0 bd 1f 2d b1 bc 8a da 9d 3d
       0.02745498 -0.094043404 -0.02162796 0.07707699
0001e0 7b 3b be bb af 3c df 3c db d6 02 3e 75 1d 61 bd
       -0.0058054305 0.027250616 0.12777273 -0.054959733
0001f0 72 18 0a be db d3 fa 3d 13 e1 b0 3d ef b7 e6 3b
       -0.13485888 0.122474395 0.086366795 0.0070409696
000200 34 30 aa bd 4d e8 06 3d ea 72 24 3d 33 d3 60 bd
       -0.08309975 0.032936383 0.040148653 -0.054888915
000210 2f f1 8a bd 63 f8 7b bc 8a 50 b1 3d 22 41 19 3b
       -0.06784283 -0.015379044 0.0865794 0.002338477
000220 e5 05 dc 3d 5f e4 d1 3d aa 64 35 3d c2 d7 6c bd
       0.10743312 0.102486365 0.044285454 -0.05782295
000230 d6 7d 24 bd b6 e6 5b bd 1d e0 d5 3c cf 51 a7 bd
       -0.04015907 -0.05368682 0.026107842 -0.081699006
000240 24 83 08 be 04 65 a7 bc ff a0 ba bd fd fd a1 3d
       -0.13331276 -0.02043391 -0.09112739 0.079097725
000250 2f ac d0 bd 1a 6d 72 bc 61 b3 52 3d 4f 02 b5 3c
       -0.101890914 -0.01479652 0.0514406 0.022095827
000260 d3 9d 5f bb 9f 5f a5 3d e0 2c b3 bd 8b b2 05 3d
       -0.003412117 0.08074879 -0.087487936 0.032640975
000270 c6 9f 08 3c 40 e2 07 be f6 11 5a 3d e3 ca 0d be
       0.008338874 -0.13269901 0.053239785 -0.13846926
000280 71 62 c4 bc 0d 5a f8 bc 10 2a 1f be 62 44 92 3d
       -0.023972722 -0.030316377 -0.1554339 0.07141949
000290 20 96 94 3d ad 03 ea 3c 56 70 3d bd b7 c6 08 3e
       0.072551966 0.028566206 -0.04624971 0.13357054
0002a0 0d c9 85 bd d0 d7 0a be c8 c9 cb bd 53 7b fd 3c
       -0.06532488 -0.13558888 -0.09950596 0.030942595
0002b0 6a 4c be bd 8f f5 5f bd 86 da 1c be 63 31 7b bd
       -0.092919186 -0.054677542 -0.15317735 -0.061326396
0002c0 87 99 02 be e4 91 bf bd ee 91 c8 bd cc be 8e bd
       -0.12753879 -0.09353998 -0.09793459 -0.06969985
0002d0 e6 b7 af 3d bc 92 c4 bc 86 0e b8 bd 91 3f f9 3d
       0.08579998 -0.02399575 -0.08987145 0.121703275
0002e0 48 ee a5 3c 04 5f 07 be ea fb da bd 46 9f 4b 3c
       0.020255223 -0.1321984 -0.1069258 0.01242811
0002f0 b3 ac 85 bd 25 3f 93 3d b1 64 db bd 59 b6 e5 bd
       -0.065270804 0.07189778 -0.10712565 -0.11216421
000300 2e b2 8d 3d 29 f4 81 3c 97 be 3a 3d 7f d9 25 3b
       0.06918751 0.015863495 0.045591917 0.002530664
000310 75 39 a7 bd 6e c7 a5 3d 05 8a c2 bc 64 cc d9 3d
       -0.08165256 0.08094679 -0.023747453 0.106346875
000320 d0 4b 54 bd 57 79 be bc 95 ab 2e bc e3 89 99 bd
       -0.051830113 -0.023251219 -0.0106610255 -0.07497003
000330 1e 09 8f 3d 30 b1 0f 3d cd 2b c8 bd d6 e8 9f bd
       0.06984161 0.03508109 -0.09773979 -0.07808082
000340 1a c0 d2 3d e6 ae e0 3b 00 3e 52 3d 56 f5 b8 bd
       0.10290547 0.006856787 0.05132866 -0.09031169
000350 d8 d7 b6 3d 68 a8 b0 3d a0 d5 2f 3c 22 79 ed 3d
       0.08927888 0.08625871 0.0107320845 0.1159537
000360 22 39 db 3d 18 91 e5 3d 3a 63 78 bd fd 9b c3 bc
       0.107042566 0.11209315 -0.060641505 -0.023878092
000370 85 76 3c bd 88 51 1d bd 68 98 8f 3d 82 3d 08 bd
       -0.046011467 -0.038407832 0.07011491 -0.033261783
000380 d3 54 d7 3c a3 7c 82 3d a3 70 2f bd b9 f3 14 3e
       0.026285565 0.06371429 -0.042832028 0.14546098
000390 b3 16 ac bd 15 ed 57 3d 78 6a 8e 3d f8 6c 0c be
       -0.08402767 0.052716333 0.06953901 -0.13713443
0003a0 72 ea 18 bc 16 12 06 3e 61 33 c8 bd d0 09 75 bd
       -0.00933324 0.13092837 -0.09775425 -0.05982381
0003b0 fe da f1 bd a5 17 96 3d e4 92 e5 3d f5 81 3e 3d
       -0.118093476 0.073287286 0.11209658 0.046510655
0003c0 92 d5 d3 3c a3 4e 15 be b2 7d 15 3d 2c d2 19 bd
       0.025858674 -0.14580779 0.036496826 -0.03755395
0003d0 58 fb 6d 3d 30 d9 79 bd fa 61 aa bd 78 bf e2 3d
       0.05810103 -0.06099814 -0.08319469 0.11071676
0003e0 a4 78 73 3d 3e 77 d6 bc 5a 83 aa bd 18 21 0d be
       0.059441224 -0.026179906 -0.083258346 -0.13782156
0003f0 40 e7 b7 3d 02 a6 bd bd bf 9a b3 3c 88 ef a8 3d
       0.08979654 -0.09260179 0.021924375 0.08248812

actor.0.bias f4 [32]
000000 aa d8 1c bd f5 e8 c7 bd 07 79 b6 bd a1 89 2f 3c
       -0.038292564 -0.0976123 -0.08909803 0.010713966
000010 2b 3c b9 bd 44 33 81 3d c1 f0 9f bc 4b b5 e5 bc
       -0.09044679 0.06308606 -0.01952398 -0.028040549
000020 f6 42 c8 bd ff 91 63 3d d7 8d 8f bd b9 1f a5 3d
       -0.09778397 0.055559155 -0.07009476 0.08062691
000030 de e2 53 bc dd c6 bf bd a0 bd dd 3d c4 50 b6 3d
       -0.012932507 -0.09364102 0.10827184 0.089021236
000040 2f 10 d5 bd b6 63 bc bd c7 5c 4a bd a0 42 d2 bd
       -0.104034774 -0.09198706 -0.049404886 -0.10266614
000050 22 0f 55 3c 19 d9 a2 bd 01 bb 97 3d 46 81 d1 bd
       0.013004096 -0.07951564 0.07408715 -0.10229735
000060 28 f8 cd bd 9e 07 0f 3b ea 84 b8 3b 00 fb c7 3c
       -0.10057098 0.0021824609 0.005631079 0.024411678
000070 c1 d2 c6 bd 0a f6 d7 3d 37 88 bb bd 80 6d c3 3d
       -0.09708167 0.10544975 -0.0915684 0.0954237

actor.2.weight f4 [10, 32]
000000 c7 2e 11 3e bf 24 0c 3d ba 7f 00 3d 56 7e d0 bd
       0.14178 0.03421473 0.03137181 -0.10180347
000010 f4 43 32 3d 46 c6 16 3e e6 2b 1c be 5a ad 0d 3e
       0.043521836 0.14724073 -0.15251121 0.1383566
000020 c2 0e c3 bd 0f b5 31 3d 86 4c a3 3d 5f 81 88 3c
       -0.09524299 0.04338556 0.0797358 0.016663251
000030 0f 41 b3 bd 60 53 cc bd b1 b9 19 3c ef 2f be bd
       -0.08752643 -0.0997684 0.009382651 -0.09286486
000040 3b 2e 0e be f9 b2 29 be 8f 1f 41 3e 4f 1b 30 be
       -0.13884823 -0.16572179 0.18859695 -0.17197917
000050 29 31 07 be 7d 4b 7f 3d 8f 00 df 3d 2c d0 27 3e
       -0.13202347 0.06232785 0.108887784 0.16388005
000060 74 c6 73 3d ee 1f 25 3e 1d a3 cf bd de 3f 86 3c
       0.05951543 0.16125461 -0.10138533 0.016387876
000070 c8 75 84 3c 6f d9 1a be 66 0c 1a 3e fe 67 7f 3d
       0.016169444 -0.15122007 0.15043792 0.062355034
000080 f8 6f a3 3d 9b 20 ef 3d be 64 54 3d 51 2a ef bd
       0.07980341 0.11676141 0.051853888 -0.11677993
000090 6c 4e c5 3d 29 fa 54 3a aa 79 a2 bd d4 20 e1 3d
       0.096340984 0.0008124435 -0.07933362 0.109925896
0000a0 2f 43 2f bc 10 7b 23 3d 81 8e e4 3d 07 f2 16 3e
       -0.01069717 0.039912283 0.11159993 0.14740764
0000b0 d9 a1 18 bc 5a ab 0c 3c e3 5b e5 3c 4d 40 8c 3d
       -0.009315931 0.008585775 0.027997917 0.06848202
0000c0 b4 ac 85 3d 51 7d ff 3d 45 56 5e bd d8 32 9d bd
       0.06527081 0.12475074 -0.05428149 -0.07675713
0000d0 f3 d2 fe bc ac db d5 3d 87 37 10 3e b7 2e ab bd
       -0.031106448 0.1044229 0.14083682 -0.083585195
0000e0 1d 44 b7 3d 65 e7 02 3e 88 ef 08 3e 0c b1 88 3c
       0.089485385 0.12783583 0.13372624 0.016685985
0000f0 b7 16 e7 bc be 58 2a 3e 7e 2a 41 3d ce eb a3 bd
       -0.028209073 0.16635415 0.047159664 -0.080039605
000100 ae 99 df 3c 4c 75 c3 bd b6 ae da bd 09 84 1b 3e
       0.02729496 -0.09543857 -0.10677855 0.15187086
000110 7f d5 9c 3d 36 8e f2 bd 4c 96 02 bd d5 c2 09 bb
       0.07657909 -0.11843531 -0.031881616 -0.002102067
000120 a5 e9 b4 bd 7c e4 bc bd 3c 05 c0 3d 0e 34 00 3e
       -0.08833627 -0.092232674 0.093759984 0.12519857
000130 94 9e 5f bd aa ce 26 be 47 4b 0d 3e 43 93 bb bd
       -0.05459459 -0.16289774 0.13798247 -0.09158947
000140 f0 12 4b bc 0b 3d cb bd bb b6 24 bd ce d0 d8 3d
       -0.012394652 -0.099237524 -0.040213328 0.10586701
000150 b2 11 09 3e de c6 b3 bd 69 92 06 3e a3 06 c9 bd
       0.13385656 -0.08778165 0.13141789 -0.09815719
000160 fa 0b 17 be cf b0 17 3d 3c bc d8 bc 4f db 4c 3d
       -0.14750662 0.037033852 -0.026456945 0.050013836
000170 fa 19 e1 3d d9 d2 62 bd 4f 8f 0b 3d 72 be 68 3d
       0.10991283 -0.05537686 0.034072217 0.056822248
000180 ff a5 03 3c 19 9a 12 bd c9 45 72 3d 55 0a fe bd
       0.008035182 -0.03579149 0.059148584 -0.124043144
000190 75 0b e4 b9 4c a9 ed bd dd a1 0d be b8 ad 10 3e
       -0.00043496085 -0.116045564 -0.13831277 0.14128768
0001a0 0b 2b c6 bd 0f 59 8a bd 02 0c 1f 3e 03 bc f3 bd
       -0.096761785 -0.06755268 0.15531924 -0.11901095
0001b0 98 c1 d8 bb bb 4f 17 3e 11 fa 8a 3d df 05 c0 3d
       -0.006614875 0.14776509 0.06785978 0.0937612
0001c0 d8 97 62 3d d2 cb 9d bc f5 2a 2a 3e d9 05 1f 3e
       0.05532059 -0.019262228 0.1661795 0.15529574
0001d0 38 f4 c9 bc 21 0b 21 bd a8 57 9f bd c1 10 cd 3c
       -0.024652585 -0.039317254 -0.07780391 0.025032403
0001e0 07 7b f8 bd 88 44 35 be 34 7e 39 be 49 9f af 3d
       -0.121328406 -0.17701924 -0.18114549 0.08575303
0001f0 f6 86 f2 3c 10 27 4d 3d 2f 84 ad bb 4d 14 ed bd
       0.02960537 0.05008608 -0.0052952985 -0.11576138
000200 e3 b1 87 3c 69 21 f6 bc ba 98 5d bd 02 92 12 3e
       0.016564315 -0.030045228 -0.05410073 0.1431351
000210 39 f4 8b bd f5 d1 ad 3c b9 2a a3 bd f3 43 f3 bc
       -0.06833691 0.02121828 -0.07967133 -0.029695487
000220 25 6b d3 3c 42 d5 cf bd 87 82 9b 3d 82 b6 47 bd
       0.025807926 -0.101480976 0.075932555 -0.048758037
000230 3e ec f8 bd 50 af fe 3d 8d 91 e5 bd 5d b2 16 3e
       -0.121544346 0.12435782 -0.11209402 0.14716478
000240 41 06 2b bd c5 5b 2e 3e 91 45 10 be f5 46 51 bd
       -0.04175401 0.17027195 -0.14089037 -0.05109306
000250 3b d8 22 3e 36 77 25 bc 4f 1b c5 bd 82 21 8c 3d
       0.15902798 -0.010099223 -0.09624349 0.068423286
000260 ae 4c cd bd 61 ca d5 3d 97 90 4d bd b6 e5 00 3e
       -0.10024391 0.10438991 -0.05018672 0.12587628
000270 7a 07 fc 3d 14 8b 0a 3e 5a 40 c0 bc 30 f4 28 bd
       0.123061135 0.13529617 -0.023468185 -0.0412485
000280 5d c1 0e bc 63 51 c1 3d 5d 1e 2b be 81 57 a3 3d
       -0.008713094 0.094393514 -0.16710801 0.079756744
000290 a3 bd 11 3e 4f 8d a3 bd a3 e0 00 3e dd 34 08 3e
       0.14232497 -0.07985937 0.12585692 0.13301416
0002a0 52 ea b3 3d f2 13 d5 3b 70 83 17 3e a9 45 84 3d
       0.087849274 0.006502622 0.14796233 0.06458599
0002b0 13 2b 22 bd 4a 1d 13 3e c8 fb 1d be 41 68 98 bd
       -0.03959186 0.14366642 -0.15428078 -0.0744176
0002c0 8a a6 1e be 70 09 e1 3d f1 05 c4 3d 31 43 31 3e
       -0.15493217 0.10988128 0.09571446 0.17310788
0002d0 32 7a 30 be 92 fd 5b 3d 6f f1 a6 bd 84 05 9f bd
       -0.17234114 0.05370862 -0.081515186 -0.07764724
0002e0 7b 05 d3 bd 99 5d 26 be 64 1c 2b bd 15 76 e5 3d
       -0.1030378 -0.16246642 -0.041775122 0.11204163
0002f0 76 e0 6f 3c 16 08 b2 bd 00 7a b0 bc 87 5b c1 bd
       0.014640918 -0.086929485 -0.02154255 -0.094412856
000300 a0 6c 79 bd f9 96 16 3e 1e f7 22 be 59 16 a8 3d
       -0.06089461 0.14706029 -0.1591458 0.082073875
000310 99 e4 33 be 2f 36 4a 39 8d 5e 48 3d 0d 06 c0 3c
       -0.17567672 0.00019284406 0.048918296 0.023440385
000320 20 ec 01 3e 67 f2 49 3d 57 c1 1c bd 7c ad fe bd
       0.12687731 0.04930344 -0.03827032 -0.12435433
000330 4d fd df bd 27 95 9e 3d 7d c2 0e 3e ba 83 11 3e
       -0.10936985 0.07743292 0.13941379 0.14210406
000340 d0 59 22 bd 04 4b 08 be db bf 29 3e 5a 90 1f be
       -0.039636433 -0.13309866 0.16577093 -0.1558241
000350 64 ea 97 3d f2 e4 9d 3d 21 9b cd 3d d5 02 08 3e
       0.07417753 0.077096835 0.10039354 0.1328233
000360 7b f6 fb bb 2e 2f 11 be af 7f 8a bd 14 fa bf 3c
       -0.007689295 -0.14178154 -0.06762635 0.023434676
000370 87 da 48 bd 99 07 aa 3d a1 d9 a3 3d 16 e3 94 bd
       -0.04903653 0.083022304 0.08000494 -0.07269876
000380 14 96 1a bd 1e 5f 7f bd 28 59 a9 bd 90 81 3e be
       -0.037740782 -0.06234657 -0.08268958 -0.18604112
000390 72 44 72 bd f1 84 40 bc 86 42 31 be ca 41 f6 bd
       -0.059147306 -0.011750446 -0.17310533 -0.12024267
0003a0 9f a8 2e 3e ac 77 db 3d 8a 5d 11 be 9a 3c f6 bd
       0.17056511 0.10716185 -0.14195839 -0.120232776
0003b0 04 9c 39 3d b5 cc d7 3c 4f 78 fd bd ca a3 03 bc
       0.045314804 0.02634273 -0.12376463 -0.008034656
0003c0 bb 3a 0f be ac d4 90 3a a1 c4 10 be 23 46 cc bc
       -0.13987248 0.0011049709 -0.14137508 -0.024935788
0003d0 e5 41 92 37 63 16 cf bd 33 86 17 3e da cc 1f bd
       1.743524e-05 -0.10111692 0.14797287 -0.03901372
0003e0 9e e6 ba 3d 36 10 dd 3c ea 36 c0 bd 27 ef f4 3d
       0.09126018 0.026985269 -0.09385474 0.11959677
0003f0 17 b7 b8 bc 4d be ac bd 32 15 ab bc 23 d6 34 be
       -0.022548242 -0.084347345 -0.02088413 -0.17659812

actor.2.bias f4 [10]
000000 41 9e 2f 3e e4 dd ad 3d 00 aa e3 3d 74 67 9c 3d
       0.17150213 0.08489588 0.11116409 0.076369196
000010 32 be b7 bd d8 2f 68 3d 03 5f 88 bd 33 6e c8 bd
       -0.08971824 0.056686252 -0.06658747 -0.09786644
000020 b6 ee 19 3e 8a dd 14 be
       0.15032467 -0.14537635

critic.0.weight f4 [32, 64]
000000 3a d5 8b 3d cd d8 76 3d 08 aa 5b bc cd 5f 8e 3c
       0.06827779 0.06026535 -0.013407238 0.017379666
000010 32 65 99 3c af ba f4 bc fb c1 19 be 9b b0 0f 3d
       0.018725011 -0.029874174 -0.15015404 0.035080533
000020 89 14 73 3d df ef 57 3c 6f 82 ce 3c ae 51 31 3d
       0.059345756 0.013179748 0.02520868 0.043290786
000030 90 c7 78 3d 3d 9e 6e bd b2 49 0c 3e 93 c8 bb bd
       0.060737193 -0.058256377 0.13699988 -0.09169116
000040 88 0f c4 3c 47 5c 9e bd da c0 17 3e 6f b6 ec 3d
       0.023933187 -0.07732444 0.14819661 0.11558234
000050 df 38 7d bb ce c0 00 3e 18 b3 ea 3d ac 0b a3 bd
       -0.0038638634 0.12573549 0.11459941 -0.079612106
000060 db f6 a1 3d 98 69 8f bd 0e 92 e8 bd d5 a9 fb 3d
       0.07908412 -0.07002562 -0.11355983 0.12288252
000070 2c a7 04 3e 82 1d cf 3c 6c bf ea bd 77 eb 17 3d
       0.12954396 0.025282625 -0.11462292 0.03708979
000080 b2 5c cb 3c b5 a9 28 3c 4b 39 16 be 39 e2 15 3e
       0.024824474 0.010294368 -0.14670293 0.14637078
000090 9a 82 fa bc 0d 53 d4 bc c5 a8 9e bd 45 90 56 3d
       -0.030579854 -0.025918508 -0.07747034 0.05238368
0000a0 5d f9 fc 3a c8 00 a5 3d 83 87 e7 3d f7 6a 11 3d
       0.001930039 0.0805679 0.11305144 0.0355024
0000b0 92 51 03 be a9 42 dc bd 74 32 e8 3d dc bc 97 3d
       -0.12824085 -0.10754902 0.11337748 0.07409069
0000c0 af 40 fb bd bc 9c f4 bd a3 57 1e 3e ee de ce bd
       -0.12268197 -0.11943957 0.15463118 -0.10101114
0000d0 0d 94 49 3d f7 20 04 b9 dc e4 8e 3d 79 35 ef bc
       0.049213458 -0.00012600781 0.06977245 -0.029200302
0000e0 2e e6 25 3c ce ef b1 bd fb dd cb 3d 34 c2 b1 bd
       0.01012568 -0.08688317 0.09954449 -0.086796194
0000f0 f6 80 ef bd 4f 7d 43 3d a1 d7 a0 3d 96 48 73 bd
       -0.11694519 0.047726925 0.07853628 -0.059395395
000100 17 3a b8 bc a3 e6 eb 3d a7 ac 14 bd d1 ac cf 3d
       -0.022488637 0.115186 -0.036297467 0.10140384
000110 f5 7b ac 3d bf bf 24 3d b8 4b 04 3d 66 bb 05 be
       0.084220804 0.040221926 0.032298774 -0.13059768
000120 b6 76 e9 bc 15 b9 a6 bd 84 b2 94 bd 9c 41 6f bd
       -0.028498989 -0.0814077 -0.07260612 -0.05841218
000130 36 d3 d7 3d b3 76 c4 bd 38 82 da 3d b6 9d ff 3d
       0.10538332 -0.095929526 0.106693685 0.12481253
000140 78 69 c6 3d 0a 76 2a 3d 37 99 1b 3e fa 5e 7a 3c
       0.09688085 0.041616477 0.15195166 0.015281433
000150 12 6f af 3c 1c 1c 8d bd 3b 59 ed 3d b0 f4 7e 3d
       0.021415267 -0.06890127 0.11589285 0.06224507
000160 81 29 a7 3c e2 d6 06 be 9e 6f e3 bc 86 a6 b9 bd
       0.020405533 -0.13167909 -0.027763184 -0.09064965
000170 c3 fd e7 bd 05 ca e6 bc 8f 93 9f 3b 91 e7 66 bd
       -0.11327698 -0.028172502 0.0048698853 -0.056373183
000180 e2 a9 84 3d 15 28 54 3c 73 fc 93 bd 76 a2 f3 3c
       0.06477715 0.012949009 -0.07225885 0.029740553
000190 3b 62 aa bd 83 f9 d1 3d 12 d1 91 bd 9b e0 bd 3d
       -0.08319517 0.10252669 -0.07119955 0.09271356
0001a0 e7 e5 ef bd 6b fa 0f 3e b7 c4 2c bd a6 7b bb bd
       -0.11713772 0.1406037 -0.04217979 -0.091544434
0001b0 b2 d4 91 bd b0 f6 18 bd 74 96 08 bd 7c 90 b0 bd
       -0.071206465 -0.037344635 -0.03334661 -0.08621308
0001c0 34 e8 b7 bd cc 8d 93 3d e6 fc 6f bd a8 70 c2 bc
       -0.08979836 0.0720478 -0.058590792 -0.02373536
0001d0 94 a4 c0 bd 66 ec 23 3e f5 c8 51 bd e0 40 d4 3d
       -0.09406391 0.16008148 -0.05121704 0.103639364
0001e0 08 42 87 3d 20 9e 05 be bd 27 51 bd 82 04 c3 bd
       0.06604391 -0.13048601 -0.051063288 -0.09522344
0001f0 89 3c b0 3d da 10 85 3c 2e c9 35 3d ba c2 0e bd
       0.08605296 0.016243387 0.044381313 -0.034853674
000200 10 d8 dc bc c7 f3 ac 3d 33 20 cb bd 12 d0 ec 3c
       -0.026958495 0.08444934 -0.09918251 0.02890781
000210 b7 a2 e7 3c e1 a1 e5 bc fd e3 bb 3b bc a4 d1 bd
       0.02827583 -0.028031291 0.0057339654 -0.10236499
000220 74 21 04 bd 4e 64 43 3d 15 58 20 bd d3 a4 77 3c
       -0.032258466 0.04770308 -0.0391465 0.015114981
000230 6f b5 5f bd 8e ce c6 bd 43 f9 12 bd ea 83 f9 3d
       -0.054616388 -0.09707366 -0.035882246 0.12183364
000240 47 fe c9 3d fc 94 84 3d c1 ac 91 bd 6b c6 f0 3d
       0.09862953 0.06473729 -0.07113028 0.11756595
000250 3f 30 bf bc 00 3d da 3d aa 1d f1 3b 21 bc 1d 3e
       -0.023338435 0.10656166 0.0073582726 0.15403797
000260 23 cc 82 bd 5c e9 06 be 13 09 b6 bd 41 85 23 3b
       -0.06386592 -0.13174957 -0.088884495 0.0024951252
000270 20 3e 01 bc bb 48 de 3d ed 3c aa 3d ff 23 8b 3b
       -0.007888347 0.10853716 0.08312402 0.0042462344
000280 5a 56 36 bb f8 a5 36 3d 6b 8d 9e 3c d5 e3 ae 3c
       -0.0027822466 0.044591874 0.019354543 0.021348873
000290 0a 6b eb bd 92 bb c0 3d cf d2 15 3e da ce 9d bd
       -0.114950255 0.09410776 0.14631198 -0.077054694
0002a0 8d d2 54 3d 4d 33 3d bb 82 f0 55 3d 95 b3 ab bc
       0.05195861 -0.002886969 0.05223132 -0.020959655
0002b0 84 73 dd bc 03 1b de bb 32 f7 8c bd 3f 9e 81 3d
       -0.027032621 -0.0067781224 -0.06883086 0.06329011
0002c0 76 5f 36 3d db 16 69 3d b4 86 02 3e 43 88 b9 bd
       0.044524632 0.056906562 0.12746698 -0.09059193
0002d0 9c 98 ee bd 54 b9 48 3d 5a d3 e8 3a 60 1a da 3d
       -0.11650202 0.049004868 0.0017763183 0.10649562
0002e0 19 42 ae 3d c9 96 a3 3d 28 f6 01 3e a2 dc c6 bb
       0.08508701 0.07987744 0.12691557 -0.006068782
0002f0 4b 84 b5 3c f3 b1 96 bd fd d8 85 3c 43 74 45 3d
       0.022157809 -0.0735816 0.01633882 0.04820658
000300 40 57 eb bd e9 13 83 3d ca b0 85 3d da b8 9f bd
       -0.11491251 0.06400282 0.065278605 -0.077989295
000310 dc 6f 9d ba 3e 19 4c 3d 5e 35 9f 3d c7 d4 15 bc
       -0.0012011486 0.04982876 0.07773851 -0.009144968
000320 46 0d a5 bc 63 ef 31 3d 3d e1 0b be 82 79 d5 bd
       -0.02014793 0.043441188 -0.1366014 -0.104235664
000330 e6 ed 67 3d e5 f8 0d bd c3 66 bf 3d ff fc 76 3d
       0.056623362 -0.034661192 0.09345772 0.06029987
000340 ab b7 27 bd 5a 73 1f be f1 e6 61 bd 63 a3 45 3d
       -0.040946644 -0.15571347 -0.055151884 0.04825152
000350 16 5c 7a 3d 0d 99 27 3d 36 4b 95 bd ce 9b b9 3d
       0.061122976 0.040917445 -0.07289736 0.090629205
000360 d2 50 b4 bd 79 5f d0 bc 0a d8 70 bd 38 57 87 bd
       -0.08804478 -0.02543615 -0.05879978 -0.066084325
000370 f3 7d 2b bd 1f 06 59 bc 07 60 f2 bc 48 67 d1 bc
       -0.04186816 -0.013246088 -0.029586805 -0.025561944
000380 44 3e 1f be b3 90 c5 bd 04 90 b4 3c 15 4e da 3d
       -0.15551096 -0.0964674 0.022041328 0.10659424
000390 27 a3 06 be fd 16 86 bd 26 7b 7d bc 5a 80 58 bd
       -0.13148175 -0.065473534 -0.015471255 -0.05285678
0003a0 34 05 3d bd f3 10 40 3d 24 4d ee 3d 9a 11 81 bc
       -0.04614754 0.046891164 0.11635807 -0.015755463
0003b0 fd 59 e7 bd a0 61 d4 bd 2c 3e f0 3c 72 71 3a 3d
       -0.11296461 -0.10370183 0.02932652 0.045518346
0003c0 26 8d 89 bd d5 95 18 bd 0e 4e 20 3e 03 d0 8e 3d
       -0.06716375 -0.037252266 0.15654776 0.06973269
0003d0 7d 88 f8 bb f1 03 ec 3d 2c 13 a1 3c 77 10 b9 bd
       -0.00758463 0.11524189 0.019662462 -0.090363435
0003e0 bc 34 7c bb 6a a1 91 bc 0a 35 fe 3c b6 f2 e8 bd
       -0.003848358 -0.017777164 0.03103115 -0.113744184
0003f0 1d d1 0d 3c 81 21 81 bd e3 5c 1d 3e 54 4a a0 bd
       0.0086558135 -0.063052185 0.15367465 -0.07826677

critic.0.bias f4 [32]
000000 e8 cf a4 3d 17 40 88 bd 1b 49 06 3e fd c3 3a 3d
       0.080474675 -0.06652849 0.13113825 0.045597065
000010 5a 23 ed bd 77 1a 45 3d 01 5c 78 bc fe 1c 9f 3d
       -0.115790084 0.048120942 -0.015158654 0.07769202
000020 5f 67 dc bd 6e 74 26 3e 4f 41 64 3d 83 72 87 3d
       -0.10761904 0.16255352 0.055726346 0.06613638
000030 9a 3a 3f bd f0 43 20 3d 03 a2 0d be 1a 8c 1f 3e
       -0.046686746 0.03912729 -0.13831334 0.15580788
000040 08 a5 79 bd d6 91 2a 3c bc 42 99 bd db d0 fb bd
       -0.0609484 0.010410747 -0.07483432 -0.122956954
000050 90 04 81 bd cd 03 17 3d aa 25 11 be d5 29 dc bd
       -0.06299698 0.03686886 -0.14174524 -0.10750166
000060 3b ae 1b 3d f4 db b0 3d 78 fe 50 bd 21 1f 9a 3c
       0.038007956 0.08635703 -0.05102393 0.018813672
000070 43 08 be bd b3 82 15 3a 79 d0 f7 3c 56 4b b8 3d
       -0.092789195 0.00057033746 0.030250775 0.08998744

critic.2.weight f4 [1, 32]
000000 ac 19 8a 3d 39 3e 84 bc 37 2e 10 3e 87 79 89 3d
       0.06743178 -0.016142951 0.1408013 0.067126326
000010 34 40 4f be 8e de e4 3d 3c f2 a1 bd 5a d8 d0 3d
       -0.20239335 0.111752614 -0.07907531 0.10197516
000020 79 c0 49 bd 02 91 f3 3d bb 2d 29 bc 57 84 9e 3c
       -0.04925582 0.118928924 -0.010325844 0.019350214
000030 b2 67 6d bd b9 40 d0 3d 68 fc 06 be 1a 65 04 3e
       -0.05796022 0.10168595 -0.13182223 0.12929192
000040 92 2e 28 be 18 dc 31 3c 47 4e d6 bd f2 68 f3 bd
       -0.16424015 0.010855697 -0.10464149 -0.11885251
000050 c3 d3 2b 3d fa c2 8b 3d c7 92 cd bc 1d cc 27 be
       0.04195 0.06824298 -0.025094403 -0.16386457
000060 4c 79 8c bd c3 34 86 3d 21 66 f1 3c f9 ca 9f 3d
       -0.06859073 0.06553032 0.029467644 0.07802386
000070 e9 ad 43 be 66 d6 01 bd db dc db 3b bb a9 11 3e
       -0.1910931 -0.031698607 0.0067096776 0.14224903

memory_a.rnn.weight_ih_l0 f4 [256, 41]
000000 3e c5 c8 bd b3 c6 49 bd ed b4 b1 bd 1b 18 82 bd
       -0.09803246 -0.04926176 -0.08677087 -0.06352254
000010 75 9f 25 3b e3 15 25 3d 05 34 6d bb 40 f4 ea 3c
       0.0025272046 0.040304076 -0.0036194336 0.02868092
000020 b0 cc 49 bc 93 6a 17 bd c7 8c 30 bd d3 f0 17 3d
       -0.012316868 -0.03696687 -0.043103006 0.037094902
000030 c1 62 fc 3b 5d 44 ef bd f3 ac 0b bd 4a fc 33 3d
       0.007702202 -0.11682961 -0.034100484 0.043941773
000040 c2 f8 21 3c 61 60 28 3d 50 23 b8 bd bf a1 77 bb
       0.009885969 0.04110754 -0.0899111 -0.0037785617
000050 fd cb b2 3a 75 7b 74 3d 48 62 81 bd 78 c4 03 3e
       0.0013641116 0.05968805 -0.06317574 0.12867916
000060 72 e7 c0 3d 11 60 ed 3d 90 17 d1 bd 2d 8a 3f 3d
       0.09419145 0.11590589 -0.10209572 0.046762634
000070 d0 72 be bd a1 2f 1e be 0f 06 de 3d 2f b9 41 3d
       -0.092992425 -0.15447856 0.10840999 0.047295745
000080 42 ca d5 3d 98 50 14 3e fd 45 e0 bb 87 a7 b0 bb
       0.10438968 0.14483869 -0.0068442808 -0.0053910646
000090 89 ca 5d 3c 78 36 1b bd 49 3e 30 bd 74 2e 5b 3c
       0.013537058 -0.037893742 -0.04302815 0.0133777745
0000a0 e7 f4 21 3e 29 4e 1c be ee b9 df 3d d5 c6 19 be
       0.15816079 -0.1526419 0.10924135 -0.15017255
0000b0 e5 46 ba bd 1d 7e 36 3c e2 f0 d3 3d 98 fc 20 bc
       -0.09095553 0.011138466 0.10348679 -0.009825848
0000c0 80 69 f5 bb 70 8c bd 3d aa b6 ef 3d 04 ca 07 3e
       -0.007489383 0.09255302 0.11704762 0.13260657
0000d0 25 04 74 3b 10 b2 7e bd 8f c6 67 3d 2b bd 2a be
       0.0037233916 -0.062181532 0.056585845 -0.16673724
0000e0 88 2b fe 3d 9a db c6 bd 65 91 cb 3d eb ac 8d bd
       0.12410647 -0.097098544 0.09939841 -0.06917747
0000f0 fb 47 ee 3d 2c c3 fe 3d 20 1a 74 3d da 01 3e 3e
       0.11634823 0.1243957 0.059595227 0.18555394
000100 f7 4b 06 be 9f 82 27 3c 1d e1 c7 3c 61 0f 45 be
       -0.13114916 0.010224014 0.024399335 -0.19244148
000110 5d 53 cf 3d b2 4f 80 bd f5 b7 24 3d 1f fe 4c 3d
       0.10123322 -0.06265201 0.040214498 0.050047036
000120 0e 5a d0 bd 40 8c ca bd 85 f5 18 3d d3 d2 a4 bd
       -0.101734266 -0.09890032 0.03734352 -0.08048024
000130 37 e1 10 bd f6 f7 37 be 1a 4e b8 3c a2 05 19 be
       -0.03537103 -0.17965683 0.02249818 -0.14943555
000140 65 71 03 3c ef 5a a4 3c 55 8b ca bc 32 35 c4 3d
       0.008022641 0.020062892 -0.024724642 0.09580459
000150 60 43 18 3e 51 fd 88 bd 72 f1 a1 3d 3a 97 83 3d
       0.14869452 -0.06688941 0.0790738 0.064253286
000160 1b 46 87 3c ba 6b eb bd 88 64 d4 3d e1 79 1e be
       0.016512921 -0.114951566 0.10370737 -0.1547618
000170 be 2f ce 3d f0 98 f8 bd bd c4 90 b9 b9 ec ee 3d
       0.100677 -0.121385455 -0.00027612402 0.11666245
000180 17 82 df 3c b3 62 bc bd 83 f7 46 bd b8 a7 b0 3d
       0.027283711 -0.09198513 -0.04857589 0.0862574
000190 8c cf 9f b9 fc 92 4a bc 0b c0 9c bb f6 e1 a6 3d
       -0.00030481478 -0.012364145 -0.0047836355 0.081485674
0001a0 8f e1 b1 bc 7b 14 75 3d 21 ea b5 bd b6 a8 b2 3c
       -0.021714 0.059833985 -0.08882547 0.021808963
0001b0 8d ba a7 3c 43 e7 e8 3d c7 66 01 3e 99 75 17 bd
       0.020474697 0.11372235 0.12636863 -0.036977384
0001c0 99 c3 3d 3d 3e 34 72 3d e4 0c 5f 3b 0c 75 60 3d
       0.046329115 0.059131853 0.0034034783 0.054799125
0001d0 a4 b9 14 3e f3 d2 43 3c 80 c7 1b 3e 7b 00 e8 3c
       0.14523941 0.01195215 0.15212822 0.028320542
0001e0 9b 18 9c 3d 05 d0 93 bd 64 f4 07 3e a2 d2 cc 3d
       0.076218806 -0.07217411 0.13276821 0.100011125
0001f0 67 db 18 3d 5c 8c ee 3c 48 df ad 3c 90 0f 1c 3e
       0.037318613 0.029119663 0.021224633 0.15240312
000200 d4 03 99 bd ec 6a a8 3c a6 ca a6 bd b0 c7 db bc
       -0.07471433 0.020558797 -0.08144121 -0.026828617
000210 eb 41 20 bb b6 ca 14 3e d5 a6 12 be e5 00 e5 bd
       -0.0024453353 0.14530453 -0.14321454 -0.11181811
000220 68 01 6d 3d 71 ee 35 bd ea 09 bb bc 90 2e 8f bd
       0.05786267 -0.04441685 -0.022831876 -0.06991303
000230 9a b0 1c be 34 97 83 3d 71 c1 38 bd d8 94 3c 3b
       -0.15301743 0.06425324 -0.045106355 0.0028775241
000240 6b 8a 75 bd 05 4c 38 3d 3a 16 94 bd 84 a1 c1 bc
       -0.05994646 0.044994373 -0.07230802 -0.023636587
000250 8f 6a d7 3c 3a 14 2d 3d 77 ed 8a bd 73 9d 2a 3d
       0.026295928 0.042255618 -0.06783574 0.04165406
000260 5b b0 63 be dc c9 63 bd 4b d2 14 bb 9a e3 bd bc
       -0.22235243 -0.05561243 -0.0022708352 -0.023179818
000270 52 18 06 be 54 95 3f be 04 27 ce bc ee d3 d0 bc
       -0.13095215 -0.18709308 -0.025165088 -0.025491681
000280 de 19 94 bc 32 03 1f bd bc 17 87 3c 21 44 e2 bd
       -0.01807874 -0.038821407 0.01649081 -0.11048151
000290 2b 48 d9 bd 6e 9f d7 bc f2 3f 2a bd 7f b1 dc 3c
       -0.10609468 -0.02632114 -0.04156489 0.026940105
0002a0 13 b5 8f 3d a7 48 d9 bd 6c 99 67 bd 14 6a 55 bd
       0.07016959 -0.106095605 -0.0565428 -0.052103117
0002b0 12 c5 ba bd 14 9f 39 3d a2 4f 4c 3d 58 9b e6 bc
       -0.091196194 0.045317724 0.04988063 -0.028150246
0002c0 be fb 58 bd 64 c9 ed 3d e5 ec fa bd f3 4c 9f 3b
       -0.052974455 0.11610678 -0.12252215 0.004861468
0002d0 d7 df 16 be f1 0f 18 3d 8f 5c 91 bd 91 07 f9 3c
       -0.14733826 0.037124578 -0.07097732 0.030399116
0002e0 4f 2b c8 bd 69 fb 0e be 64 8b f7 bd d1 9d 11 bd
       -0.097738855 -0.13963093 -0.120871335 -0.035550896
0002f0 62 28 f2 3d 7a 47 fb 3b 9d f7 34 bc b9 74 d1 3a
       0.11824109 0.007668433 -0.011045364 0.0015980221
000300 b6 c2 92 3d 9d 67 c6 bd 66 89 2c 3d 70 c4 c2 3d
       0.071660444 -0.096877314 0.04212322 0.09510124
000310 f0 ae 41 3d e4 b1 a0 3d a6 94 07 3e bd 5c af 3d
       0.047285974 0.0784643 0.13240299 0.0856261
000320 da 2b fb 3c ca d7 1c 3d c3 92 c1 bc 16 fa f7 3d
       0.030660558 0.03829173 -0.023629552 0.12108247
000330 86 9b 66 bc dd 5f dc 3d 22 3f c7 bc ba 91 f5 bd
       -0.014075166 0.10760472 -0.024322096 -0.11990686
000340 9f d2 6d bd 1b f0 dd 3c 5e ca 39 3c 25 ac 91 bc
       -0.058062192 0.02709203 0.011339752 -0.01778228
000350 66 eb f2 3d 8e e9 db bd 6b 4d 63 3c b6 1e 05 3e
       0.11861305 -0.107379064 0.013873438 0.12999997
000360 79 1a 27 3b a0 bd f0 bd fe f2 3b 3c 5c 20 08 be
       0.0025497957 -0.11754918 0.011471508 -0.13293594
000370 c1 fd ce bd b6 11 9a bd 9d 99 ac 3d 94 3d 8a 3d
       -0.101069935 -0.07522909 0.08427737 0.06750026
000380 d5 dd e6 3b 89 3d ed bc 4c dc 15 be 17 6e 27 bd
       0.0070454874 -0.028960006 -0.14634818 -0.040876474
000390 29 af 8a 3c 15 2c 96 bd 8f 66 01 3e 77 17 76 bc
       0.016929226 -0.07332627 0.12636779 -0.015020243
0003a0 f7 44 3c 3e 14 4b 7d bd 43 c5 dc 3d 8d 05 31 3c
       0.18385683 -0.06183918 0.10779812 0.010804546
0003b0 49 fb f8 bc dd 0a ae bc 6a 23 ab 3d f1 60 98 3d
       -0.03039326 -0.021245414 0.08356364 0.07440365
0003c0 31 86 30 3e fa 93 7a bd 8c b0 d9 3d 23 f7 2f 3e
       0.1723869 -0.061176278 0.10629377 0.17184119
0003d0 3d c9 54 ba 21 db 2f be d0 18 87 3b b8 d2 34 3d
       -0.0008117145 -0.17173435 0.004122831 0.04414627
0003e0 99 33 45 bc 69 10 d2 bd 9f 52 10 be b0 d7 16 3b
       -0.012036228 -0.10257036 -0.14094017 0.0023016743
0003f0 20 a3 a4 3c ea 3a de 3d 1e 52 b4 3d 3c 0e 59 bd
       0.020097315 0.10851081 0.08804725 -0.05299209

memory_a.rnn.weight_hh_l0 f4 [256, 64]
000000 26 71 0e 3b 85 6f aa 3d ea 0a 17 3d 12 2b ef 3c
       0.0021734922 0.08322052 0.036875643 0.029195342
000010 3a 69 09 be d6 88 21 bb 66 36 b6 bd 01 c9 cc 3d
       -0.13419047 -0.002464821 -0.088970944 0.09999276
000020 11 fc 30 bd 7c 37 25 3e 2f 44 43 be 76 dc 31 3d
       -0.04320914 0.16134447 -0.19068979 0.04342314
000030 13 28 2c be ec 4f 13 be bc 25 a3 bd bb ad af 3c
       -0.16812162 -0.14385957 -0.07966182 0.021445146
000040 27 7f 30 ba e5 d6 9c bd 9d 38 9a 3d 42 09 1c be
       -0.00067328144 -0.076581754 0.075303294 -0.15237907
000050 cc cc fc 3c 98 60 a5 bb 0e f8 4f 3d 70 f4 36 bd
       0.030859374 -0.0050469153 0.050773673 -0.044666708
000060 54 9f 76 bc c9 37 21 be 9b ad 88 bd 35 a2 2f 3e
       -0.015052635 -0.15743937 -0.066737376 0.17151721
000070 9e d7 5d 3d 9b 41 53 3c c0 7a 62 bd 27 9b 90 3d
       0.054160707 0.0128940595 -0.055292845 0.07060843
000080 b6 1e 8e bd dd 36 5e bd 81 11 5f 3d ae 2b e3 3d
       -0.069394514 -0.05425154 0.054460052 0.110923156
000090 9f 87 05 be 7e fc 8f bd 5e 22 73 3d eb 13 b8 bd
       -0.13040017 -0.07030581 0.059358947 -0.08988174
0000a0 df 98 e8 bc bb 05 95 3c 44 19 bd bb 25 ff d3 bd
       -0.028393207 0.018191209 -0.005770834 -0.10351399
0000b0 b3 eb 26 3c a0 8c 27 3e 11 fa e0 bc 0f f2 1f 3c
       0.010188031 0.16362238 -0.027462991 0.009762301
0000c0 a0 e6 1d be cc 91 20 3c 7a de ea bc 47 09 87 bd
       -0.15420008 0.009800386 -0.028670538 -0.065935664
0000d0 de 2e 8e 3d cc 4b 82 bd ef 09 55 bd 34 7f 85 3c
       0.06942533 -0.06362113 -0.052011427 0.016296007
0000e0 36 cc 0c 3d 23 b2 28 3e 8b 9f 94 bd b9 86 f8 3b
       0.03437444 0.16474204 -0.07256993 0.0075844196
0000f0 3f ea 17 3b b9 38 0a 3e 46 a0 fc ba 5f f0 3b bd
       0.0023180393 0.134982 -0.001927384 -0.045883533
000100 f4 cd 51 be 57 be c8 bd 5e 61 b4 3d 8c 92 4b be
       -0.20488721 -0.098019294 0.08807634 -0.19880122
000110 54 37 ef bd d8 6e bc 3d d9 0a 46 bd 1b ea 90 bc
       -0.11680475 0.09200829 -0.04835019 -0.017689755
000120 47 e2 ff 3d d7 75 81 3d 0e 21 05 3e a8 4a 4b 3d
       0.12494331 0.06321304 0.1300089 0.049631745
000130 1e 0b 66 bd 87 1e 72 bd 6f 8f cb 3c 80 ae 5e bd
       -0.056162946 -0.059111144 0.024848668 -0.054365635
000140 a0 fe d1 3c 98 04 88 3d 4a e4 09 be 83 66 1c be
       0.02563411 0.06641501 -0.13465992 -0.1527348
000150 f2 c8 f7 3c 66 7a 29 3d cd 02 c0 3d d0 a6 e0 bc
       0.030247185 0.041376494 0.09375534 -0.027423292
000160 32 44 23 bc 32 97 f4 3d 83 13 8b bd 9e 74 8b bd
       -0.0099649895 0.11942901 -0.06790831 -0.06809352
000170 b6 c2 a7 3d 5b 06 39 3e a9 f1 33 bc 43 71 d4 bd
       0.08191435 0.1806883 -0.010982909 -0.103731655
000180 2b ca a5 3c 25 95 ae bd 67 f2 d5 3d dd ba 5e 3d
       0.020238003 -0.08524541 0.10446625 0.054377425
000190 4f 44 2d 3e 35 c8 48 bd 83 7a e6 3d b6 d1 52 bd
       0.16920589 -0.049019057 0.11253836 -0.051469527
0001a0 f4 58 de 3d a6 82 37 be 61 ae 83 bc 7e c8 9e bd
       0.1085681 -0.17920932 -0.016074361 -0.077530846
0001b0 99 52 fb 3c 26 00 a6 bb c8 7d 0a be 11 04 84 3c
       0.030679034 -0.0050659357 -0.13524544 0.01611522
0001c0 dc e9 0c 3c 3b c9 8a bd 4c 8d 00 bc 3e c6 c7 3d
       0.008600678 -0.06776663 -0.007846188 0.097546086
0001d0 bf 00 a6 bd a9 e7 c2 3d 74 78 a6 bd 87 45 a1 3d
       -0.08105611 0.09516842 -0.08128443 0.078745894
0001e0 5c b1 05 bd dc 70 56 be 2c 95 6a 3d 81 10 c1 bc
       -0.032639846 -0.2094149 0.057271168 -0.02356744
0001f0 13 ea 15 bc 6a da 2b bd ff aa 5e bd e8 3d f3 ba
       -0.009150046 -0.041956343 -0.054362293 -0.0018557878
000200 26 f4 57 3d 54 89 1b be c9 f7 e3 3c 27 78 e2 bc
       0.052723072 -0.15189105 0.027828114 -0.027645184
000210 ad db 9b 3d 11 ca cf bd 47 b2 84 bd 4c 53 a1 3d
       0.07610259 -0.10145963 -0.06479316 0.07877216
000220 90 ec dd bd b5 8c bd bd 2c 93 c7 bd ba 87 ee 3b
       -0.10836136 -0.09255353 -0.09744868 0.0072793635
000230 6f c2 12 3e c4 e0 d8 3d 95 48 8c 3d 1b 03 18 3e
       0.14331983 0.10589746 0.068497814 0.14844935
000240 52 9d 68 bd 17 40 ed 3c cf ee 27 bd 2a 10 a1 bd
       -0.056790657 0.028961224 -0.04099923 -0.07864411
000250 41 87 94 bd 83 4b 1c 3d 2e 26 e5 3d 58 87 33 3d
       -0.0725236 0.03815795 0.11188923 0.043830246
000260 ce c4 3c bc 1c 47 a7 bd a1 75 6e 3d d3 5f ac bd
       -0.011521531 -0.0816786 0.05821765 -0.084167145
000270 60 9c 09 3e 6d e0 b2 bd 80 3e 3d bd 89 b5 0d 3c
       0.13438559 -0.08734212 -0.046202183 0.008649238
000280 6b 73 f1 bd 32 5d 93 3c 21 bf c8 bd b7 cc 3f 3d
       -0.11789592 0.017988775 -0.0980208 0.04682609
000290 96 3f e1 3d 42 c4 d7 bd b9 5e 97 bd 0e ba 01 be
       0.10998456 -0.1053548 -0.07391114 -0.1266863
0002a0 a1 13 ac bb a7 ae ed bd a9 f3 fb bc 7c b0 ce 3d
       -0.0052513634 -0.11605578 -0.030755835 0.100922555
0002b0 28 5d f7 bc 34 bc aa bb d0 eb bf 3d 3d a6 70 3d
       -0.030195788 -0.005210424 0.093711495 0.058752287
0002c0 11 ee 57 bd 38 35 ff bd 6d 6b 4b 3d cc 5e 34 be
       -0.052717272 -0.124613225 0.049662996 -0.17614287
0002d0 1a 0e 5c bd 8d b6 2a 3d 48 4f a7 bd 6c ce 12 be
       -0.053724386 0.041678 -0.081694186 -0.14336556
0002e0 d6 f7 9d 3d a9 3b e4 3d 79 82 ab bd 56 1e fd 3d
       0.077132866 0.11144192 -0.08374495 0.12359302
0002f0 e3 7d 89 bd f2 72 ad 3c 43 cb af 3d c3 77 41 3d
       -0.06713464 0.021172974 0.08583691 0.047233354
000300 21 b3 90 bd 46 b0 03 be 53 d1 99 bd 70 a4 ba 3c
       -0.07065416 -0.12860212 -0.075106286 0.022783488
000310 78 cf a0 3d 2c 5f 14 3d 7c 4e 05 3e d7 bf 75 3d
       0.078520715 0.036223575 0.1301822 0.059997406
000320 03 fe 2b 3d 25 f5 d4 3c cb 1c 99 3d 73 d2 b0 b9
       0.04199029 0.0259958 0.07476195 -0.00033726133
000330 30 da 9a 3d 5e 5e 12 bd 22 aa 1d bd c4 2e b2 3d
       0.07561147 -0.035734527 -0.03849233 0.08700326
000340 95 d7 2b 3d b2 36 10 bb 36 37 4a bb dc 73 4d 3d
       0.041953642 -0.0022005257 -0.0030855662 0.05015932
000350 78 35 01 bc 8f 67 a6 bb 73 a6 55 3b 81 95 ee bd
       -0.007886283 -0.005078263 0.0032600432 -0.11649609
000360 02 09 af 3b 92 ae d6 bd db a7 06 bc 16 98 f2 bd
       0.00534165 -0.104825154 -0.008218731 -0.11845414
000370 f5 6a 89 bd c6 4e 5f bd 5d cf 19 3d cf 01 72 3d
       -0.067098536 -0.054518484 0.037551273 0.059083756
000380 89 1e 98 bd 18 de 95 bc f7 fd b3 3c f3 a7 7f 3d
       -0.07427699 -0.01829438 0.021971686 0.06241603
000390 19 62 86 bb c7 df 8f 3d 98 e0 96 bd 9a 7d 25 3b
       -0.0041010496 0.07025104 -0.073670566 0.0025251866
0003a0 b0 60 6b 3d 6b c7 88 3c 9a 1e 62 bd d5 e6 d6 3d
       0.057465255 0.016696652 -0.055204965 0.104932465
0003b0 f8 d4 73 3c 94 c6 54 3d 0d ea 22 3d a7 3c 24 3e
       0.014882319 0.05194719 0.03977399 0.16038762
0003c0 3c 3c b0 3d 26 f5 2e bb 79 e5 5c 3d 79 43 ab bd
       0.08605239 -0.0026696413 0.05392978 -0.08362479
0003d0 c5 d6 08 3e 50 a5 11 3e c1 4d 8b 3d 6a 4b 7a 3a
       0.13363178 0.14223218 0.0680194 0.0009547981
0003e0 0c 7e 75 3d d8 07 74 bc 25 82 2c bd c1 27 ab 3d
       0.05993466 -0.014894448 -0.042116303 0.08357192
0003f0 eb fc 6d 3d ca 89 b7 3d f7 a6 f3 bd b6 6a 8b 3c
       0.05810253 0.08961828 -0.118970804 0.017018657

memory_a.rnn.bias_ih_l0 f4 [256]
000000 82 04 8a bd 49 14 2f 3d 9d 81 b6 bd 5b b5 e6 3c
       -0.06739141 0.042743955 -0.089114405 0.028162649
000010 d9 63 c4 3d e2 39 83 3c 6b f5 9e 3d e6 9c 82 ba
       0.09589357 0.016018812 0.077616535 -0.0009964972
000020 29 c4 e3 bd 5d 84 4b 3d 04 3e ae 3d 5b f1 b1 bd
       -0.11121399 0.04968678 0.08507922 -0.08688613
000030 27 96 01 be 8e b0 8c 3d 08 4b 19 3d a6 0a ff bd
       -0.12654935 0.06869613 0.03742507 -0.12453203
000040 de f3 9d bd 93 e8 43 bc 0a 5d 33 bd 3e f2 33 3c
       -0.077125296 -0.0119573055 -0.0437899 0.010983048
000050 23 bf 9f bd e6 42 da bd 84 00 25 bd 6f 46 7e 3d
       -0.07800128 -0.10657291 -0.040283695 0.06207889
000060 cf 2b ba bd a6 e9 d5 bd 6b d7 75 bd ce bc 37 bd
       -0.09090387 -0.104449555 -0.06001989 -0.044857793
000070 e0 b6 1f bd a0 be 38 3d 6f be d8 3c 73 08 9c bd
       -0.038992763 0.04510367 0.026457993 -0.07618799
000080 20 02 cb 3d c5 e7 5a 3d 3d 90 18 be 60 5f e3 3c
       0.09912515 0.05344369 -0.14898773 0.02775544
000090 a2 78 95 bd d2 0e 18 bd 18 7e e0 bd ae 28 52 bd
       -0.072983995 -0.03712351 -0.109615505 -0.051308326
0000a0 a3 ac b2 bd c4 5c cd bc cb c7 b7 bd 93 dc ca 3d
       -0.08724334 -0.025068648 -0.08973654 0.099053524
0000b0 96 e9 18 3d 99 c1 06 3d 96 9d 0d bd d3 d0 a2 bd
       0.03733214 0.032899473 -0.034574114 -0.07949986
0000c0 18 88 7f bd 21 6c 31 3d c0 ee ce 3c 01 7c 9e 3d
       -0.06238565 0.04331601 0.02526033 0.077384956
0000d0 d7 0a 8c 3a 70 2d be 3d 88 2e 57 bd f6 0b e9 bc
       0.0010684383 0.0928601 -0.05253461 -0.028448086
0000e0 04 a0 87 bc d3 46 7a 3d 26 24 6a 3d c7 fe dd 3d
       -0.016555794 0.0611027 0.05716338 0.108396105
0000f0 18 b6 c6 bb 9a ee 56 3d 10 39 ce bd c8 05 d4 3d
       -0.0060641877 0.052473642 -0.100694776 0.10352665
000100 38 be f1 3c 36 36 f1 bd f1 8a 97 3d ff 45 91 3d
       0.029509649 -0.11777918 0.07399548 0.07093429
000110 7e 8d 84 3d c0 70 92 3d f9 22 c3 bb eb 2b 08 be
       0.064723 0.071504116 -0.005955097 -0.13298003
000120 8f 8c e8 bd 33 37 ba 3d e7 27 b0 bd 38 50 a3 bd
       -0.113549344 0.0909256 -0.08601361 -0.07974285
000130 a5 48 22 3c 9f bc c5 bd 39 88 bf bd 2e 58 85 3d
       0.009905015 -0.09655117 -0.09352154 0.065109596
000140 cf bd ca 3d 4f 74 39 bc f0 ba ad 3c dd da 78 3d
       0.09899484 -0.011319234 0.021207303 0.0607556
000150 24 35 97 3c 13 20 8d bd d2 5e db 3c 25 be a8 bc
       0.018457957 -0.06890883 0.026778612 -0.02059848
000160 79 e3 ac 3d e6 0b bf 3d cc 43 5b 3d 8c 8b ae 3d
       0.084418245 0.09328441 0.053531453 0.0852271
000170 68 4b ea 3d b0 2e e4 bd 81 55 04 bd 0e 5c 91 bb
       0.11440164 -0.111417174 -0.032308105 -0.0044360226
000180 ee 8c c6 3d 3a 25 1a be 63 04 02 be df e4 f8 bd
       0.09694849 -0.15053263 -0.12696986 -0.12153029
000190 e5 dc cd 3d 90 a6 2b bd 75 16 27 bd 42 52 54 3d
       0.10051898 -0.041906893 -0.0407929 0.05183626
0001a0 75 d9 a5 bd 68 a8 ad 3c 5c c2 46 bd 4e 20 85 bd
       -0.08098117 0.021198466 -0.0485252 -0.06500302
0001b0 aa 6a 11 bd db 6b bc bd 4a 34 78 3b c2 85 04 bd
       -0.035502113 -0.09200259 0.0037872964 -0.032354124
0001c0 55 a5 76 bd 63 3c c3 3d b0 dd 40 3d a1 9e a2 3d
       -0.060216267 0.09533002 0.047086418 0.07940412
0001d0 14 b8 b6 3c 3d 08 d2 bd 3f dc 56 3d 58 c9 de bd
       0.022304572 -0.102554776 0.052456137 -0.10878247
0001e0 9e c0 b1 bd 4b 95 d8 3d 78 bf b1 3c f4 a0 f7 bd
       -0.08679317 0.105753504 0.021697745 -0.12091246
0001f0 62 eb 1c 3c 6e 27 f7 3c 4f 3d 2b 3d c1 31 3c bd
       0.009577604 0.030170169 0.041806515 -0.045945887
000200 34 96 c0 bd d0 9a 4d bd 3a bc b0 bd a9 97 18 3d
       -0.09403649 -0.05019647 -0.08629651 0.03725401
000210 64 a9 81 3b 2c d8 33 bc f5 f4 a1 bd 84 78 dc 3c
       0.0039569605 -0.010976832 -0.0790805 0.026912935
000220 d1 73 9c bc fa 4a 85 3a e6 ef b4 bd 27 29 c6 3d
       -0.019098194 0.001016944 -0.088348195 0.09675818
000230 94 8b bd bd d9 4b 4a bd ad ea c8 bd 2d 8c ea bd
       -0.09255138 -0.04938874 -0.09810386 -0.11452518
000240 92 e4 bf bd 79 8a 04 3d 64 91 79 bc 5f b1 c4 bd
       -0.09369768 0.03235862 -0.015232418 -0.09604143
000250 be e4 f0 ba 56 f2 cf bd 46 51 c7 bd c1 1e 3a bd
       -0.0018378717 -0.10153644 -0.097322986 -0.045439485
000260 f7 87 96 3d bc 62 99 3d 27 4f 7b 3d ae 7e 56 bd
       0.07350152 0.07489535 0.061354782 -0.052366905
000270 c1 50 1e 3d ca 8b 91 bd a0 66 06 3d c5 10 bf bd
       0.03865123 -0.07106741 0.032812715 -0.093293704
000280 ec 21 de 3d 55 c0 87 bd 6f 1c f3 3d 37 be 6b 3d
       0.10846314 -0.06628481 0.11870658 0.05755445
000290 c4 8d d5 3d 0e 26 97 3d a6 98 fb bc 52 4f de ba
       0.1042743 0.07380305 -0.030712437 -0.0016960895
0002a0 ad 4f c1 bd 57 85 e2 bd 35 56 5f 3d d0 ab 9f bd
       -0.09439025 -0.11060589 0.054525573 -0.077964425
0002b0 74 d7 55 bd f3 b6 ca bd dd a7 e9 bd 34 9c d0 3d
       -0.052207425 -0.09898176 -0.114089705 0.101860434
0002c0 c3 24 c6 bc 40 71 7a 3d 8c 97 95 3d ca fa a9 3d
       -0.024187451 0.06114316 0.07304296 0.08299787
0002d0 fd f8 f3 bd 14 74 e5 3d d9 47 a9 bb 66 35 e5 bd
       -0.11912725 0.11203781 -0.0051660356 -0.111918256
0002e0 eb 1f ad 3c 99 c9 2b bd 6b cd e1 3d 06 69 33 bd
       0.021133384 -0.041940305 0.110255085 -0.04380133
0002f0 4c ca ab bd 31 ee a2 3c b9 d4 30 3d 66 c9 21 3d
       -0.083881944 0.01988897 0.043171618 0.03949871
000300 eb c5 cd 3d 77 3c 93 bd f3 7f df 3c 6b 09 28 bd
       0.100475155 -0.07189267 0.02728269 -0.041024607
000310 14 a2 b8 3b e8 1f 33 bd fa 79 a2 bd 7a 73 02 be
       0.0056345556 -0.0437316 -0.079334214 -0.12739363
000320 2d 84 08 3d 1a e5 de ba 5b 49 62 3d fd dd 12 3d
       0.033329178 -0.0017005533 0.05524574 0.035856236
000330 b1 f0 14 bd 4c 99 c3 3d 07 59 e6 bd a6 d4 c4 bd
       -0.036362354 0.095507234 -0.11247449 -0.09610872
000340 f0 c1 9f bd 8f be e0 bd 15 0a 24 3d 9b 03 7b bd
       -0.078006625 -0.10973846 0.040048677 -0.061282735
000350 ad bf fa 3c 10 58 b1 bb af 12 b5 3d 36 6b b6 3c
       0.030608976 -0.005412109 0.08841454 0.022267919
000360 6c 79 8b bd df 43 fd bd ff 1b c3 bd 29 14 74 3d
       -0.06810269 -0.12366461 -0.09526824 0.05958954
000370 8e d8 bf 3d 66 22 dd 3d b0 ee d9 3d d3 6c f2 3b
       0.093674764 0.107975766 0.10641229 0.0073982268
000380 a0 49 7f bc e6 d2 84 bd 00 d2 1e bd a5 78 8d bc
       -0.015581518 -0.06485538 -0.03877449 -0.017269442
000390 a3 7e d8 3d 49 c0 c1 3d 12 13 78 3d b8 5b 5f bd
       0.10571029 0.094605036 0.060565062 -0.05453083
0003a0 95 73 d0 bb 9a b3 3c bd f5 72 b9 bd 1d 22 94 3c
       -0.0063614347 -0.04606972 -0.090551294 0.018082673
0003b0 10 dc a8 3d 55 c5 8b 3d 68 fe fb 3d bb d5 e3 3c
       0.082450986 0.068247475 0.123043835 0.027811876
0003c0 df 9c 61 bd 7d 37 62 3d c9 7a a6 3c 12 ae 04 bc
       -0.055081245 0.0552287 0.02032222 -0.008098142
0003d0 15 51 9d 3c 9f 5a 00 be 0c 22 12 3d e8 17 d7 bc
       0.019203702 -0.12534569 0.035677 -0.026256517
0003e0 ed fb 5d 3d 54 fb f3 bd 5d 26 a8 bd 24 cd ee bd
       0.054195333 -0.119131714 -0.08210442 -0.11660221
0003f0 e2 b7 9a bd 97 d6 42 3d 82 5a 2b 3d 63 f4 f1 bd
       -0.07554604 0.04756793 0.04183436 -0.11814191
