logs/h1/h1_torque_decap/model_600.pt (torch, 739872 bytes, 48 tensors)

std f4 [10]
000000 9e 5b 75 3f eb 54 9f 3f 9b 97 8b 3f df 13 6d 3f
       0.9584292 1.244779 1.0905641 0.92608446
000010 f4 10 46 3f 91 46 70 3f bd ae a7 3f b9 07 89 3f
       0.7736962 0.93857676 1.3100201 1.0705482
000020 9d b8 6c 3f 6f 3d 42 3f
       0.924692 0.7587499

actor.0.weight f4 [32, 64]
000000 84 3f 2b 3e e2 45 1c be c2 6d 55 3e 63 c0 c3 bc
       0.16723448 -0.15261033 0.2084265 -0.023895448
000010 26 1f bb be 09 99 81 3e 2d 22 8c be e5 c2 7b 3c
       -0.36547202 0.2531207 -0.27369824 0.015366291
000020 ef c8 cc 3d ea 00 a3 3e 78 35 17 3d 06 bf 7b 3e
       0.099992625 0.31836635 0.036916226 0.24584588
000030 d1 a2 c4 3e fe bb 8f bc 21 69 a0 3e 08 3a 55 3e
       0.3840547 -0.017545696 0.31330207 0.20822918
000040 c4 0e 77 be bc e7 9f be 6a 14 2a bb 44 bd df bd
       -0.24126726 -0.31231487 -0.002595211 -0.109247714
000050 47 3d 92 be ea 60 03 be 81 5d dd 3e d2 8d be 3e
       -0.28562376 -0.12829939 0.432354 0.37217575
000060 69 23 b1 be 01 93 b8 3e de fa e6 be 3f 4c b3 bb
       -0.34597328 0.36049655 -0.4511327 -0.0054717357
000070 7c 2b e4 bd 04 71 8f 3e 2c 43 12 be 50 9e 82 be
       -0.111411065 0.28015912 -0.14283437 -0.25511408
000080 2c 2f 83 bc c2 96 bf 3d 7a 8c 86 3e 0a b4 a9 3e
       -0.016013704 0.09354927 0.2627905 0.3314517
000090 3b 15 55 be ca c7 d9 3d 9d fb 1d bd 57 b9 35 3f
       -0.2080888 0.1063381 -0.038570035 0.7098593
0000a0 d7 96 87 be ff b3 7d be b9 0d ab 3e 18 61 b3 3e
       -0.2648227 -0.24775694 0.33408907 0.35035014
0000b0 f8 69 38 bf 41 2e 69 bd 8f 55 7e 3e 13 0a 27 be
       -0.72036695 -0.056928877 0.24837326 -0.16312437
0000c0 94 89 7b bd c0 4e a2 3c f1 33 0b bf 20 bc e2 be
       -0.0614105 0.019812942 -0.5437613 -0.44284153
0000d0 78 b5 2e 3e 37 17 86 bb 48 75 88 3e d1 f3 43 be
       0.17061412 -0.004092123 0.26651978 -0.19135977
0000e0 74 a5 3d 3e 39 d3 a0 3e 4f 68 d6 be 82 4d 8c be
       0.18520147 0.3141115 -0.41876456 -0.27402884
0000f0 2e 7b 30 bc 71 ee 69 bd 32 21 6b bd ea 11 30 be
       -0.010771556 -0.05711216 -0.057404704 -0.17194334
000100 3c e3 69 be 77 17 03 be 9f 45 51 bf b8 86 a7 3d
       -0.2284059 -0.1280192 -0.8174686 0.081799924
000110 c6 85 e2 bd 85 b6 25 3f dd 56 8a 3e f7 12 07 bf
       -0.110606715 0.6473163 0.27019396 -0.52763313
000120 f8 fe 38 3e 86 3c 68 be fd e1 11 bf 26 b7 97 3e
       0.18066013 -0.22679338 -0.56985456 0.2963192
000130 74 21 37 be 76 a5 e8 be b1 90 93 3e 65 11 27 bd
       -0.17883855 -0.45438737 0.28821328 -0.040788073
000140 30 39 a5 3e 3e 60 6f bd f4 79 f4 bc f4 6e 58 3c
       0.32270193 -0.058441393 -0.029843308 0.013210047
000150 d1 45 88 be 32 72 17 3f 3d fe 4e 3e f9 16 fb be
       -0.26615766 0.59158623 0.20214172 -0.49040964
000160 79 62 1c 3e 37 e3 44 bd 64 c1 83 bd 31 b5 f5 bb
       0.1527194 -0.04806825 -0.06433371 -0.0074984063
000170 e4 2e 3c 3e b4 4a bc bc fe 4a 3e be 7f f2 22 be
       0.18377262 -0.02298484 -0.18583295 -0.15912817
000180 40 36 14 3d cb 18 68 be 3a cd 7d 3e 40 6c 66 3f
       0.03618455 -0.22665708 0.24785319 0.90008926
000190 cd 2d 18 be 92 4d b5 3e 95 8c a9 be 95 70 35 3e
       -0.14861222 0.35410744 -0.33115068 0.17718728
0001a0 62 ae 36 3e 52 b0 96 3e 8c fc af 3e 73 50 cb bd
       0.1783996 0.29431397 0.34372365 -0.09927454
0001b0 d3 40 33 3c f7 b9 cf 3d 44 35 3b bf f4 8c 05 3f
       0.010940748 0.10142892 -0.7312815 0.521682
0001c0 3f ce 78 3d 0c 63 99 be d3 91 20 bf da 79 c9 3d
       0.060743567 -0.2995838 -0.6272251 0.098376945
0001d0 21 ed ea 3d ef 42 05 be f5 c4 c6 3c 4b 9f ef 3d
       0.1147101 -0.13013814 0.024263838 0.117003046
0001e0 56 84 93 be bd 13 5b be 66 20 6a 3e 49 c7 ef 3d
       -0.28811902 -0.21394248 0.22863922 0.117079325
0001f0 01 be 3e 3e 55 15 03 3f 99 3b b9 3d d8 1c f0 bd
       0.18627168 0.51204425 0.090445705 -0.117242515
000200 9d e6 dd be 6a 92 e5 bd d2 94 c7 3d 2f 51 7f be
       -0.43340006 -0.11209567 0.09745182 -0.24933313
000210 0d 08 6f be 0f 75 a9 bd 20 66 dc bd a3 c3 f0 3e
       -0.23342915 -0.0827428 -0.10761666 0.4702426
000220 2e 8b d0 3e 1f dd 49 3f 88 37 78 bd 54 33 d3 3e
       0.40731186 0.7885303 -0.060599834 0.41250098
000230 2c cd 63 3d 92 9c e9 3e 8d 30 06 3e 85 f2 a2 be
       0.05561559 0.45627266 0.13104458 -0.31825653
000240 30 25 78 be 9e 5d dc 3e fe 49 21 3c fc e7 98 3d
       -0.24232936 0.43040174 0.009844301 0.074661225
000250 32 c7 94 3b 38 ff 4d be 24 5d a6 be bf 1e bf bc
       0.0045403475 -0.2011689 -0.32492936 -0.02333009
000260 f6 68 3c be 47 ec 49 3f 16 fc b6 bd 8e 98 93 3a
       -0.18399414 0.78876156 -0.089348 0.0011260675
000270 09 6f 4e bd 1d 74 6e bd f3 92 a8 3d 65 7c e3 be
       -0.05039886 -0.058216203 0.08231153 -0.44430843
000280 5d 89 6a bf d9 02 02 3e b1 42 61 3d 90 48 2e 3f
       -0.9161585 0.12696399 0.054995243 0.6807947
000290 01 52 eb bc 11 8d 02 bf df 41 3c 3e 75 60 20 3f
       -0.028725626 -0.509965 0.18384503 0.6264718
0002a0 6e 60 49 bf 8e 6d 63 bd 30 c8 3c 3f 50 ef bc 3d
       -0.78662765 -0.0555244 0.7374296 0.09225333
0002b0 5c 41 31 3a 4d 29 11 be a9 de 85 3d c7 29 05 bf
       0.00067617535 -0.14175911 0.0653661 -0.5201687
0002c0 2b 0a 65 3e 46 3f 14 bf 2b 24 fb be 48 c6 ab be
       0.2236716 -0.5790905 -0.4905103 -0.33549714
0002d0 80 15 65 bd 92 82 f4 3d de 75 48 3e 63 39 1f 3d
       -0.055928707 0.11938967 0.19576213 0.038873088
0002e0 ef 35 eb 3e 0c 04 91 be d8 91 66 be c9 c6 96 3e
       0.45939586 -0.283234 -0.22516572 0.29448536
0002f0 8d 5d 93 be 42 12 f8 3e 8b c8 8a be 8b 38 29 be
       -0.2878231 0.4845143 -0.27106127 -0.16525476
000300 f3 f2 f1 3e fc 36 e7 3d 30 85 a9 bd 67 4f bb bd
       0.47255668 0.11289784 -0.082773566 -0.09146004
000310 98 e7 01 3e 6e 0f c2 3e 2f 7a ee bd 37 83 c2 3d
       0.12686002 0.37902397 -0.116443984 0.094976835
000320 53 65 50 be 67 12 43 be ad 93 8a 3e ef dd 78 be
       -0.20351152 -0.19049989 0.27065793 -0.24303411
000330 70 22 48 be 08 12 59 bc 7b 32 d9 b9 60 ee 62 ba
       -0.19544387 -0.013248928 -0.00041427076 -0.00086567365
000340 cd 89 08 3e 4e 16 e6 bd 06 0d 95 3e 8d fe ae 3d
       0.13333817 -0.11234723 0.291115 0.085446455
000350 11 fe 71 bd 04 61 a5 3d 95 a0 5c 3e 6f 61 04 3e
       -0.059080187 0.08075145 0.21545632 0.12927793
000360 ef 09 4a be 81 d3 60 bd 5b 64 9e be bd b8 8b 3d
       -0.19730352 -0.054889206 -0.3093594 0.068223454
000370 1e 2d a9 3c 2c d8 21 bb 37 d1 9e 3e bb da a7 be
       0.020651396 -0.00246955 0.31018993 -0.32784066
000380 21 f8 ba 3e 75 c1 aa bc b8 00 99 be 82 b7 de 3e
       0.36517432 -0.0208442 -0.2988336 0.4349938
000390 11 43 b8 bd b6 60 86 3e 2f a9 2b 3e 65 74 16 bf
       -0.08997167 0.2624566 0.16763757 -0.58771354
0003a0 ed fb 20 3d 89 72 84 3d 03 ea 2c bf 7c 06 a5 bd
       0.039302755 0.06467158 -0.67544574 -0.080578774
0003b0 a6 83 20 bf d5 a8 a5 3e 58 ee b7 bd d9 46 1d 3f
       -0.6270088 0.3235537 -0.08981007 0.6143623
0003c0 c7 4e 1a 3e 25 04 fb be 90 d2 cf 3e e8 d0 f2 3e
       0.15069114 -0.490266 0.40590334 0.47425008
0003d0 7c 3b 7d 3d ad c4 6e be 56 c5 20 be 37 c6 2d 3e
       0.061824307 -0.23317213 -0.15700278 0.16970144
0003e0 1d f8 a6 3e 15 83 1f be a9 1a 98 be 51 ea 26 be
       0.3261117 -0.15577348 -0.2970784 -0.16300322
0003f0 a0 12 cf 3e 03 22 d1 bd ad e1 8c 3d d0 56 85 3e
       0.40443897 -0.10211565 0.06878982 0.26042795

actor.0.bias f4 [32]
000000 0c bc 0a be 27 33 39 be 1d 56 76 be e9 ad 90 3e
       -0.13548297 -0.1808592 -0.24056287 0.28257683
000010 14 a6 2f bd 8e 39 9b 3e b6 a3 bd 3e bc dc cd be
       -0.042882994 0.30317348 0.37038964 -0.4020747
000020 04 ac 8c 3d 76 16 11 3e ca f3 cf be af d6 c1 3c
       0.06868747 0.14168724 -0.40615684 0.02366194
000030 de 0a ba 3e e5 93 39 be ce 02 5c be dd 9f 57 3e
       0.36336416 -0.18122824 -0.21485445 0.21057077
000040 48 d4 d7 bd 44 70 9c 3d 30 ea b1 be 54 df 72 be
       -0.10538536 0.076386005 -0.34748983 -0.23718005
000050 29 8b 6c 3e 12 ab f1 3c 6c 14 2f 3e b6 84 51 bd
       0.2309996 0.029500518 0.17097634 -0.051151954
000060 4a 2a 1c be 3d 55 9a 3d 4a 26 8f 3e c3 20 40 be
       -0.15250507 0.07535789 0.279589 -0.18762498
000070 2e a2 56 bc ae ae a3 3e 58 8b 7c be 75 c8 d3 3e
       -0.01310019 0.31969208 -0.2466253 0.41363874

actor.2.weight f4 [10, 32]
000000 8e 84 53 3f 07 c6 a3 bb 76 47 88 3e b7 9d a1 bd
       0.8262414 -0.004997972 0.2661702 -0.0789141
000010 de ed 49 3e f7 5b f3 3e d9 26 00 bf cf 0d 8e 3e
       0.19719645 0.475311 -0.50059277 0.2774491
000020 89 65 c4 bd 1d 54 c2 bd 3d 29 54 3e 51 c6 c3 3e
       -0.09589679 -0.094886996 0.20718856 0.3823724
000030 8e 56 01 bf dd 7e 3d 3e f7 23 31 3e ad ec fd bd
       -0.50522697 0.18505426 0.17298876 -0.12398658
000040 73 ff 20 be cd 1a eb be ab 07 46 3e 76 ba 55 be
       -0.15722446 -0.45918885 0.19338863 -0.2087191
000050 b4 46 7e be 0e 46 f7 3e 51 ea a9 3d a4 da e1 3e
       -0.24831659 0.48295635 0.082966454 0.44112122
000060 93 ad 70 3e 26 13 07 3d 49 01 cc be 99 4b e7 3d
       0.23503713 0.032977246 -0.3984473 0.11293716
000070 5e 5e b1 bd 8c 63 1e bf b6 50 07 3f ab eb 35 3e
       -0.08660577 -0.61870646 0.5285753 0.17765681
000080 28 ea 91 be 25 ce ed 3e a5 73 3f 3c bd 06 71 be
       -0.2849896 0.46446338 0.011685287 -0.23537727
000090 5f 1d 4c 3e 1c dd 40 3e d9 e6 00 bf 76 83 3f 3f
       0.19933079 0.18834347 -0.50352246 0.7480997
0000a0 3a fd 99 3d 53 69 ff bc c3 87 89 3f 67 cf 1c 3e
       0.07519002 -0.031178152 1.0744556 0.15313493
0000b0 90 f7 9e 3e d3 12 2d 3e 3c 4f 20 3f 16 e9 2c 3f
       0.3104825 0.16901712 0.626209 0.6754316
0000c0 44 be 30 3f 12 b8 7c 3e f6 62 92 3b b8 b5 db be
       0.6904032 0.24679592 0.0044673635 -0.42912078
0000d0 64 71 bc be 66 e3 4f 3f 10 75 22 3f d0 a1 9f be
       -0.3680526 0.8120636 0.63459873 -0.3117814
0000e0 cf 8d 46 3f 6f 27 08 3e 9e a1 0f 3e 1b 20 78 3e
       0.7756013 0.13296293 0.14026496 0.24230997
0000f0 ce fe 9a be e5 fd 19 3f d6 96 67 bd 99 26 92 be
       -0.30272526 0.6015304 -0.056540333 -0.28545073
000100 33 7f b8 be cd ef b2 be 26 6a 37 bf 12 d8 44 3e
       -0.36034545 -0.34948578 -0.71646345 0.1922305
000110 2b f2 56 3e c7 2b d5 be 2c 7f 6c be c3 8a 50 3e
       0.20990817 -0.41634962 -0.23095387 0.20365433
000120 d7 6c c5 be 2e a6 05 bf f7 5b 1a 3f ec 27 0a 3f
       -0.385596 -0.52206695 0.6029658 0.53967166
000130 25 86 bb be 97 4a 05 bf fe 0c f7 3e 59 6f ac bd
       -0.36625782 -0.5206694 0.482521 -0.084196754
000140 f4 6b b5 bd 4c 01 80 be b3 4c 0d 3e 33 01 04 3f
       -0.08858481 -0.2500099 0.1379879 0.5156433
000150 a3 65 27 3f 92 1c 59 be ba 0a f3 3e e5 1b 8f be
       0.6538946 -0.21202305 0.4746912 -0.2795097
000160 f2 28 05 be 40 98 16 3f f6 40 b1 3e 5d 72 30 3f
       -0.130039 0.58826065 0.34619874 0.68924505
000170 a9 fd d7 3e 97 a8 10 be f3 82 b8 3e 96 27 92 be
       0.42185715 -0.14126812 0.36037406 -0.28545827
000180 67 6f b5 be 7d a1 a0 3e 6c 31 41 3f b5 21 0e bf
       -0.35436556 0.31373206 0.75466037 -0.5552018
000190 b3 88 a0 3e 1c 3a bb be e9 5c 8f be 41 1e 5b 3f
       0.31354293 -0.3656777 -0.28000572 0.8559304
0001a0 c2 6b f9 3c 7d 1c 42 bf 8d 4c 26 3f e5 c7 22 bf
       0.03044689 -0.7582472 0.6496056 -0.63586265
0001b0 b1 92 c0 be 00 9f ff 3e 6a e1 b3 3e 78 5b 41 3e
       -0.37611917 0.49925995 0.35132915 0.18882549
0001c0 72 09 1a 3f c8 bf 01 be 16 8b 00 3f b0 4a 2d 3f
       0.6017066 -0.12670815 0.5021223 0.6769209
0001d0 a2 96 19 bf 0b 39 8b bd 22 4b b2 be 16 b7 db 3d
       -0.5999547 -0.067979895 -0.34822947 0.1072828
0001e0 6e ca 92 bd 99 0f 7a bd 5a aa 84 bf cf 1a 57 be
       -0.07167517 -0.06105003 -1.0364487 -0.2100632
0001f0 8d 72 ca 3e 2d c4 04 bf ba 3d 7e be d8 5c 07 bf
       0.3954052 -0.5186184 -0.24828234 -0.52876043
000200 f5 04 a4 3e 76 c8 e1 bd 55 03 fa bd 67 f0 01 3f
       0.32035032 -0.11024563 -0.12207667 0.5075745
000210 82 9e 4c be 10 81 b8 3d 3c 4d b7 be f1 45 f6 bd
       -0.19982341 0.09008992 -0.35801113 -0.12025059
000220 3d 46 dc bd 5b 93 5c be 4f e8 50 3e 20 9f 86 be
       -0.107555844 -0.21540587 0.20401119 -0.26293278
000230 92 8c 12 be 7f 8a ae 3e f3 77 b0 be f9 ac d4 3e
       -0.14311436 0.3409004 -0.34466514 0.41538218
000240 0b 1f 57 be 6e c4 a8 3e fc 3d 1b bf 81 a3 63 bd
       -0.21007936 0.32962364 -0.60641456 -0.05557585
000250 52 bc 04 3f ae 70 b8 3c ed 7c ed be 95 cd 13 3d
       0.51849854 0.022514667 -0.46384373 0.03608473
000260 cb 14 03 bb 9a ff 7b 3e cc 75 af be f8 9a fb 3b
       -0.0020001407 0.24609223 -0.3426956 0.007678386
000270 97 4c c3 3e be 18 bc 3e 1b 82 16 be 4b 80 09 be
       0.3814437 0.36737627 -0.14698069 -0.13427846
000280 f6 a2 65 be 7b f2 fb 3c e6 c7 b2 be 3d 7d 6d 3e
       -0.22425446 0.030755272 -0.34918135 0.23192306
000290 cf 35 61 3e 7a ef c7 bd a8 56 b0 3e 91 fb d2 3e
       0.21993183 -0.097624734 0.34441113 0.41207555
0002a0 5e c5 39 3e 58 06 97 3d e7 4f 93 3e 38 2b 87 3d
       0.18141696 0.07374257 0.28771898 0.0660004
0002b0 9e 0e e7 be ff 7d e4 3d bb 85 01 bf ae 99 ab be
       -0.4512834 0.11156844 -0.5059468 -0.33515686
0002c0 11 19 08 bf f7 e0 51 3f 75 8a d0 3e ce 05 0f 3e
       -0.5316325 0.81983894 0.40730634 0.13967058
0002d0 27 99 e3 3a 62 6d 22 3f 78 77 a6 be c9 17 e8 bb
       0.0017364369 0.63448155 -0.32513022 -0.0070829135
0002e0 af 44 a9 3d 8a c5 08 bf 9c c2 1c 3e ad 46 e7 3e
       0.082650535 -0.5342642 0.15308613 0.4517111
0002f0 09 ef f0 3d fb c4 2a bd 5a ec c3 be 27 65 09 be
       0.11764342 -0.04169176 -0.3826626 -0.13417493
000300 a6 e8 9a be b5 aa 5d 3f 3c db 3c bf 0d 35 cb 3e
       -0.30255622 0.86588603 -0.73772025 0.39688912
000310 1b 2b 78 be 82 48 b4 be b6 8a f3 3d 7e a0 e5 bc
       -0.24235193 -0.3521157 0.118916914 -0.02803063
000320 fd 6c d8 3e 54 ed b9 3e 49 3e 08 bf da 7f 29 3e
       0.4227065 0.3631388 -0.5322004 0.16552678
000330 f4 12 bf be 2a 42 84 3e e1 ea a9 3e 48 55 3c 3f
       -0.37319148 0.2583173 0.3318701 0.7356763
000340 7a 56 25 be bc b1 fe be 5f 59 31 3f 9d 2f fe bd
       -0.1614627 -0.49744976 0.69276994 -0.12411425
000350 24 ee 8d 3e da 60 7b 3d 13 f0 84 3d 76 4e a4 3e
       0.2772075 0.06137166 0.06491103 0.3209111
000360 3e 03 22 bf ec ec d6 be 76 77 d5 bc 03 3e fe 3e
       -0.632862 -0.41977632 -0.02605794 0.49656686
000370 dc 47 b3 be 8c 71 d3 3e 57 99 76 3f 78 31 68 be
       -0.35015762 0.41297567 0.9632773 -0.22675121
000380 88 9d 14 3e ba b4 de be c7 26 60 be 05 39 12 bf
       0.14513218 -0.43497258 -0.21889792 -0.57118255
000390 7a bf aa 3d 91 df 6a bc 12 9e d1 be db fb 28 bd
       0.083373025 -0.014335529 -0.4094091 -0.041255813
0003a0 64 f7 37 3f 1f b9 17 3f 6e 08 d2 be 74 e3 1a bf
       0.71861863 0.5926685 -0.41022056 -0.60503316
0003b0 85 c2 5c 3c 3a 4e 76 3e 66 d0 f7 be db e2 6b 3e
       0.013474111 0.24053279 -0.48401183 0.23035757
0003c0 53 df 27 bf 64 76 29 3e 48 ec 13 bf 8c 45 61 be
       -0.6557514 0.16549069 -0.5778241 -0.21999186
0003d0 8c b6 bd be 72 7f 30 bf c8 7e 1a 3f 4b a3 42 be
       -0.37053335 -0.68944466 0.603497 -0.19007604
0003e0 7d 3d 19 3f cf c5 06 3e 22 5f 80 be dc 55 21 3f
       0.5985945 0.13161395 -0.2507258 0.63021636
0003f0 1c b0 31 bf 6d 03 e0 be 28 25 b6 be d3 3d fd be
       -0.69409347 -0.43752614 -0.35575223 -0.4946123

actor.2.bias f4 [10]
000000 72 bc 4a be 18 2b c2 bd d3 82 b3 bd f8 80 c8 be
       -0.19798449 -0.09480876 -0.08765187 -0.39160895
000010 22 ac a3 3c 59 8e fc 3b 9f 3c 50 be 3d 55 77 bc
       0.01997954 0.007707399 -0.20335625 -0.015096006
000020 0a 4b 35 be b4 dd 8d be
       -0.17704406 -0.2770821

critic.0.weight f4 [32, 64]
000000 73 86 f2 bd d0 d8 81 bf 9c d4 04 3f 2a 7c 81 3e
       -0.118420504 -1.0144291 0.51886916 0.25290042
000010 28 0e ef be 3d 1e 7c be 5a df 70 3e 02 4a 29 bf
       -0.46690488 -0.2462091 0.23522702 -0.6612855
000020 6f 25 97 3e b4 29 13 bf f8 ab 04 bf bd c8 01 bf
       0.29520747 -0.5748551 -0.51824903 -0.5069693
000030 c0 ed 32 be f0 99 da 3d 73 15 ac bd 7d d4 a7 be
       -0.17473507 0.106738925 -0.084025286 -0.32779303
000040 24 31 ed 3d c3 ce 25 bf da 22 4e 3f 66 3a fa 3e
       0.115816385 -0.6476862 0.8052193 0.4887268
000050 1a 48 d8 be af ff d9 3e 2e e0 04 3f e9 bb 83 bd
       -0.4224251 0.42577884 0.5190457 -0.064323254
000060 c2 48 41 3c 8d 3b 1c bf ed 1a d9 be c6 38 91 bd
       0.011797132 -0.6102837 -0.42403355 -0.07090907
000070 6e 2f 8e 3f c9 d4 c1 3e 5a b0 68 3f 77 90 a1 3e
       1.1108224 0.37857655 0.9089409 0.3155553
000080 97 68 9e be d4 c0 6d be 0a b4 17 3f 5a ef 7d 3e
       -0.3093917 -0.2321809 0.5925909 0.24798337
000090 f0 43 eb bc ae 4c b6 3d d2 0f 9a bf 81 08 f1 3e
       -0.028718919 0.08901344 -1.2036078 0.470768
0000a0 88 b2 be 3d 8f fe 28 3e 14 bc ab 3d 67 3c 9d 3d
       0.09311396 0.16503356 0.083854824 0.076775365
0000b0 11 79 6f bf c1 66 76 3e 98 6d 84 3f a7 d0 18 3f
       -0.9354411 0.24062635 1.0345945 0.5969338
0000c0 e5 8c c9 be 53 95 2d bf ec 46 41 bc 69 30 a3 be
       -0.39365306 -0.67805976 -0.011796694 -0.31872872
0000d0 17 00 08 3d fa d3 0f 3f e3 e6 c3 3e bf 1c 8e be
       0.03320321 0.56182826 0.3826209 -0.27756307
0000e0 e4 3e 2b be 69 6c e5 3d ab 0a 33 3f a9 1b 62 bf
       -0.1672321 0.11202318 0.69938153 -0.88323456
0000f0 f0 48 4b 3e 15 d8 a7 3f de e8 5e 3f 0e c4 86 3e
       0.19852042 1.3112818 0.8707408 0.26321453
000100 de c4 1a bf 3a f6 18 3f 68 44 96 bc d5 77 28 bd
       -0.60456645 0.5975071 -0.018343166 -0.041129906
000110 80 86 98 bd f2 8a 3a 3e 3c 2f c9 bd 8f a1 ef bd
       -0.07447529 0.18217066 -0.09823462 -0.11700737
000120 19 94 17 3e 23 dd 02 bd 04 48 74 bd 60 f4 e3 be
       0.14802589 -0.031949174 -0.059638992 -0.4452238
000130 e2 a7 45 be b2 26 90 bc d9 5d 9e 3e 7f 4d c9 be
       -0.19302323 -0.017596576 0.30930975 -0.39316937
000140 63 32 1b bd 7f 30 49 3e 79 85 bf 3c f9 1a b3 3e
       -0.03788985 0.19647406 0.023379074 0.34981516
000150 34 f0 6b be 1d bb 9b 3b 57 86 4b be 38 4c a8 3e
       -0.23040849 0.0047525303 -0.19875465 0.3287065
000160 9f 40 e0 bb 2b f7 20 bd fe 43 46 3c c2 c8 95 be
       -0.006843641 -0.039298218 0.012101172 -0.2925473
000170 de 90 c8 be 99 18 54 3e 3d 02 7b be cd 1e 24 be
       -0.39173025 0.20712508 -0.24512573 -0.16027375
000180 d8 d2 09 3e 61 de 33 be ce 74 d4 3e 8a 61 4c 3e
       0.13459337 -0.175653 0.41495365 0.19959083
000190 70 96 95 be fe cf 24 3e 36 3a 22 3e 1e 65 f0 3e
       -0.29216337 0.16094968 0.15842518 0.46952146
0001a0 77 10 ca be db 87 b7 3e 06 6c e7 3e 35 d1 06 bf
       -0.39465687 0.35845837 0.45199603 -0.52662975
0001b0 e5 f0 88 be dd 75 54 be a8 d5 ac 3e 56 39 bf bd
       -0.26746288 -0.20748086 0.33756757 -0.09337108
0001c0 71 03 72 3c 53 d2 97 3c 13 c6 a9 3e 5b d8 75 be
       0.014771328 0.018532908 0.3315893 -0.24008314
0001d0 cb fb 81 be 19 9e b8 bc c1 37 ff bd d7 f9 c9 3d
       -0.25387415 -0.022536324 -0.12461806 0.09862106
0001e0 51 ca f8 3d 0a 07 6c be 6d 3a 6e 3d 91 ad 7f be
       0.12147964 -0.2304956 0.058161188 -0.24968554
0001f0 61 21 90 3e 08 2f 72 3e 0e e0 bc 3c b9 d6 6d 3d
       0.28150466 0.23650753 0.023056056 0.058066104
000200 0f 10 49 be 69 d2 86 be 36 6a db bd 96 81 08 3e
       -0.19635032 -0.26332405 -0.107136175 0.13330683
000210 5c 2d 63 be fc 0f 49 be e3 9a 98 be 5f 0d d7 be
       -0.22185272 -0.19635004 -0.2980567 -0.4200239
000220 11 25 be 3d fa bb 9d bc dc 3d ab be 9b da 6d be
       0.092844136 -0.019254673 -0.33445632 -0.23227923
000230 d6 5d b2 bd ca ec 10 be b0 fb 6c 3d 8e b2 d6 3c
       -0.08709304 -0.14152828 0.057857215 0.026208188
000240 a5 13 31 3e b8 fc 06 be f1 7f 66 3e 05 8b 16 3f
       0.1729265 -0.13182342 0.22509743 0.58805877
000250 5d 77 e8 be 12 70 a3 3e 38 b2 88 be e6 6c e6 bd
       -0.45403567 0.3192144 -0.2669847 -0.112512395
000260 f2 f9 df bc a1 a1 d6 be a8 f1 38 be e5 f3 32 3c
       -0.027340863 -0.41920188 -0.18060935 0.010922407
000270 42 97 62 3e 1a 87 89 3e 64 e1 ad 3e 61 36 c3 3d
       0.22128013 0.26860887 0.33961022 0.09531856
000280 23 dc a2 bd e1 78 43 be 38 29 d8 3e 78 f4 ac bd
       -0.07952144 -0.1908908 0.42218947 -0.08445066
000290 c8 a3 03 3e b6 97 a9 3d 73 d4 96 be e6 dd d1 bd
       0.12855446 0.0828089 -0.2945896 -0.10247402
0002a0 1a 80 4a 3c 76 f2 c4 bd 89 e5 aa 3d 0d 06 88 3d
       0.012359643 -0.09616558 0.083445616 0.06641779
0002b0 68 3f dd be 25 27 44 3e 5f 43 35 3f 0f ae 99 3e
       -0.43212438 0.19155557 0.70805925 0.3001561
0002c0 06 93 2e be c3 ea 97 bd 5b b2 4c be d3 3a 4f be
       -0.17048272 -0.07417824 -0.19989912 -0.20237283
0002d0 25 f8 e5 bd a9 3d 53 3e 4c 5e fd bd 43 22 03 3e
       -0.112289704 0.2062899 -0.12371501 0.12806039
0002e0 5c 46 59 3e 69 7f 48 3e cc de 45 3b e0 f0 15 be
       0.21218246 0.19579853 0.0030192612 -0.14642668
0002f0 8f 1b a6 3d c8 1d 93 3e 98 43 89 3e 83 29 2a 3a
       0.08110725 0.2873366 0.26809382 0.0006491171
000300 06 70 d3 be 88 7c 93 bf b1 b8 23 3f a8 a6 ef 3d
       -0.41296405 -1.1522379 0.6395369 0.11701709
000310 9b 4e e7 be a8 ab fc bd 98 6a e6 3e b1 3a 2f bf
       -0.4517716 -0.12337428 0.450032 -0.6844893
000320 78 33 28 3e c7 1d 1b bf a1 c5 19 bf 42 39 06 bf
       0.16425884 -0.6059231 -0.6006718 -0.5243112
000330 53 e5 59 be c9 90 28 3e 88 5d 37 be f7 c0 02 be
       -0.21278886 0.16461481 -0.17906773 -0.12768923
000340 77 f6 2e 3e 59 4f 27 bf 46 fd 10 3f d2 47 b0 3e
       0.17086206 -0.6535545 0.56636465 0.34429795
000350 70 26 bf bd 30 b5 9d 3e 77 42 0e 3f c5 c1 39 3e
       -0.09333503 0.30802298 0.5557017 0.18140323
000360 42 a2 00 be 8d 49 09 bf 18 2c bc be 25 7b ac be
       -0.12561896 -0.53627855 -0.3675239 -0.33687702
000370 ab 90 73 3f 64 e1 35 3e cb 33 91 3f cd f3 a4 3e
       0.9514262 0.17761761 1.1343931 0.32217255
000380 84 86 09 bf 38 cd 70 be 3a fe 34 3f f9 8d 86 3e
       -0.5372088 -0.23515785 0.7070042 0.26280192
000390 3f cc 7c be 6e bc b0 b8 42 4d 97 bf d6 b8 fd 3e
       -0.24687289 -8.427432e-05 -1.1820452 0.4955508
0003a0 56 ac 8a 3e 5a 2c 1d 3e 00 c8 36 3e 80 82 cd 3c
       0.27084607 0.1534895 0.17849731 0.025086641
0003b0 ac 77 83 bf b4 cb 94 3e 6c 24 65 3f 81 c1 0e 3f
       -1.0270896 0.29061663 0.895087 0.55764014
0003c0 1b 14 ca bd 6f 54 13 bf dd 15 ac 3d 14 25 5a be
       -0.09867116 -0.5755071 0.084026076 -0.21303207
0003d0 48 53 0d 3d d5 24 32 3f ee 1d 02 3f 9c cb d9 be
       0.03450325 0.6958745 0.5082692 -0.42538154
0003e0 1d aa 93 be 7d 9d 2d 3e 5b 41 33 3f 6a cb 60 bf
       -0.28840724 0.16954608 0.700216 -0.87810385
0003f0 d8 d3 ab 3e 8b 0d 91 3f ba 4d 63 3f e6 66 c4 3d
       0.3356006 1.1332258 0.88790476 0.09589939

critic.0.bias f4 [32]
000000 16 e2 81 3e f0 17 99 be 93 c0 b2 3e ff d8 48 3e
       0.25367802 -0.29901075 0.34912547 0.19614027
000010 71 88 bf be 88 68 62 3e 0f 6e 65 be bd 3a 8a 3e
       -0.37408784 0.22110188 -0.22405265 0.2699794
000020 e7 d0 e6 be a3 70 d6 3e 9e 57 24 3e 47 af 40 3e
       -0.45081255 0.4188281 0.16049048 0.18816863
000030 8a 9f b0 be ba 89 48 3e 21 61 c3 be e3 5f bf 3e
       -0.3449672 0.19583789 -0.3816004 0.37377843
000040 ec 2b a8 be 2e 4b 65 bd 74 a9 a4 be 1f 21 c9 be
       -0.3284601 -0.0559799 -0.32160532 -0.39283082
000050 79 ba 19 be 67 5f 3f 3e ed 5c f8 be 86 e3 db be
       -0.1501254 0.18688737 -0.48508397 -0.42947024
000060 10 0c 44 3d 32 e2 8c 3e 12 b8 fa bd a4 dd 28 3e
       0.047863066 0.27516323 -0.1224214 0.16490799
000070 53 12 c2 be 5d 57 b1 bc d0 aa 61 3e 03 3d 52 3e
       -0.37904605 -0.021648103 0.22037816 0.20531087

critic.2.weight f4 [1, 32]
000000 67 ea 4e 3f fb c2 4a be 5b 64 c5 3e 54 30 64 3f
       0.8082642 -0.19800942 0.38553128 0.8913624
000010 ed 96 08 bf 65 78 53 3f 5e 1e a0 be 20 75 34 3e
       -0.53355294 0.8260558 -0.31273168 0.17622805
000020 3c cf 85 bf 3d 55 16 3f f3 2c 04 3e 3e d9 45 3e
       -1.0453868 0.58723813 0.12907772 0.19321153
000030 b5 70 a2 be 3d a0 af 3e 0a a4 82 bf 8e e3 83 3e
       -0.31726614 0.3430194 -1.0206311 0.25759548
000040 bc 8d 5b bf 24 44 48 be ba 09 21 bf 1a 54 12 bf
       -0.85763144 -0.19557244 -0.62905467 -0.5715958
000050 79 81 3e be 40 23 b5 3e 18 61 61 bf e7 aa 7f bf
       -0.18604077 0.35378456 -0.8803878 -0.9987015
000060 f7 26 9f 3d 49 7b 4e 3f 59 28 7f be 2c ea 88 3f
       0.07771104 0.8065687 -0.24917735 1.0696464
000070 69 f8 22 bf e3 be a1 3d a5 50 03 3f ed e1 e5 3e
       -0.63660294 0.07897737 0.5129493 0.4489893

memory_a.rnn.weight_ih_l0 f4 [256, 41]
000000 99 e2 6b 3d 43 11 8a 3d 26 3c f1 3e 8c cc b3 3d
       0.057589147 0.06741574 0.47116202 0.087792486
000010 38 4a 13 3e 79 ae 03 bd ba d1 20 bc 40 f4 ea 3c
       0.14383781 -0.032148812 -0.009815628 0.02868092
000020 b0 cc 49 bc 58 f4 51 bf ae 5c d7 3d 5f 36 d8 be
       -0.012316868 -0.82013464 0.10515724 -0.42228982
000030 56 86 68 3e 36 30 66 bf bb 6f aa be 54 9f d8 bd
       0.22707495 -0.89917314 -0.3328837 -0.105772644
000040 9c fd ec 3e 48 8f f8 3d 82 1c 76 bf 81 25 41 be
       0.4628724 0.12136704 -0.9613725 -0.18861963
000050 1e 6b 75 bf 9b 45 f9 be e2 cc 89 b9 9f aa 8f 3e
       -0.9586657 -0.48685917 -0.00026283326 0.2805986
000060 27 d5 71 3d 46 82 3c be 9c 7c bf be 75 fb 8f 3e
       0.05904117 -0.1840907 -0.37399757 0.28121534
000070 0b a9 bf be af cd 1b bd 16 e6 36 bc 3d b3 30 3d
       -0.37433657 -0.038037952 -0.011163255 0.043139685
000080 ef 93 cb bd 66 5d 48 3d 0f 3c 16 be 9e 6b cf 3d
       -0.099403255 0.048917197 -0.14671348 0.10127948
000090 5e 82 14 3e 38 31 8a be 50 9e 27 bf 95 1b 58 3e
       0.14502856 -0.26990676 -0.6547594 0.21104272
0000a0 85 20 65 3f 62 d1 83 3f 86 b9 c0 3e a5 41 f2 3e
       0.89502746 1.0298274 0.37641543 0.47315708
0000b0 89 2b a2 3f 4a 7a 9b 3e 2a ae c8 bd 09 f0 ce 3d
       1.2669536 0.30366737 -0.09798844 0.10104377
0000c0 80 69 f5 bb 70 8c bd 3d 2a fa 72 3c 4b 05 41 3e
       -0.007489383 0.09255302 0.014830152 0.18849675
0000d0 2e bc 99 bf 98 ac 89 3c 7d 67 e4 3d ef 83 4c 3f
       -1.2010553 0.016805932 0.11152551 0.79888815
0000e0 10 5f 22 bf 26 42 79 bf 19 80 67 be 57 ed aa 3d
       -0.63426304 -0.9736656 -0.22607459 0.0834605
0000f0 08 a9 1f be 19 bb ba bd 59 b9 b1 bd 1f 28 20 3f
       -0.15591824 -0.09117717 -0.086779304 0.6256122
000100 75 ce 07 3d 81 cc 6f 3f e1 d5 23 bf 44 48 21 bf
       0.033155877 0.93671423 -0.6399823 -0.63000894
000110 36 4e 4e 3e 55 78 8c 3e 8c ef c6 3d 70 64 0a 3e
       0.20147023 0.27435556 0.09713659 0.13514876
000120 94 24 a6 bd 0d dc f5 3e 21 74 f4 3d 32 86 d7 3e
       -0.081124455 0.48019448 0.11936212 0.4209457
000130 3f b8 86 be 43 93 8b bd c7 31 de be f7 82 59 3e
       -0.26312444 -0.06815197 -0.43397352 0.21241365
000140 3b cc 0c bd ff 50 2d 3f 2b b1 41 3e a4 04 7a 3f
       -0.034374457 0.67701715 0.1891524 0.9766333
000150 7f a7 27 3f fa 66 db be 65 ce c2 3d f7 48 b3 be
       0.65489954 -0.42852002 0.09512023 -0.35016605
000160 98 25 67 be ba 6b eb bd 88 64 d4 3d a6 7f 93 be
       -0.22572935 -0.114951566 0.10370737 -0.28808326
000170 55 e7 98 3e 8d 74 08 3e ce b4 00 3e 9d 0d 7e 3c
       0.29863992 0.1332571 0.12568972 0.015506175
000180 00 c7 df 3d 2d ce d2 be 14 27 08 be 18 27 e1 3d
       0.10926628 -0.41172925 -0.13296157 0.10993785
000190 4e 45 6c be be 00 0f 3e 55 58 8c 3e 03 51 18 bf
       -0.23073313 0.13965127 0.27411142 -0.59498614
0001a0 02 50 d5 3e 0d 81 6f 3c 1a 93 3b 3e 01 eb 07 3f
       0.41662604 0.01461817 0.18317834 0.5309296
0001b0 5a 01 4c bf f2 87 8c 3e cc 40 72 3e ab 43 0c be
       -0.7968956 0.27447468 0.2365753 -0.13697688
0001c0 67 90 a6 3e a2 26 cd be 13 f3 06 3e 66 6a 38 3e
       0.32532045 -0.40068537 0.13178663 0.18009338
0001d0 55 97 9e 3d 5f 17 2c 3e 90 d9 46 be ee aa c6 3e
       0.07743708 0.1680579 -0.19418931 0.38802284
0001e0 28 fb 06 3e 47 8d 82 3c 50 60 8b 3f 4c f4 ff bd
       0.13181746 0.015936507 1.0888767 -0.12497768
0001f0 e7 7f 5c 3e 8d 9e 2f be 8a d3 45 3e ed 10 0a 3f
       0.21533166 -0.17150326 0.19318977 0.53932077
000200 ae ba af 3c 48 96 25 3e a6 ca a6 bd b0 c7 db bc
       0.02145132 0.16170609 -0.08144121 -0.026828617
000210 30 8a fb be 31 50 5b 3f a6 b4 a8 be f2 5d 49 be
       -0.49128866 0.8566924 -0.32950324 -0.19664744
000220 32 ac c3 3e 11 57 b5 be a3 cc 7f bf 80 81 a6 3e
       0.38217312 -0.3541799 -0.99921626 0.32520676
000230 73 88 e2 be f0 62 d0 3d 7f 6c fa bd e3 d3 27 be
       -0.44244727 0.10175121 -0.12227725 -0.16389422
000240 b1 5d 04 be 44 47 74 be e3 a2 ba 3e c5 e8 16 be
       -0.12926365 -0.2385531 0.36452398 -0.14737232
000250 65 91 21 3f 9f 99 ce 3d 2b c1 0d bf 18 8d 0f 3e
       0.6311248 0.10087895 -0.55372876 0.14018667
000260 4e 98 5e be 76 34 ef 3d e9 dd a4 3e 7c 44 5f bf
       -0.21737787 0.11679928 0.32200554 -0.87213874
000270 8c 48 11 be 36 4a 88 be 7a 90 9d 3d 74 f9 e3 3d
       -0.1418783 -0.26619118 0.07693572 0.11131564
000280 96 9d 9e 3d fd 7e 8a 3e 87 98 21 3d 85 8a 70 3e
       0.07744901 0.2705001 0.039452102 0.23490341
000290 ff 7d ac 3d 03 51 4b 3f 5c ec 10 3f df 06 7b 3f
       0.08422469 0.7942049 0.56610656 0.9805736
0002a0 8b f8 34 3e 33 bb 9e be 88 56 5c be 14 6a 55 bd
       0.17672937 -0.31002197 -0.21517384 -0.052103117
0002b0 12 c5 ba bd 6e dc ff ba 56 2e 13 bf 24 9a 32 be
       -0.091196194 -0.0019520649 -0.5749258 -0.17441612
0002c0 e2 20 ba be 74 58 53 3d 6d 4c 89 be a7 84 f2 bf
       -0.36353213 0.051598027 -0.2681612 -1.8946732
0002d0 f9 64 f2 bd 64 12 3c be 46 99 7f bf 24 f3 d2 3e
       -0.11835665 -0.1836639 -0.9984325 0.41201127
0002e0 8a 8f 0d be bd 81 72 bf 96 ca 7f 3e 95 a4 c7 bd
       -0.13824287 -0.94729215 0.24979624 -0.097481884
0002f0 24 76 39 be e2 d1 43 bf 45 21 86 be 43 ad 5d 3f
       -0.18111473 -0.7649213 -0.26197258 0.865925
000300 67 c7 ae bf 61 90 50 bd 19 70 ee bd 72 d7 09 3c
       -1.3654603 -0.05091894 -0.11642475 0.008413183
000310 65 5d 03 bd 58 09 93 3e 91 20 30 3e e1 73 4b be
       -0.03207149 0.28718066 0.17199923 -0.19868423
000320 f1 ca d7 3d 9e 40 c6 3c b9 6e bb 3c 91 1a b4 3d
       0.10536755 0.024200734 0.022879945 0.0879413
000330 09 29 ff 3d 75 b2 97 3f c6 dd 81 be 74 ea 7f 3e
       0.12458999 1.1851336 -0.25364512 0.2499178
000340 c8 61 e5 3e 07 68 96 be 2f 92 e3 be 16 dc 31 3e
       0.44801164 -0.29376242 -0.44447467 0.17369112
000350 66 eb f2 3d 8e e9 db bd 8f 2e 41 3f f2 69 46 3d
       0.11861305 -0.107379064 0.7546167 0.04844088
000360 55 8b 73 be 90 a4 75 be 34 a3 9f 3c ee ca db bd
       -0.2378362 -0.23988557 0.019487001 -0.10732065
000370 de cf af be 8d d8 f1 be 06 ad 70 bd 5f fb b9 3d
       -0.34338278 -0.47235528 -0.058758758 0.09081148
000380 f0 fb 1e bf 0f 03 53 3e aa e7 b5 bc c2 21 55 3f
       -0.62103176 0.20606636 -0.022205193 0.83254635
000390 bd d4 05 be 00 cc 76 3c 24 b4 e0 bd e7 97 0b bf
       -0.13069434 0.015063286 -0.10971859 -0.5452866
0003a0 e5 0c 7f 3f c2 7c 6c be 67 1b 1a 3e a7 7b 26 be
       0.9962905 -0.23094466 0.15049516 -0.16258107
0003b0 b2 41 e0 3c f3 74 85 3b cc 4e 09 bd 51 c4 75 3e
       0.027375076 0.0040727793 -0.033522412 0.2400067
0003c0 1c a1 fa 3d c2 c4 77 3e f1 07 39 3e f3 eb 27 3e
       0.122377604 0.24196151 0.18069436 0.16398601
0003d0 cb e0 02 3f 43 82 9e 3e 17 aa 08 3e 18 23 c5 3f
       0.51124257 0.30958757 0.13346134 1.5401335
0003e0 d5 4b df be 5f a4 31 3f 08 a7 88 3e 9b f5 cf be
       -0.43612543 0.69391435 0.26689935 -0.4061707
0003f0 ac d8 5b 3e ea 3a de 3d 1e 52 b4 3d a8 b7 b2 bc
       0.21469373 0.10851081 0.08804725 -0.02181609

memory_a.rnn.weight_hh_l0 f4 [256, 64]
000000 44 72 77 be 60 5e 52 be 25 ab d0 bc 84 97 dd 3e
       -0.24164683 -0.20543814 -0.025472233 0.4327966
000010 c7 cd d3 bd ac c1 ae 3e 73 5e 2a 3e 61 41 35 3c
       -0.10341983 0.34132135 0.16637592 0.011062951
000020 a1 cb 01 3e d5 75 8d 3f 3f 4d 0c 3f 34 e5 13 be
       0.12675335 1.1051584 0.5480537 -0.14442903
000030 3e 5f 98 3e 26 c3 36 bf 07 4b 25 bf f2 b4 62 3e
       0.29760164 -0.7139152 -0.6456761 0.22139338
000040 ad a8 a5 be 01 24 46 3e 22 f4 64 3f c2 0d 8f be
       -0.32355252 0.19349672 0.8943502 -0.27940184
000050 b0 ee 38 3f a7 c8 ca 3e ad a4 44 3e b9 1d 0a 3c
       0.7223921 0.3960621 0.19203444 0.008429938
000060 84 a7 47 3f 9b 6e a9 3e be 99 38 bf a2 ab 84 3e
       0.77989984 0.33092198 -0.7210959 0.25912195
000070 c8 6a 79 be 6e e4 40 3f 05 e6 24 3f 7c ae 1c bf
       -0.2435714 0.75348556 0.6441348 -0.6120374
000080 6f 7f fb 3e 94 c8 10 3f fe ed 55 3e 12 e2 45 3e
       0.49120662 0.5655606 0.20891568 0.1932452
000090 1c 46 4a bf 05 fa 8d be 2b 4e 17 bf 7a e8 0a 3d
       -0.7901323 -0.27729812 -0.5910365 0.033913113
0000a0 90 3d 6e be eb d2 66 3e 44 5e 0f 3d 91 cd 89 3e
       -0.23265672 0.22541396 0.035002008 0.26914647
0000b0 4f 9b f5 be 7f 41 ae 3b 56 94 1f 3f 2b c7 53 be
       -0.47970054 0.0053178663 0.6233572 -0.20681445
0000c0 17 ea 33 bf c6 96 07 be 77 7f 4c 3f fe 51 8a 3d
       -0.7027907 -0.13241109 0.79881996 0.0675392
0000d0 42 c4 d0 3e ee 3f ae 3e ef 70 c6 3e 38 0b 69 be
       0.40774733 0.3403315 0.38758036 -0.22758186
0000e0 5e 6d 00 3f d7 88 a3 3e 70 b7 90 3e 87 5f de 3e
       0.5016688 0.31940338 0.28264952 0.43432257
0000f0 17 c6 1d 3f 18 c8 06 3f 19 1c 77 be 4a e6 1d bf
       0.61630386 0.5264907 -0.24131812 -0.6167952
000100 67 5b 3d bf 57 80 0b 3e a3 e7 0e 3f 74 c4 4f 3e
       -0.73967594 0.13623177 0.558222 0.20289785
000110 3f df 1f bf 77 17 e1 3e f0 9a 43 3e 27 dd 86 be
       -0.6245002 0.43963215 0.19102073 -0.263406
000120 87 b6 32 3e 70 16 86 3d 05 15 00 3f b1 ab b1 bc
       0.17452441 0.06547248 0.50032073 -0.021688314
000130 37 0e 86 3f 92 3f 74 be 21 4e f1 bd a8 b5 5d 3d
       1.0473088 -0.23852375 -0.1178248 0.05412832
000140 47 d0 a1 be f6 8d 55 bd 26 4f a5 be 9b 4a 2e bf
       -0.31604216 -0.052137338 -0.32286948 -0.6808259
000150 75 fc e2 3e 5d ea 86 be bf af 99 3f 67 84 98 be
       0.44333234 -0.2635068 1.2006758 -0.29788515
000160 ee b2 1f be 71 37 8c bd 4f c5 d2 be d9 2e 4b 3e
       -0.155956 -0.06846512 -0.4116616 0.1984209
000170 00 d7 cd be 95 db 12 3f 57 28 ba be e5 6e 36 be
       -0.40203094 0.57366306 -0.36358902 -0.1781574
000180 bb 34 75 3e 83 dc 22 bd 4c 8b db bd 83 c9 e8 bd
       0.23945896 -0.039761078 -0.10719928 -0.1136656
000190 50 09 11 be 47 aa a1 3e 69 82 25 bf 17 72 82 3f
       -0.14163709 0.31575224 -0.64652115 1.0191067
0001a0 c2 2b 55 3e 6a ce c8 3e 35 56 4d 3f b0 34 49 bd
       0.20817474 0.3921998 0.80209666 -0.049122512
0001b0 63 71 c0 be e0 c9 47 3e 74 d8 87 be c1 55 47 3f
       -0.37586507 0.19510603 -0.26532328 0.77865225
0001c0 90 e7 23 be 54 e6 73 3e 2a b3 01 3f e9 75 4c 3f
       -0.16006303 0.23818332 0.5066401 0.79867417
0001d0 5d 47 06 3f 1c e8 51 be ee 51 a1 3e ee d5 7b 3f
       0.5245264 -0.20498699 0.3150782 0.98373306
0001e0 0e c5 1e bf e1 fc cd be 86 61 1c be 87 af 0f be
       -0.6201943 -0.40231994 -0.15271577 -0.14031802
0001f0 84 45 a0 3d 23 8e 18 bf ac 3c 06 be d8 27 ad 3e
       0.07825759 -0.59591883 -0.13109082 0.3381946
000200 21 5c ec be d7 4a 05 bf 3e 85 ca 3d 5f 0e a9 3e
       -0.4616404 -0.5206732 0.09888695 0.33018777
000210 a5 8f 56 bd cf f6 b6 bc 8b 03 f3 bd 20 86 90 be
       -0.052383084 -0.022334484 -0.1186591 -0.2822733
000220 06 22 82 bf 37 3b 31 3d a0 ae 02 bd 37 08 08 3f
       -1.0166633 0.043269362 -0.031904817 0.53137535
000230 5f 6a 66 be 9f 67 43 bf f2 48 2b 3e c7 19 a2 be
       -0.22501515 -0.7632999 0.16727045 -0.31660292
000240 9f d5 e8 3d 02 ef 03 be 29 94 48 3e fb 54 0e bf
       0.1136887 -0.12884143 0.19587769 -0.5559842
000250 f7 86 0c 3e 23 da e3 3d e8 5f e4 3e 4d 27 9a 3f
       0.1372336 0.11125591 0.4460442 1.2043244
000260 a7 f9 67 3e f1 79 13 bf 06 22 22 3f fe 59 11 3f
       0.22653829 -0.5760794 0.63333166 0.5677794
000270 c4 48 05 3e 10 57 15 3f 41 c2 a8 be 22 22 cf be
       0.13016039 0.5833597 -0.32960704 -0.4045573
000280 08 d5 53 bf c5 5a 88 3e 12 c7 81 bf d7 16 a8 3e
       -0.82746935 0.26631752 -1.0138876 0.32829925
000290 8a 9c b2 3e 9d 56 9b 3e ea a8 51 bf 19 c4 19 bf
       0.34885055 0.30339518 -0.8189837 -0.60064846
0002a0 cf 02 f6 3e 48 7e 95 bd 5e e4 19 bf 4a 8e a1 bd
       0.48049018 -0.07299477 -0.60114086 -0.078884676
0002b0 4b 79 be be 9c 77 1a 3e 5b c9 48 be 07 34 72 3e
       -0.37201914 0.1508469 -0.19608061 0.2365266
0002c0 c5 02 e3 3e f6 75 f7 be 06 e2 40 bd 36 ea 1c bf
       0.4433805 -0.48332185 -0.047090553 -0.6129488
0002d0 73 71 2a 3e 3f 62 35 bf 50 31 e6 bd c0 81 33 bf
       0.1664484 -0.70853037 -0.11239874 -0.7011986
0002e0 b2 61 7f be 09 52 8c be f9 1a b6 be 3f da 0d 3f
       -0.24939612 -0.27406338 -0.35567454 0.5541114
0002f0 74 0c 58 3e 4f 4c a7 bc 89 0a 04 bf 6d cd 2c bd
       0.210985 -0.020422129 -0.51578575 -0.042188097
000300 8f 2a bb be 33 33 44 be 36 a1 b3 3e ea e5 58 be
       -0.36555907 -0.19160156 0.35083932 -0.21181455
000310 c5 a6 e2 3e 78 d8 25 3e 63 74 99 3b 0b c0 cb bd
       0.4426786 0.16195858 0.004683064 -0.09948739
000320 08 2b 03 3e 8a 09 96 3e 7f ab 88 3f 0f 30 3d bf
       0.12809384 0.29304153 1.0677336 -0.73901457
000330 ed a8 7c 3f b6 38 10 3e ee 09 49 3f 1b de c4 be
       0.9869526 0.14084134 0.78530777 -0.38450703
000340 b7 1a 39 3f fb 35 ee 3e bb e6 56 3f 30 a3 83 be
       0.7230639 0.4652556 0.83945817 -0.2571044
000350 77 33 c9 3e 8c ac 80 bf 34 2c a2 3e 99 c2 53 be
       0.39297077 -1.0052657 0.3167435 -0.20679702
000360 73 8b e0 be ba 58 5b bf 3e 37 10 bf 6d b3 30 3f
       -0.4385639 -0.8568226 -0.5633429 0.6902378
000370 d2 da c7 3e 7e ff ce be c7 b8 16 3f 11 73 bd 3e
       0.39034134 -0.404293 0.588757 0.3700185
000380 02 8f f3 be 1c fb 9d 3e 5c a2 1b be cc b7 95 3e
       -0.47570044 0.30855644 -0.15198654 0.29241788
000390 67 bf 29 3e 4d 70 e5 3e b2 8f 1d bc 82 7f 90 3e
       0.1657692 0.4481224 -0.009616779 0.2822228
0003a0 e0 1f ed 3d 68 22 97 be aa 8c 68 bf 27 55 ef 3e
       0.11578345 -0.29518437 -0.90839636 0.46744654
0003b0 16 f5 ba 39 9d fd f9 3e 99 b5 a6 be 97 5d 15 3f
       0.00035659288 0.48826304 -0.32560423 0.5834593
0003c0 8a 3f c2 3e dc bc 41 3e 60 f0 33 3f 75 32 43 3e
       0.379391 0.189197 0.7028866 0.19062217
0003d0 47 7b 84 3f ec df c9 3e 8e db 86 3f 59 61 76 be
       1.0350121 0.3942865 1.0535753 -0.24060573
0003e0 6a 96 2f 3e d5 a7 f2 3e 89 ff 0f 3d 05 2d 64 3c
       0.17147222 0.4739367 0.035155807 0.013926749
0003f0 d0 b5 cb 3e 88 c3 01 3f e3 f3 b3 bd 22 03 2b bf
       0.3978715 0.5068898 -0.08786752 -0.66801655

memory_a.rnn.bias_ih_l0 f4 [256]
000000 73 ae 06 be cf 26 1f 3e ed 83 c4 be 28 b5 7f 3c
       -0.13152485 0.15542148 -0.383819 0.015607156
000010 b2 6b cb bd 36 37 84 3e 11 62 4f 3e f1 f9 58 3d
       -0.099326506 0.25823373 0.20252253 0.052972738
000020 04 48 94 bd b8 60 0b 3e 5a 59 34 3c a9 c4 75 be
       -0.072402984 0.13611114 0.011007631 -0.24000801
000030 89 ed c3 3c 4a d3 d7 3d 53 e4 71 bd f5 8c f1 bd
       0.023916977 0.10538347 -0.059055638 -0.117944635
000040 4b 4a 66 bc 9c 45 58 be 14 be c5 bc 1f f5 00 be
       -0.014055799 -0.21120304 -0.024138488 -0.12593506
000050 bf 05 a3 3c 9a e2 84 be e6 8d c2 bd d0 bc 14 3d
       0.0199002 -0.25954133 -0.09499721 0.036312878
000060 35 c9 8d be 13 38 5f 3e 16 ba 9e be 4b d8 e1 bd
       -0.2769257 0.21798734 -0.31001347 -0.11027583
000070 a6 5c a4 be 05 ba 5b 3d b1 bd 9c be d6 30 a5 be
       -0.32101935 0.0536442 -0.30613473 -0.3226382
000080 05 e5 e4 bd 72 4b b5 bc 64 77 82 be 91 b5 ae 3e
       -0.111764945 -0.022130702 -0.25481713 0.341229
000090 e2 83 5e be 91 8a ba 3d ca eb 23 be 16 07 80 be
       -0.21729997 0.09108461 -0.16007915 -0.25005406
0000a0 b0 5c 13 3e 1f 40 95 be 55 6f bb be 6c 13 09 be
       0.14390826 -0.29150483 -0.36608377 -0.13386315
0000b0 b6 21 3d 3d 53 08 6e 3d d3 69 40 bd 13 9d 16 3e
       0.046174727 0.058113407 -0.04697592 0.14708357
0000c0 22 ef 9b 3c 63 34 0b be 07 bb d7 3d 6e c8 2d 3e
       0.019034926 -0.13594203 0.105337195 0.16970989
0000d0 57 9e 59 be 98 87 57 3d e6 d8 2e 3e 33 73 40 3c
       -0.21251808 0.052619547 0.17074928 0.011746216
0000e0 34 50 34 3e eb ea 4d be 3b 89 88 3d 37 6d 08 be
       0.1760872 -0.20109145 0.066668 -0.13322912
0000f0 ec 65 b5 bd ef 99 95 be 31 1f 9f 3b 54 8e c0 3e
       -0.08857331 -0.29219005 0.004856013 0.37608588
000100 5c 18 f2 bd 5b d9 a6 be 9e 3d dc 3d 8c ef 86 bd
       -0.118210524 -0.32587704 0.1075394 -0.06588659
000110 cf 9f 38 3d f6 24 69 3d 8c ee 79 be fd 01 24 be
       0.04507428 0.056920014 -0.24407405 -0.16016383
000120 34 4b 58 be 18 38 a3 3b d3 09 1a 3d 81 7d 14 be
       -0.21122438 0.004981052 0.037607025 -0.14501001
000130 45 c1 a0 bd 1f 91 9d bd 6e d3 9b bd 72 7c fe bd
       -0.07849363 -0.07693695 -0.076086864 -0.1242608
000140 8a ca 03 3e eb dd 65 bd 26 de fb bc e7 39 9c 3e
       0.12870231 -0.05611984 -0.030745577 0.30512926
000150 3f 65 89 be 26 24 b7 bd 91 1e 8f bd 0f 3b 9c bd
       -0.26835057 -0.08942442 -0.06988252 -0.07628452
000160 96 2b 13 3b 1e 10 92 bc ec b6 2a 3c c3 f7 e9 bd
       0.00224564 -0.01782995 0.010419589 -0.1142421
000170 4b 92 df 3d 26 0e be bc ea a1 61 be 3a 63 51 bd
       0.10916575 -0.023200106 -0.22034422 -0.05112002
000180 53 a1 a1 3d 61 d5 28 3d 13 89 07 be 4f 07 90 bd
       0.07892098 0.04121912 -0.13235883 -0.07032644
000190 d6 0d cf bd 31 99 b6 3d c3 dd 5d 3d 88 3a 23 3b
       -0.10110061 0.08915938 0.054166567 0.0024906714
0001a0 9b 78 9f bb 06 5c 29 3e 02 59 33 bd c7 be cb bd
       -0.004866672 0.1653901 -0.043786056 -0.09948497
0001b0 21 fe 23 be e9 9a b6 be 82 10 82 be 47 7d 02 bf
       -0.16014911 -0.35665062 -0.2540322 -0.5097241
0001c0 a5 b1 a0 be 20 ef c4 3c 1d d4 be bd a6 ba 12 3d
       -0.31385532 0.024039805 -0.09317801 0.035822533
0001d0 a7 f9 af bd d1 29 3a be 94 4c d0 3c 9a e0 7c be
       -0.08592539 -0.18180014 0.02542714 -0.24695054
0001e0 ce b9 80 be 60 d7 9d 3d 9f 6b 72 be 9e 8f 8d be
       -0.25141758 0.07707095 -0.23673867 -0.27648634
0001f0 67 c4 e3 bc 8e 7a 0f bd f9 2b 06 3e 72 9d fa bd
       -0.027803613 -0.035028987 0.13102712 -0.122370616
000200 03 21 f4 bd b4 8c ad be c0 81 64 bd 62 38 d5 3d
       -0.11920359 -0.3389641 -0.0557878 0.10411145
000210 3c c9 e7 bd e8 76 50 3e ee 55 45 bd 70 01 cb 3d
       -0.11317679 0.20357859 -0.048177652 0.099123836
000220 69 6a d8 bd 12 8f 36 bc 5e b4 2a be f2 97 34 3e
       -0.10567171 -0.011142509 -0.16670367 0.17636088
000230 f7 72 f3 be 83 7b 7c bd 48 47 9b be 32 7a 4b be
       -0.4754865 -0.061641227 -0.3032782 -0.19870833
000240 20 27 c5 bd 0f 68 88 bd e0 91 98 bd 3f e5 0b be
       -0.09626603 -0.066604726 -0.074496984 -0.13661669
000250 71 39 bc 3b d4 3a b9 bc d9 89 3b 3d 44 d2 59 bd
       0.0057441522 -0.02261106 0.04578576 -0.05317904
000260 c0 b8 06 3e 73 85 00 3d 57 93 dc 3d 56 22 10 be
       0.13156414 0.031377267 0.1077029 -0.14075598
000270 7e 6f 2a 3e a5 43 0b be 2f 09 52 bd e8 7f 78 bd
       0.16644093 -0.13600023 -0.05127829 -0.060668856
000280 1b 37 d5 3d 38 eb 56 be 5c bf 38 3e 36 7c cb 3d
       0.10410901 -0.20988166 0.18041748 0.09935801
000290 13 39 23 3e 81 d9 6b 3c 38 17 36 bd 53 08 79 3c
       0.15939741 0.014395119 -0.044455737 0.015199739
0002a0 04 3a 4a 3c 54 34 2b be 74 c2 bc 3c 79 55 2e be
       0.012342934 -0.1671918 0.023041941 -0.17024793
0002b0 8e 60 09 be 6b 77 a8 bd bd 14 1d be 1f c6 22 3e
       -0.13415739 -0.08225902 -0.15339942 0.1589589
0002c0 2f aa e0 bc 95 86 82 3b 46 18 f1 bc a5 a5 d3 3d
       -0.0274249 0.0039833286 -0.02943052 0.103343286
0002d0 6f cd 8d 3d 7e 5b b2 bd 40 ef 16 3d 0e a9 a7 bd
       0.06923949 -0.08708857 0.03684926 -0.081865415
0002e0 c1 c6 8c bd 40 8c 11 3e 61 74 50 3e ae 6c 83 bd
       -0.06873847 0.14213657 0.20356895 -0.064172134
0002f0 12 75 09 be ec fa 96 3b 3b 0f 67 bd 7e 4b 25 3d
       -0.13423565 0.004607549 -0.05641101 0.040355198
000300 9c b9 34 bd 04 d6 53 be 45 5b 78 be bd 63 85 be
       -0.044122323 -0.20687109 -0.24253567 -0.26052657
000310 74 6e 03 bd 23 82 64 3e 5c 03 20 be 0c 69 ae bb
       -0.03208776 0.22315268 -0.15626281 -0.005322581
000320 9c 70 59 3e 56 5d c1 bc 9a a7 21 3e 43 11 b0 be
       0.21234363 -0.023604076 0.15786591 -0.3438817
000330 c2 b6 63 3e f9 e7 82 3e f6 f7 ac bd 65 70 a9 3d
       0.22237685 0.25567606 -0.08445732 0.08273391
000340 0d 9b 2d be f1 3d 52 be d0 7e 31 be b0 7d 00 be
       -0.16953678 -0.20531441 -0.17333531 -0.12547946
000350 f2 38 b8 3d c7 d4 3c be a2 9a 04 be 7e 53 51 bd
       0.089952365 -0.18440543 -0.12949613 -0.051105015
000360 25 fb b5 bd 83 48 43 3d 22 a9 e1 bd 64 fe a0 be
       -0.08885793 0.047676574 -0.11018588 -0.31444085
000370 40 0d 29 be 39 14 32 3e 3a 01 5d bd 73 ca a4 be
       -0.1650896 0.17390527 -0.053956248 -0.32185706
000380 61 8d 7f be f1 b6 f2 bb 9a 89 c0 bd 95 42 09 3e
       -0.24956276 -0.007407062 -0.094012454 0.13404305
000390 1b b2 e2 bc 28 7c b7 3d 11 2f bd 3d 24 5f 0d be
       -0.027672818 0.08959228 0.09237493 -0.13805825
0003a0 d6 5a ae 3d 4b e2 40 bd 96 d0 80 be af 7d 22 bd
       0.08513419 -0.04709081 -0.25159138 -0.039670642
0003b0 b7 61 3d 3e 6e 13 f4 bd 22 b2 01 3e 66 93 73 3e
       0.18494307 -0.119177684 0.12665609 0.23786697
0003c0 23 b5 4e bd 41 78 98 3d f2 51 b1 3e 2d 2b dd 3d
       -0.050465714 0.074448116 0.34632832 0.10799251
0003d0 a0 ff cb bd 1b 61 58 bd 7b e9 58 bd 84 1e 16 3e
       -0.09960866 -0.052826982 -0.05295704 0.14660078
0003e0 40 99 96 3e 32 a1 f9 bc 77 26 0e be 3c 28 81 be
       0.29413795 -0.030472372 -0.1388186 -0.2522601
0003f0 93 20 7f bd 21 fa bc bc 34 38 24 bd 61 ac b5 3d
       -0.062286925 -0.02306849 -0.040092662 0.08870769
