logs/h1/h1_torque_decap/model_400.pt (torch, 739872 bytes, 48 tensors)

std f4 [10]
00000000: 5d2f 8c3f a780 9f3f 1fe3 913f d2ba 893f
00000010: e953 543f 5350 873f 5428 a83f d0d3 933f
00000020: 8db3 893f de75 543f
1.0951954 1.2461137 1.1397437 1.0760138 0.82940537 1.0571388 1.3137307 1.1549015
1.075792 0.8299235

actor.0.weight f4 [32, 64]
00000000: e1e8 b43d fbe7 09be 0bac 473e e996 b6bd
00000010: e110 a6be fc65 333e 78fe 79be 4a1f 84bd
00000020: e7c3 a33d d68c 923e f11f c2bc 0d42 8e3e
00000030: cd49 9b3e 0f23 383c 0c3e cd3e 5b59 233e
00000040: 4d74 37be 0a32 a7be 7d25 99bd ff84 d6bb
00000050: 0c4d 85be b15e 19be 3009 b53e 526a 873e
00000060: 9590 8abe 7f9d 8d3e 8bee dabe d108 96bb
00000070: 4c76 cebc cfaa bd3e 4d0d 1fbe cb16 95be
00000080: fb85 613b 4523 2fbc 7d4c 7b3e af27 8c3e
00000090: 98ca 88be 309b 263e d031 8bbc e88c 333f
000000a0: b25f 94be 628d d2bd 287e 933e fca0 6c3e
000000b0: 2755 30bf 851e 25be 2fbf d93d cad3 14bd
000000c0: c5b5 863d 4e11 9abc 74f7 f2be af2f cabe
000000d0: 85a9 343e a912 563d 246a 9b3e 0ae6 67be
000000e0: a37d 4c3e 57d0 823e ed58 c6be 6659 7cbe
000000f0: 52cb 273b 3813 0fbd e111 d7bc 38e7 55be
00000100: 63a1 45be dcc7 debd 2600 54bf 0652 7e3c
00000110: 0335 ecbd bd47 233f 3055 913e 1d9f c7be
00000120: 91dd 983d a214 acbd dc67 17bf de9f 903e
00000130: 7c56 4cbe ecb8 fabe 85ed 0c3e 4330 04be
00000140: 63eb 8e3e 93e1 dc3c df8c d33c 86de 5ebd
00000150: 2a9f 68be 4acf 213f 8ab5 393e b5de c6be
00000160: 2ff3 f13d 33b4 f53d ed0f 5dbd e788 483c
00000170: b6fb 163e 6181 64bd d391 95be f29c 993d
00000180: fa72 6f3d 3a13 16be 5781 6a3e d419 743f
00000190: 4bad a9bd 9073 8a3e 709a a4be 8e8d 013e
000001a0: 5c64 443e 06b7 863e f829 c23e e44f dbbd
000001b0: 350b 06bd f1f2 b83d 5893 2dbf 56c6 e73e
000001c0: 972c 993c a7e6 9dbe e078 32bf 7d70 a03d
000001d0: e583 a73d f0f3 59be 17fb 893d 8b22 2a3e
000001e0: 9d8e 0cbe 40cd 43be 2505 5c3e 4fab f13d
000001f0: 6d05 db3d 96f4 023f 28f6 563d adb9 9fbd
00000200: 3430 d6be 0f85 0abe 7ab0 113e eed0 8bbe
00000210: fa92 61be 1094 3bbb 6b29 a4bd f48e dd3e
00000220: 4ffb a23e 1d21 583f eb59 febd cf81 d43e
00000230: 1ca3 b83c 2e1d c33e 4323 e43d 0ae7 cfbe
00000240: a9f1 60be d33d be3e 365a 51bc 0668 193e
00000250: b7e5 013d 2258 f8bd e24d b9be 1154 74bd
00000260: 88b7 c7bd fa69 4d3f f42b b9bd 2716 323d
00000270: 6405 5cbd 8f8c 6bbd d02f 223d 0803 fabe
00000280: 35f0 65bf bd01 b03d 941e 9c3d 24d4 433f
00000290: af8a 33bd 1322 00bf 4d46 2a3e 61ca 163f
000002a0: c1bc 42bf 2ff2 41bd db81 303f 05d7 f03d
000002b0: f897 3cbd b9f5 09be 6aea 72bb 6836 eebe
000002c0: 3faf 633e 158b 16bf 6211 f5be 6890 87be
000002d0: 2f5f 6ebd 2b3f a23d a153 523e 5450 0fbc
000002e0: 1fd7 f63e 679f 8dbe 38d4 56be cb0b 903e
000002f0: 4340 8cbe 3aab f83e cbeb 7bbe ad51 4bbe
00000300: b8ae e13e b48d 013e 2891 95bd 5772 cbbc
00000310: f841 db3d c4fa 9a3e 310e efbd 162a a23d
00000320: d855 28be 4f0c 5fbe 30be 6a3e 7ce0 7bbe
00000330: 98cb 18be 6a51 4bbd 2e16 94bc 1bc9 803d
00000340: cde6 283e 37eb b9bd a099 8b3e c1bb 7a3d
00000350: a071 aebd 4df6 653d 0c42 4a3e b39c 223e
00000360: b99b 30be 6f70 77bd 36f4 a4be 70a9 a53d
00000370: 7364 633d 538a fdbc 3c54 8b3e f817 a7be
00000380: 878a b53e 9f8e b33b f72f acbe 19e9 8b3e
00000390: d5d9 8cbd 4fe9 853e c744 723e 1c1c 18bf
000003a0: ed7a 65bb c528 7a3d d60f 24bf 20ad f4bc
000003b0: 93f0 0ebf f9f3 823e 8a44 b6bd 1dc3 103f
000003c0: 512b 693e ff07 e6be c1b9 bf3e df94 d13e
000003d0: ad62 f23d a36e 3ebe b322 26be f3cf 393e
000003e0: c7d9 8b3e 1dd7 21be 2b8b 9abe 4185 04be
000003f0: 74a0 d73e d69d 29be cb03 ec3d 7082 883e
0.088334806 -0.134674 0.19499223 -0.089155026 -0.32434753 0.17519373 -0.24413478 -0.064512804
0.0799635 0.28623074 -0.023696871 0.27784768 0.30329743 0.011238827 0.400864 0.15952055
-0.17915459 -0.32655364 -0.074778534 -0.006546616 -0.26035345 -0.14977528 0.35358572 0.26448303
-0.27063432 0.27659222 -0.4276012 -0.0045786877 -0.025202893 0.3704438 -0.15532418 -0.29118952
0.0034412134 -0.010689561 0.24540897 0.27374026 -0.26717067 0.16270137 -0.016991526 0.7013688
-0.2897926 -0.10280873 0.28807187 0.23108286 -0.6887993 -0.16124924 0.106321685 -0.03633479
0.065776385 -0.01880708 -0.47454417 -0.39489505 0.17642792 0.05226389 0.30354416 -0.22646347
0.19969802 0.25549576 -0.3873972 -0.24643478 0.0025603366 -0.034930438 -0.026253643 -0.20888984
-0.19299845 -0.10877964 -0.82812726 0.015522486 -0.11533549 0.6378134 0.28385305 -0.3898858
0.074641354 -0.08402373 -0.5914285 0.2824697 -0.19954866 -0.4896921 0.13762482 -0.12909035
0.2791396 0.02696303 0.025824009 -0.054411434 -0.22716966 0.63206923 0.18135658 -0.38841787
0.11813962 0.11997261 -0.053970266 0.012239671 0.14744458 -0.055787448 -0.29212818 0.07500638
0.05845926 -0.14655772 0.22900902 0.9535191 -0.08285006 0.27041292 -0.32149076 0.12651655
0.19178909 0.2631151 0.37922645 -0.10708597 -0.03272553 0.090307124 -0.67802954 0.45268506
0.01869802 -0.30840036 -0.6971569 0.078339554 0.08179454 -0.21284461 0.06737345 0.1661474
-0.13726278 -0.19121265 0.21486337 0.11800253 0.10694394 0.5115446 0.052480847 -0.07799087
-0.4183365 -0.1352732 0.14227477 -0.27307838 -0.22028723 -0.0028622188 -0.08015712 0.43273127
0.31832358 0.84425527 -0.12419494 0.41505286 0.022538714 0.381082 0.11139538 -0.40605956
-0.21967186 0.37156543 -0.012777856 0.14981088 0.031713214 -0.12126185 -0.36192232 -0.059650484
-0.09751803 0.8023983 -0.090415865 0.043478157 -0.05371608 -0.057507094 0.03959638 -0.48830438
-0.8981965 0.085940816 0.0762302 0.76495576 -0.04383343 -0.50051993 0.1662838 0.58902556
-0.76069266 -0.047350105 0.68948144 0.11759762 -0.046043366 -0.13472642 -0.0037065991 -0.46525884
0.2223482 -0.5880597 -0.47864825 -0.2647736 -0.058196243 0.079222046 0.20539714 -0.008747179
0.48211 -0.27660677 -0.20979393 0.28133997 -0.27392778 0.48568135 -0.24601667 -0.19855376
0.44078612 0.12651712 -0.07303077 -0.024834795 0.10705942 0.30269444 -0.11672629 0.079181835
-0.16438997 -0.21782039 0.22924113 -0.24597353 -0.14921415 -0.04963819 -0.018076982 0.06288358
0.16494294 -0.09078067 0.27265644 0.061214212 -0.08517766 0.056143094 0.19751757 0.15880089
-0.17246903 -0.06040996 -0.32217568 0.08088958 0.055515718 -0.030949747 0.27212703 -0.32635474
0.3545725 0.0054796482 -0.33630344 0.27326277 -0.06877486 0.26154563 0.23659049 -0.5941789
-0.0035015896 0.061074037 -0.64086664 -0.029867709 -0.5583584 0.2557676 -0.088997915 0.5654772
0.2277043 -0.44927976 0.37446406 0.40933892 0.11835227 -0.18596892 -0.16224174 0.18145733
0.27314588 -0.15804715 -0.30184302 -0.12941457 0.42114604 -0.16564116 0.11524161 0.26662016

actor.0.bias f4 [32]
00000000: d9f8 ddbd 434b 1bbe ab0a 66be 6008 8b3e
00000010: dd08 b8bd 8860 6a3e 338a a73e 3ce6 bbbe
00000020: 4a8e 0c3d e221 173e 1dcb c8be 1933 763d
00000030: 32ad 993e 1ddc 1abe 484c 3ebe 204f 3f3e
00000040: fba4 d5bd baed 963d ee8a afbe a0dc 81be
00000050: 43ce 4e3e 9658 97bc 97c5 f23d ed6c 9fbd
00000060: 0675 32be 3e03 613d 927a 903e 8d57 3fbe
00000070: e795 4cbd f310 9b3e a2c8 47be b3cc be3e
-0.108384795 -0.15165429 -0.22465007 0.27154827 -0.089860655 0.22888386 0.32722625 -0.36699092
0.034315385 0.14759019 -0.39217463 0.060107324 0.3001495 -0.15123029 -0.18583786 0.18682528
-0.10431858 0.073695615 -0.34285682 -0.25363636 0.2019587 -0.018474858 0.118540935 -0.07784448
-0.17427453 0.054934733 0.28218514 -0.18685742 -0.049947646 0.3028637 -0.19510129 0.37265548

actor.2.weight f4 [10, 32]
00000000: 181c 393f 0940 153d 78b6 873e ce39 52bd
00000010: c5ab 583e f3a6 d13e 286f fdbe 3317 a03e
00000020: cc75 74bd 3e46 f6bc c7a4 403e 271a af3e
00000030: 420c efbe 9259 063e b573 013e 4710 08be
00000040: 9648 0ebe 4bb4 9ebe eef0 493e e838 50be
00000050: 9a5f 52be 59ce f73e 0a04 893d 83d7 cc3e
00000060: 89eb 823e f4bd 163d c25b b3be 84bf fa3d
00000070: 7d1a 5abd c38a 12bf 05f9 d13e 65d7 0f3e
00000080: a647 86be 2402 f13e 5f5d 01bd ef31 3bbe
00000090: d0aa 2c3e fd3e 4c3e 107e ecbe 2b8e 143f
000000a0: aee4 ac3d 64e2 93bd 59ed 6a3f f089 283e
000000b0: 5b44 983e 8845 4b3e 8a25 083f 9fee 2b3f
000000c0: e1ed 123f 8e53 fa3d 37cb 7bbd 21d2 b4be
000000d0: 91be 71be f62b 2b3f 0d83 133f af32 63be
000000e0: 4047 1d3f 4f75 f03d d70b 183e 129b 3d3e
000000f0: 6aff 3abe a939 103f 6003 c7bd d3c2 62be
00000100: 2a2e 94be e302 c2be ac37 35bf f507 2b3e
00000110: ba7c 653e 41b4 bcbe 34d7 79be bd95 3e3e
00000120: bed4 b9be 8602 d0be 2ed5 113f cec5 eb3e
00000130: b071 b7be 1df1 03bf 7bfa f33e 8961 b8bd
00000140: 529a 0abc b0c3 79be 8166 613e aad8 f73e
00000150: 1e3e 143f 8b86 4bbe 750b 053f c08f 96be
00000160: aa4b cfbd 2b0e 193f 6602 8e3e 8c87 153f
00000170: cc49 bd3e 8557 27be f45c 6d3e 513c 93be
00000180: 0791 8fbe 6251 8e3e 5e01 433f 997d 0cbf
00000190: b975 a03e 74f4 98be bc34 8bbe 0af5 473f
000001a0: 776d 193d 459c 49bf 0b1e 1a3f 4e7d 19bf
000001b0: 8108 b2be 5b90 fa3e 42c5 a23e 6a13 373e
000001c0: 8e13 f93e ac9e dabd 0a29 dc3e 45a7 263f
000001d0: 6164 0cbf 711f 4bbd abc9 b4be d13a e13d
000001e0: 9d1d 53bc 795b 82bd 70e1 7bbf 065a 67be
000001f0: da0b b33e 8a17 f9be 9ed2 77be 36e2 01bf
00000200: 70db 233e 014b 0cbe 5d51 5ebe d851 f63e
00000210: d324 64be 72b4 ca3d ae01 a0be 52ad 0fbe
00000220: 3133 d7bd 6479 03be 4399 443e 70f0 62be
00000230: 86e4 c1bd 05f8 853e 898d 99be 7914 be3e
00000240: fe4a 20be 3817 623e 5c30 0bbf 7b51 5dbd
00000250: 5b93 003f 570b 8b3c eb1b 9bbe 9875 60bb
00000260: 8d01 393b 7be9 493e 508c 7cbe 4e20 3e3d
00000270: 0069 ce3e b860 9f3e 5b77 2cbe e4e4 e0bd
00000280: 4529 75be c687 783c 7f04 9bbe 080e 463e
00000290: 1ee7 563e 071d debd e3b4 a73e faa4 bf3e
000002a0: 5529 3f3e 8b8b 52bb 682f 543e 28ce 383d
000002b0: e669 d2be 1904 163e b17f e3be b9e7 96be
000002c0: d576 08bf b85c 2b3f 2be0 b93e 2076 153e
000002d0: 2670 24bd 02d6 093f 72ca 8fbe fc83 09bb
000002e0: 6be2 da3d 7453 e2be edc4 b53d f5ad c53e
000002f0: d6a2 633d f7ee 02be 9f82 7fbe 224c 35be
00000300: 7d94 65be 2b03 393f eab2 2fbf 4f20 b03e
00000310: fd6d 81be 62cf 96be 16ea da3d d007 84bd
00000320: 6720 d33e f72b a73e 70d6 e5be a73e c73d
00000330: ea25 aabe 48ee 8a3e 65ac a73e e759 2d3f
00000340: f003 0fbe 08b9 cebe bb80 013f 39f7 c8bd
00000350: ed35 553e 4163 12bc 375f c33d ab0e 943e
00000360: 4f3d 08bf b987 c4be a361 a4bd fbce ee3e
00000370: bb2e c2be ab21 c13e 939c 433f 74a0 44be
00000380: cddd 1a3e 4579 aebe ae4a 81be 7108 0fbf
00000390: 5bc3 593b 8870 1dbd d89e dfbe e942 7cbd
000003a0: aeb4 283f 2dcb 1e3f 34cb b0be a77d 08bf
000003b0: c1f8 33bd 36b3 7d3e 32df d3be a63a 583e
000003c0: a328 1cbf 58e9 013e 97a9 ecbe 0e36 8abe
000003d0: f9d6 9dbe fda1 1fbf c2d1 113f f971 63be
000003e0: 5cba 073f 206c a13d a552 6abe edc7 113f
000003f0: 5f0b 1abf 81f7 c9be c3e4 84be ef2e 03bf
0.7230849 0.03643802 0.265064 -0.051324658 0.21159275 0.40947685 -0.49498868 0.312677
-0.059682652 -0.030062791 0.18812858 0.3419964 -0.4668904 0.13120106 0.12641795 -0.1328746
-0.13894877 -0.30996928 0.19720814 -0.20334208 -0.20544282 0.48399618 0.066902235 0.40008172
0.25570324 0.036802247 -0.35030943 0.1224356 -0.053247917 -0.57242984 0.410103 0.1404701
-0.26226538 0.47071946 -0.031583186 -0.18280767 0.16862035 0.19945903 -0.46189928 0.5802943
0.08442055 -0.07220915 0.91768414 0.16458869 0.2973965 0.19850743 0.5318228 0.6716098
0.57394224 0.12222968 -0.061473098 -0.35316566 -0.23607852 0.66863954 0.5762184 -0.22187303
0.61436844 0.11741125 0.14848267 0.18516186 -0.18261495 0.5633798 -0.097174406 -0.22144632
-0.2894147 -0.37892827 -0.70788074 0.16702254 0.2241086 -0.36856273 -0.243985 0.18611808
-0.36295122 -0.40626925 0.5696591 0.4604935 -0.35828924 -0.51539785 0.4765204 -0.09002978
-0.008459644 -0.24391055 0.22011758 0.4840749 0.57907283 -0.19875543 0.5197061 -0.29406548
-0.10121854 0.59787244 0.27736205 0.58409953 0.36970365 -0.1634198 0.2317999 -0.28756955
-0.28040335 0.27796465 0.7617396 -0.54879147 0.31339815 -0.29874003 -0.2718867 0.78108275
0.03745791 -0.78754073 0.6020209 -0.59956825 -0.34772113 0.4893826 0.3179112 0.178785
0.48647732 -0.106747955 0.4300006 0.65098983 -0.54840666 -0.04959053 -0.3531011 0.109975465
-0.012885478 -0.06365103 -0.98390865 -0.22592935 0.3496998 -0.4865077 -0.24201438 -0.50735795
0.16001678 -0.13700487 -0.21710725 0.48109317 -0.22279672 0.098976985 -0.31251281 -0.1403096
-0.10507811 -0.12839276 0.1919909 -0.22162032 -0.094674155 0.26165786 -0.29990795 0.37124994
-0.15653607 0.2207917 -0.54370666 -0.054032784 0.50224847 0.01697318 -0.30294737 -0.003424978
0.0028229684 0.19717972 -0.246629 0.046417527 0.40314484 0.31128478 -0.16842405 -0.109811574
-0.23941524 0.01516909 -0.30276868 0.1934129 0.20986602 -0.1084538 0.32755193 0.37430555
0.1866811 -0.003212663 0.20721209 0.04511848 -0.4109642 0.1465 -0.44433358 -0.29473665
-0.53306323 0.6693835 0.3630384 0.14595842 -0.040146016 0.53842175 -0.2808414 -0.002098321
0.10687717 -0.44204295 0.08875451 0.3860928 0.055575214 -0.1278647 -0.24952172 -0.17704824
-0.22419925 0.7227046 -0.68632376 0.3439965 -0.25279227 -0.29455096 0.106891796 -0.064468026
0.4123566 0.3265073 -0.44890165 0.09728747 -0.3323205 0.2713492 0.32748714 0.67715305
-0.13966346 -0.40375543 0.5058705 -0.09812779 0.20821352 -0.008934797 0.09539645 0.2891744
-0.5321855 -0.38384798 -0.08026435 0.4664229 -0.37926278 0.37721 0.7641079 -0.19201833
0.15123673 -0.34076896 -0.2525229 -0.55872256 0.0033228013 -0.038437396 -0.43675876 -0.061587248
0.65900695 0.6202877 -0.34530032 -0.5331673 -0.043938402 0.24775395 -0.41381222 0.21116123
-0.60999507 0.1268667 -0.46223137 -0.26994365 -0.30828074 -0.6235655 0.5696069 -0.22211446
0.53018737 0.07881951 -0.22883089 0.5694569 -0.601736 -0.39446643 -0.2595578 -0.5124349

actor.2.bias f4 [10]
00000000: ccb9 1dbe 069b 87bd 879f a6bd 3020 bebe
00000010: b18b d13c b3cd a4bc 06c4 28be 9089 1dbd
00000020: e86e efbd 7517 6cbe
-0.15402907 -0.06621365 -0.08135896 -0.37133932 0.025579305 -0.020117616 -0.16481027 -0.038461268
-0.116910756 -0.23055823

critic.0.weight f4 [32, 64]
00000000: 1ec0 05be 4d1c 80bf b542 f83e 603d 253e
00000010: 59a1 c3be 9863 66be 1b86 6d3e 667c 17bf
00000020: 27d1 923e 5044 0abf b414 e1be c692 e4be
00000030: 7924 3dbe 184b c83d a173 35bd 3318 8dbe
00000040: 86f1 a33d 9c13 0ebf b1f4 343f d1d5 e33e
00000050: 79dd d0be 4894 d53e e81d 143f b5e9 6d3c
00000060: 777a a73c 0275 0fbf 7680 b6be 8db2 b1bd
00000070: 2cf4 793f ad38 a73e 03b5 5e3f 9444 5e3e
00000080: 2300 96be dc9c 18be 345a 003f 45c6 3f3e
00000090: eaf9 fabc a11e 723d 6814 8abf 2e3e ea3e
000000a0: 8252 a93d 5fb4 423e 7e70 953c 5ed2 9d3c
000000b0: 2be6 6dbf cbe0 513e 725b 603f 1898 083f
000000c0: aa3b d1be 8977 1ebf 2b4b 863c aabd a7be
000000d0: f669 143d b23c fb3e 79f4 bd3e 5fbb 88be
000000e0: a8e9 01be 4520 ad3d a3e4 213f 8054 55bf
000000f0: f6ca 1d3e 87d7 993f b001 4e3f e030 413e
00000100: 3c45 02bf 015b 183f 5c39 1bbd b9de 4f3b
00000110: 6b04 ecbd 1354 193e 77bd 283d 07de e5bd
00000120: c52e d43d 3c54 d8bd c611 91bd d162 d4be
00000130: 022f 31be 237f d43c a763 783e 5bde 98be
00000140: 8795 363d 3f11 1c3e 47c5 b23c d5c2 913e
00000150: 5f69 eebd fc3a a5bc fe0d 3ebe 3039 543e
00000160: 9f69 1dbd a0ab c6bd c90b 62bd 1a4b 79be
00000170: 8260 98be e91d cd3d f088 83be 96cb 1cbe
00000180: 0e7c e53d f545 18be 606f b13e affd 4e3e
00000190: 9448 86be d5fb ce3d efa8 c33d 89f0 ab3e
000001a0: 2e92 9bbe b482 a23e c40c 9e3e 5f1e e8be
000001b0: cea7 50bc 1214 3fbe e4ab 893e 197a 9dbd
000001c0: 776c 81bd d18a 023c ddb3 513e 64f8 37be
000001d0: 9266 84be 01f1 55bc 943e 1ebe d67d ec3d
000001e0: 05ec 073e 8431 45be cab3 8f3d 3a9d 3ebe
000001f0: 8bc2 3b3e afcd 643e 2613 0ebd 1f75 a83d
00000200: 4858 3bbe 96bf 8bbe 235f bcbd 7cd9 613d
00000210: 38b5 14be 9d5a 25be 5713 9ebe 0262 b7be
00000220: 6d2f b23d fee2 683d 365a 8ebe 6506 21be
00000230: 5493 c7bd 6abc 2dbe e129 9f3d 9ee7 de3d
00000240: 74eb 143e 4876 7abd 75c2 3d3e 84e8 0a3f
00000250: 70bb c9be 9c6d 9d3e ba65 54be 917b fdbb
00000260: c04b 82bc f988 bebe 4e4b 0ebe 5a74 6ebc
00000270: 7490 fa3d a116 783e 26d3 ab3e fc25 063d
00000280: 8fb0 b9bd 8e7e c5bd 87d9 a73e 1493 0abe
00000290: 67cb ed3d 4565 723d 4e17 63be b816 19be
000002a0: e9ef b2bc 3e5e 69bd 5d1b 7c3d be44 b53c
000002b0: 86bb cfbe 8742 1f3e d6ef 1a3f 329d 6a3e
000002c0: f94d 32be e48c bdbc c4ff 22be 3279 46be
000002d0: e1c3 f8bd f5b4 183e 62de edbd 37d3 023e
000002e0: 7f65 5d3e 65fb 393e c55b 89bc 999f debd
000002f0: b1b8 963d 454c 403e c007 603e 6e66 90bd
00000300: bf7a eabe ec24 91bf a081 1c3f 4142 983c
00000310: 64e6 c0be f424 b9bd ff19 e53e 3028 1abf
00000320: ebeb 1d3e 8ef3 10bf 95ed 02bf e8a4 f3be
00000330: 8ac7 76be 0bb4 303e e154 ecbd 46e7 b7bd
00000340: 08f1 0d3e ea1e 0cbf f50f eb3e 61f1 993e
00000350: a011 9dbd dadf 9b3e 7f46 1f3f 5bd2 753e
00000360: 3ca3 ecbd 335e f4be e4d5 9fbe 36d3 babe
00000370: 861f 523f e77a 0c3e 0547 8d3f 93d3 623e
00000380: 0cb0 03bf 00f6 15be 3203 1d3f c683 553e
00000390: 9bd5 81be 9239 3bbd 7b68 84bf d85b 003f
000003a0: a7cc 913e d88c 4a3e 9349 e73d c1aa 76bd
000003b0: d59e 82bf 4a33 813e 7a36 453f 3b07 f63e
000003c0: 2849 d8bd 7d7f 01bf 142a e13d a96e 7dbe
000003d0: 484a 183d 802e 1e3f 6d77 023f 9dd5 d0be
000003e0: cf95 78be ff91 0a3e c224 283f b020 56bf
000003f0: eb9e a33e 2767 823f 81b4 533f 94ea 8a3c
-0.13061568 -1.0008637 0.48488393 0.16136694 -0.38209036 -0.2249893 0.23195688 -0.5917419
0.28675196 -0.54010487 -0.43961108 -0.4464323 -0.18470944 0.09779948 -0.044299725 -0.27557525
0.08005051 -0.5549867 0.7068587 0.44499066 -0.4079397 0.41714692 0.57858133 0.014521052
0.020444138 -0.56037915 -0.35644883 -0.08676634 0.976382 0.32660428 0.8699495 0.21705848
-0.2929698 -0.14903587 0.5013764 0.18727978 -0.030636746 0.05911124 -1.0787477 0.45750564
0.0826769 0.19014119 0.018242117 0.01926535 -0.92929333 0.20495908 0.87639534 0.53357077
-0.40865833 -0.61901146 0.016393265 -0.3276189 0.036233865 0.49069744 0.3710058 -0.26705453
-0.12686789 0.084534205 0.63239497 -0.8333206 0.15409455 1.2018899 0.80471325 0.188663
-0.50886893 0.5951386 -0.0378965 0.0031718446 -0.1152428 0.14973478 0.041196313 -0.11223989
0.10360483 -0.105629414 -0.07083468 -0.4148164 -0.17303088 0.02593953 0.24256764 -0.29857144
0.044576194 0.15240954 0.021822585 0.28468958 -0.11641192 -0.020169728 -0.18560025 0.2072494
-0.038430806 -0.097007036 -0.05518702 -0.24345055 -0.2976113 0.100154705 -0.25690413 -0.15312037
0.11205302 -0.14870436 0.34655285 0.2021396 -0.26227248 0.10106627 0.09553706 0.3358195
-0.30384964 0.31740344 0.30869114 -0.4533567 -0.01273532 -0.1866 0.26888955 -0.07689304
-0.06319516 0.007967667 0.20478769 -0.17965847 -0.25859505 -0.013057948 -0.15453559 0.11547439
0.13273628 -0.1925717 0.07016714 -0.18614665 0.18335931 0.22344087 -0.03468623 0.08225464
-0.18295395 -0.27294606 -0.091978334 0.05513905 -0.14522254 -0.16147847 -0.3087413 -0.35816962
0.08700452 0.0568571 -0.278032 -0.15725096 -0.097448975 -0.16966406 0.0777166 0.10884021
0.14542943 -0.061147958 0.1853121 0.5426104 -0.39400816 0.30747688 -0.2074193 -0.0077356775
-0.015905261 -0.37213877 -0.13895914 -0.014554108 0.122345835 0.24227382 0.3355953 0.03275107
-0.09066879 -0.09643279 0.32783148 -0.13532668 0.116110615 0.05917861 -0.22176859 -0.14950073
-0.021842914 -0.056974642 0.061549533 0.022127505 -0.40572757 0.15552722 0.6052221 0.22911528
-0.17412557 -0.023138471 -0.1591788 -0.1938217 -0.12146736 0.1491278 -0.11614682 0.12775885
0.21620749 0.18162306 -0.016767392 -0.108702846 0.07359446 0.18779095 0.21877956 -0.07050787
-0.45796773 -1.1339393 0.6113529 0.01858628 -0.37675774 -0.090402514 0.44746396 -0.6021757
0.15422027 -0.56621635 -0.5114377 -0.4758675 -0.24099556 0.17256181 -0.11539627 -0.08979659
0.13861477 -0.5473467 0.45910612 0.3006697 -0.07669377 0.30444223 0.62216944 0.24006025
-0.11554572 -0.47728118 -0.31217873 -0.36489266 0.8207935 0.13718759 1.1037298 0.22151022
-0.514405 -0.14644623 0.61333 0.20851049 -0.2535828 -0.0457092 -1.0344385 0.5014014
0.2847645 0.1978029 0.1129333 -0.060221437 -1.0204722 0.25234443 0.7703625 0.4805239
-0.105608284 -0.50585157 0.10994354 -0.24749245 0.037180215 0.61789703 0.5096348 -0.40787974
-0.24275897 0.13532256 0.6568109 -0.8364363 0.31957182 1.018773 0.826973 0.016957559

critic.0.bias f4 [32]
00000000: a3c8 593e 52d6 80be 58e7 993e 1fbb 103e
00000010: 1bb0 a6be a411 373e 67af 3bbe 6a64 6b3e
00000020: e915 c8be 8029 bd3e ebf2 ee3d 5537 263e
00000030: 9823 95be 1925 1b3e 4cd9 b2be af29 ad3e
00000040: ab28 99be 28e7 66bc 4ea5 8fbe be6f b1be
00000050: 819f d4bd fb89 073e 903f e2be 22a7 c6be
00000060: 196c d23b 5632 6a3e c1d6 9ebd 35ea e33d
00000070: d7b9 a4be 5c57 96bd 03a4 2f3e 9f51 283e
0.21267943 -0.25163513 0.30059314 0.14133881 -0.32556233 0.17877823 -0.1832863 0.22987524
-0.39079216 0.36945724 0.11667427 0.16232045 -0.29128718 0.1515087 -0.3493141 0.33820865
-0.2991384 -0.014093198 -0.28055805 -0.34655565 -0.103819855 0.13236229 -0.4418912 -0.38799387
0.0064215777 0.22870764 -0.07755805 0.11128656 -0.32173035 -0.07340881 0.1715241 0.16437386

critic.2.weight f4 [1, 32]
00000000: 82cc 303f c630 fcbd 2c39 a23e a5c8 403f
00000010: 4886 d5be 840f 363f ab31 4cbe f8be 0b3e
00000020: e2f0 46bf c8de fb3e bcff 043e 9f65 563e
00000030: 73fb 61be 55e4 893e abb3 2dbf 33b5 533e
00000040: 25c9 13bf fcdf 31bd 2bf1 dfbe 8df0 d6be
00000050: ae13 dcbd a919 863e 0886 22bf 5983 45bf
00000060: e2e7 003d fa70 313f 0eff d8bd 049b 6d3f
00000070: 09ed fdbe 3593 963c 5ce9 d63e 1855 ad3e
0.69062054 -0.1231399 0.31684244 0.7530616 -0.4170401 0.71117425 -0.19940822 0.13647068
-0.7771131 0.49193406 0.1298818 0.20937203 -0.22068577 0.26932016 -0.67852277 0.20674591
-0.577288 -0.0434265 -0.43738684 -0.419804 -0.10745941 0.26191452 -0.63485765 -0.77153546
0.03147114 0.69313014 -0.10595523 0.9281466 -0.49594906 0.01838074 0.41974914 0.33853984

memory_a.rnn.weight_ih_l0 f4 [256, 41]
00000000: f3cf 063e 23c7 ba3d 7ef4 083f 6a9e 213e
00000010: b7c6 d33d aef8 afbc 64ea 30bc 40f4 ea3c
00000020: b0cc 49bc e1a8 4abf 9d61 453e c164 02bf
00000030: 7211 5e3e 3be1 61bf 92f9 93be 3e9f 25be
00000040: 4386 cd3e 968b da3d fe7c 62bf 8838 10be
00000050: 6e04 8abf b962 16bf 438b 853d aad4 aabd
00000060: 7e8c 023d 9a26 ffbd 0bf1 b3be fe9b a23e
00000070: 7e6b 96be 82dc 1abe 6244 c4bb 8eaf c03c
00000080: 70c6 17bd 05b4 d1bc 4206 b03b b509 b93d
00000090: 62f8 4d3e ad08 96be 3da7 1cbf 7929 5d3e
000000a0: 16c4 643f 3700 4c3f 05d0 a83e aae4 fe3e
000000b0: 08fc 8a3f 8186 f43e b15f f9bd 7f0d ea3d
000000c0: 8069 f5bb 708c bd3d c6a1 9dbc 5b49 a73e
000000d0: 03bd 92bf 66bb 6a3c 29af 013e 2b3d 393f
000000e0: bfb9 30bf c07e 72bf e2e5 64be b791 a63d
000000f0: 71e9 43be 44fa 5d3a 49b9 00be 7209 2e3f
00000100: d39d 90bd 94ae 4d3f 98f3 08bf 4d51 28bf
00000110: ff17 713e fa6e b43e e411 ad3d 821b 0f3e
00000120: 9578 07be 040c f03e 08b5 c73d 3958 eb3e
00000130: c820 a2be a803 b9bd c428 e5be 795f 613e
00000140: 5f47 adbc f822 2c3f 95a0 a13e 8c93 753f
00000150: b6c0 4e3f e405 f9be 3dc3 6b3d b537 c6be
00000160: e11f 35be ba6b ebbd 8864 d43d de51 95be
00000170: 830a 763e ef96 3d3e 935c df3d 8370 cbbc
00000180: 719d 0a3e 0e9e 99be a3d6 c0bd bd7d fe3d
00000190: 09c3 72be 4f3d be3d f03c 633e 66da 39bf
000001a0: c516 153f cdde aabd d417 8a3d 2de0 d13e
000001b0: 432e 42bf 1413 bf3e c679 f23d 6972 adbd
000001c0: db21 d43e 10f4 cebe bf4e 173e fd7c 443e
000001d0: 8a56 423d f506 203e cde6 13be effe c33e
000001e0: 815f 4a3e f1c0 83bc 3d3f 853f 71c8 aebd
000001f0: 7561 663e ae3f 16be 737e 4e3e a4c8 f83e
00000200: 142b 323d ce1a 0b3e a6ca a6bd b0c7 dbbc
00000210: 9090 e7be 7e5a 5c3f b15b c9be fa52 3cbe
00000220: 02b7 c03e abfa b6be fec2 7fbf 5ae7 a93e
00000230: 7aa4 eebe db32 133e ca3f 20be d852 f6bd
00000240: aba8 0bbe d01e 58be 1687 ac3e 01c8 19be
00000250: ef51 273f 832d 643d 82e3 03bf eb8a 203e
00000260: f011 51be 5631 ac3d c6a3 a73e ff5d 5ebf
00000270: c3b3 3fbe 21b1 31be d8d1 2a3e c633 c43d
00000280: dd17 633d a0c5 7c3e 58f7 c5bb f5bf 6c3e
00000290: ec78 143d 9c28 513f 1b0c 213f b741 4b3f
000002a0: 2bbc ab3e 6f96 a3be 1b31 6cbe 146a 55bd
000002b0: 12c5 babd dc65 f93c d388 d5be c77f ddbd
000002c0: 03d2 babe 000b 793d f1df 04bd e3eb edbf
000002d0: e608 8fbd 6a1a 4ebe a646 77bf a057 963e
000002e0: 9d95 ebbd d51a 6dbf 4545 693e 7a0c 2f3d
000002f0: 717b 01bf bb9a 37bf f4fd c4be 7da3 7a3f
00000300: 85db 9fbf 6ad4 0ebc e863 1cbe 8586 fabc
00000310: c3f9 c0bc 17f2 ab3e 8d82 403e 08ed 7ebe
00000320: 1c4c e73d 348b 383d 7568 7dbb 74b4 c43d
00000330: 1d46 993d 35c2 863f 16e5 47be 1c67 b43e
00000340: 062e 093f a1db 51be 670c d9be 9e06 0e3e
00000350: 66eb f23d 8ee9 dbbd 5a27 333f 46bb e83c
00000360: b91e bcbe 58e7 5ebe d9f1 163c 42d3 4c3d
00000370: 45db 08bf 50c0 cdbe c28f 8ebd ef1c a73d
00000380: 73f9 3cbf f219 cc3e 513d 17bd 9ed4 433f
00000390: 21a8 96be eac7 27be a63f fdbd 9936 0dbf
000003a0: 4f8c 763f 0109 c6be bfe8 163e 8814 b23b
000003b0: 92a8 093d 957b eeba dbbb 47be b843 863e
000003c0: 30d4 1f3e 5929 683e fe94 853e d1be c83d
000003d0: b019 bf3e 4167 c83e 9235 6a3e 1ec6 b43f
000003e0: 0e87 bdbe ddbd 153f 5b2d b13e 5179 b8be
000003f0: e3c4 473e ea3a de3d 1e52 b43d c0a8 bebd
0.13165264 0.091200136 0.53498065 0.15783086 0.10340636 -0.021480884 -0.010798071 0.02868092
-0.012316868 -0.7916394 0.19275518 -0.5093499 0.21686342 -0.882343 -0.28901345 -0.16174027
0.40141496 0.10671155 -0.8847197 -0.14084065 -1.0782602 -0.5874439 0.06520703 -0.08341344
0.031872265 -0.124585345 -0.3514484 0.31759638 -0.29378885 -0.1512318 -0.005989597 0.023521211
-0.03705448 -0.025598535 0.0053718397 0.090350546 0.20114282 -0.29303494 -0.61192685 0.21597852
0.89361703 0.7968783 0.32971206 0.49783832 1.0858164 0.47758868 -0.12176455 0.114283554
-0.007489383 0.09255302 -0.019242179 0.32673153 -1.1463932 0.014326906 0.12664475 0.7235896
-0.69033426 -0.94724655 -0.22353318 0.08133262 -0.1913202 0.00084677734 -0.1257068 0.6798316
-0.070613526 0.8034451 -0.53496695 -0.65749055 0.2354431 0.35240918 0.08450678 0.13975337
-0.13229592 0.46884167 0.09751326 0.45965746 -0.31665635 -0.090339005 -0.44757664 0.22009076
-0.021152196 0.6724086 0.31567827 0.95928264 0.80762804 -0.48637307 0.05755924 -0.38714376
-0.17687942 -0.114951566 0.10370737 -0.29164022 0.24027447 0.18514608 0.10906329 -0.024833923
0.13536622 -0.300034 -0.09415939 0.124263264 -0.23707213 0.092890374 0.22191215 -0.72598875
0.5823787 -0.08343277 0.06742826 0.40991345 -0.7585184 0.37319243 0.11839633 -0.08469088
0.4143208 -0.4042058 0.14776133 0.19188304 0.04744581 0.15627654 -0.14443512 0.38280436
0.19762994 -0.016083213 1.0409924 -0.08534325 0.22498114 -0.1467273 0.20165424 0.48590577
0.043498114 0.13584444 -0.08144121 -0.026828617 -0.4522748 0.8607558 -0.39327767 -0.18391028
0.37639624 -0.3573812 -0.9990691 0.3318432 -0.4660986 0.14374869 -0.15649334 -0.1202752
-0.1363856 -0.21105504 0.33696812 -0.15017702 0.65359396 0.055707466 -0.51519024 0.15677993
-0.20416999 0.084078476 0.32742137 -0.86862177 -0.18720917 -0.17352726 0.16681612 0.095801875
0.05544268 0.24684763 -0.0060414486 0.23120101 0.036248133 0.8170259 0.62909096 0.7939715
0.33541998 -0.3195071 -0.23065607 -0.052103117 -0.091196194 0.030444078 -0.4170595 -0.10815387
-0.3648835 0.060801506 -0.03244013 -1.8587612 -0.06984119 -0.20127264 -0.96592176 0.29363728
-0.11503146 -0.9261907 0.2278033 0.042736508 -0.5057898 -0.71720475 -0.38475 0.97905713
-1.2488867 -0.008717636 -0.15272486 -0.030581722 -0.023556596 0.33583137 0.18799801 -0.24895108
0.112938136 0.04505463 -0.0038666998 0.09604731 0.07484076 1.0528017 -0.19520983 0.35234916
0.5358585 -0.20493938 -0.42392275 0.13869712 0.11861305 -0.107379064 0.6998192 0.028409611
-0.3674219 -0.21767938 0.009212934 0.05000616 -0.5345958 -0.40185785 -0.069610134 0.081598155
-0.7381813 0.39863545 -0.03692371 0.76496303 -0.29425147 -0.16384855 -0.123656556 -0.55161434
0.96307844 -0.38678744 0.14737223 0.0054345764 0.033608027 -0.0018194789 -0.19505255 0.2622354
0.15608287 0.22672023 0.26090235 0.0980202 0.37324286 0.39141276 0.22871998 1.412296
-0.370171 0.58492833 0.34604916 -0.36030057 0.195087 0.10851081 0.08804725 -0.0930953

memory_a.rnn.weight_hh_l0 f4 [256, 64]
00000000: 617d 95be be9d 33be f9cd 763d b7bf d83e
00000010: 66dc b7bd 1795 a63e 188c 043d 8e6c b5bc
00000020: e958 df3d 6914 903f 9f17 ff3e d938 2abe
00000030: fa01 713e 630d 28bf 7720 3ebf f5af 673e
00000040: 5f31 a0be eb76 c03e 8ded 593f f8c5 8bbe
00000050: 2283 2f3f 3fbc f73e b40b 113d 89ea 99bd
00000060: 2eb0 453f 5f15 ad3e 2afd 2ebf 5cdf 733e
00000070: 64c9 6dbe 105a 433f 9b84 2f3f 5db7 22bf
00000080: 7e40 143f a7e6 143f 1017 073e 49ca 4d3e
00000090: 3109 38bf ed42 82be 0ec6 15bf b366 753d
000000a0: 8822 b3be aafb 5b3e 28c4 f9bd 2da0 cb3e
000000b0: f7e5 fdbe 1384 df3c 762c 243f ffe2 4bbe
000000c0: bc66 59bf 2135 45bd e4d9 673f 5e60 093e
000000d0: bf88 ae3e 87e0 8c3e bdfd bc3e c668 06be
000000e0: 4650 073f bdbc b13e 6aed 863e 8f20 f73e
000000f0: c540 183f cc61 013f ef65 4dbe 13af 2dbf
00000100: 2b03 4cbf 2c59 1f3e 8ccc 063f 0ea2 5f3e
00000110: 5532 1fbf 842b b63e beb9 6c3e 288b abbe
00000120: df4b 2b3e 2277 ab3c 1105 f33e d8e9 c83c
00000130: ed4a 833f 3a27 90be d341 9dbd bd28 183d
00000140: 61b3 b7be 2083 d7bd 27fd 70be 5cec 24bf
00000150: 3e7c ca3e 6926 a6be c702 a03f fadd c6be
00000160: 75b9 79be f5e8 03be 166e d2be 6c03 3d3e
00000170: f639 ccbe 674d 153f 489d bdbe 3af8 4bbe
00000180: 4b58 2f3e de0b 63bd 26d7 f0bd c05b cdbd
00000190: cdf3 03be baea 813e 1ee0 12bf cd06 833f
000001a0: bda1 363e 1a04 cf3e 95ad 3f3f b6c0 d73c
000001b0: a4dd dabe a377 353e 8fa8 b2be ee5a 733f
000001c0: 91e4 29be eda6 8b3e 8572 df3e 6596 413f
000001d0: 1feb cb3e 80fb 54be 456b 953e 8deb 7f3f
000001e0: 15bb 1cbf 23a4 c9be 805a 28be 62dc 903c
000001f0: 12e1 a13d 842b 16bf a3c7 29be 75dc d33e
00000200: b016 ecbe 6dcf 0abf 5a2a 193d 9334 af3e
00000210: 8914 07bd ad14 903c ed3d 10be 287a 89be
00000220: 0a8f 83bf f19b 5a3c 2b9a acbd 4ccf f73e
00000230: e623 24be a6b3 33bf dab7 443e 4bef cebe
00000240: 0dfa 1c3e be74 06be cb54 2f3e 2b85 10bf
00000250: ce6d 0f3e 49fe 473e d2b6 e53e 1c98 a73f
00000260: b8d5 8a3e 5274 1dbf d12f 2e3f 0eed dc3e
00000270: 3730 063e d5ae 203f c47e c4be 6ca0 ccbe
00000280: 8670 3cbf c2e7 693e ce39 81bf 938f f73e
00000290: ab40 9f3e 0da4 9b3e 6e78 3dbf 285e 1cbf
000002a0: 0f3c d63e 6965 c0bd 5b72 16bf f65c 84bd
000002b0: 6693 ebbe 195c b03c 5dd6 39be edd6 283e
000002c0: 76d5 0b3f 65d7 cfbe a494 5ebd f2f5 34bf
000002d0: 712e 883d 9396 1dbf c643 14be 0ab6 30bf
000002e0: ae38 80be 056d 41be 572b b4be 680c 1a3f
000002f0: b581 413e c354 a9bd 02af f3be 886e a3bd
00000300: bf70 d3be af16 55be d9f3 b93e 09cb 72be
00000310: cb47 e43e e82f e53d cde1 ffbc 9919 11be
00000320: ea8c 193e 65b4 843e 8d83 8e3f 46b0 31bf
00000330: a11f 813f 77b3 fa3d 4717 4a3f 9e21 a5be
00000340: 1acd 303f 886a da3e 33ab 523f 997d 82be
00000350: 8e46 bb3e f692 84bf 04a1 923e 0a4c 95be
00000360: 1fed e0be 2c44 6bbf 67e7 0abf 0007 2c3f
00000370: 0af2 ef3e 1640 cbbe d266 1f3f 43aa ce3e
00000380: d1c5 febe ac3e 9f3e d8bf d3bd 8b18 683e
00000390: e952 e63d a63d 023f 8798 8abd 9af3 9a3e
000003a0: 4245 2e3e 6630 aabe 8193 75bf 1433 e53e
000003b0: 9121 a5bc c44c d63e f1d6 bcbe 7646 313f
000003c0: 434c b73e 8de3 2d3e b8d9 353f 05fa 393e
000003d0: 63ad 7d3f 2a79 ac3e e9fa 8b3f 6d3e 58be
000003e0: 4ea3 3f3e 5d0a ea3e 6bd7 683d 435e 483d
000003f0: d002 e93e b115 093f 792c a8bd 9b18 1cbf
-0.2919722 -0.17540643 0.060255025 0.42333767 -0.089775845 0.32535622 0.032360166 -0.02214649
0.1090563 1.1256229 0.4982271 -0.16623248 0.2353591 -0.65645427 -0.7426829 0.22625716
-0.31287667 0.37590727 0.851281 -0.27299476 0.6855947 0.48385808 0.03541155 -0.07515437
0.77221954 0.33805367 -0.6835505 0.23815674 -0.23221356 0.763093 0.68561715 -0.6356104
0.5791091 0.5816445 0.13192391 0.20096697 -0.71889025 -0.25441685 -0.5850533 0.059912395
-0.34987283 0.21482721 -0.12195617 0.39770642 -0.49589512 0.027284658 0.6413034 -0.19910811
-0.84922385 -0.04814637 0.9056685 0.13415667 0.34088704 0.2751505 0.36912337 -0.13125905
0.5285686 0.34714308 0.26353008 0.48267028 0.5947383 0.5053985 -0.20058416 -0.6784527
-0.79692334 0.1556136 0.52655864 0.21839163 -0.62186176 0.35580075 0.2311773 -0.33504605
0.16728161 0.02093083 0.47464803 0.024525568 1.025724 -0.28154927 -0.076785706 0.037148226
-0.35879043 -0.10523057 -0.2353407 -0.64423156 0.39547914 -0.3245118 1.2500848 -0.3884123
-0.24387152 -0.12881835 -0.41099614 0.18458337 -0.3988797 0.5832123 -0.3703406 -0.1991891
0.17123525 -0.05543124 -0.11759786 -0.100272655 -0.12885971 0.25374395 -0.57373226 1.023645
0.17835136 0.40432817 0.7487424 0.026337009 -0.42747223 0.17721419 -0.34894225 0.9506062
-0.16591097 0.27275792 0.4364206 0.7562011 0.3982782 -0.20799065 0.29183403 0.99968797
-0.61222965 -0.3938304 -0.16440773 0.017683212 0.07904257 -0.5866015 -0.16580062 0.41379133
-0.4611106 -0.54222757 0.037393905 0.34219798 -0.03297857 0.017587984 -0.14086123 -0.2685101
-1.0278027 0.013342843 -0.08427843 0.48400342 -0.16029319 -0.70195997 0.19210759 -0.4041694
0.15329762 -0.13130471 0.1712219 -0.564532 0.14006731 0.19530596 0.44866043 1.3093295
0.2711618 -0.61505616 0.6804171 0.43149608 0.1310433 0.6276677 -0.38377964 -0.39966142
-0.736092 0.22842315 -1.0095766 0.48351726 0.31104025 0.30398598 -0.74011886 -0.6108117
0.41842696 -0.093943425 -0.5876824 -0.064630434 -0.46010894 0.02152829 -0.1814818 0.16488238
0.5462259 -0.4059402 -0.054340973 -0.7068778 0.06649483 -0.61557883 -0.14478979 -0.6902777
-0.25043243 -0.18889244 -0.35189316 0.6017518 0.18897136 -0.0826812 -0.47594458 -0.079800665
-0.41296956 -0.20809434 0.36318853 -0.23710264 0.44586024 0.11190778 -0.0312356 -0.14169921
0.1499516 0.2591888 1.1133896 -0.69409597 1.0087777 0.122412615 0.7894177 -0.3225221
0.6906296 0.42659402 0.8229248 -0.25486448 0.36577266 -1.0357349 0.2863847 -0.29159576
-0.4393091 -0.919009 -0.5425934 0.6719818 0.4686435 -0.3969733 0.62266266 0.40364274
-0.49760297 0.31102502 -0.10339326 0.22665612 0.112462826 0.5087532 -0.067673735 0.30263978
0.17018607 -0.3324005 -0.959282 0.44765532 -0.020157607 0.41855443 -0.36882737 0.6924814
0.3580037 0.16981335 0.7103534 0.18161781 0.9909269 0.3368619 1.0935947 -0.21117564
0.1871464 0.45711032 0.056846064 0.04891802 0.45509958 0.53548723 -0.082116075 -0.60975045

memory_a.rnn.bias_ih_l0 f4 [256]
00000000: c5dd 09be a819 383e 18ba b5be f9e1 fbbb
00000010: 8017 b9bd fd50 6b3e 0e59 213e 2c22 553d
00000020: 53d9 8bbd 9111 c93d eacd 55bc c234 61be
00000030: 2e44 033d 370b ad3d 2d78 a6bd 7a01 2dbe
00000040: 7fd1 7abc f504 7cbe e80c 62bc f2af edbd
00000050: 5ac0 00bb dc34 66be ebd8 adbd 1128 a23c
00000060: 0c77 62be 03de 123e 5e56 a7be 3e70 08be
00000070: a1cd 83be d944 043d c486 a8be b50f 94be
00000080: 4ddf e6bd 01f9 ddbc 9305 73be 14d6 ae3e
00000090: 69fc 3dbe f890 a33d 6893 2bbe 9562 7ebe
000000a0: 7d05 fe3d cbde 8dbe 79aa c6be d572 0ebe
000000b0: 4a21 933d ee67 953d 8a86 1cbd f2f0 ba3d
000000c0: 7e4b 1e3d 9a71 30be 1634 fb3d 38bc 673e
000000d0: 507b 43be 37b1 583d 8a47 293e eabb 52bc
000000e0: 1db5 043e 11c1 43be 1592 a63d a5ee 17be
000000f0: b557 12be cdbe a2be 3390 caba 65c2 c93e
00000100: 20c6 11be 0b7a 91be a238 0e3e 72a6 8bbd
00000110: 3e95 623d 886c 8d3b 031e 6cbe 760d 2dbe
00000120: 1cfb 3cbe 5aa0 3d3b e4a1 4f3c a784 2cbe
00000130: 1c91 90bd 11da 83bd 45d6 f2bd f44d 9dbd
00000140: 1292 253e e66a e1bd 437f 87bc 35a4 a63e
00000150: cc54 70be b416 75bd 80d7 81bd 13e1 85bd
00000160: 2198 da3c 8f6f b2ba 46d3 44bb 40e8 85bd
00000170: 8aaf 073e c99d 2bbd 4788 4ebe 22bb e9bc
00000180: 32bf ab3d 023b 0a3d bbe6 f7bd a48a 89bd
00000190: 17e0 e2bc c9d1 353d 6541 933c ce0a 56bb
000001a0: c000 8abc 6625 2b3e e9ad 3fbd 77fc b9bd
000001b0: 30e0 29be c265 b6be a223 7cbe 3075 ffbe
000001c0: 40f9 a7be 2751 b43a 3b0c 09be 0b0d 473c
000001d0: 15d0 4bbd 113a 40be c239 2d3d 1ec3 89be
000001e0: 6a08 71be 04d2 823d 98ca 59be f0d4 91be
000001f0: 5ed7 08bd 43c8 1cbd cf90 ec3d 2dd2 05be
00000200: 501b f2bd d63b a7be e111 57bd 0893 d73d
00000210: 1c86 e0bd 68ec 4e3e c350 c9bc ab6a bd3d
00000220: 17bd dabd 8311 24bc f8bc 23be 57b9 1d3e
00000230: 0ef4 e3be 78f3 94bd 76fd 9dbe bb45 34be
00000240: 76dc b3bd fe00 96bd ec8c 7cbd 3c19 27be
00000250: 7196 003d 5a03 94bc 1d88 fe3c 36bb 9abd
00000260: 49d2 113e 9404 da3c 22db f83d 5473 0dbe
00000270: 41cf 473e 94f5 12be ce22 febc e553 53bd
00000280: c527 fd3d b462 2dbe 14a5 3b3e 4678 ca3d
00000290: b95b 263e 2f9c f3ba 54e7 65bd b1cf 003c
000002a0: fbc1 953c a317 1dbe 22ad dc3c fc2d 30be
000002b0: 309e e5bd e56f a8bd 0546 28be b97b 223e
000002c0: 6293 333b a217 3c3c fbad 3fbd fcdc ca3d
000002d0: 2dbc 4c3d e6d5 8cbd 9fd7 253d beec 72bd
000002e0: df3b 9fbd c57e 1f3e 7f41 4e3e fc64 98bd
000002f0: 5671 0dbe e7d3 d23b b728 8bbd ab91 283d
00000300: c223 b7bd 838a 58be 65ce 7ebe 4cb4 63be
00000310: f1bf 6fbd 4d85 223e e975 05be 5074 86bb
00000320: d458 2a3e c387 bebc cbdf fd3d 558d a5be
00000330: 28ea 563e 6b03 7f3e 3c46 fcbc ad50 8c3d
00000340: 2810 21be 07b1 74be 6abd eabd 11c3 03be
00000350: 43e5 e33b 84b5 24be 9425 c0bd 9e50 11bd
00000360: add5 43bd 498a d53b 983a 20be f57e 88be
00000370: dd4c 27be f15b 243e 656e 98bd 6563 8fbe
00000380: 584c 8fbe 44c3 01bd 6da2 75bd 87ed ca3d
00000390: cfd2 2bbc 0d79 623d 2641 ba3d 3020 febd
000003a0: 9a3e fb3d e26e 16bd 7446 8dbe 5fa1 9ebc
000003b0: 04fe 4b3e 2acd dabd eb72 f93d 45df 653e
000003c0: a119 75bd 3321 273d 7211 c03e c709 663d
000003d0: ab6e d4bd 1bca 70bc 791e 92bd ed9a b43d
000003e0: 4629 8f3e 7340 fdbc caf9 0cbe 5df8 75be
000003f0: 4860 40bc 5f72 11bd 217d ebbc 962f b53d
-0.13463505 0.17978537 -0.3549354 -0.00768685 -0.090376854 0.22980113 0.15756628 0.052034542
-0.06828561 0.09817804 -0.013049582 -0.21992782 0.032047443 0.08449405 -0.081283905 -0.16895095
-0.015308737 -0.24611266 -0.013797022 -0.116058245 -0.00196459 -0.22481102 -0.084886394 0.019794496
-0.22115725 0.14342503 -0.3268308 -0.13324067 -0.2574282 0.03229222 -0.32915318 -0.28918234
-0.1127306 -0.027096273 -0.23732595 0.34147704 -0.18553318 0.07986635 -0.1675545 -0.24842294
0.124033906 -0.2770904 -0.38801935 -0.13910992 0.07184084 0.07295214 -0.038214244 0.09127988
0.038646214 -0.17230836 0.12265794 0.22630394 -0.19090009 0.05290338 0.16531196 -0.012862185
0.12959714 -0.19116618 0.08133332 -0.1483713 -0.1429127 -0.31786194 -0.0015454352 0.39406124
-0.14235735 -0.28413424 0.13888791 -0.06818856 0.05531811 0.0043159164 -0.23058324 -0.16899666
-0.18455166 0.0028934688 0.012672875 -0.16847478 -0.070589274 -0.06438077 -0.11857275 -0.07680884
0.16169003 -0.110067174 -0.016540175 0.32547155 -0.23469847 -0.059836105 -0.063399315 -0.0653707
0.026683869 -0.0013613569 -0.0030033155 -0.06538439 0.13250557 -0.041898523 -0.20169173 -0.028531615
0.08386077 0.03374768 -0.12104555 -0.06715897 -0.027694745 0.04438952 0.017975518 -0.0032660249
-0.01684606 0.16713485 -0.046796713 -0.09081357 -0.16589427 -0.3562451 -0.24622968 -0.49894094
-0.3280735 0.0013757095 -0.13383572 0.012149106 -0.04975899 -0.1877215 0.04229141 -0.26906675
-0.23538366 0.063877136 -0.2126869 -0.2848277 -0.033408515 -0.038276922 0.115510575 -0.13068457
-0.11821616 -0.3266284 -0.052507285 0.10526091 -0.10963079 0.2020737 -0.024574643 0.09248861
-0.10680597 -0.010013941 -0.15990055 0.15402733 -0.44522136 -0.072730005 -0.30857438 -0.17604725
-0.08782284 -0.07324408 -0.06165783 -0.1631822 0.031393472 -0.018068004 0.031070763 -0.07555239
0.14240374 0.026613511 0.12151171 -0.13813525 0.19512655 -0.14351493 -0.031022456 -0.05159368
0.12361101 -0.16932184 0.18324691 0.098862216 0.16245927 -0.0018585975 -0.056128815 0.0078620175
0.018280974 -0.15341048 0.026938025 -0.17205042 -0.112118125 -0.08224467 -0.1643296 0.15867509
0.002740108 0.011480244 -0.04679678 0.09905431 0.049984146 -0.068767354 0.040488835 -0.059307806
-0.077750914 0.15575702 0.20142172 -0.07441136 -0.13812765 0.006433952 -0.06794875 0.041154545
-0.08942367 -0.21146588 -0.24883421 -0.22236747 -0.05853266 0.15871163 -0.1303326 -0.004103221
0.16635448 -0.023258096 0.12396201 -0.3233439 0.20987761 0.24903648 -0.03079521 0.06851325
-0.1572882 -0.23895656 -0.11461909 -0.1286738 0.0069548204 -0.16084868 -0.093821675 -0.035477273
-0.0478112 0.006516729 -0.15647352 -0.2665936 -0.16337915 0.16050698 -0.07442931 -0.2800552
-0.27987933 -0.03168036 -0.059969354 0.09908586 -0.010487272 0.055291224 0.09094457 -0.12408483
0.122678 -0.03672684 -0.27592814 -0.019364057 0.19921118 -0.10683663 0.12180122 0.22448452
-0.059838895 0.040803146 0.3751331 0.05616167 -0.10372671 -0.014696623 -0.071347184 0.08818612
0.27961177 -0.03091452 -0.13767162 -0.24020524 -0.011741705 -0.035509463 -0.02874619 0.08846967

memory_a.rnn.bias_hh_l0 f4 [256]
00000000: 4e37 7cbd 5a1c c23c 8062 2abe accc 923d
00000010: 9519 21be 56da 3f3e 02ab 373e 2783 89bd
00000020: 3dae 233d e988 eb3d 52de 3ebe 14d3 41be
00000030: 7439 133c f89f 993b 4b69 d2bd bfa2 10be
00000040: 0f02 fc3d e6f3 b4be 7cb7 84bc be73 df3b
00000050: f0fb 063d 0975 6bbe 8ea5 833c 004b 2dbe
00000060: bfe1 2abd 4a7f 163e c87a 47be 2474 9dbd
00000070: 5a12 abbe a5e0 d4bc fa30 8dbe 523c 7ebe
00000080: 4ef2 85be f2e3 96bd 548a d9bd 0be8 c93e
00000090: e859 51bd 09f6 213e 7ea2 0cbc 7287 b2bd
000000a0: 8231 483e 5171 30be 1083 9ebe ed19 3dbe
000000b0: e9fa 0ebd 4152 0c3e b28d 7c3d 6faf 333e
000000c0: bcb0 323b 055e 97be d539 53bc 6bb8 e23d
000000d0: 3ccb 76be c016 b03d 5066 3d3e d489 d3bd
000000e0: 7e4f 7f3e c91f aabe 53b3 f6bb 8eb3 57be
000000f0: 817a e3bd d1b2 d6be 2541 113e 9d9d b43e
00000100: 9d20 89bd 6fd3 15be f758 c23c edbe 36be
00000110: 9ab0 d13d 9d95 d93a a60d 54be ad71 0ebe
00000120: 4a2c 4ebc 055e bfbd 74e4 3b3c 64a8 52be
00000130: 1a80 50be 9ae0 f63d edc5 17be d9a3 57be
00000140: 7a95 643d 9b38 1fbe 1c25 6abd c8bd 713e
00000150: 58ec 0abe ec2f 1a3d 9ae1 1abe 77fc 98bd
00000160: 2ff1 d9bd 4ef5 4abe 7ab9 343d cc2c bdbd
00000170: e6e7 bf3d 7b62 9f3c 861f 49be 37fb 8ebc
00000180: 24d5 0fbd 4d4a 013d 4a44 653d aba7 9bbc
00000190: 8f82 3dbc d8de 433e 92cf bebd 7657 463d
000001a0: 7306 2b3e 4e44 2f3e 6dc4 ce3d f287 a1bd
000001b0: c7ef cabd f44b 8abe 0610 acbe ece1 04bf
000001c0: 0089 46be e556 16be f52e 35be 7bb2 16be
000001d0: 4f8b 3fbe 62a3 2dbe 0806 fb3c e373 89be
000001e0: 8ff4 14be d33b 03be 53f6 7dbe f580 e0bd
000001f0: b087 f53a 8d2f 38be 7bff 1b3e 797e 2ebe
00000200: 68e9 94bd cfbf 85be 8ee9 88bd 1549 c33d
00000210: 008d 25be 45b9 ef3d 64d3 0cbd 14fd 27bc
00000220: c219 00be c438 833c 6c72 a5bd 64d2 d83d
00000230: b9dd abbe 80ae dd3c 128a a4bd 30d2 03be
00000240: bf97 58bc 1ce3 3fbd 103c 6f3b 8e3d 44bd
00000250: 0b01 c9bd 3114 383e e12d 9b3c 6f6e 89bc
00000260: 6232 05bd d80b 75bc a42e e93d 61bc ef3c
00000270: e42f 2c3e c64e f53b 355c 95bc b0b3 a83c
00000280: 2d06 923d f9c1 c9bb 9d2d 9d3a e35a 283d
00000290: f4bd 923d aae2 efbc f0ae 06be a91c c2bd
000002a0: 5d70 473e 0ea3 ccbd 004e f2bc 6afe 0fbe
000002b0: c678 30be e2d3 07bc 5f03 19be 26fc a9bb
000002c0: 8a02 5c3d 1b23 7bbd d766 ecbc 5d52 44bd
000002d0: 5793 843e b03a 85be a638 393d c12d 903d
000002e0: bbfb 45be 71cf 3f3e 2a87 513e 6952 3bbd
000002f0: 9d77 12be ed90 00be 2086 95bc eb45 b23d
00000300: 5612 cdbd c18c debd eb08 a7be 3c19 45be
00000310: 34be 063d df03 2c3e 9867 6d3d 1c10 c83d
00000320: 50f4 e53c 6a8a 12be b341 fb3d f41a bdbe
00000330: 342f 493e 34ea 963d beb4 b9bc dab4 753d
00000340: d841 3bbe d9e8 b4bd 89fc 46bd 75d2 14be
00000350: d319 c3bd 081f 06be e139 4fbe 6793 a7bd
00000360: e327 9fbd c139 1a3e 1651 d63b d5f3 7cbe
00000370: 0781 93be a529 afbc 567e 06be 86aa d3be
00000380: 04e1 67be 63ad 4abb c185 493c 26f7 413e
00000390: df90 61bd d5db f9bb 38ea db3c 62f0 863c
000003a0: 32c1 083d b63f 67bd db2f 9dbd e5d1 6bbd
000003b0: b142 c83d 651e 2cbe bda7 b4bd 016a 2f3e
000003c0: 5a38 823d f04c a4bd e05c 953e 9fa4 32bc
000003d0: f231 30be 7df8 643e c056 70be 12c0 94bb
000003e0: 05ed 303e a68d 863c 6692 5dbd 3fab 37be
000003f0: 6f51 063e fbe4 6abc e089 c83c ed81 9b3e
-0.06157618 0.02369516 -0.16639137 0.07167944 -0.15732415 0.18735632 0.17936328 -0.067144684
0.03996109 0.11500723 -0.18639496 -0.18928176 0.008985866 0.004688259 -0.10273989 -0.14124583
0.1230508 -0.3534233 -0.016200773 0.0068192175 0.03295511 -0.22993864 0.016070154 -0.16923141
-0.041719195 0.14696994 -0.19480431 -0.07688168 -0.3341244 -0.025986025 -0.2757643 -0.24827698
-0.26161426 -0.07367696 -0.10622087 0.39434847 -0.051111132 0.15816511 -0.008583663 -0.087172404
0.19550136 -0.17230727 -0.30959368 -0.18466921 -0.034907255 0.13703252 0.06165857 0.17547391
0.0027265986 -0.2956392 -0.012892206 0.11070331 -0.24100965 0.08598089 0.1849606 -0.10329023
0.24932668 -0.33227375 -0.0075287013 -0.21064588 -0.1110735 -0.419333 0.14185007 0.352765
-0.066956736 -0.14631437 0.023724062 -0.1784627 0.10238762 0.0016600374 -0.20708331 -0.13910551
-0.0125838015 -0.09344105 0.011468042 -0.20572048 -0.20361367 0.12054558 -0.14821596 -0.21058597
0.055806614 -0.15548937 -0.057164297 0.23607552 -0.1356672 0.037643358 -0.15125123 -0.07470029
-0.10641705 -0.19820139 0.044122197 -0.0923706 0.09370403 0.019456139 -0.19640931 -0.017453773
-0.035115376 0.031565 0.05597333 -0.019000849 -0.011566772 0.19127977 -0.09316935 0.048423253
0.16701679 0.171159 0.10096059 -0.07887258 -0.09909015 -0.27011073 -0.33605975 -0.5190723
-0.19388199 -0.14681585 -0.17693694 -0.14716522 -0.18705486 -0.16956857 0.030642524 -0.26846227
-0.14546417 -0.1281579 -0.24800996 -0.109620966 0.0018732455 -0.17986889 0.15234177 -0.17040433
-0.07271081 -0.261229 -0.06685172 0.09535424 -0.16167068 0.11705259 -0.034381285 -0.01025321
-0.12509826 0.016018279 -0.08078465 0.10587004 -0.33567598 0.027060747 -0.08034147 -0.12873149
-0.013219773 -0.046847448 0.0036504306 -0.047910266 -0.09814652 0.17976452 0.018942775 -0.016776292
-0.032518752 -0.014956437 0.11385849 0.02926463 0.16815144 0.007486197 -0.018232444 0.020593494
0.07130084 -0.0061571565 0.0011991743 0.0411023 0.07165137 -0.029282887 -0.13152671 -0.09478123
0.19476457 -0.09992038 -0.029578209 -0.14061895 -0.17233571 -0.008290263 -0.14942692 -0.005187529
0.05371336 -0.061312776 -0.028857632 -0.04793011 0.2589366 -0.26021338 0.04522004 0.07039977
-0.19334309 0.18731476 0.20461717 -0.04573289 -0.14303441 -0.12555285 -0.018252432 0.08704742
-0.10013263 -0.108666904 -0.3262399 -0.19247907 0.032896236 0.16798352 0.057960123 0.097686976
0.028070599 -0.14310613 0.122683905 -0.36934626 0.19646913 0.073688895 -0.022669192 0.059986927
-0.18286836 -0.08833475 -0.04858068 -0.14533408 -0.0952641 -0.13097775 -0.20236923 -0.08182412
-0.0777128 0.15061094 0.006540428 -0.2470239 -0.28809378 -0.021382162 -0.13134131 -0.41341037
-0.2264443 -0.00309261 0.012299956 0.18941936 -0.0550698 -0.007625083 0.026845083 0.016472045
0.03338737 -0.056457244 -0.07675143 -0.057573218 0.097783454 -0.1680847 -0.08821056 0.17130281
0.063584045 -0.08022487 0.2917242 -0.010903507 -0.17206553 0.22360416 -0.23470592 -0.004539498
0.17277916 0.016424965 -0.054094695 -0.17936419 0.13117002 -0.01433682 0.024479806 0.30372563
