logs/h1/h1_torque_decap/model_800.pt (torch, 739872 bytes, 48 tensors)

std f4 [10]
0.82163656 1.180523 1.026713 0.78341734 0.6205961 0.83579934 1.2547932 0.9699558
0.77701974 0.70555145
00000000: c656 523f 611b 973f 556b 833f 0a8e 483f
00000010: 63df 1e3f f2f6 553f 109d a03f 064f 783f
00000020: c4ea 463f 059f 343f

actor.0.weight f4 [32, 64]
0.2119135 -0.1797381 0.19279654 0.013475621 -0.35160843 0.30868468 -0.26047918 0.01990494
0.090374574 0.23223685 0.09943303 0.20780048 0.3568994 -0.040738173 0.23416212 0.18906745
-0.25732404 -0.24009229 0.020371921 -0.2642056 -0.31130314 -0.1503002 0.3799696 0.3941627
-0.40394884 0.36238372 -0.45609212 -0.032398213 -0.09301877 0.20782782 -0.15032709 -0.21385868
0.008778477 0.13494222 0.2073695 0.32672852 -0.15846336 0.019330354 -0.07604606 0.7427964
-0.27945304 -0.33578056 0.38210884 0.40378484 -0.736793 0.009698367 0.29770342 -0.20534773
-0.03265023 -0.034231666 -0.6273141 -0.45828995 0.14627737 0.016984347 0.25795653 -0.19475392
0.19218427 0.31678697 -0.4794293 -0.32521746 -0.020725813 -0.025126275 -0.1527396 -0.09725802
-0.25179973 -0.21593238 -0.7990374 0.030009165 -0.09158053 0.69104874 0.20844986 -0.50564766
0.20155044 -0.288855 -0.6184613 0.32548204 -0.18455614 -0.42982656 0.28038853 -0.12014755
0.3397024 -0.10815202 -0.13376248 0.07126927 -0.3477273 0.61238676 0.2767165 -0.43717915
0.16186829 -0.1348006 -0.020504896 -0.09250667 0.20356067 0.009574651 -0.16060698 -0.22723012
0.032983143 -0.24139677 0.22910202 0.9316347 -0.21919209 0.34237146 -0.28589442 0.20476213
0.1896423 0.29117 0.3515576 -0.094777934 -0.003131859 0.0044656172 -0.7801896 0.6368615
0.1368331 -0.30150455 -0.51654 0.107924804 0.061377 -0.15882792 0.045041725 0.08681081
-0.36956188 -0.22048397 0.24634075 0.095664784 0.17420875 0.4467178 0.15592828 -0.18502603
-0.42472628 -0.13890679 0.09131976 -0.30139768 -0.25957933 -0.09013708 -0.09543744 0.5033513
0.4766774 0.74258417 -0.056464903 0.47974488 0.047515243 0.45108673 0.07257769 -0.26522836
-0.2372106 0.35468885 0.011902431 -0.01306028 0.023030056 -0.20356297 -0.29140246 -0.01570428
-0.2434296 0.7700138 -0.037393704 0.063117445 -0.022432258 -0.07357195 0.041709326 -0.35348442
-0.93257475 0.19364858 0.030770103 0.6495811 -0.049783416 -0.5202646 0.20926102 0.64608276
-0.85327166 -0.03738438 0.7618664 0.09233727 0.020076245 -0.17717056 0.11886573 -0.5183299
0.27217376 -0.6667113 -0.56490296 -0.34856662 -0.05626503 0.13585234 0.22927694 0.099057265
0.47724998 -0.29616785 -0.18236752 0.28580186 -0.29794094 0.49153364 -0.2925663 -0.16515341
0.4780861 0.15828711 -0.060855318 -0.020048548 0.1558835 0.37554798 -0.11964909 0.09824084
-0.2256434 -0.17074083 0.2996885 -0.236071 -0.20662798 -0.023665573 0.0010303445 0.033420645
0.12419494 -0.096172065 0.31931165 0.05499889 0.0076578134 0.09537307 0.18218338 0.17780635
-0.2131994 -0.025049768 -0.31835157 0.011492154 0.008541591 0.016118066 0.26604354 -0.36083952
0.35350809 -0.03944034 -0.32163945 0.50818205 -0.09615262 0.31894827 0.14759418 -0.58761317
0.022753935 0.057769123 -0.6906218 -0.1022121 -0.66696215 0.33696288 -0.15580799 0.6544381
0.17236067 -0.50507206 0.4375943 0.52798104 0.029206216 -0.263618 -0.13792294 0.20932055
0.39374074 -0.14073704 -0.31606063 -0.19535387 0.4195038 -0.059892636 0.04985777 0.24645849
00000000: daff 583e 440d 38be 756c 453e dac8 5c3c
00000010: 0506 b4be eb0b 9e3e 875d 85be af0f a33c
00000020: 4e16 b93d 7fcf 6d3e 8ba3 cb3d a6c9 543e
00000030: 85bb b63e 12dd 26bd 32c8 6f3e e69a 413e
00000040: fabf 83be c1da 75be 04e3 a63c f545 87be
00000050: 2063 9fbe 4ce8 19be 608b c23e b2cf c93e
00000060: 62d2 cebe 5c8a b93e e884 e9be fdb3 04bd
00000070: a080 bebd d1d0 543e 58ef 19be c5fd 5abe
00000080: 9ad3 0f3c 4b2e 0a3e ac58 543e f648 a73e
00000090: 3844 22be b15a 9e3c 09be 9bbd e827 3e3f
000000a0: 7814 8fbe 6eeb abbe c5a3 c33e e3bc ce3e
000000b0: 779e 3cbf e6e5 1e3c 956c 983e ad46 52be
000000c0: 3fbc 05bd 8136 0cbd a897 20bf fba4 eabe
000000d0: bcc9 153e c222 8b3c e112 843e 926d 47be
000000e0: f4cb 443e e731 a23e c277 f5be e782 a6be
000000f0: 2ec9 a9bc 9ed5 cdbc c567 1cbe 362f c7bd
00000100: e5eb 80be 611d 5dbe b78d 4cbf c8d5 f53c
00000110: 938e bbbd 92e8 303f e173 553e 2072 01bf
00000120: 3d63 4e3e cde4 93be 7b53 1ebf 95a5 a63e
00000130: 49fc 3cbe 3a12 dcbe 168f 8f3e eb0f f6bd
00000140: 79ed ad3e ce7e ddbd 08f9 08be 9ff5 913d
00000150: 5009 b2be 61c5 1c3f c9ad 8d3e f2d5 dfbe
00000160: cdc0 253e 2b09 0abe e2f9 a7bc 2374 bdbd
00000170: 3572 503e ffde 1c3c 2876 24be 03af 68be
00000180: 5519 073d b730 77be b899 6a3e 9d7f 6e3f
00000190: e473 60be 504b af3e c160 92be 2aad 513e
000001a0: 9731 423e 3c14 953e 5cff b33e ef1a c2bd
000001b0: e03f 4dbb 5054 923b 81ba 47bf 5b09 233f
000001c0: fa1d 0c3e ce5e 9abe f73b 04bf ae07 dd3d
000001d0: 7366 7b3d c9a3 22be ac7d 383d dec9 b13d
000001e0: 3737 bdbe 8dc6 61be c040 7c3e e6eb c33d
000001f0: c763 323e 32b8 e43e aaab 1f3e 7777 3dbe
00000200: b975 d9be 953d 0ebe db05 bb3d cc50 9abe
00000210: 95e7 84be ca99 b8bd b474 c3bd a1db 003f
00000220: 0f0f f43e ff19 3e3f be47 67bd 1fa1 f53e
00000230: 589f 423d d7f4 e63e 9da3 943d 03cc 87be
00000240: 56e7 72be c799 b53e 6a02 433c c9fa 55bc
00000250: 87a9 bc3c d072 50be b432 95be 43a6 80bc
00000260: 9c45 79be a01f 453f 242a 19bd b843 813d
00000270: dbc3 b7bc e4ac 96bd 66d7 2a3d e9fb b4be
00000280: 38bd 6ebf d04b 463e 9511 fc3c f24a 263f
00000290: b2e9 4bbd 1030 05bf 8548 563e ae65 253f
000002a0: 0370 5abf 5d20 19bd ad09 433f 531b bd3d
000002b0: f076 a43c 336c 35be e06f f33d 45b1 04bf
000002c0: 5c5a 8b3e 97ad 2abf 7b9d 10bf 5377 b2be
000002d0: 2976 66bd e01c 0b3e 93c7 6a3e 89de ca3d
000002e0: 1c5a f43e 50a3 97be 8dbe 3abe 9f54 923e
000002f0: b78b 98be 4caa fb3e 40cb 95be fa1d 29be
00000300: b4c7 f43e 0416 223e 6d43 79bd da3c a4bc
00000310: ed9f 1f3e d347 c03e 950a f5bd 7e32 c93d
00000320: 100f 67be afd6 2ebe c570 993e 99bc 71be
00000330: 4996 53be 4ede c1bc a00c 873a 16e4 083d
00000340: eb59 fe3d dcf5 c4bd d17c a33e 8446 613d
00000350: 65ee fa3b f552 c33d 488e 3a3e de12 363e
00000360: f250 5abe 2c35 cdbc fafe a2be 9649 3c3c
00000370: 08f2 0b3c 090a 843c dc36 883e f5bf b8be
00000380: 03ff b43e 328c 21bd edad a4be 3818 023f
00000390: aaeb c4bd 304d a33e ee22 173e d16d 16bf
000003a0: 7666 ba3c 519f 6c3d 97cc 30bf 9454 d1bd
000003b0: 08be 2abf 6686 ac3e 218c 1fbe 4189 273f
000003c0: 517f 303e 674c 01bf 5c0c e03e c429 073f
000003d0: e041 ef3c f0f8 86be ac3b 0dbe 2058 563e
000003e0: 6398 c93e 5f1d 10be b3d2 a1be d80a 48be
000003f0: 34c9 d63e fb51 75bd a937 4c3d 9d5f 7c3e

actor.0.bias f4 [32]
-0.1407325 -0.15529002 -0.24874231 0.27941686 -0.027618514 0.32934746 0.38288364 -0.41077983
0.07245344 0.16331387 -0.40300623 0.011713997 0.36823076 -0.16182871 -0.21349381 0.24392284
-0.082928926 0.08360708 -0.344132 -0.2270585 0.23485741 0.0421241 0.20660107 -0.035247054
-0.15108228 0.05383021 0.2518381 -0.17512773 0.027456945 0.3222916 -0.27383187 0.4293674
00000000: 2e1c 10be 5904 1fbe 4eb6 7ebe ba0f 8f3e
00000010: 3940 e2bc 3ba0 a83e 5309 c43e bc51 d2be
00000020: 7862 943d c03b 273e d556 cebe 11ec 3f3c
00000030: be88 bc3e 6db6 25be 1f9e 5abe e9c6 793e
00000040: a4d6 a9bd 303a ab3d 1232 b0be 0682 68be
00000050: 767e 703e 528a 2c3d 3b8f 533e 375f 10bd
00000060: 50b5 1abe 117d 5c3d ecf0 803e af54 33be
00000070: 63ed e03c 6803 a53e b133 8cbe 0bd6 db3e

actor.2.weight f4 [10, 32]
0.92733604 -0.05658015 0.25543854 -0.08197546 0.17901537 0.5109651 -0.5350682 0.24601828
-0.1586921 -0.13850345 0.27239186 0.43934065 -0.48032427 0.19425401 0.28444928 -0.11146532
-0.08887009 -0.56490254 0.118780404 -0.18705295 -0.3354112 0.46019393 0.18622923 0.44740948
0.185047 0.07107975 -0.38530707 0.11901839 -0.06870808 -0.60581386 0.6149346 0.19554202
-0.31073755 0.47873643 0.0837767 -0.27991366 0.16503192 0.17329307 -0.5642886 0.8918615
0.009246991 -0.081429504 1.3133862 0.14209874 0.31714845 0.15490068 0.67808044 0.6606082
0.7480012 0.282148 -0.10203028 -0.5223579 -0.4231374 0.8828144 0.67578155 -0.40690404
0.88117296 0.13511308 0.14285885 0.2256943 -0.3267835 0.6564024 -0.10053698 -0.33172438
-0.36262512 -0.39649135 -0.80121547 0.20484379 0.21359326 -0.44807926 -0.22985762 0.19260205
-0.3741563 -0.56002605 0.6598506 0.590133 -0.37210938 -0.55014056 0.52695227 -0.057582833
-0.080336556 -0.31484327 0.19644217 0.5507609 0.6862699 -0.1959821 0.4991285 -0.26639184
-0.15249576 0.6145354 0.40023214 0.7939586 0.43610457 -0.17635828 0.4033406 -0.2911589
-0.34434023 0.29465106 0.70482075 -0.55566514 0.32643223 -0.3716101 -0.289253 0.85294455
0.009580431 -0.74386656 0.59888834 -0.6605127 -0.38964146 0.50345206 0.32918647 0.18341239
0.62966704 -0.13505475 0.5121235 0.6995904 -0.627506 -0.080247976 -0.36911353 0.10823925
-0.08286356 -0.05502117 -1.0811548 -0.24271527 0.41560176 -0.53711 -0.26560497 -0.52894855
0.3844514 -0.17672345 -0.10325161 0.54363835 -0.20829147 0.11979421 -0.3588864 -0.13537665
-0.09862044 -0.32600456 0.233387 -0.30154234 -0.15160722 0.3719177 -0.4049793 0.47205052
-0.27767274 0.33529723 -0.6183151 -0.048086453 0.51281303 0.010611356 -0.5630206 0.11304931
-0.04681544 0.27461934 -0.41674453 -0.052740686 0.42507377 0.39300013 -0.1792584 -0.11555494
-0.20270808 0.100802094 -0.31867185 0.24454235 0.28875706 -0.06694958 0.35092708 0.43351057
0.19421262 0.0647408 0.2599875 0.061533127 -0.4637716 0.117165565 -0.56845915 -0.3649695
-0.5579729 0.93641734 0.36886027 0.12522723 -0.030006228 0.69501525 -0.33855474 -0.001098551
0.13844325 -0.56764877 0.18742105 0.5212901 0.12327921 -0.015007699 -0.3995555 -0.13989714
-0.30908126 0.9692957 -0.82539946 0.43044987 -0.26495346 -0.37459117 0.11202437 -0.05848872
0.45309132 0.3634777 -0.5979664 0.13729492 -0.37576327 0.26286966 0.30303946 0.87363625
-0.20865992 -0.5690502 0.6879817 -0.14176552 0.29397863 0.006391484 0.087422356 0.3663659
-0.687248 -0.42575884 -0.051550567 0.55779696 -0.34631476 0.45413733 1.0534604 -0.25063476
0.12997596 -0.513049 -0.16310768 -0.58576727 0.12867789 -0.008300181 -0.40014765 -0.029210692
0.7712377 0.594627 -0.367938 -0.6466306 0.042705428 0.22441426 -0.5071811 0.23452607
-0.6779468 0.20693174 -0.6889159 -0.2007736 -0.39916015 -0.72389746 0.6509146 -0.18774894
0.65195835 0.16329056 -0.27777398 0.67926264 -0.7340889 -0.4749046 -0.4492037 -0.4866038
00000000: e565 6d3f 96c0 67bd d7c8 823e c0e2 a7bd
00000010: ce4f 373e 9cce 023f 3bfa 08bf 37ec 7b3e
00000020: 2f80 22be d9d3 0dbe f276 8b3e 42f1 e03e
00000030: 10ed f5be 86ea 463e 56a3 913e ee47 e4bd
00000040: 8601 b6bd 749d 10bf 2443 f33d cf8a 3fbe
00000050: 04bb abbe 8a9e eb3e e0b2 3e3e db12 e53e
00000060: f67c 3d3e 4392 913d f846 c5be eabf f33d
00000070: d2b6 8cbd 9e16 1bbf 5b6c 1d3f 2b3c 483e
00000080: fe18 9fbe f11c f53e 1e93 ab3d d850 8fbe
00000090: 21fe 283e bd73 313e 3875 10bf 0951 643f
000000a0: b180 173c 83c4 a6bd 0a1d a83f 5582 113e
000000b0: 4861 a23e 499e 1e3e ae96 2d3f 9e1d 293f
000000c0: 027d 3f3f b475 903e 40f5 d0bd 3fb9 05bf
000000d0: 77a5 d8be 2000 623f 0500 2d3f ba55 d0be
000000e0: 8d94 613f 155b 0a3e 9749 123e 681c 673e
000000f0: 2b50 a7be fd09 283f 55e6 cdbd c7d7 a9be
00000100: 00aa b9be ea00 cbbe 751c 4dbf 92c2 513e
00000110: 31b8 5a3e a56a e5be cc5f 6bbe 7939 453e
00000120: 6a91 bfbe de5d 0fbf f8eb 283f f512 173f
00000130: 1f85 bebe 03d6 0cbf 58e6 063f fadb 6bbd
00000140: 7e87 a4bd 2333 a1be 2328 493e abfe 0c3f
00000150: 62af 2f3f 88af 48be c58d ff3e 8364 88be
00000160: d927 1cbe 3152 1d3f 3aeb cc3e df40 4b3f
00000170: 1949 df3e 4497 34be a982 ce3e c812 95be
00000180: 5d4d b0be 81dc 963e 226f 343f 1240 0ebf
00000190: 2022 a73e ae43 bebe f818 94be 935a 5a3f
000001a0: 3df7 1c3c 0a6e 3ebf bf50 193f 5c17 29bf
000001b0: 167f c7be 3ce2 003f 218b a83e 75d0 3b3e
000001c0: dc31 213f cb4b 0abe 871a 033f 5b18 333f
000001d0: 3ca4 20bf 0d59 a4bd 73fc bcbe 8aac dd3d
000001e0: 5fb4 a9bd e15d 61bd 4863 8abf 5a8a 78be
000001f0: c1c9 d43e 0a80 09bf 60fd 87be 2c69 07bf
00000200: d0d6 c43e fef6 34be 9575 d3bd e22b 0b3f
00000210: 5c4a 55be ab56 f53d f5bf b7be 2da0 0abe
00000220: 83f9 c9bd 12ea a6be 00fd 6e3e c263 9abe
00000230: ec3e 1bbe ff6b be3e 7259 cfbe 9bb0 f13e
00000240: 1f2b 8ebe 14ac ab3e e649 1ebf 4df6 44bd
00000250: b747 033f 41db 2d3c 1e22 10bf 6686 e73d
00000260: 8cc1 3fbd e89a 8c3e 8a5f d5be 9e06 58bd
00000270: 45a3 d93e 5037 c93e 848f 37be 12a8 ecbd
00000280: b592 4fbe 5471 ce3d f528 a3be 4f69 7a3e
00000290: f7d7 933e dd1c 89bd b7ac b33e 19f5 dd3e
000002a0: acdf 463e d396 843d 151d 853e 290a 7c3d
000002b0: 7973 edbe 80f4 ef3d 8a86 11bf 48dd babe
000002c0: 50d7 0ebf 0cb9 6f3f 41db bc3e 913b 003e
000002d0: 9fcf f5bc 85ec 313f 0c57 adbe 41fd 8fba
000002e0: 11c4 0d3e 6e51 11bf 4eeb 3f3e 4573 053f
000002f0: cf79 fc3d dae2 75bc 8a92 ccbe 3241 0fbe
00000300: e63f 9ebe c323 783f 614d 53bf ed63 dc3e
00000310: fba7 87be 6aca bfbe 086d e53d de91 6fbd
00000320: 96fb e73e c019 ba3e 5314 19bf 0a97 0c3e
00000330: 0b64 c0be da96 863e fd27 9b3e a0a6 5f3f
00000340: f2aa 55be 46ad 11bf 921f 303f fb2a 11be
00000350: 5e84 963e a76f d13b 7e0a b33d 5094 bb3e
00000360: 7cef 2fbf 10fd d9be b026 53bd c8cb 0e3f
00000370: 2b50 b1be b084 e83e cad7 863f 3353 80be
00000380: 6b18 053e 2e57 03bf b305 27be d8f4 15bf
00000390: 23c4 033e 7bfd 07bc 27e0 ccbe 434b efbc
000003a0: d56f 453f 7a39 183f 5f62 bcbe 9589 25bf
000003b0: e3eb 2e3d dacc 653e 9fd6 01bf 9a27 703e
000003c0: ec8d 2dbf eae5 533e cb5c 30bf 9897 4dbe
000003d0: b85e ccbe 5851 39bf 57a2 263f 4241 40be
000003e0: bee6 263f a435 273e 6438 8ebe 28e4 2d3f
000003f0: 40ed 3bbf b226 f3be 07fe e5be 2224 f9be

actor.2.bias f4 [10]
-0.2023354 -0.11437903 -0.10299253 -0.39333174 0.034154043 0.02954502 -0.20267178 0.005693341
-0.19275652 -0.33455643
00000000: 0331 4fbe 8e3f eabd bfed d2bd c762 c9be
00000010: 1ce5 0b3d 6608 f23c 3189 4fbe 358f ba3b
00000020: f761 45be fb4a abbe

critic.0.weight f4 [32, 64]
-0.14353563 -1.0377002 0.53011984 0.30069143 -0.5095134 -0.27968737 0.22270243 -0.7277755
0.29573005 -0.6075795 -0.563803 -0.5423868 -0.15213358 0.10843285 -0.12592833 -0.3483303
0.15228233 -0.70809036 0.8455245 0.5186125 -0.44481823 0.46917897 0.525254 -0.10919494
0.044290565 -0.68279016 -0.44177112 -0.05245474 1.1662731 0.3944106 0.87261266 0.37737712
-0.3392903 -0.2985154 0.637044 0.30130026 -0.019575585 0.11803394 -1.3058368 0.50888973
0.17114474 0.13655448 0.09384653 0.11071773 -1.010093 0.28596422 1.0831664 0.6385465
-0.40762305 -0.7145014 -0.051821727 -0.32967448 0.046787966 0.61325544 0.40342927 -0.29180095
-0.2118658 0.10945935 0.7635474 -0.9428518 0.24233134 1.373304 0.9328884 0.29405168
-0.61061263 0.6603149 -0.020377262 -0.07413888 -0.056171637 0.21957046 -0.098116174 -0.11575912
0.1555636 -0.04571808 -0.06584601 -0.46783036 -0.20514321 -0.051755723 0.3732005 -0.5213757
-0.03954318 0.24828255 0.01953952 0.40508184 -0.3035532 -0.05195418 -0.23367944 0.3434612
-0.031229144 0.04001118 0.032179914 -0.31119323 -0.38695818 0.25123435 -0.20723818 -0.1858441
0.1947577 -0.18741961 0.4479433 0.16142882 -0.2961828 0.16903538 0.2356822 0.49470004
-0.38243738 0.36782962 0.5214815 -0.55538696 -0.35701874 -0.26947019 0.3470418 -0.10346489
0.087718725 0.019445317 0.43144625 -0.26584435 -0.2737223 -0.050844096 -0.13387258 0.09991449
0.14319514 -0.22462693 -0.01764454 -0.2805873 0.35702232 0.22115871 -0.0043119797 0.0606232
-0.21005462 -0.274431 -0.121324435 0.18270093 -0.25651193 -0.23618285 -0.30350083 -0.48707905
0.096490264 -0.06034746 -0.37426677 -0.26629868 -0.05540682 -0.13464668 0.014294066 0.0035353682
0.20591918 -0.19543567 0.25682607 0.6144584 -0.49278986 0.35848826 -0.25934577 -0.16798073
0.0033366263 -0.4917756 -0.20216317 0.035059676 0.26540527 0.2855586 0.29822224 0.14523967
-0.09040041 -0.25846365 0.46375656 -0.0371062 0.13888043 0.11364299 -0.38612798 -0.055745978
0.08590857 -0.13344054 0.06943362 0.10077748 -0.52096325 0.23832326 0.74407995 0.3402422
-0.19081892 -0.11412266 -0.2403896 -0.21433133 -0.07538994 0.258738 -0.11742882 0.11194681
0.18190688 0.19110043 0.053489268 -0.2051857 0.0985956 0.3484848 0.33296087 0.034283195
-0.43574548 -1.1766506 0.6508046 0.16470511 -0.49402416 -0.15746275 0.4379361 -0.75154704
0.16484791 -0.6390633 -0.6464165 -0.5593465 -0.1891216 0.16564097 -0.22264756 -0.14743073
0.20699763 -0.71489584 0.60715467 0.37366787 -0.114989616 0.351323 0.5623562 0.14035226
-0.09304297 -0.6102378 -0.38638878 -0.31826767 1.0079603 0.19196649 1.0975904 0.38428444
-0.57071215 -0.3005787 0.7509048 0.31452194 -0.23804344 0.029144699 -1.2843778 0.5329571
0.34704623 0.12519482 0.18733202 0.060409777 -1.100882 0.3359644 0.9419465 0.6007667
-0.1138896 -0.61262125 0.0442519 -0.22148886 0.0450819 0.7480077 0.5283988 -0.43926275
-0.3334143 0.16744012 0.7653648 -0.9371695 0.3772774 1.1953263 0.9520056 0.12821975
00000000: 01fb 12be 5cd3 84bf efb5 073f 3af4 993e
00000010: 786f 02bf 2f33 8fbe 1b0c 643e 7f4f 3abf
00000020: ee69 973e 558a 1bbf 6555 10bf dcd9 0abf
00000030: e8c8 1bbe 0b12 de3d 5bf3 00be 5958 b2be
00000040: e6ef 1b3e 6945 35bf 4b74 583f cac3 043f
00000050: 37bf e3be 3a38 f03e 0c77 063f 99a1 dfbd
00000060: 066a 353d 56cb 2ebf d32f e2be c8da 56bd
00000070: 7048 953f 30f0 c93e 8b63 5f3f 9337 c13e
00000080: 75b7 adbe 03d7 98be 5115 233f 0744 9a3e
00000090: fa5c a0bc c7bb f13d a925 a7bf 9946 023f
000000a0: 9140 2f3e f0d4 0b3e 9c32 c03d fabf e23d
000000b0: ba4a 81bf e769 923e 32a5 8a3f c977 233f
000000c0: f8b3 d0be 90e9 36bf 0543 54bd 18cb a8be
000000d0: bda4 3f3d 4ffe 1c3f 488e ce3e ef66 95be
000000e0: 59f3 58be 392c e03d d877 433f bc5e 71bf
000000f0: b525 783e 6dc8 af3f c6d1 6e3f f18d 963e
00000100: 1c51 1cbf 660a 293f 37ee a6bc 20d6 97bd
00000110: 3b14 66bd 14d7 603e 22f1 c8bd 1e13 edbd
00000120: 104c 1f3e e242 3bbd 46da 86bd 7687 efbe
00000130: 1011 52be cffd 53bd 2314 bf3e e178 05bf
00000140: 08f8 21bd c83d 7e3e 5811 a03c e366 cf3e
00000150: 536b 9bbe e8cd 54bd aa49 6fbe 25da af3e
00000160: 43d4 ffbc c3e2 233d 16cf 033d b854 9fbe
00000170: 621f c6be caa1 803e 3f36 54be ea4d 3ebe
00000180: 906e 473e edea 3fbe d358 e53e 994d 253e
00000190: 46a5 97be 9c17 2d3e ad56 713e 5349 fd3e
000001a0: d5ce c3be 2a54 bc3e d07f 053f d72d 0ebf
000001b0: 29cb b6be fff7 89be 76af b13e 66e5 d3bd
000001c0: e0a5 b33d c94b 9f3c 86e6 dc3e c01c 88be
000001d0: 5425 8cbe e641 50bd e515 09be f89f cc3d
000001e0: bfa1 123e 9a04 66be 488b 90bc 23a9 8fbe
000001f0: a1cb b63e 6e77 623e 824b 8dbb 0850 783d
00000200: 8f18 57be 3882 8cbe f278 f8bd f415 3b3e
00000210: 8855 83be ebd9 71be 7664 9bbe 6d62 f9be
00000220: b09c c53d e62e 77bd e59f bfbe 4d58 88be
00000230: 43f2 62bd d2e0 09be a831 6a3c a3b1 673b
00000240: 7adc 523e 4a20 48be b57e 833e 254d 1d3f
00000250: f44e fcbe c68b b73e f8c8 84be 2403 2cbe
00000260: 4dab 5a3b 03ca fbbe dd03 4fbe bc9a 0f3d
00000270: 33e3 873e bd34 923e 96b0 983e b5b9 143e
00000280: da23 b9bd 5955 84be 8071 ed3e acfc 17bd
00000290: ac36 0e3e a8bd e83d 91b2 c5be e555 64bd
000002a0: d5f0 af3d a3a4 08be 3733 8e3d 6c64 ce3d
000002b0: d95d 05bf 030b 743e 067c 3e3f 3a34 ae3e
000002c0: 0966 43be 24b9 e9bd b128 76be ac79 5bbe
000002d0: 0a66 9abd 4f79 843e 857e f0bd 5e44 e53d
000002e0: cc45 3a3e d5af 433e 9017 5b3d 331c 52be
000002f0: 7dec c93d 9a6c b23e d979 aa3e 896c 0c3d
00000300: 081a dfbe 7d9c 96bf 219b 263f 75a8 283e
00000310: bcf0 fcbe ea3d 21be 2939 e03e 6365 40bf
00000320: e4cd 283e a799 23bf 8d7b 25bf 5531 0fbf
00000330: 18a9 41be c99d 293e b9fd 63be 15f8 16be
00000340: 30f7 533e 6a03 37bf 7d6e 1b3f 6551 bf3e
00000350: ad7f ebbd 9ce0 b33e 93f6 0f3f 81b8 0f3e
00000360: 508d bebd 8b38 1cbf c0d4 c5be fbf3 a2be
00000370: d804 813f dd92 443e d87d 8c3f eec0 c43e
00000380: 311a 12bf 74e5 99be 4c3b 403f 0509 a13e
00000390: a9c1 73be ddc0 ee3c 7e66 a4bf e06f 083f
000003a0: 0bb0 b13e 1233 003e f7d3 3f3e 3e70 773d
000003b0: b4e9 8cbf 8703 ac3e 6823 713f d9cb 193f
000003c0: f33e e9bd bfd4 1cbf 7b41 353d facd 62be
000003d0: cca7 383d 6f7d 3f3f 2545 073f 0ce7 e0be
000003e0: 47b5 aabe 6c75 2b3e f3ee 433f 57ea 6fbf
000003f0: 812a c13e 7400 993f a4b6 733f 0a4c 033e

critic.0.bias f4 [32]
0.29960322 -0.33820543 0.40277484 0.24224465 -0.39853472 0.26737198 -0.2620765 0.32242525
-0.49898285 0.47110716 0.20387147 0.23296799 -0.37239555 0.24597877 -0.42002302 0.42428967
-0.36444417 -0.091367655 -0.34851876 -0.42002943 -0.20016055 0.23873937 -0.5067985 -0.436318
0.1007804 0.32149264 -0.16601083 0.21065202 -0.40850058 0.033527013 0.2728463 0.25225824
00000000: 9865 993e 4329 adbe 8138 ce3e fb0e 783e
00000010: be0c ccbe fbe4 883e e42e 86be ec14 a53e
00000020: ae7a ffbe f534 f13e afc3 503e 298f 6e3e
00000030: a1aa bebe dce1 7b3e 420d d7be 7f3c d93e
00000040: 6d98 babe f71e bbbd 0d71 b2be 190e d7be
00000050: e3f6 4cbe 1878 743e 8cbd 01bf 1365 dfbe
00000060: f465 ce3d af9a a43e befe 29be 2ab5 573e
00000070: fd26 d1be 9f53 093d 83b2 8b3e fe27 813e

critic.2.weight f4 [1, 32]
0.8751582 -0.28688967 0.4427117 0.9625129 -0.6324728 0.8938299 -0.42013603 0.22485813
-1.2640499 0.6516822 0.14197986 0.16366188 -0.413726 0.3993142 -1.2875983 0.31179455
-1.0480651 -0.27464098 -0.7838725 -0.69831264 -0.24979249 0.4156841 -1.0967909 -1.1495836
0.13191429 0.87297785 -0.30952075 1.1417096 -0.75643736 0.13193798 0.575384 0.5117136
00000000: 5e0a 603f 34e3 92be 1cab e23e 3f67 763f
00000010: bde9 21bf 09d2 643f 121c d7be 3641 663e
00000020: 63cc a1bf a5d4 263f 2b63 113e fb96 273e
00000030: e5d3 d3be e972 cc3e 05d0 a4bf 89a3 9f3e
00000040: ff26 86bf be9d 8cbe deab 48bf 9ec4 32bf
00000050: 9ac9 7fbe 8cd4 d43e a563 8cbf 8e25 93bf
00000060: 8a14 073e 7a7b 5f3f 8179 9ebe 8a23 923f
00000070: e1a5 41bf c01a 073e 5e4c 133f aaff 023f

memory_a.rnn.weight_ih_l0 f4 [256, 41]
-0.14042129 0.038499326 0.4504195 0.06444728 0.24763 -0.03951055 0.00019647164 0.02868092
-0.012316868 -0.64716464 0.05055858 -0.3907291 0.2726242 -0.82413244 -0.23136008 -0.12715723
0.5593814 0.1605011 -1.1051623 -0.07432874 -0.9481471 -0.4724906 0.11003443 0.47825363
0.11587274 -0.08295362 -0.43900856 0.3613306 -0.41444293 0.005415773 -0.020141069 0.026016742
-0.08792236 0.08765046 -0.16861808 0.058501955 0.11533607 -0.27312428 -0.5830434 0.19966835
0.8702 1.11079 0.4099593 0.48891062 1.3354892 0.22326289 -0.11645116 0.13065584
-0.007489383 0.09255302 -0.055854056 0.14542158 -1.2518452 0.027193785 0.12482822 0.9445456
-0.58798397 -0.99251693 -0.22833443 0.10081051 -0.19356212 -0.066609986 0.020392802 0.66079354
-0.12159383 0.98501927 -0.588023 -0.6186683 0.22777382 0.25163582 0.084756285 0.13918024
-0.06813568 0.45144278 0.12438625 0.37252402 -0.17773919 -0.079771206 -0.44390196 0.15598498
-0.027069777 0.71108073 0.16299456 0.8548308 0.6189946 -0.3656698 0.09710841 -0.33738416
-0.24129763 -0.114951566 0.10370737 -0.25194362 0.35012406 0.07604394 0.19174263 -0.008700837
0.12001833 -0.49144843 -0.16593595 0.14706422 -0.29132894 0.12005788 0.26329675 -0.53288114
0.34193623 -0.1347739 0.19716512 0.54747343 -0.8121019 0.23836485 0.25156277 -0.0574455
0.23151095 -0.3834818 0.085310996 0.09660547 0.07961754 0.18124326 -0.17135483 0.3587812
0.12374884 0.08384804 1.1709522 -0.117091015 0.24930897 -0.1355225 0.19332995 0.50487506
0.061290883 0.11888464 -0.08144121 -0.026828617 -0.59874517 0.8893495 -0.28610206 -0.28884873
0.46627137 -0.34798217 -0.96415883 0.3589347 -0.4985251 0.15116602 -0.108904704 -0.15368631
-0.121729605 -0.25375047 0.3867126 -0.06872574 0.61423904 0.07842882 -0.49263823 0.1069272
-0.26502314 0.09037676 0.33957607 -0.87032676 -0.07805102 -0.35195673 0.14226598 0.114475004
0.14318296 0.15429445 0.047382284 0.32788855 0.071459964 0.82827616 0.5728002 1.0210687
0.12417155 -0.30834666 -0.20028058 -0.052103117 -0.091196194 0.08004354 -0.61985326 -0.1681787
-0.36561522 0.037732746 -0.31094915 -1.9656254 -0.11973646 -0.1557071 -1.0383337 0.3733579
-0.11722376 -0.9879572 0.26832983 -0.09952872 -0.2136995 -0.7000376 -0.2599366 0.9574811
-1.4788704 -0.0739762 -0.098472275 0.025685046 -0.03767775 0.2738608 0.17912537 -0.18697862
0.10925835 0.019608958 0.07522128 0.049190525 0.10726667 1.1869966 -0.27365336 0.25207365
0.38995928 -0.41515052 -0.4267286 0.17267348 0.11861305 -0.107379064 0.7043101 0.056463193
-0.23660724 -0.2152674 -0.083103396 -0.0821034 -0.26510775 -0.50850797 -0.07104485 0.1258343
-0.74817353 0.36324203 -0.018409483 0.752147 -0.08425076 0.11043673 0.1056646 -0.45112514
0.9162899 -0.10815808 0.112025 -0.13055271 -0.0076919817 -0.03150199 -0.09540619 0.27613845
0.08238302 0.2235428 0.1324418 0.095967256 0.49915048 0.26757094 0.15568067 1.676508
-0.33133718 0.8589942 0.23842572 -0.42271757 0.20924999 0.10851081 0.08804725 0.06142308
00000000: 99ca 0fbe 78b1 1d3d 629d e63e effc 833d
00000010: b892 7d3e d1d5 21bd f403 4e39 40f4 ea3c
00000020: b0cc 49bc 95ac 25bf 8316 4f3d a50d c8be
00000030: 6695 8b3e 58fa 52bf a8e9 6cbe 8135 02be
00000040: 9f33 0f3f 665a 243e f575 8dbf ab39 98bd
00000050: c5b9 72bf 4aea f1be bb59 e13d a9dd f43e
00000060: b04e ed3d 96e3 a9bd bbc5 e0be 5300 b93e
00000070: dd31 d4be cc76 b13b e2fe a4bc 1021 d53c
00000080: a310 b4bd 1682 b33d 38aa 2cbe bf9f 6f3d
00000090: 5135 ec3d f2d6 8bbe 5542 15bf dc75 4c3e
000000a0: 6dc5 5e3f 5e2e 8e3f 2fe6 d13e 7e52 fa3e
000000b0: 4ff1 aa3f 079f 643e f27d eebd a5ca 053e
000000c0: 8069 f5bb 708c bd3d 39c7 64bd 65e9 143e
000000d0: 773c a0bf 80c5 de3c f0a5 ff3d becd 713f
000000e0: 1e86 16bf 9715 7ebf 80d0 69be be75 ce3d
000000f0: 2635 46be d16a 88bd ce0e a73c c429 293f
00000100: 3006 f9bd 392a 7c3f ad88 16bf 0c61 1ebf
00000110: 8a3d 693e 69d6 803e b494 ad3d 4485 0e3e
00000120: b88a 8bbd 8223 e73e 38be fe3d 78bb be3e
00000130: 4301 36be 165f a3bd 1e47 e3be 87ba 1f3e
00000140: 70c1 ddbc 6309 363f 0ce8 263e 31d6 5a3f
00000150: 6e76 1e3f 1239 bbbe c6e0 c63d 9ebd acbe
00000160: ba16 77be ba6b ebbd 8864 d43d c1fe 80be
00000170: 7643 b33e edbc 9b3d 2e58 443e f58d 0ebc
00000180: 2ccc f53d 219f fbbe 1deb 29be 0198 163e
00000190: 1129 95be e8e0 f53d d5ce 863e e66a 08bf
000001a0: 4412 af3e 2b02 0abe a7e5 493e 3827 0c3f
000001b0: e9e5 4fbf ea15 743e d6cc 803e f94b 6bbd
000001c0: 3511 6d3e ba57 c4be 88b7 ae3d 17d9 c53d
000001d0: 850e a33d d597 393e a477 2fbe 2bb2 b73e
000001e0: 0870 fd3d 85b8 ab3d c3e1 953f 6acd efbd
000001f0: da4a 7f3e 69c6 0abe 49f8 453e 7e3f 013f
00000200: 260c 7b3d ca79 f33d a6ca a6bd b0c7 dbbc
00000210: 5d47 19bf 69ac 633f f87b 92be fbe3 93be
00000220: 1fbb ee3e b82a b2be 1dd3 76bf 4ac6 b73e
00000230: af3e ffbe 44cb 1a3e 6e09 dfbd f25f 1dbe
00000240: 5f4d f9bd 95eb 81be 32ff c53e 15c0 8cbd
00000250: c53e 1d3f 4a9f a03d 143b fcbe a6fc da3d
00000260: 1db1 87be 7317 b93d eadc ad3e bccd 5ebf
00000270: 37d9 9fbd ac33 b4be 2cae 113e df71 ea3d
00000280: 8e9e 123e 5dff 1d3e ed13 423d 02e1 a73e
00000290: 9a59 923d e809 543f 09a3 123f 61b2 823f
000002a0: a74d fe3d 9ddf 9dbe 5a16 4dbe 146a 55bd
000002b0: 12c5 babd deed a33d b4ae 1ebf 0a37 2cbe
000002c0: eb31 bbbe a78d 1a3d ba34 9fbe 9d99 fbbf
000002d0: 6438 f5bd af71 1fbe 1ee8 84bf c428 bf3e
000002e0: 0313 f0bd c3ea 7cbf 8762 893e b7d5 cbbd
000002f0: 0bd4 5abe aa35 33bf 6916 85be 7b1d 753f
00000300: a04b bdbf d580 97bd d5ab c9bd 7269 d23c
00000310: fc53 1abd 7c37 8c3e a46c 373e 5377 3fbe
00000320: d8c2 df3d f7a2 a03c 9d0d 9a3d 017c 493d
00000330: a1ae db3d 81ef 973f 4b1c 8cbe cc0f 813e
00000340: bea8 c73e 9c8e d4be 2c7c dabe 51d1 303e
00000350: 66eb f23d 8ee9 dbbd ab4d 343f f345 673d
00000360: 2b49 72be 0f6f 5cbe 1d32 aabd d425 a8bd
00000370: 34bc 87be 942d 02bf f67f 91bd b5da 003e
00000380: 4d88 3fbf dcfa b93e 7ccf 96bc b58c 403f
00000390: aa8b acbd a72c e23d af66 d83d e0f9 e6be
000003a0: fa91 6a3f fc81 ddbd 5d6d e53d 9caf 05be
000003b0: 050d fcbb 3b08 01bd 5264 c3bd 0562 8d3e
000003c0: 6eb8 a83d 67e8 643e d39e 073e 7b8a c43d
000003d0: a790 ff3e 0fff 883e c16a 1f3e d097 d63f
000003e0: 07a5 a9be 0be7 5b3f df25 743e 706e d8be
000003f0: a145 563e ea3a de3d 1e52 b43d c496 7b3d

memory_a.rnn.weight_hh_l0 f4 [256, 64]
-0.21284024 -0.22596566 -0.06383955 0.4077594 -0.08138512 0.3236401 0.178922 0.0044600773
0.17961176 1.0783647 0.5992407 -0.18252942 0.29582655 -0.71085256 -0.61104333 0.2409207
-0.31138623 0.06797668 0.79799074 -0.21898083 0.6873865 0.3259664 0.20538895 -0.022177877
0.7079274 0.35982153 -0.72924787 0.2451334 -0.33488587 0.721609 0.6788585 -0.6561974
0.4646385 0.53129524 0.21866135 0.21998735 -0.7802112 -0.29214096 -0.5445527 0.021521488
-0.26529598 0.2541412 0.08416048 0.21573672 -0.45969582 0.022723056 0.6261544 -0.24485134
-0.6808594 -0.20488124 0.7790149 0.024636326 0.4280506 0.34220615 0.40152597 -0.26292217
0.521233 0.3273682 0.27092186 0.47829342 0.6063606 0.4698226 -0.23865518 -0.5770138
-0.7054597 0.10234525 0.51187736 0.24737504 -0.6214025 0.44305053 0.18761894 -0.2890607
0.14527659 0.012139265 0.4931653 -0.028698975 1.0309665 -0.17857783 -0.08541765 0.057864845
-0.28694645 -0.09171333 -0.3727682 -0.6536549 0.4887204 -0.23910542 1.291044 -0.2529642
-0.15807149 -0.06611513 -0.48816204 0.12053283 -0.3366004 0.57008976 -0.38161463 -0.19339453
0.29042938 -0.097718515 -0.078760654 -0.10937269 -0.15876225 0.29664853 -0.65031743 0.9891675
0.2165525 0.38989523 0.8986619 -0.07772954 -0.36552602 0.15028651 -0.27813208 0.78352827
-0.1443752 0.21453753 0.55325395 0.76177704 0.62595534 -0.17202574 0.36101735 0.9806262
-0.62063414 -0.37853435 -0.096231334 -0.23900965 0.096789114 -0.5792286 -0.083614856 0.3078025
-0.46643797 -0.49779132 0.08440628 0.3424291 -0.046135843 -0.002901888 -0.051727805 -0.3217173
-1.0463295 0.0829582 0.11211889 0.55245405 -0.27024758 -0.74018574 0.32860756 -0.20830451
0.11093143 -0.08630463 0.19532523 -0.47529608 -0.012708646 0.1206927 0.50556743 1.0435994
0.23613197 -0.5127547 0.65977967 0.60131836 0.1319087 0.5739984 -0.29298788 -0.47797868
-0.76378864 0.26002795 -0.95085984 0.25124094 0.27456927 0.2880506 -0.8680825 -0.6055142
0.46229553 -0.089668676 -0.6533045 -0.10638088 -0.33419722 0.20552073 -0.15436535 0.21778451
0.28682724 -0.49892366 0.04979526 -0.7064119 0.17394486 -0.68154013 -0.09627783 -0.8167486
-0.20937444 -0.27799845 -0.28878245 0.52463305 0.21910079 0.00207437 -0.5498989 -0.06298362
-0.35190105 -0.27475128 0.33993977 -0.17106801 0.3180093 0.17639993 0.10538587 -0.07847803
0.02020645 0.2412022 0.9658545 -0.7125607 1.0072489 0.110743515 0.81127036 -0.36151767
0.64886117 0.5067983 0.8447404 -0.26364818 0.4047648 -0.9610682 0.3477183 -0.20382223
-0.4818834 -0.78903705 -0.6290862 0.6968803 0.47637174 -0.40578496 0.6217871 0.38622716
-0.42029047 0.27404284 -0.23111057 0.33209378 0.107503295 0.36299622 -0.06370139 0.29431581
0.16223873 -0.21381895 -0.8455109 0.4648883 0.041845575 0.47597146 -0.34525228 0.68343633
0.41556165 0.21812886 0.69497526 0.20527872 1.0935354 0.36958084 1.0389458 -0.24259911
0.11601543 0.50338274 0.10288957 -0.06316804 0.41443163 0.45534074 -0.17719942 -0.66757435
00000000: cbf2 59be 8b63 67be 4fbe 82bd d7c5 d03e
00000010: 3ead a6bd 28b4 a53e 5437 373e d725 923b
00000020: 25ec 373e db07 8a3f d767 193f fee8 3abe
00000030: 9476 973e 6ffa 35bf 566d 1cbf eab3 763e
00000040: 046e 9fbe 5c37 8b3d 1f49 4c3f 833c 60be
00000050: 90f8 2f3f 11e5 a63e 7b51 523e 61ae b5bc
00000060: bb3a 353f 873a b83e fdaf 3abf 4004 7b3e
00000070: 2976 abbe 5ebb 383f acc9 2d3f 8efc 27bf
00000080: 19e5 ed3e f702 083f c3e8 5f3e 5d44 613e
00000090: ecbb 47bf 8093 95be ce67 0bbf d54d b03c
000000a0: e0d4 87be cc1e 823e 545c ac3d 16ea 5c3e
000000b0: 405d ebbe b425 ba3c a84b 203f 4fba 7abe
000000c0: cd4c 2ebf 63cc 51be 856d 473f 1fd2 c93c
000000d0: 7329 db3e a535 af3e d094 cd3e bc9d 86be
000000e0: 876f 053f ce9c a73e 45b6 8a3e e0e2 f43e
000000f0: 733a 1b3f 968c f03e 0662 74be 2db7 13bf
00000100: 0299 34bf 639a d13d 650a 033f e24f 7d3e
00000110: 3c14 1fbf 85d7 e23e 2e1f 403e c4ff 93be
00000120: 63c3 143e c5e3 463c 2a80 fc3e 1d1a ebbc
00000130: b6f6 833f 1bdd 36be 73ef aebd b003 6d3d
00000140: a5ea 92be 33d4 bbbd 79db bebe ed55 27bf
00000150: 8f39 fa3e 0dd8 74be ee40 a53f 8684 81be
00000160: 7edd 21be 5f67 87bd 60f0 f9be ebd9 f63d
00000170: e356 acbe 67f1 113f fe62 c3be 3709 46be
00000180: 29b3 943e a520 c8bd 444d a1bd cafe dfbd
00000190: 9292 22be 51e2 973e 347b 26bf 153a 7d3f
000001a0: f0bf 5d3e 59a0 c73e b50e 663f aa30 9fbd
000001b0: 3a26 bbbe b5e4 193e 5467 8ebe 4f95 483f
000001c0: 18d7 13be baaf 5b3e 0da2 0d3f d203 433f
000001d0: 9c3e 203f 8427 30be 44d7 b83e 520a 7b3f
000001e0: e1e1 1ebf 41cf c1be ef14 c5bd f2be 74be
000001f0: 5f39 c63d 5348 14bf 443e abbd 4a98 9d3e
00000200: f5d0 eebe 81de febe 33dd ac3d de52 af3e
00000210: f0f8 3cbd 9a2d 3ebb 89e0 53bd 21b8 a4be
00000220: 20ee 85bf fde5 a93d 979e e53d a16d 0d3f
00000230: e45d 8abe d07c 3dbf 403f a83e c74d 55be
00000240: 0430 e33d 7bc0 b0bd 5603 483e 025a f3be
00000250: ed37 50bc bc2d f73d de6c 013f aa94 853f
00000260: 94cc 713e e443 03bf 52e7 283f 00f0 193f
00000270: 1313 073e 8ff1 123f 8202 96be 9fb9 f4be
00000280: a787 43bf 6222 853e 8d6b 73bf a7a2 803e
00000290: 5894 8c3e 5e7b 933e a83a 5ebf fb02 1bbf
000002a0: 00b2 ec3e 36a4 b7bd f73e 27bf 38de d9bd
000002b0: e61b abbe 0774 523e f311 1ebe e702 5f3e
000002c0: 05db 923e ec72 ffbe 1df6 4b3d 69d7 34bf
000002d0: 9a1e 323e 6a79 2ebf 502d c5bd 7016 51bf
000002e0: 4166 56be d055 8ebe 4bdb 93be 5a4e 063f
000002f0: f55b 603e 27f2 073b 2dc6 0cbf 8efd 80bd
00000300: 602c b4be 33ac 8cbe 960c ae3e 742c 2fbe
00000310: 1dd2 a23e 2fa2 343e 8cd4 d73d 17b9 a0bd
00000320: ff87 a53c b6fd 763e 3e42 773f 616a 36bf
00000330: 88ed 803f 7fcd e23d 6aaf 4f3f d818 b9be
00000340: c41b 263f 89bd 013f e840 583f e5fc 86be
00000350: 553d cf3e 9108 76bf 2208 b23e c6b6 50be
00000360: 6cb9 f6be 55fe 49bf cb0b 21bf bf66 323f
00000370: ffe6 f33e 0cc3 cfbe 702d 1f3f 91bf c53e
00000380: 5030 d7be 584f 8c3e 40a8 6cbe 3208 aa3e
00000390: b02a dc3d a4da b93e e075 82bd 90b0 963e
000003a0: e921 263e 5bf3 5abe 6773 58bf d705 ee3e
000003b0: 4466 2b3d 88b2 f33e e8c4 b0be aff5 2e3f
000003c0: 7fc4 d43e 2c5d 5f3e e6e9 313f 9634 523e
000003d0: f8f8 8b3f b339 bd3e 2dfc 843f e76b 78be
000003e0: 7f99 ed3d b1dd 003f c4b7 d23d 3f5e 81bd
000003f0: 6230 d43e 6c22 e93e c473 35be 27e6 2abf

memory_a.rnn.bias_ih_l0 f4 [256]
-0.12217262 0.17416257 -0.39562666 -0.034132633 -0.100795604 0.24316888 0.21879117 0.04930189
-0.081667125 0.11503319 0.04872344 -0.22698231 0.018893646 0.11532928 -0.06655019 -0.16239336
-0.02106842 -0.2003012 -0.04917838 -0.13869557 0.093737066 -0.26577577 -0.076511696 0.0300826
-0.31371516 0.2752866 -0.29312894 -0.041298397 -0.32385454 0.066694126 -0.28053308 -0.34319347
-0.09267679 -0.009018496 -0.26986378 0.34271228 -0.18958901 0.09017702 -0.14216453 -0.24653268
0.17930618 -0.28542235 -0.36756578 -0.13993202 0.04215611 0.088145085 -0.017829705 0.17541143
0.018049337 -0.09580332 0.06678751 0.18317178 -0.22764336 0.048564464 0.1651272 0.039871074
0.2189703 -0.20580725 0.06257987 -0.1062881 -0.06436326 -0.2781763 0.01385572 0.35975993
-0.13064274 -0.3296306 0.08056088 -0.040697012 0.038001336 0.065983154 -0.23908556 -0.16347495
-0.21026589 -0.003164325 0.043405443 -0.09772009 -0.06820765 -0.098547354 -0.08366286 -0.15502748
0.1067278 -0.03744881 0.014947743 0.30186793 -0.2558613 -0.09683976 -0.08316553 -0.07091152
0.029559484 -0.026331868 0.0088170245 -0.1525653 0.101985134 -0.005933167 -0.20908675 -0.06749074
0.07082355 0.066218525 -0.13346493 -0.075320594 -0.15769556 0.09018543 0.05381105 0.0011219655
-0.03984857 0.16043316 -0.05017363 -0.10213347 -0.1823654 -0.32837668 -0.2706792 -0.550304
-0.3387164 0.022419903 -0.09518473 0.053674668 -0.09880884 -0.20319957 0.020063126 -0.25751656
-0.2509043 0.080205694 -0.25116822 -0.26890993 -0.049339324 -0.02928275 0.13948816 -0.15321147
-0.12783177 -0.34997085 -0.06606835 0.099910766 -0.10447297 0.20178711 -0.074597865 0.101310894
-0.106524356 -0.01609804 -0.17551516 0.17875734 -0.47696587 -0.0820347 -0.2957745 -0.19745038
-0.09240899 -0.059282944 -0.074595556 -0.13168277 0.0068750093 -0.034140885 0.05913171 -0.04708545
0.1299329 0.028515762 0.10701822 -0.14572944 0.16031495 -0.1392129 -0.06207674 -0.04814719
0.07965199 -0.22102685 0.19702515 0.099507675 0.14119151 0.019114843 -0.03333385 0.026762849
-0.0013089615 -0.17054678 0.015103377 -0.17823891 -0.14187711 -0.09166822 -0.16421968 0.17174788
-0.040682785 0.0061005773 -0.07538155 0.09279474 0.062777594 -0.10493445 0.035247624 -0.079622224
-0.07713864 0.13318163 0.19311245 -0.024606163 -0.12710372 0.00794606 -0.051227625 0.02496419
-0.025760902 -0.18565814 -0.28528473 -0.2807967 -0.0052962014 0.23656903 -0.15982105 -2.2308324e-05
0.21978587 0.0036856558 0.16875029 -0.36112922 0.26616073 0.2174901 -0.09176996 0.06268768
-0.19276766 -0.1688581 -0.18261988 -0.124579296 0.1515877 -0.18262352 -0.141709 -0.008636821
-0.11313261 0.056583304 -0.0563021 -0.28677103 -0.16466267 0.16736649 -0.047184546 -0.32733852
-0.23005489 -0.010285456 -0.1476226 0.13593507 -0.052726716 0.08703599 0.08550832 -0.15270577
0.06989898 -0.047892284 -0.2535481 -0.031019188 0.19035226 -0.11074525 0.14766221 0.24020398
-0.03860567 0.10752993 0.33835104 0.15017089 -0.10876149 -0.05853654 -0.08395764 0.13176054
0.30255246 -0.03542558 -0.15196759 -0.25815302 -0.066598356 -0.009249749 -0.030716792 0.07501189
00000000: a335 fabd ac57 323e 948f cabe a9ce 0bbd
00000010: ed6d cebd 4301 793e cb0a 603e c7f0 493d
00000020: 1841 a7bd 8596 eb3d 3b92 473d 0d6e 68be
00000030: d9c6 9a3c c231 ec3d 774b 88bd 724a 26be
00000040: ae97 acbc c21b 4dbe 456f 49bd 3606 0ebe
00000050: 38f9 bf3d c313 88be 2ab2 9cbd c96f f63c
00000060: 469f a0be 5ef2 8c3e ff14 96be 8228 29bd
00000070: 43d0 a5be ee96 883d 08a2 8fbe 0eb7 afbe
00000080: 54cd bdbd 50c2 13bc 962b 8abe fc77 af3e
00000090: 9f23 42be bbae b83d 9493 11be 1073 7cbe
000000a0: 0a9c 373e e122 92be 9531 bcbe 574a 0fbe
000000b0: e3ab 2c3d 6985 b43d 9a0f 92bc 0e9f 333e
000000c0: 34dc 933c 8834 c4bd e4c7 883d 6291 3b3e
000000d0: 571b 69be 88eb 463d 1b17 293e da4f 233d
000000e0: c039 603e 23bf 52be e029 803d 93ad d9bd
000000f0: e3d0 83bd 206d 8ebe 1a03 633c 7432 b83e
00000100: 36c7 05be 58c5 a8be 1afd a43d e9b1 26bd
00000110: 4aa7 1b3d 2d22 873d d8d2 74be fa65 27be
00000120: f14f 57be 9060 4fbb e8c9 313d 7821 c8bd
00000130: 74b0 8bbd 32d3 c9bd 6f57 abbd 86bf 1ebe
00000140: 1b94 da3d ec63 19bd 61e7 743c 6f8e 9a3e
00000150: 4100 83be ed53 c6bd b052 aabd 0f3a 91bd
00000160: bb26 f23c eeb5 d7bc 4875 103c 143a 1cbe
00000170: 95dd d03d 036b c2bb d61a 56be 9638 8abd
00000180: f00b 913d 949d 873d 08ab 08be af41 9abd
00000190: f27a 21be 24b3 b83d fa68 5c3d ea0e 933a
000001a0: 4138 23bd 9748 243e dd82 4dbd 5a2b d1bd
000001b0: ffbd 3abe fd20 a8be 7796 8abe b9e0 0cbf
000001c0: 3c6c adbe f2a9 b73c 36f0 c2bd f8d9 5b3d
000001d0: 4a5c cabd 8c13 50be 6d5b a43c 36d9 83be
000001e0: 8776 80be e242 a43d 1f99 80be 90ae 89be
000001f0: 0818 4abd 61e2 efbc fcd5 0e3e 78e3 1cbe
00000200: 55e6 02be 612f b3be d84e 87bd 049e cc3d
00000210: edf5 d5bd 48a1 4e3e c4c6 98bd 167c cf3d
00000220: 7129 dabd 09e0 83bc 3fba 33be 2a0c 373e
00000230: df34 f4be cf01 a8bd c16f 97be 6f30 4abe
00000240: ed40 bdbd acd2 72bd 8ec5 98bd d9d7 06be
00000250: c247 e13b 50d7 0bbd 1834 723d acdc 40bd
00000260: 210d 053e e399 e93c 5e2c db3d 193a 15be
00000270: 9a29 243e d48d 0ebe 2e44 7ebd fd35 45bd
00000280: 9520 a33d dd54 62be f6c0 493e aeca cb3d
00000290: 8294 103e bb96 9c3c 1389 08bd c33d db3c
000002a0: 7691 abba d1a3 2ebe 2874 773c 4384 36be
000002b0: 3c48 11be 8cbc bbbd 3429 28be adde 2f3e
000002c0: fea2 26bd 5ae7 c73b a461 9abd 2b0b be3d
000002d0: 8a91 803d dfe7 d6bd d05f 103d fa10 a3bd
000002e0: ddfa 9dbd c460 083e 45bf 453e dd92 c9bc
000002f0: 7a27 02be 3130 023c 0fd4 51bd b381 cc3c
00000300: 8708 d3bc 2b1d 3ebe d710 92be 96c4 8fbe
00000310: c28b adbb 273f 723e 21a8 23be c322 bbb7
00000320: 8c0f 613e 0b8b 713b e0cc 2c3e eee5 b8be
00000330: 3846 883e bab5 5e3e e4f1 bbbd 6662 803d
00000340: e364 45be 23e9 2cbe b500 3bbe 6e23 ffbd
00000350: ce39 1b3e a901 3bbe 2a1c 11be 7481 0dbc
00000360: 12b2 e7bd e5c3 673d 089d 66bd a7d3 92be
00000370: 559d 28be 1f62 2b3e 9544 41bd ea98 a7be
00000380: 8293 6bbe 5484 28bc 612a 17be 9032 0b3e
00000390: f8f7 57bd ed3f b23d fc1e af3d e75e 1cbe
000003a0: 3227 8f3d b32a 44bd 0ed1 81be f41b febc
000003b0: b4eb 423e 68ce e2bd c334 173e 08f8 753e
000003c0: fb20 1ebd a738 dc3d 593c ad3e 66c6 193e
000003d0: 58be debd 03c4 6fbd fcf1 abbd 3cec 063e
000003e0: 28e8 9a3e 6a1a 11bd 649d 1bbe a22c 84be
000003f0: b864 88bd 428c 17bc c8a1 fbbc d59f 993d

memory_a.rnn.bias_hh_l0 f4 [256]
-0.049113296 0.018072098 -0.20708117 0.04523365 -0.16774231 0.2007244 0.24058817 -0.06987749
0.026579512 0.1318621 -0.12462163 -0.19633633 -0.0041677947 0.035523415 -0.0880062 -0.13468724
0.11729142 -0.3076116 -0.051582165 -0.015818464 0.12865685 -0.27090323 0.02444503 -0.15894304
-0.13427709 0.2788313 -0.16110153 0.015061163 -0.40055072 0.008416006 -0.22714406 -0.30228806
-0.2415614 -0.055599097 -0.13875955 0.39558372 -0.05516704 0.16847527 0.016806224 -0.0852824
0.2507739 -0.18063894 -0.2891401 -0.18549132 -0.06459212 0.15222579 0.08204314 0.25960526
-0.017870285 -0.21913518 -0.06876282 0.067570865 -0.27775228 0.0816417 0.18477584 -0.050556734
0.3386992 -0.34691507 -0.02628211 -0.16856286 -0.03252406 -0.37964737 0.15725113 0.31846368
-0.05524202 -0.19180992 -0.0346036 -0.15097116 0.08507072 0.06332712 -0.21558554 -0.13358314
-0.03829732 -0.099498816 0.042200614 -0.1349655 -0.2012322 0.086378954 -0.11330634 -0.2888047
0.0008444252 -0.08287083 -0.025676342 0.21247186 -0.15683083 0.00063976075 -0.17101713 -0.08024111
-0.10354136 -0.22317173 0.05594252 -0.17955136 0.06318342 0.055421583 -0.20380433 -0.056413047
-0.04815276 0.06403578 0.043553744 -0.02716279 -0.14156777 0.23707597 -0.057333667 0.052811325
0.14401473 0.1644573 0.09758373 -0.090192474 -0.11556123 -0.2422417 -0.3605093 -0.5704357
-0.20452495 -0.12577151 -0.138286 -0.10563948 -0.23610438 -0.18504663 0.008414288 -0.25691208
-0.1609848 -0.11182943 -0.28649145 -0.09370262 -0.014057687 -0.17087473 0.17631939 -0.19293062
-0.08232639 -0.28457147 -0.08041274 0.090004094 -0.15651353 0.11676479 -0.084404446 -0.0014311443
-0.12481652 0.009934211 -0.09639914 0.13060011 -0.3674205 0.017756013 -0.067541584 -0.15013462
-0.017805958 -0.03288606 -0.009287572 -0.016411044 -0.122664906 0.16369149 0.047003802 0.011690458
-0.044989467 -0.013054172 0.099364996 0.021670083 0.13333984 0.011788469 -0.049286734 0.02403973
0.027341468 -0.05786256 0.014977228 0.04174771 0.05038346 -0.008309376 -0.10873168 -0.07588064
0.1751747 -0.117057 -0.04141281 -0.14680745 -0.20209491 -0.017713796 -0.149317 0.0078858035
0.010290435 -0.06669242 -0.05744242 -0.05418966 0.2717302 -0.29637963 0.03997884 0.050085258
-0.19273064 0.16473937 0.1963079 0.0040722713 -0.13201047 -0.12404025 -0.0015314918 0.07085678
-0.03646996 -0.08285882 -0.36269048 -0.25090855 0.086132795 0.24584092 0.028471055 0.101768
0.08150193 -0.11616266 0.16747221 -0.40713158 0.2527524 0.042142242 -0.08364389 0.054161273
-0.21834783 -0.01823696 -0.11658159 -0.14123964 0.049368627 -0.1527526 -0.25025666 -0.0549835
-0.14303409 0.20067771 0.10671151 -0.2672011 -0.2893756 -0.014522461 -0.1040973 -0.4606937
-0.17661953 0.018302416 -0.075353526 0.2262687 -0.097308874 0.024120057 0.021408772 -0.012148898
-0.019391658 -0.06762265 -0.05437151 -0.06922809 0.08892488 -0.17199312 -0.06234901 0.1870222
0.08481716 -0.013498085 0.25494164 0.08310604 -0.17710036 0.17976451 -0.24731721 0.039035458
0.19572097 0.011913991 -0.0683911 -0.19731161 0.07631367 0.011922904 0.022509314 0.29026836
00000000: 062b 49bd f00b 943c 160d 54be eb46 393d
00000010: a4c4 2bbe b28a 4d3e bf5c 763e ee1b 8fbd
00000020: 47bd d93c dc06 073e a039 ffbd 640c 49be
00000030: ff91 88bb 0081 113d 983c b4bd 74eb 09be
00000040: 7c36 f03d 457f 9dbe d247 53bd b995 81bc
00000050: 9fbe 033e d4b3 8abe f240 c83c f7c1 22be
00000060: ef7f 09be fac2 8e3e cdf7 24be 19c3 763c
00000070: fc14 cdbe 4ae3 093c 7498 68be 80c5 9abe
00000080: df5b 77be e1bb 63bd fc16 0ebe f389 ca3e
00000090: d6f6 61bd c884 2c3e 35ad 893c 8aa8 aebd
000000a0: 7065 803e 6af9 38be 2c0a 94be 70f1 3dbe
000000b0: e048 84bd 14e1 1b3e 3c06 a83d fbea 843e
000000c0: b464 92bc f964 60be 85d3 8cbd 9862 8a3d
000000d0: 8c35 8ebe c333 a73d e135 3d3e 9414 4fbd
000000e0: fb69 ad3e da9e b1be 944d d7bc be9b 2cbe
000000f0: f337 05bd 2461 c2be 7106 213e ac0d a33e
00000100: 7545 62bd d269 44be 81bc 0dbd 2f98 1abe
00000110: 8f39 ae3d a6b1 813d 75c2 5cbe 05ca 08be
00000120: a7dd 1cbd 09c6 cbbd 8dda 2c3d 6534 0abe
00000130: d00f 4ebe 73e7 b03d 280d e8bd 36de 93be
00000140: 6a5c 5d3a 2fb8 a9bd 3157 d2bc 3992 593e
00000150: 4398 20be 9eb5 273a 1d1f 2fbe 7355 a4bd
00000160: 7e0d d4bd 2187 64be fc23 653d 50dc 37be
00000170: 4f66 813d be01 633d 15b2 50be 5e11 67bd
00000180: d43b 45bd 3125 833d 6965 323d 8084 debc
00000190: 24f7 10be 0bc4 723e b5d6 6abd b050 583d
000001a0: 9978 133e 7f67 283e fbd9 c73d d5b6 b8bd
000001b0: 5eab ecbd 350e 78be ad94 b8be 1308 12bf
000001c0: fd6e 51be 3fca 00be d89a 0dbe 8359 d8bd
000001d0: 59c5 71be dd7c 3dbe 15dc 093c fb89 83be
000001e0: 33d9 24be d406 e5bd 02af 92be 29e7 bfbd
000001f0: 3652 66bc c9f9 2ebe 128d 343e 9b8f 45be
00000200: bd9a a8bd 5ab3 91be 6faf a4bd 1154 b83d
00000210: 1545 20be 6122 ef3d 3ddc acbd 3c95 bbba
00000220: ce9f ffbd 1ac3 223c ea6c c5bd 09bc 053e
00000230: 8a1e bcbe 0f75 913c 3e53 8abd e4bc 19be
00000240: cddd 91bc 89b3 06bd e62a 18bc 7470 86bc
00000250: bd37 fbbd be9e 273e 0f87 403d 5689 3f3c
00000260: e046 38bd 2ae1 55bc e07f cb3d 7585 b13c
00000270: 3d8a 083e 6c24 413c e3e0 49bd f8ee c43c
00000280: 37fb df3c 4b01 6dbd 0c63 753c a6ff 2a3d
00000290: e35e 4e3d 0d24 08bc b7ae debd 4f67 9bbd
000002a0: ff60 333e 95bb efbd 7ba0 29bd b154 16be
000002b0: f8f1 4ebe 861c 91bc 8ee6 18be 7533 013c
000002c0: 3699 283c 0996 88bd be48 6bbd faf5 5dbd
000002d0: 3920 8b3e 12bf 97be dac0 233d 3326 4d3d
000002e0: 2e5b 45be 70b1 283e f004 493e b070 853b
000002f0: c12d 07be d108 febd 56bc c8ba 5c1d 913d
00000300: 8661 15bd e3b1 a9bd 91b2 b9be 1677 80be
00000310: 6466 b03d b9bd 7b3e 213c e93c be6b d03d
00000320: 7cea a63d b0e6 edbd d67d 2b3e 8d73 d0be
00000330: c368 813e 589d 2c3d 7d4d abbd 36d8 5d3d
00000340: 9396 5fbe ad65 95bc 54c2 eebd 20a1 10be
00000350: c236 4a3d 2d6b 1cbe a421 80be 6136 61bd
00000360: 8777 12be 757e 4d3e 908b da3d 95ce 88be
00000370: 0a29 94be 9eef 6dbc f730 d5bd 0be0 ebbe
00000380: c0db 34be f3ee 953c f352 9abd fbb2 673e
00000390: e049 c7bd 6d97 c53c 7361 af3c 2c0c 47bc
000003a0: 41db 9ebc be7d 8abd a9b4 5ebd 75c7 8dbd
000003b0: 3f1e b63d f71e 30be ad61 7fbd bf82 3f3e
000003c0: 9fb4 ad3d 1227 5dbc b687 823e 8033 aa3d
000003d0: cc59 35be 3014 383e b940 7dbe a5e3 1f3d
000003e0: 146b 483e e632 433c a210 8cbd 0e0c 4abe
000003f0: 574a 9c3d 4958 433c 7465 b83c 0e9e 943e
