logs/h1/h1_torque_decap/model_200.pt (torch, 739872 bytes, 48 tensors)

std f4 [10]
00000000: 26b1 7d3f f498 923f dfb1 883f 5138 863f
00000010: 14b2 383f b5c0 673f 64e7 8c3f 1c7e 833f
00000020: 6da9 883f ac7b 463f
0.9909843 1.1452928 1.0679282 1.0485936 0.72146726 0.9052842 1.1008115 1.027286
1.0676705 0.7753246

actor.0.weight f4 [32, 64]
00000000: d20c 603d 6152 2fbe 91b1 883e 6e36 3dbd
00000010: 2303 34be 607a ca3d 2717 38be 00d9 59be
00000020: 4445 043e 5321 ea3d 7fb6 e2bc 6c9a 9d3e
00000030: b209 853e 33e2 123d d587 753e 0340 43bd
00000040: 6ce0 aabd f57c 4bbe 478b 0ebe f26c 9ebc
00000050: 1bee 3bbe a4c7 83be 2fe0 703e d212 1e3e
00000060: dd4c 4fbe ff21 d43d e3c4 98be 7847 f73d
00000070: c2c4 2fbd 4dba 8e3e 230c a53c 53a5 f2bd
00000080: f1ad 8c3e 4e4c 42bd cb97 193e 4cb7 bf3e
00000090: 02a8 2cbe 71d8 c43c e693 ba3c 00e5 253f
000000a0: 999c 2ebe 3394 2bbc 0fb1 2f3e 78bf 3b3e
000000b0: 0f1c 22bf 6c02 b7be b552 ea3c 82f0 fc3d
000000c0: 10dc 873d 62ce 863d 818d e4be 8558 dcbe
000000d0: b169 863e dc15 53ba 5e6d bd3e 2174 bdbe
000000e0: e61a 143e 75b8 3c3e 3c7e 87be 359b 45be
000000f0: a2cb 7abd f023 29bd 23a4 6d3d 19b3 91be
00000100: eb46 9ebd 453f 3bbd c67d 33bf 5556 4c3d
00000110: 0f75 b6bd 4f23 ee3e 3a79 643e cbe8 babe
00000120: 8667 b63c b666 c7bd c62d 06bf 4f4b 4a3e
00000130: b630 b9be 3ac8 c5be 6d90 a43e 30d6 75be
00000140: 71dd 963e a7ee a43d 989f 06bd 1f29 aabd
00000150: d58b 6fbe fa27 273f faff 253e 5fb3 70be
00000160: 7ca8 2e3e cb7e 723d d335 033c ee37 f7bc
00000170: b643 ad3d 714a 11be d4a5 d5be 4bbb 353e
00000180: fb3b 133b 826f ddbb a06a 923e db06 473f
00000190: 9b74 f4bd 5569 253e 40c5 efbd 7129 293e
000001a0: 89a1 a13c 5c07 5e3e 2027 bd3e e701 42be
000001b0: b8f2 67bc aba4 b23d 6d27 f0be 7fa0 bd3e
000001c0: e12d ae3d a344 a1be 7798 21bf 15e2 fcbc
000001d0: 9912 023e a883 65be 144e 8dbd 698d 993e
000001e0: 7d4e a4bc 6f64 49be aa66 893e ed22 f53d
000001f0: 90df 94bd f80a cf3e b7e7 0fbd 4955 2dbd
00000200: 374e 97be 255e 0cbe d20e 843e b600 4dbe
00000210: 1c13 3abe 6b6a cd3d 1908 e43c 72b2 963e
00000220: 83bb 913e dbee 373f c80a b6bc 467a b13e
00000230: 5eb3 adba 00b1 863e cd02 033e 386a bbbe
00000240: 589f 11be 789f d93e 20a7 33be 8a2d 243e
00000250: c73a 9b3d e0d7 64be 7d71 b6be 6aed 0cbe
00000260: 6d88 d3bd 9c92 383f 5e46 a0bd 23d5 ba3d
00000270: 17d0 b8bd 9463 47be 54c3 1b3e 4578 ffbe
00000280: db17 33bf 2bb8 aabd 9f15 463d 0d9f 4a3f
00000290: 6374 e23b c959 d2be 0a85 303e 2370 053f
000002a0: dc8f 25bf 64b6 c9bd 47ee a73e 929c 153c
000002b0: bfb1 e0bd 86b3 9fbe 4b27 ccbd 3723 c4be
000002c0: 002a 393e b3da fdbe b978 c7be dcef c0be
000002d0: 2f4d 9d3d 954d d53d cc12 3f3e ee9e 863b
000002e0: bbc8 d03e 3ec7 8ebe 9e54 91bd 64b1 843e
000002f0: 4e9f 7ebe bd57 e13e f94f 54be 10e9 a1be
00000300: 3dc4 da3e 35b9 4f3e 3efd 5abc 9a11 f23d
00000310: e810 8c3d 4005 5e3e 5813 cabd 0447 a13d
00000320: abf8 9ebe b687 6cbd 8e1c 083e fc37 88be
00000330: 682c 90bd affd 4dbe db33 d8bd f82b 06be
00000340: 85b7 673e af5b 963d 3f1c 773e c64e 9d3b
00000350: 6646 44bd 7013 fd3d 5c69 f63d 7090 833e
00000360: cda2 55bc fe9d 0d3d 0807 94be f524 313e
00000370: 642a 633d 186a 10bd 7b62 0c3e ca32 5ebe
00000380: 944d a23e a6e9 8bbb 3af1 bebe 8535 363e
00000390: 1d76 26be 8025 803e deb9 5b3e f0ff 21bf
000003a0: eaf0 b13c b2e5 2e3e b272 ebbe ce34 f93c
000003b0: 24c6 eabe 7faa 6b3e 3053 a2bd dcad f43e
000003c0: 52a5 cb3d 7ced abbe 4693 9f3e ecc0 8c3e
000003d0: 102a b43d d58e e8bd 959d 3cbe 486b d73d
000003e0: 4280 7b3e bc2c 0bbe f3c1 4ebe d839 34be
000003f0: 095c e73e 4216 c8bd c78e b23d d2a5 c43e
0.054699726 -0.17121269 0.26697972 -0.046194486 -0.17579322 0.098866224 -0.17977582 -0.21274185
0.12917048 0.11432137 -0.027674912 0.30781877 0.2598396 0.03586025 0.23977597 -0.04766847
-0.08343586 -0.19871886 -0.13920318 -0.019339059 -0.18352549 -0.2573825 0.23523019 0.15436867
-0.20244165 0.10358047 -0.29837713 0.120741785 -0.042912252 0.2787651 0.020147389 -0.11847939
0.27476457 -0.04743605 0.1499931 0.37444532 -0.16860965 0.024028989 0.022775602 0.6480255
-0.17051925 -0.010472345 0.17157386 0.18334758 -0.63324064 -0.35744035 0.02860389 0.12350561
0.066337705 0.06582333 -0.4463921 -0.43036285 0.2625251 -0.00080522685 0.36997503 -0.37002662
0.14463386 0.1842974 -0.26463497 -0.19297488 -0.061229356 -0.04129404 0.05801786 -0.28456953
-0.0772837 -0.045714635 -0.7011379 0.04988702 -0.08909046 0.46511313 0.2231187 -0.36505732
0.02226616 -0.097363874 -0.52413595 0.1975529 -0.36169976 -0.38629323 0.32141438 -0.24007487
0.2946582 0.08053332 -0.032867044 -0.083086245 -0.23393185 0.65295374 0.16210929 -0.23505925
0.17056459 0.05920295 0.008008438 -0.030178037 0.084601805 -0.14188553 -0.4172808 0.17747228
0.002246617 -0.0067576775 0.28596973 0.77744836 -0.11936303 0.16153462 -0.11707544 0.16519715
0.019730346 0.21682495 0.36943913 -0.18946038 -0.01415699 0.08722814 -0.4690508 0.3703651
0.085048445 -0.31497678 -0.6312327 -0.030869523 0.12702407 -0.22413504 -0.06899658 0.299907
-0.020056957 -0.19667219 0.2683614 0.11969552 -0.07269204 0.40438056 -0.03513309 -0.042317662
-0.2955186 -0.13707788 0.25792557 -0.20019802 -0.18171352 0.10030063 0.027835893 0.29433018
0.28463373 0.7184884 -0.022221938 0.346636 -0.0013252308 0.26306915 0.12794037 -0.36604476
-0.14220941 0.42504478 -0.17544222 0.16032997 0.0757957 -0.22347975 -0.3563346 -0.13762441
-0.103287555 0.7209871 -0.078259215 0.09122684 -0.09024065 -0.1947158 0.1521123 -0.49896446
-0.69958276 -0.083359085 0.048360463 0.7914894 0.006910847 -0.41084126 0.1723825 0.5212423
-0.64672637 -0.098492414 0.3279898 0.009131568 -0.109714024 -0.31191653 -0.09968432 -0.38308117
0.18082428 -0.49580917 -0.38959292 -0.37682998 0.07680737 0.10415188 0.18659514 0.0041083014
0.40778145 -0.27886385 -0.070962176 0.25916588 -0.24865457 0.44012251 -0.20733632 -0.31623125
0.42727843 0.20285495 -0.013366042 0.118197635 0.06839162 0.2168169 -0.09866971 0.07874873
-0.31049094 -0.05774661 0.13292143 -0.26605213 -0.0703972 -0.20116304 -0.10556766 -0.1310271
0.22628601 0.07341706 0.24131869 0.0048006503 -0.0479187 0.12357223 0.120318145 0.25696135
-0.013039303 0.0345745 -0.28911614 0.17299254 0.05546035 -0.03525743 0.13709442 -0.21699062
0.31699812 -0.0042697964 -0.37293416 0.17793854 -0.16255994 0.2502861 0.21457621 -0.63281155
0.021721322 0.1707981 -0.45985943 0.030420687 -0.45854294 0.23014258 -0.07926023 0.47788894
0.09943642 -0.33579624 0.31167048 0.27490938 0.08797085 -0.11355368 -0.18419488 0.10518509
0.24560645 -0.13591284 -0.20191173 -0.1760019 0.45187405 -0.0976987 0.08718639 0.3840776

actor.0.bias f4 [32]
00000000: a10e 89bd 26bb ebbd 9537 5bbe 0f14 683e
00000010: e415 fbbd 7798 013e fb84 8f3e 1dcc 94be
00000020: 017f 523c 87ca 1a3e 1c6e a4be 476c c83d
00000030: 4d26 5c3e 1e6b ddbd 6059 9cbd ff7c 163e
00000040: 4a36 bbbd aa37 ad3d f2db 92be 389f 73be
00000050: 8f5e 2a3e 5488 f5bc d494 b13d d35b c6bd
00000060: 79d2 16be 8cfd 153d bbf5 923e 29ef 01be
00000070: c552 4dbd 2d90 823e 0e99 17be 85b1 983e
-0.06692243 -0.11510305 -0.21407922 0.22663902 -0.12260035 0.12655817 0.28031144 -0.29061976
0.012847663 0.1511632 -0.32115257 0.09786277 0.21498986 -0.108114466 -0.076342344 0.1469612
-0.09141214 0.08457883 -0.2868343 -0.23791206 0.16637634 -0.029972233 0.08670965 -0.09685483
-0.14728726 0.036618754 0.28703102 -0.12688889 -0.050127763 0.25500622 -0.1480448 0.29822937

actor.2.weight f4 [10, 32]
00000000: d8b3 063f 6821 c03d fc72 563e e37a a9bc
00000010: 18c5 203e 4141 933e 2f21 03bf 4205 693e
00000020: 6741 e4bc 43aa efbb 2b2c 7e3e 61ce 8e3e
00000030: 409d d7be 18cc 09bc e5c1 783c 1f60 d9bd
00000040: ec2a 51be 07eb 3abe 005c 313e 870d 6cbe
00000050: 902f c4bd cf2d aa3e 3759 393d 9ac4 a43e
00000060: c906 333e 6dd6 653d ad50 4cbe b2b6 823d
00000070: c459 86bd 06d0 d6be 7ffb 833e 4f16 763d
00000080: 7026 08be ad80 6d3e e379 723c 6344 0ebe
00000090: 8bbe 073e 3a2c 0e3e 0db2 afbe a458 8f3e
000000a0: 553f 2b3e 9c2d f9bd f5f4 183f fb03 083e
000000b0: 6dcf 5d3e 50cc 383e 86b5 a83e 2b8d 043f
000000c0: 7d6f c73e 96ab 1c3e 233a b3bd f6a0 77be
000000d0: f10d d9bd bcab ae3e 4845 ef3e 3ff0 21be
000000e0: 6e3d e13e 2a44 983d 4e99 fb3d 63a3 3b3e
000000f0: 9d0e f5bd e81d cb3e 334c 56bd 37a7 6dbe
00000100: 1ea9 4abe 4bcc 93be 8e5f 1cbf bcc1 2e3e
00000110: 2350 803e 8f65 86be ca71 3bbe ad67 bb3d
00000120: 9cad b5be 521c a0be 1954 023f c75b e03e
00000130: 639a 95be 9a8f e2be cb21 e13e e8d6 0ebe
00000140: e014 be3c fc7d 5dbe b3c1 523e 0590 e43e
00000150: c39d d93e 784f 2ebe a4e8 0b3f 3a4c 79be
00000160: 8a9e 2bbe d36a 073f 8db8 723e f6d1 c63e
00000170: f734 943e 9f4b 15be 9065 693e 21a0 64be
00000180: a9bc 2bbe 6c8d 4b3e b170 223f dc09 01bf
00000190: 9aa4 913e db59 6abe ba83 83be 2e67 063f
000001a0: fe29 873b c911 26bf 5d9a 103f d8ab f0be
000001b0: cb5b 83be 3386 ac3e c1d7 8e3e 49c3 173e
000001c0: 03ce d23e e972 8cbd 8b8f f43e 53da 203f
000001d0: abb1 fabe 099f fe3a d4eb bdbe 4a95 863d
000001e0: 17b1 923c d433 24bd daee 4abf 8b1d fdbd
000001f0: fa90 9b3e bb92 cfbe 8150 12be 6203 e1be
00000200: fe44 673d 928d a4bd 4592 63be 2150 dd3e
00000210: d1a9 40be aa05 963d 2cee 66be ab5d 13be
00000220: 2950 95bd 10dc 13bd 3d2d 453e 1674 15be
00000230: 9120 50bd 6294 6c3e 3785 55be 9b0f 883e
00000240: 556b 8fbd d7a9 353e 15e1 ccbe 4ce5 0dbd
00000250: 837a c53e de56 0d3d 65dd 63be 2f61 943c
00000260: 28cc adbc feff 1a3e 4f1d 09be ccdc e03d
00000270: 1514 963e 3a4f 913e 2496 0cbe e9f1 80bd
00000280: b887 53be 6859 483b 0248 8abe 6375 303e
00000290: 2617 6d3e 225e 8ebd 0062 a33e 8614 9d3e
000002a0: 0492 e63d 6e6a d5bd d825 5e3e 2530 c03d
000002b0: afe3 b4be 24e1 583e 93bf b5be 061e 38be
000002c0: 5b6a eebe e9c2 043f d400 c33e 0307 573e
000002d0: 5b5e 83bd e929 e93e d9f6 59be 8f00 e63a
000002e0: 379e 7e3d 6471 96be 4ea2 883d 0812 a33e
000002f0: d2d1 653d 2b29 0dbe eea8 c8bd b998 fdbd
00000300: 2591 8abe 5a06 143f 90e6 17bf 52ee 863e
00000310: 39ff 37be 7bce 84be 8bae 9e3d ac53 a7bd
00000320: 3f51 a83e 80a6 673e e27a 80be f3cd 953d
00000330: 2add 5cbe 024d 5a3e 3e2c e63e 19f3 003f
00000340: ab28 85bd 2e71 a1be a74e ac3e ef18 cfbd
00000350: 0bba d93d c2c3 13bd d418 df3d d89a 763e
00000360: 7f58 98be 392e 9fbe 776f cabd 9f37 913e
00000370: d6db b9be 3aca b33e 10b1 013f 9496 21be
00000380: 3e30 603e 5cc7 a6be 91cd 9abe 1716 08bf
00000390: 0f4a 1bbc f236 233d 1bd9 ebbe 4e15 b4bd
000003a0: ecd9 f03e b5b9 e33e 6397 85be 1efd d5be
000003b0: 2650 59bd 2e37 4f3e bf81 96be aff9 323e
000003c0: 172e 05bf d07c ce3d 9da2 c0be 7db2 8fbe
000003d0: 314a 1dbe 09f6 f9be 22d7 003f d7c3 5abe
000003e0: d242 e13e 9dfe 873d ab32 49be be7c e83e
000003f0: 4471 f1be dc7e 9cbe 7338 b7bd 55ce eebe
0.5261817 0.09381372 0.209423 -0.02068848 0.15700185 0.28760722 -0.5122251 0.22755912
-0.027863218 -0.007313998 0.24821536 0.2789183 -0.4211216 -0.008410476 0.015182947 -0.10614037
-0.2042653 -0.18253718 0.17320251 -0.23052035 -0.09579384 0.33238074 0.045251098 0.32181245
0.17483057 0.056112695 -0.1995265 0.063825026 -0.0656009 -0.41955584 0.25777814 0.06007987
-0.13295913 0.23193617 0.014799568 -0.13893275 0.1325628 0.13884059 -0.3431553 0.27997315
0.16723378 -0.121669024 0.59748775 0.13282768 0.21661158 0.18046689 0.3295099 0.51777905
0.38952246 0.1529983 -0.08751323 -0.24182495 -0.10598362 0.34115398 0.46732545 -0.15814303
0.4399218 0.07434876 0.122851 0.18324046 -0.11965678 0.39671254 -0.052318763 -0.23208319
-0.19791076 -0.288668 -0.61083305 0.17066091 0.2506114 -0.26249358 -0.18305126 0.09150634
-0.35484016 -0.31271607 0.5090957 0.4382002 -0.2921935 -0.44250184 0.43971094 -0.13949168
0.023203313 -0.2163009 0.20581703 0.44641128 0.42503175 -0.17022502 0.54651856 -0.24345484
-0.16759697 0.52897376 0.23703213 0.38832062 0.2894666 -0.14579628 0.2279265 -0.2232671
-0.16771187 0.19878167 0.63453203 -0.5040567 0.28445894 -0.2288584 -0.25686437 0.5250119
0.004124879 -0.6487089 0.5648554 -0.47006106 -0.2565597 0.33696136 0.27898982 0.14820589
0.411728 -0.06857855 0.47765765 0.62833136 -0.48963675 0.0019426058 -0.37093985 0.065714434
0.017906709 -0.04008849 -0.7927071 -0.123591505 0.30384046 -0.40541634 -0.14288522 -0.43947893
0.05646228 -0.08034815 -0.22223766 0.43225196 -0.1881478 0.07325299 -0.22551793 -0.143912
-0.0729068 -0.03609854 0.19255538 -0.14595065 -0.050812308 0.23103479 -0.20851599 0.26574406
-0.07002894 0.1774057 -0.40015474 -0.034642503 0.38570032 0.03450667 -0.22252424 0.018112747
-0.021215513 0.15136716 -0.13390087 0.10979614 0.29312196 0.28380758 -0.13729149 -0.06296141
-0.20657241 0.0030570868 -0.27008063 0.1723228 0.23153362 -0.06951548 0.31910706 0.3067972
0.11258319 -0.104206905 0.21694124 0.09384183 -0.3532996 0.21179634 -0.35497722 -0.17980203
-0.46565518 0.5185991 0.3808657 0.20998769 -0.06414481 0.45539787 -0.21285571 0.0017547774
0.062162604 -0.29383385 0.06671582 0.31849694 0.056108303 -0.13785236 -0.09797846 -0.12382645
-0.2706386 0.5782219 -0.59336185 0.263537 -0.17968453 -0.25938782 0.07748135 -0.08170256
0.32874486 0.22622108 -0.25093752 0.07314672 -0.21568742 0.21318439 0.4495563 0.5037094
-0.065018974 -0.31531662 0.33653757 -0.101121776 0.10631188 -0.03607536 0.108934075 0.24082506
-0.29755017 -0.31089953 -0.098845415 0.28362748 -0.36300534 0.35115224 0.506608 -0.15780097
0.21893403 -0.32573974 -0.3023496 -0.53158706 -0.009478106 0.03984732 -0.46064076 -0.08793126
0.4704126 0.4447762 -0.2609206 -0.41794676 -0.05305495 0.20235893 -0.29395863 0.17478059
-0.5202345 0.100824 -0.37624064 -0.28065863 -0.15360333 -0.48820522 0.50328267 -0.2136377
0.43996292 0.066403605 -0.19648235 0.4540767 -0.47156727 -0.30565536 -0.08946314 -0.46641794

actor.2.bias f4 [10]
00000000: b0b9 cbbd 05d4 c03c 2a1c 3fbd dac2 acbe
00000010: 9368 433b c8b2 033c 5f44 06be c80e 81bd
00000020: 02d6 c2bc f343 56be
-0.099475265 0.023538599 -0.04665772 -0.3374241 0.002981697 0.00803823 -0.13112019 -0.063016474
-0.023783688 -0.20924358

critic.0.weight f4 [32, 64]
00000000: faa9 86bd 166d 6bbf 1ecf f63e 1d75 863d
00000010: 53f2 95be 5468 01be 3e9d 553e 5ea7 00bf
00000020: 511e b33e 8f24 ebbe 215c a6be f534 7fbe
00000030: 0340 53be d8ee d13d 5b48 8e3c d867 53be
00000040: 8b07 103e 557a c6be 81b5 053f af49 a53e
00000050: b8a5 7abe 42c5 bb3e 6077 143f dd28 f03d
00000060: a5e7 473d cbe3 d7be ba59 a0be ed88 babd
00000070: d083 503f bd1e f23d 1840 383f 62ad ff3d
00000080: 799c 92be f5eb 0ebd 0137 c53e abbe 643e
00000090: fced 24be d28a 4f3c 14cb 56bf db6c ff3e
000000a0: d3c1 413e 1c4b 893e 0e2c a53c c847 01bd
000000b0: 2616 54bf 6ecc 813e 1b35 243f 0c8c 023f
000000c0: 54d8 95be d23e 14bf 0c2c 293e 3a88 8abe
000000d0: 8b52 b03c 189c ef3e c033 883e 2e1c 57be
000000e0: 34b0 ebbd f178 e43d 9321 113f 218c 24bf
000000f0: 844e 9c3d ba83 5f3f 1fc3 2a3f a148 043e
00000100: 9b02 b0be 11fb 1b3f 91e6 a9bd 449a b9bb
00000110: 1eba 1fbe 519b d23d 553a 3a3e c3e7 b1bd
00000120: 1c58 963c d5fb 74be a587 6dbd 0296 86be
00000130: 2cbb cfbd 97b2 a53b 3807 203e a8d3 45be
00000140: 16cf dc3d 2610 ef3d 9acd 553e 3133 643e
00000150: 896b 3d3d 4826 91bd 94a2 33bd 80fa 813d
00000160: 58de a1bd dfd0 42be 0c12 b5bd f49b 51be
00000170: 9e18 74be dd54 913c 0f08 72be f165 33be
00000180: 76d1 f23d e266 183d d079 4d3e 91ef 223e
00000190: eebd 6abe b673 b73d 661d 253e bfe8 883e
000001a0: 1576 15be 3c45 863e 06e9 f13d 7ad2 aabe
000001b0: d32f 053e 3549 68be b1ff 303e ab8b a3bd
000001c0: 438f 0cbe 5768 4f3d e272 033d c9b2 04be
000001d0: 2062 46be 3547 7ebd 0a1e 5abd 2f6d 963d
000001e0: 6a0b b33d 5eb9 03be 5592 41bc e385 8cbe
000001f0: e3c8 e23d 41a8 cb3d 0efc 02bd 11b5 7a3d
00000200: 5522 a1bd 0e3d adbe fbe5 e7bb 2c06 873d
00000210: 5f98 58bd d737 08be 1e26 84be fb0c b3be
00000220: 047f d33d 7166 163e f092 70be 7e44 a3bb
00000230: 0e34 e7bc d0d7 84be 1644 00bb bf3f 7c3e
00000240: e8bf d13d 6a9b 28bd 4471 463d f279 ef3e
00000250: a531 75be 216e 8e3e 5312 06be 03af d43d
00000260: c883 1ebd 7936 a2be 039d 02be cfbe b63c
00000270: 22ee b73d f1bd 323e c30c a73e 6654 313d
00000280: bb19 02be f09a 1bbd b2b3 833e b763 d0bd
00000290: 7028 b63d b797 e53d 8380 eebd 362f 8bbd
000002a0: 2d1b 193d ac5b 70bd bada d03c 694b c33d
000002b0: cec1 b8be e65c 4f3e df57 8b3e a689 4b3e
000002c0: 4753 0abe 80d5 81bd bd16 0ebd c816 f7bd
000002d0: 47b6 99bd 5163 6e3e 8975 fdbd 25a3 cf3d
000002e0: 7137 4a3e 8542 7a3e e8f1 f63d 04ad 09be
000002f0: 86c0 5b3d 83dd a03d 4c25 153e 5fb6 91bd
00000300: 0c60 96be d6f3 74bf 8c8b 0e3f 21f5 e5bc
00000310: 0482 b5be 7d09 1abd 8510 c53e 9907 0ebf
00000320: 2fa4 653e b27b e1be b5a6 dcbe 9297 a9be
00000330: e546 35be 8e6e 113e 070b 32bd 8d1b 3cbd
00000340: 9cf4 fc3d d4c6 e9be 340c 8a3e 5e3b 563e
00000350: d5e9 a7bd fd98 923e b433 0d3f 13a4 953e
00000360: 211d aebd a63a d4be bfd8 61be 908a 9dbe
00000370: e812 263f d950 a53d 883c 613f 7ac5 ad3d
00000380: 07d4 e0be 0bcc 09be 8b79 003f 9481 253e
00000390: 4ab8 4fbe 925f a3bd f757 4dbf 4f9e e73e
000003a0: 932e 113e 4aed 803e 61cb bd3c 7f77 26bd
000003b0: df26 59bf 24c4 983e b495 043f 0c5d f33e
000003c0: 108d 1abe 1299 ecbe 377f 203e 28ee 0abe
000003d0: 326b 0bbc de2d 193f cbe3 af3e 5350 b1be
000003e0: 0008 27be 22f5 2e3e 6063 083f 1480 13bf
000003f0: 6cf1 3b3e 5063 403f 2666 433f 2dbb 033d
-0.06575389 -0.91963327 0.48204893 0.06565306 -0.2928644 -0.12637454 0.20860764 -0.5025538
0.34984067 -0.4592633 -0.32492164 -0.24922545 -0.20629887 0.10250634 0.017368486 -0.20645082
0.14065377 -0.38765207 0.5223008 0.3228278 -0.24477279 0.36673933 0.5799465 0.11726544
0.048804898 -0.4216598 -0.31318456 -0.09108148 0.8145113 0.11822269 0.719728 0.12484242
-0.28635004 -0.034892995 0.38518527 0.22338359 -0.16106409 0.012667375 -0.8390362 0.49887738
0.18921594 0.26815116 0.020162608 -0.031562597 -0.82846296 0.2535128 0.6414353 0.50994945
-0.29266608 -0.57908356 0.16520709 -0.27057058 0.021523735 0.46798778 0.26601982 -0.21006843
-0.115082175 0.1115588 0.56691855 -0.6427632 0.07632163 0.87310374 0.6670398 0.1291833
-0.34376988 0.6092997 -0.0829593 -0.005664142 -0.15598342 0.102835305 0.18186314 -0.08686783
0.01835256 -0.23924191 -0.05799069 -0.26286322 -0.10143122 0.00505669 0.15627754 -0.19319022
0.10781686 0.11673002 0.20879212 0.22285153 0.04624513 -0.0708738 -0.04385622 0.06346607
-0.07903737 -0.1902499 -0.08841333 -0.20469648 -0.23837516 0.017740661 -0.23635887 -0.17519356
0.11856358 0.03720749 0.20065999 0.159117 -0.22924015 0.08957617 0.16124496 0.2674007
-0.14595826 0.26224697 0.11812024 -0.33363706 0.13006525 -0.22684176 0.17285039 -0.07985624
-0.13726525 0.050636616 0.032091983 -0.12958826 -0.19373369 -0.062079627 -0.053251304 0.07345044
0.087424114 -0.1286368 -0.011814673 -0.27445897 0.11073472 0.09944201 -0.03197866 0.061207835
-0.078678764 -0.33835644 -0.0070769764 0.06592974 -0.052879687 -0.13302551 -0.2581033 -0.3497084
0.10326961 0.14687516 -0.23493552 -0.00498253 -0.028223064 -0.25945902 -0.0019571832 0.24633692
0.10241681 -0.04116384 0.048447862 0.46772724 -0.23944719 0.27818397 -0.13092928 0.10384943
-0.038699895 -0.31682184 -0.12755208 0.022307782 0.08980967 0.1745527 0.32626924 0.04329338
-0.12705128 -0.037989557 0.25723034 -0.10175269 0.088944316 0.11210578 -0.116456054 -0.06796114
0.037379432 -0.058681175 0.025494922 0.09535868 -0.3608536 0.20250282 0.27215478 0.19876727
-0.1350833 -0.0633955 -0.034689654 -0.12064892 -0.0750547 0.23280074 -0.12375934 0.10138539
0.19747712 0.24439438 0.12057859 -0.13444906 0.0536504 0.0785475 0.14565009 -0.07114863
-0.29370153 -0.95684564 0.5568168 -0.028070988 -0.35450757 -0.037606705 0.38489166 -0.55480343
0.22425912 -0.44039685 -0.43095937 -0.3312345 -0.17702825 0.1420233 -0.043467548 -0.045924712
0.12351343 -0.45659506 0.26962435 0.20921084 -0.08198897 0.28632346 0.5515702 0.2922674
-0.0850165 -0.41450995 -0.22055338 -0.30769777 0.648726 0.08072061 0.8798299 0.08484931
-0.43911764 -0.13456742 0.5018546 0.16162711 -0.20285144 -0.07977213 -0.8021235 0.45237967
0.14177923 0.25181037 0.023168268 -0.040641304 -0.8482494 0.29837143 0.5179093 0.47531927
-0.15092874 -0.46210533 0.15673529 -0.13567412 -0.008509444 0.5983561 0.3435348 -0.34631595
-0.16311646 0.17085698 0.53276634 -0.57617307 0.18353814 0.7515154 0.7632774 0.032160927

critic.0.bias f4 [32]
00000000: 8ccc 293e 7fc3 55be 7363 953e 7ce8 fe3d
00000010: 5996 95be c4d7 123e 468a 19be 3eed 5e3e
00000020: d4af a9be 62a2 9f3e 3e16 a63d a1f2 143e
00000030: 4ed8 6cbe 19f1 0a3e 6374 a5be 51b9 a73e
00000040: 8c52 6dbe 5f0b c7b9 860f 6fbe aa28 9dbe
00000050: 78f1 53bd d642 073e afd3 b5be 4c2a 8bbe
00000060: 3927 bdbc df67 413e 3fbc 19bd 3eb7 b23d
00000070: 2636 86be 02a7 b7bd 9d95 e03d 3fe3 2f3e
0.16581935 -0.20875357 0.29177436 0.124466866 -0.2921627 0.1434012 -0.14994153 0.21770188
-0.3314196 0.31178576 0.08109711 0.1454568 -0.23129389 0.13568534 -0.3231536 0.32758573
-0.2317602 -0.0003796471 -0.23345765 -0.30695087 -0.051743954 0.1320909 -0.35513064 -0.27180707
-0.023089992 0.1888728 -0.03753304 0.08726357 -0.26213187 -0.08967401 0.109660365 0.17176531

critic.2.weight f4 [1, 32]
00000000: 22f5 f83e 56f0 ddbd 718c 9b3e 3dc0 0d3f
00000010: d467 babe 1a55 0c3f 6a60 33be 5655 363e
00000020: 367a d1be d339 a83e 3315 153d 90d0 9a3d
00000030: 874e 36be 63a1 783e 1afa c0be 3973 7b3e
00000040: dfca b6be cac5 6ebb bdf6 96be ed2a a0be
00000050: 9eb4 85bc 971a 4f3e d6ad b2be b407 01bf
00000060: 491e 82bb 0683 053f 3f25 9f39 1de9 323f
00000070: 7ba9 c4be d17e 73bc a960 753e 2cb1 903e
0.48624521 -0.10836856 0.30380586 0.5537146 -0.3640734 0.54817355 -0.17517248 0.1780599
-0.40913552 0.32856616 0.03639717 0.075593114 -0.17803393 0.24280314 -0.37690812 0.24555673
-0.35701653 -0.003643381 -0.2948512 -0.3128275 -0.016321477 0.20224987 -0.3489825 -0.5040238
-0.0039708954 0.5215305 0.00030354594 0.6988695 -0.38410553 -0.014861778 0.23962654 0.2826017

memory_a.rnn.weight_ih_l0 f4 [256, 41]
00000000: 14e4 a83d efc1 293d 3617 183f 135f a73e
00000010: 4946 973e ddb0 6bbd 5c73 043d 40f4 ea3c
00000020: b0cc 49bc a698 18bf 5246 b83d a4be 89be
00000030: 5c83 833e 7a8a 5dbf ef5c 24be 15bb 8fbd
00000040: ab66 8a3e 7e99 153e d515 3ebf fc57 a0bd
00000050: 0965 80bf 030d debe cd9f 5c3e 98a9 48be
00000060: 24f1 603c e34f 0abd 352a 73be 3ace fe3e
00000070: 6a2e a0be f825 54be bbae 3cbd 71bb 47bc
00000080: b842 c23c 3714 2bbd 3d96 353e 8670 08bc
00000090: 4574 8f3e 3358 e5be af4c 07bf 95ba b23e
000000a0: 74e8 1e3f 0cf7 ae3e c5de 2d3e 7d15 f43e
000000b0: 5781 4c3f 11a8 253f a785 2bbe 27db 1a3e
000000c0: 8069 f5bb 708c bd3d b2b0 50bd e472 103f
000000d0: 61c6 6fbf 9730 b5bc c51b 673d 7436 e33e
000000e0: d4c7 1dbf a926 74bf f5a4 c5bd 16a2 ebbc
000000f0: f9ff 32be d15c b43e 461f 07be ec7e 0f3f
00000100: 07e4 01bb 18d7 2b3f 62a3 40be 4afe 2ebf
00000110: ff96 023e 89ee 963e 6a1a 06be 09ce bb3d
00000120: e77b 3dbe 81a7 043f 44b5 073e 8665 123f
00000130: 7288 c7be 61b3 2cbe 76af ddbe 165c 063e
00000140: f144 da3c a1c8 0e3f 7f23 8e3e 29ee 823f
00000150: 963b 7e3f d4f4 ddbe cfc4 473e 1e33 a0be
00000160: 7d41 70be ba6b ebbd 8864 d43d c92c 99bc
00000170: 3ee3 ff3e 12ad 683e a050 a6bd 9d6f 0c3e
00000180: dd9a 04bd c578 56bd 4555 06be 8254 a83c
00000190: b096 b6bd c074 8e3c 1ead 853e e528 57bf
000001a0: 8653 583f e471 6dbe 4fc6 f93c dc39 743e
000001b0: 06fa 74bf 1ba2 313f b35c f639 abcd 57bd
000001c0: fd0a d83e 5e32 d3be ce83 cd3e 9045 1a3e
000001d0: 2583 04be ee6e 48bd 05cd 0fbe 52d0 eb3e
000001e0: ee56 6f3e c92b 353d c839 833f ed5c 30be
000001f0: a1dc c23e 4fa1 f9bb c116 b93e a0a5 473f
00000200: 6c67 5e3d 3a47 103e a6ca a6bd b0c7 dbbc
00000210: a1af d6be b990 723f 7f9e 94be 56d6 45be
00000220: 50a4 aa3e 4b08 dfbe 450c 70bf 6cad 223e
00000230: 91fa d6be c93a 073e c019 44be 8cb9 6abd
00000240: 20ed 8dbe 125b bfbd f49f ba3e fcf5 9fbe
00000250: 1107 253f 86de 37bd dfa9 dbbe 2f53 9ebc
00000260: 9ad5 dbbd 5863 57bd 249c c03e c0ab 6bbf
00000270: 5482 d9be ef3d cdbe 7661 403e 46a4 fc3d
00000280: cc9f ba3d a469 903e 668b 2bbe f70f 0a3e
00000290: 0a51 c7bd 0993 503f fc03 3e3e b7a4 213f
000002a0: aa8c 0d3f d9c2 cfbe db06 2fbe 146a 55bd
000002b0: 12c5 babd ff8d 443d fd7b 37be ea6e 533c
000002c0: cbea 95be 2df1 123d cfd3 eb3e 661d 93bf
000002d0: 3f04 89be f57f 84bd 0ff1 68bf b25e 6d3d
000002e0: 2eeb bbbe c777 79bf 9a0a 913e 2d9c 8e3e
000002f0: 1d0d 8fbe 7d78 37bf b9c3 02bf dcd0 273f
00000300: 8e13 3dbf 504e 33be 0410 dcbd d1d4 bdbc
00000310: fb25 a23d cf05 d43e 0c9d c93e 7171 7cbe
00000320: f3de 143e 88ae df3d 8969 b73c bcb9 503e
00000330: ead1 873d 5b07 6c3f 3437 45bd ba4d 3d3e
00000340: ec32 043f ac74 cb3d 22b6 d1be 734f 1e3e
00000350: 66eb f23d 8ee9 dbbd 6207 3f3f 88c3 963e
00000360: a414 12bf e9ce b9bc b71f 04be a989 5f3e
00000370: 7e8f 8cbd 8a02 bcbe 6594 c43d 0a68 5ebd
00000380: db52 28bf 11c9 0f3f ccfd 93bd d18d 0d3f
00000390: 5da9 13be 42be 93bd 0d2d 21be be53 a5be
000003a0: 2ecc 073f eca9 fabd db14 903e 8639 4ebe
000003b0: d5e0 b23c f61c f9bd c0aa 91be 2af4 b83e
000003c0: 0d85 993e a973 753e a3da 153e 13ec 9c3e
000003d0: cca7 8abd 01cd a33e 1068 683e df33 823f
000003e0: a585 9dbe 5d72 993e 28d6 ca3e 7f20 94be
000003f0: 9ac5 1b3e ea3a de3d 1e52 b43d 6f74 a4bd
0.082466274 0.041444715 0.5941042 0.32689723 0.2954581 -0.057541717 0.032336578 0.02868092
-0.012316868 -0.59607923 0.089977875 -0.2690326 0.25686157 -0.86539423 -0.16051076 -0.07018105
0.27031454 0.14609334 -0.74252063 -0.07829282 -1.0030833 -0.43369302 0.21545334 -0.19595945
0.013729367 -0.033767592 -0.2374657 0.49766713 -0.3128541 -0.20717609 -0.046065073 -0.012190686
0.023713455 -0.041767325 0.17733093 -0.008327609 0.28018394 -0.44793853 -0.52851385 0.34907976
0.62073445 0.34172857 0.16979511 0.47672644 0.79884857 0.64709574 -0.16750203 0.15122662
-0.007489383 0.09255302 -0.05094976 0.5642531 -0.9366208 -0.022117896 0.056422967 0.44377482
-0.6163304 -0.9537149 -0.09650604 -0.028763812 -0.17480458 0.35227063 -0.13195524 0.5605304
-0.0019819753 0.6712508 -0.18812326 -0.68356764 0.12752913 0.29478863 -0.13096014 0.091701575
-0.18504296 0.5181809 0.13252741 0.5718616 -0.38971287 -0.16865303 -0.4329793 0.13121065
0.026644202 0.55774885 0.27761456 1.0228931 0.9930967 -0.43350852 0.1950867 -0.31289
-0.23462482 -0.114951566 0.10370737 -0.018698113 0.4997806 0.22722271 -0.08120847 0.13714452
-0.03237425 -0.05236127 -0.13118465 0.020548109 -0.0891546 0.017389655 0.2610864 -0.84046775
0.84502447 -0.23187977 0.030490069 0.23850197 -0.95694005 0.6938798 0.00046989843 -0.052686375
0.42195883 -0.41249365 0.40139621 0.15065598 -0.12940653 -0.048933916 -0.14043052 0.46057373
0.23373005 0.04423121 1.0252008 -0.17222948 0.38058951 -0.0076181064 0.36150172 0.779871
0.05429785 0.14089671 -0.08144121 -0.026828617 -0.4193087 0.9475208 -0.29027173 -0.19320044
0.33328485 -0.43561015 -0.9376872 0.15886468 -0.41988042 0.13206019 -0.19150448 -0.057305858
-0.27719975 -0.09343542 0.3645016 -0.3124236 0.6446391 -0.04488995 -0.4290304 -0.019326774
-0.10734101 -0.052584976 0.37619126 -0.92058945 -0.42482245 -0.40086314 0.18787178 0.1233602
0.0911251 0.28205597 -0.16752395 0.13482653 -0.09732254 0.8147436 0.18556207 0.6314196
0.5529276 -0.40578344 -0.17092459 -0.052103117 -0.091196194 0.04798698 -0.17918392 0.012904862
-0.29280695 0.035874534 0.46060035 -1.1493347 -0.26761052 -0.06469718 -0.90992826 0.057951637
-0.36702865 -0.9744839 0.283284 0.27853528 -0.27939692 -0.71668226 -0.510799 0.6555307
-0.73857963 -0.17510343 -0.10745242 -0.023172768 0.079174004 0.41410682 0.3937763 -0.2465265
0.14538173 0.10921961 0.02238919 0.20383352 0.06631835 0.92198724 -0.04814835 0.18486682
0.516402 0.09934363 -0.4095927 0.15459995 0.11861305 -0.107379064 0.7462064 0.29446054
-0.57062745 -0.02268167 -0.12902723 0.21829857 -0.068633065 -0.36720687 0.095986165 -0.054298438
-0.6575143 0.5616618 -0.07226142 0.5529452 -0.14420076 -0.07214023 -0.15739842 -0.32290453
0.5304593 -0.12239441 0.2814091 -0.20139131 0.021835724 -0.12163727 -0.28450584 0.36123782
0.29984322 0.23969902 0.14634185 0.3064886 -0.06770286 0.31992343 0.22695947 1.017208
-0.30766025 0.29970065 0.39616513 -0.28931043 0.15212098 0.10851081 0.08804725 -0.080300204

memory_a.rnn.weight_hh_l0 f4 [256, 64]
00000000: 68fb 61be 26a2 8f3c 278b 153e 3f3a 543e
00000010: 8131 0bbe 9ac7 003e 5838 d93c 3aa2 d63d
00000020: a465 a73e 8677 613f 4f0b 813e 6388 6cbe
00000030: 6dfe 663d de3b 5dbe 06c6 39bf 7c19 493e
00000040: 4453 9cbe 8d0d a63e a75f 5d3f 267b 95be
00000050: 0df4 433f caf2 a63e 262c 33be d656 42be
00000060: bc31 223f 8202 ac3e 90fd 3fbf d383 0a3e
00000070: 2295 27be 8925 653f 82ec d63e d3fa 17bf
00000080: 258f 3b3f 479f 443e e834 1d3e 1247 1c3d
00000090: 86d2 3fbf 3bf5 efbe f088 afbe a33e ea3d
000000a0: baa1 a4be e44c a03d 9bc2 7dbe 66b0 f83e
000000b0: 1bfc 1ebf 2fc6 6f3d 30cd 5e3e 96cd c63d
000000c0: dcd3 51bf a6c7 a23d bd4c fa3e abd8 9ebd
000000d0: b476 4f3e eb12 cd3e e6c0 0c3e 5f71 83be
000000e0: c92d 143f 2c5a 243f 2a25 683e 74bd fb3e
000000f0: 0f59 123f 0225 113f 0d3c ec3d 1527 34bf
00000100: b5c3 6ebf c1ce ca3d d02a 053f cb0a 143d
00000110: 7b86 13bf e7d3 283e 8b3e 37bd d1bb abbe
00000120: 7ef6 9f3d 53c7 48bd e261 123f f9ff 1ebd
00000130: de9c 543f d6a2 b2be 1de4 23be 0dab 923d
00000140: 1dad abbe 31be 82be 3957 abbe aef8 32bf
00000150: b10f af3e 3e39 b9be 1825 883f 7cd0 cfbe
00000160: f63e 7ebe 1d95 8dbe 1eaa 0cbe 8dd9 b33d
00000170: f0df 0ebf 45cd fa3e 1b5b 1ebf a480 edbd
00000180: 0d7d 6d3e dea6 c1bc 5f36 7abe e926 583d
00000190: 43f3 ffbd 34b8 d9bd 3027 81be 57bb 833f
000001a0: c267 803e e11b 813e 9f90 3c3f 58db 003e
000001b0: 60aa 0ebf 46ee c2bc 83ed 13bf 15ce 823f
000001c0: 3f2c 893c b00e 133e 68b0 b63e 3c99 4e3f
000001d0: f492 a93e b56f 73be b89f 9c3e 1988 6c3f
000001e0: f1ee e0be 5a9b bdbe d39e 01be bb77 69bd
000001f0: 093b 3f3d 1be6 f5be 0bee 14be 1f15 ea3e
00000200: 8c67 d6be 47b1 d4be 1430 853d e75d fc3d
00000210: 96df 0cbe ae20 43ba e5f2 94bc a538 0cbe
00000220: c819 6bbf df9c 49bd 8514 1bbe 3d41 e83e
00000230: 11fa 09be 0703 0dbf ce0c 5c3d 8d04 00bf
00000240: 37b1 003e 40f7 63bd 8a09 b33d 5697 12bf
00000250: 7f33 cb3d 25fb 3a3d 0847 dd3e 359c b13f
00000260: a966 b03e b17b 00bf da48 2a3f 8dc8 0e3e
00000270: 2c7e 103e 2db1 193f a225 9dbc 6c20 fabe
00000280: e257 43bf a1fc 5f3e 7198 77bf fa09 e03e
00000290: f412 e23e 071d 993e afed 29bf 0857 f9be
000002a0: 2eb0 a53e fa14 d73c bdb1 07bf 26ae 29bc
000002b0: 2f6a c8be ca06 7b3e 3383 65be eff4 4c3d
000002c0: 1491 a03e 0b97 16be c641 1abe 1668 d3be
000002d0: 5ea2 093e 3b97 49bf 7de0 50be 7e7f 30bf
000002e0: 6596 70be c935 193e bc9b e8be b587 243f
000002f0: b173 353e 0b15 42be 2b14 b2be ed81 58bc
00000300: b240 febe 4888 e4be bbce 0a3e 15cc 8cbd
00000310: 57a6 ea3e 09ae 8c3d 0383 ec3d 4f4f cdbc
00000320: cd50 9f3e c0d3 d53e b135 893f d45d 3abf
00000330: b898 7b3f f1fc 783e 8674 3b3f b66e 88be
00000340: 31ef 093f 8bf0 8c3e 4b67 203f 50eb fbbd
00000350: 514b 1f3f 9e83 79bf 9d94 203e 8000 ae3c
00000360: 7722 a4be 6146 8cbf 5a84 0ebf dbbc 413f
00000370: 234a ad3e 76ed 61be c29b 1c3f dcc4 933e
00000380: 4620 0ebf 5c4a a13e d732 46bd 1f80 5d3e
00000390: d34c 6f3e 2774 0c3f aa44 b1bd cf8f af3e
000003a0: 9eab f03d 4d1b cabe 4f41 57bf 5ed8 203f
000003b0: bae7 0c3d 7fe6 083f b64d 2ebe 743c bf3e
000003c0: 2410 c23e e060 813e bf60 ff3e 5074 963e
000003d0: 311b 823f 1b1f 783e e45d 8a3f a237 7dbe
000003e0: cf5e 663e 01a9 0d3f 1164 28bc 10da 293e
000003f0: 7dd1 753e 1028 c13e 8f4f c8bd c9e3 04bf
-0.2206856 0.017533373 0.14603864 0.20725344 -0.13593103 0.12576142 0.026516125 0.10480161
0.32694733 0.88073003 0.2520394 -0.23098902 0.056394983 -0.21604869 -0.72567785 0.19638628
-0.30532277 0.32432213 0.8647408 -0.29195517 0.76544267 0.32607108 -0.1749731 -0.18978438
0.6335714 0.33595663 -0.7499628 0.1352685 -0.16365483 0.895104 0.41977316 -0.593671
0.73265296 0.19201384 0.15352213 0.038153715 -0.7493061 -0.46866783 -0.34284163 0.11437728
-0.32154638 0.07827166 -0.24781267 0.4857208 -0.6210343 0.058538612 0.2175796 0.09707181
-0.81963897 0.07948236 0.48886672 -0.0775617 0.20260125 0.40053496 0.1374546 -0.25672433
0.5788236 0.6420009 0.22670427 0.4916798 0.5716714 0.56697094 0.11534891 -0.70372134
-0.93267375 0.099027164 0.5201845 0.036143105 -0.57627076 0.16487084 -0.04473738 -0.3354173
0.078106865 -0.049018215 0.5718061 -0.038818333 0.8305186 -0.3488986 -0.16004987 0.071615316
-0.33530512 -0.2553573 -0.33464983 -0.69910705 0.3419166 -0.36176485 1.063632 -0.40588748
-0.24828705 -0.27652827 -0.1373677 0.08781729 -0.5581045 0.48984733 -0.61857766 -0.11596802
0.23192234 -0.023639139 -0.24434803 0.052771483 -0.1249757 -0.10630837 -0.2522521 1.0291547
0.2507916 0.25216582 0.73658174 0.12583673 -0.5572872 -0.023795258 -0.5778429 1.0219141
0.016744731 0.14361072 0.35681462 0.8070257 0.3311993 -0.23773082 0.30590606 0.9239517
-0.43932298 -0.37032586 -0.12658243 -0.05699895 0.04668716 -0.4802712 -0.14543931 0.4571924
-0.41875875 -0.41541502 0.06503311 0.12322598 -0.13757166 -0.00074435293 -0.018182227 -0.13693483
-0.91836214 -0.04922187 -0.15144546 0.45362273 -0.13474299 -0.55082744 0.05372315 -0.50006944
0.12567602 -0.055655718 0.08742054 -0.5726217 0.099219315 0.045649666 0.43218255 1.3875796
0.34453323 -0.5018874 0.6651741 0.13943692 0.14110631 0.60035974 -0.019182984 -0.4885286
-0.76305974 0.21873714 -0.9671698 0.43757612 0.44155085 0.2990496 -0.663783 -0.48699212
0.32360977 0.02625512 -0.5300558 -0.010356462 -0.39143512 0.24514309 -0.2241333 0.050038274
0.31360686 -0.14706056 -0.15064153 -0.4129035 0.13440844 -0.78746384 -0.20398135 -0.6894454
-0.23494871 0.14961924 -0.45431316 0.6426957 0.17719914 -0.1895334 -0.34781012 -0.0132145705
-0.49658734 -0.44635224 0.13555424 -0.06874863 0.45830032 0.06869132 0.11548426 -0.025062231
0.31116334 0.41763115 1.071951 -0.7279942 0.98279905 0.2431524 0.73224676 -0.26646966
0.538806 0.2752727 0.6265761 -0.12300742 0.622243 -0.97466457 0.15681691 0.021240473
-0.32057545 -1.0958978 -0.556707 0.75678796 0.33845624 -0.2206324 0.6117517 0.2886113
-0.55517995 0.31502044 -0.04838833 0.21630906 0.2336915 0.54864734 -0.08655675 0.34289405
0.117514834 -0.39473954 -0.8408403 0.6283015 0.03440068 0.5347671 -0.17021832 0.3735081
0.3790294 0.25269222 0.498785 0.29385614 1.0164548 0.24230616 1.0809903 -0.24728253
0.22497104 0.55336004 -0.010277764 0.1658709 0.24005695 0.37725878 -0.097807996 -0.5191007

memory_a.rnn.bias_ih_l0 f4 [256]
00000000: ff1f 78bd df65 543e 13d6 cbbe 6ef6 7ebc
00000010: d772 813c d8c7 6f3e c362 be3d 9a9d d23c
00000020: 5bd1 c2bd 9696 8d3d 682c 85bd 0c5f 49be
00000030: 310d e23b 9563 a63c e570 dcbd 7e88 51be
00000040: 1103 70bd 6406 88be a4e3 813d 354b 65bd
00000050: 4aa0 c73c d1ca 35be c863 85bd 0ad1 a33b
00000060: 0910 3abe 63dc cc3d f3e6 86be 4165 ccbd
00000070: 0d49 7cbe ca81 383d 2c40 8ebe fe68 5dbe
00000080: 5f31 d9bd 85c8 933b 9d04 7bbe de78 a23e
00000090: a65a 04be f589 e4bc cc2e ecbd 848b 79be
000000a0: 713a 883b 2bc9 70be cf1f cabe a4f4 95bd
000000b0: 4bf8 a03c 0987 8f3a 14fa 43ba 885b 41bd
000000c0: caed 9d3d 4fd0 9dbd 5a9a 9e3d 1f37 443e
000000d0: 1138 7cbd 1598 413d f412 343e d81e dd3b
000000e0: 3bf1 7a3d 210f 04be a7b6 043d 7906 89bd
000000f0: b774 09be 9826 a6be cf60 973c 086f b13e
00000100: 5aa5 02be c131 82be a1c9 f93d 4c45 f5bd
00000110: 28fc a83d 009c ea3c 67ed 4cbe 5c1d 46be
00000120: 54dd 53be 7778 b8bc 7109 4e3c b3e6 2fbe
00000130: ea1a 94bd 4eba 39bd 2e2f d4bd 0669 46bd
00000140: 885c 213e 29a6 dcbd 51b7 903d af2f a83e
00000150: 4fcb 5cbe d15b 7cbc 540e 8bbd 78fd 18bd
00000160: 1b7b 333d 062d babd 2d0b 993b 6117 e0bc
00000170: d10f 263e f1f5 07bd 3b72 1bbe 0006 073c
00000180: 9836 ab3d 9355 1dba 0b53 fbbd 40a3 bebd
00000190: a1ba 7f3d 58e3 91bc d6a2 853b 6b87 383d
000001a0: d9c6 e3bc 2748 533e 691f 68bd 39bf f0bd
000001b0: a3b6 16be ffa9 74be a57e 91be cb5e d7be
000001c0: db7b a0be 2233 9a3c 7706 28be 3bdf f43b
000001d0: 30bf c0bc 6595 11be bba4 263d 3fb5 29be
000001e0: d23c 70be 5685 b43d 72a0 51be 72d0 6bbe
000001f0: 8969 b23c c117 903c 3290 073e fbbc 8bbd
00000200: 5c22 c9bd be24 89be 363a ccbd 9339 053e
00000210: bcf2 92bd 71ca 483e 0fcc 92bc da63 d63d
00000220: 74ac d2bd 31fe 5ebc 9d53 0dbe f865 113e
00000230: bfa8 c2be 2bca 81bd aed0 8abe e9cb 2cbe
00000240: bb4d a7bd 6638 8dbd b29f 48bd 3451 22be
00000250: 2d31 473d 89c5 edbc d17b fabb 8db4 70bd
00000260: 2028 263e f5de 5b3d 6324 de3d 69ce 04be
00000270: e7fd 403e 0b98 10be 04d5 1abd 9643 6bbd
00000280: 7b6b ba3d 05e9 47be 1562 1b3e 70fc bb3d
00000290: 0c19 3d3e 2e3a 433b 764d 9bbd 5f10 c73b
000002a0: 0a83 1c3d fca8 12be 0dba a73c d5ca 2ebe
000002b0: 9c0b adbd 6851 b4bd ee81 3cbe b959 363e
000002c0: ca88 eabc 6311 10bc 45e5 87bd 1670 023e
000002d0: 0bb9 303d c8f0 86bc a088 2b3d 049e b739
000002e0: 63e8 cabd 73a4 fc3d 20f0 713e ed13 6fbd
000002f0: aff6 17be d3ed 2c3c 6dba 72bd 7de2 be3d
00000300: 9156 61bd bfb7 31be 907f 29be f85b e3bd
00000310: ca38 9dbc d44b 963d 782b e2bd eb8b 27bd
00000320: 1788 033e 7608 b9ba f36c d13d 0708 97be
00000330: dd0c 3e3e 3b08 553e 4764 57bd 2010 1dbd
00000340: 56b2 01be 6955 1bbe f9d8 a2bd 4e6a 11be
00000350: 9efd 3b3d eef1 cabd dd35 95bc c953 153c
00000360: b28a a23c 4b4a edbc e6ac 80bd 6a6d 29be
00000370: 8232 1ebe 54a4 103e 729f 42bd 2d11 30be
00000380: 4609 94be ced6 51bd d371 22be 3ba4 733d
00000390: 0ef6 83ba 253e 553d 4f2b b43d b30c c2bd
000003a0: ce64 f93d 2aef 72bd 3a35 99be fa5c 3b3d
000003b0: 6981 933e 6377 29bd b019 ea3d 5189 463e
000003c0: 41ed dc3c 8972 be3d 90d8 5f3e b6f8 27bd
000003d0: 26aa 21bd f41d 9ebc 3597 24bd fd5c cf3d
000003e0: e9ff 803e 6fc9 30bd eb95 43be 048c 5fbe
000003f0: dddb 92bb db89 c8bc 273b 9d3b 7f11 1a3c
-0.06057739 0.20741986 -0.39811763 -0.015561683 0.01580183 0.23416078 0.09296181 0.025709916
-0.09512588 0.069134876 -0.065026104 -0.19665164 0.006898545 0.020311156 -0.107637204 -0.20462224
-0.058596674 -0.26567376 0.06342247 -0.055979926 0.024368424 -0.1775315 -0.065131724 0.0049992846
-0.1817018 0.10002973 -0.26348075 -0.0998025 -0.24637242 0.04504565 -0.27783334 -0.21622083
-0.1060512 0.004509988 -0.24513479 0.3173284 -0.12925205 -0.027897814 -0.11532363 -0.24369627
0.0041573574 -0.2351424 -0.39477393 -0.07322052 0.019649645 0.0010950278 -0.0007475924 -0.04720643
0.0771137 -0.07705747 0.07744284 0.19161652 -0.061576907 0.047264177 0.17585355 0.0067480616
0.06126521 -0.12896396 0.032400753 -0.06690688 -0.1342343 -0.3245132 0.01847878 0.34655023
-0.12758389 -0.25428584 0.12196661 -0.11976108 0.0825122 0.02863884 -0.20012437 -0.19347137
-0.20689899 -0.02251838 0.012575493 -0.17177849 -0.07231696 -0.04534369 -0.10360561 -0.048440002
0.15757954 -0.1077388 0.07066215 0.3284888 -0.21561931 -0.01540275 -0.06789842 -0.0373511
0.043818574 -0.09090619 0.0046705217 -0.027354898 0.16216971 -0.033193532 -0.15180294 0.008241177
0.08360022 -0.0006001826 -0.122716986 -0.09308481 0.062433843 -0.017808601 0.0040782494 0.04505102
-0.027804779 0.20632993 -0.05667058 -0.11755223 -0.14718108 -0.23892973 -0.28416935 -0.4206451
-0.31344494 0.01882321 -0.16408716 0.0074729 -0.023528665 -0.14217146 0.040684443 -0.16573046
-0.23460701 0.08814494 -0.20471361 -0.23028734 0.021778839 0.017589452 0.132386 -0.068231545
-0.09821007 -0.26785845 -0.0997204 0.13010244 -0.07175204 0.19608475 -0.017919568 0.10468264
-0.10286799 -0.013610409 -0.13801427 0.14199054 -0.38019368 -0.063373886 -0.27112335 -0.1687466
-0.08169123 -0.06895523 -0.048980422 -0.15851289 0.048630882 -0.029024856 -0.0076441546 -0.058765937
0.16226244 0.053679425 0.10846784 -0.12969364 0.18846856 -0.141205 -0.037800804 -0.0574375
0.091025315 -0.19522484 0.15174134 0.09179008 0.18466586 0.0029789316 -0.07583134 0.0060749496
0.038210906 -0.14322275 0.020474458 -0.17069562 -0.0844948 -0.088045895 -0.18408939 0.17807664
-0.02862968 -0.008793208 -0.066355266 0.1273807 0.04314522 -0.016472235 0.041878343 0.0003502221
-0.099076055 0.12336054 0.23626757 -0.058368612 -0.14840196 0.010554749 -0.05925982 0.09320543
-0.055014197 -0.1735525 -0.16552567 -0.11101526 -0.019192118 0.07338682 -0.11043447 -0.04090492
0.12844883 -0.0014116901 0.102258585 -0.29498312 0.18559594 0.20803921 -0.052585866 -0.038345456
-0.12665686 -0.151693 -0.079515405 -0.14200708 0.045896165 -0.09909426 -0.01821416 0.009114214
0.019841526 -0.02896609 -0.06282978 -0.16545644 -0.15448955 0.14125186 -0.04751534 -0.17194052
-0.28913325 -0.051230244 -0.15863733 0.059482794 -0.0010067837 0.05206122 0.08797323 -0.094750784
0.1217743 -0.059310116 -0.2992342 0.045742966 0.2880967 -0.04137362 0.11430681 0.1938832
0.0269686 0.092991896 0.21859956 -0.041008674 -0.039468907 -0.019301392 -0.040183265 0.10125158
0.25195244 -0.043160852 -0.19100158 -0.21830755 -0.004481776 -0.024479797 0.0047983113 0.009403585

memory_a.rnn.bias_hh_l0 f4 [256]
00000000: ac7f 4c3c 1a3f 523d a29a 56be 05ac 823d
00000010: 7a7e 51bd 2e51 443e 9706 eb3d ea6c bfbd
00000020: 77f9 563c f20d b03d bd17 74be 5efd 29be
00000030: 6168 84bc feb0 73bd ea30 04be cd29 35be
00000040: 985a a33d d3f7 bebe b2ee 793d ae01 893d
00000050: 05d8 723d fe0a 3bbe 11bd 123d 7f71 3cbe
00000060: e658 14bb ee1e d43d e49b 06be f1f1 31bd
00000070: 4969 a5be b1cd 58bc c1d4 65be e285 33be
00000080: c086 82be 6e52 2cbd 9d88 e9bd d58a bd3e
00000090: 6b66 a93b ea70 4e3d 64c7 323d 1fd9 a8bd
000000a0: e8e0 9a3d d17c 05be 66f8 a1be c042 f3bd
000000b0: b660 b2bd e47a 853d f401 cb3d 7280 173d
000000c0: 22bb 283d 6e32 4dbe 0b02 6ebd 3dae 9b3d
000000d0: d0bb e4bd 5d8a a43d ba31 483e 7e60 abbd
000000e0: bb56 393e db46 8abe c243 67bd 2d48 04be
000000f0: 60b4 d1bd 9c1a dabe 5fc2 253e 404a 9c3e
00000100: 72bd 55bd b585 eebd b8ea de3b 128e 6bbe
00000110: 1bb1 043e 38da d43c 0add 34be 9381 27be
00000120: ea13 0fbd 1869 f3bd f84b 3a3c 700a 56be
00000130: f944 52be beee 0e3e 7272 08be 3697 3abe
00000140: 62bf 533d 46d6 1cbe 3a12 f63c b2d4 743e
00000150: 98c5 eebd dd17 a83d 127d 1fbe 3034 3fbd
00000160: a9d9 b6bd 7653 93be 0028 543d ae94 5ebd
00000170: 7da8 fc3d 43b2 e63c 7a09 16be d842 9e3c
00000180: 4ee6 10bd ef60 36bb 8c6b 5e3d eb04 38bd
00000190: f5e4 a03d f62d 043e ca45 dbbd d71f c63d
000001a0: a4cd 1f3e 0f67 573e a98b ba3d b44a d8bd
000001b0: b09c a4bd 5576 1cbe df7c bfbe 82ad e1be
000001c0: 2c8e 37be 1479 04be 3129 54be 5a7c 1bbe
000001d0: 33af 24be 71fd fdbd 00dc ed3c cc16 29be
000001e0: f828 14be 41c4 d4bd 2dcc 75be 509b 61bd
000001f0: 67b8 693d d6f4 fdbd 4847 2d3e 8a15 ddbd
00000200: fbe0 57bd 5c51 4fbe e69a e9bd 4a29 f63d
00000210: 0487 fdbd 3475 e33d 0522 e3bc 5663 fe3a
00000220: ba22 f8bd f784 4b3c 5b3f 71bd c02b c03d
00000230: 6a92 8abe b729 153d a7ad 2fbd deb0 f8bd
00000240: 1d43 e8bb 1452 2ebd a8c1 853c a51d 31bd
00000250: cdb3 a5bd 02dc 2c3e 2cf9 a1bc 9089 2a37
00000260: 1f6b 4fbc 2967 463c e577 ce3d 9971 1a3d
00000270: 8a5e 253e dd7f 203c a1e3 ccbc b2a8 713c
00000280: be93 1e3d a351 03bd 3444 f8bc 2463 0b3d
00000290: a738 c03d 7a41 c8bc e1db 1abe b2c5 c5bd
000002a0: ecd8 5b3e dbc5 b7bd 8da0 13bd 439b 0ebe
000002b0: 5d2f 14be dddf 66bc 483f 2dbe b8e1 683c
000002c0: ef09 b73c 9e16 a7bd db4f 46bd b397 a0bc
000002d0: de12 813e 6de8 54be a8e9 3e3d f32d 053e
000002e0: 16d2 5bbe dfa2 1e3e cb35 753e 9738 f3bc
000002f0: f6fc 1cbe 77b1 f8bd 95b0 1cbc d86f 0e3e
00000300: dd99 86bd 82e7 90bd 07c3 78be de25 a6bd
00000310: dbf0 933d f148 a93d 2b74 9f3d d762 793d
00000320: 4e23 21bc ef56 f8bd dbce ce3d a695 aebe
00000330: e951 303e 40e7 053d 831b 36bd b6fc 3fbd
00000340: 02e4 1bbe e264 8cba 9cce 5cbc b279 22be
00000350: afb2 66bd 18c5 8dbd e5cd 01be 5481 18bd
00000360: dfd2 24bc 6bc8 eb3d 4b2d cd3d 4463 15be
00000370: e4f3 8ebe f872 26bd 2dde d5bd ae4f 9cbe
00000380: b25a 71be f67c b9bc dde1 b0bd 5d69 193e
00000390: edbb 3abd ced9 31bc da92 c33c 039f 3b3d
000003a0: 890d 053d e9df a1bd 94ea ccbd 4ddf f63b
000003b0: 0426 3f3e 6a2b d2bd ed00 c4bd 0d14 103e
000003c0: 4700 1a3e eaab e5bc be6f 0a3e e455 ddbd
000003d0: 84ca dcbd 5041 603e 3c6d 50be d6af 0b3c
000003e0: 379a 143e 98ec 883b 7c01 dcbd e63e 21be
000003f0: 84c0 0d3e 06bc 58bb f6aa 6d3d f70c 663e
0.012481611 0.05132971 -0.20957425 0.06380466 -0.051146008 0.19171593 0.11475866 -0.093469456
0.0131210005 0.0859641 -0.2383718 -0.16600558 -0.016163053 -0.059494965 -0.12909284 -0.17691727
0.07976264 -0.3729845 0.061018653 0.066897735 0.059288044 -0.18265912 0.03582484 -0.1840267
-0.0022635995 0.10357462 -0.13145405 -0.043443624 -0.3230689 -0.013232634 -0.2244444 -0.17531541
-0.2549343 -0.0420708 -0.1140301 0.37019983 0.00516968 0.050400652 0.043647185 -0.082445376
0.07562429 -0.13035895 -0.31634825 -0.11877966 -0.087098524 0.0651758 0.09912482 0.03698773
0.04119409 -0.20038769 -0.058107417 0.07601593 -0.11168635 0.08034203 0.19550219 -0.08368014
0.18099491 -0.27007183 -0.056461103 -0.12918158 -0.10239482 -0.42598426 0.16187428 0.30525398
-0.052182622 -0.11646596 0.006802883 -0.23003414 0.12958185 0.025982961 -0.17662445 -0.16358022
-0.0349311 -0.118852794 0.011370651 -0.20902419 -0.20534123 0.1395826 -0.13324907 -0.18221745
0.05169619 -0.15316114 0.030037988 0.23909262 -0.11658782 0.082076766 -0.15575054 -0.04668063
-0.08928234 -0.28774613 0.05179596 -0.05434101 0.12336824 0.028161174 -0.14652053 0.019318983
-0.035375886 -0.0027828773 0.054301783 -0.044926565 0.0785617 0.12908158 -0.107066706 0.09674042
0.1560579 0.21035407 0.09108669 -0.105611235 -0.08037698 -0.15279515 -0.37399957 -0.44077688
-0.17925328 -0.12936813 -0.20718838 -0.15184155 -0.16082458 -0.12401856 0.029035568 -0.16512603
-0.14468753 -0.10388995 -0.24003668 -0.05507976 0.057060625 -0.124002144 0.16921723 -0.10795124
-0.052704792 -0.2024588 -0.11406498 0.12019594 -0.12379268 0.11106339 -0.027726183 0.0019408267
-0.121159986 0.012421838 -0.05889831 0.09383345 -0.2706483 0.036416736 -0.042890217 -0.1214311
-0.0070880787 -0.042558745 0.016327694 -0.04324116 -0.08090935 0.16880801 -0.019772135 1.0164818e-05
-0.012659817 0.012109556 0.10081462 0.03770599 0.16149345 0.00979611 -0.025010886 0.014749693
0.038715117 -0.032060277 -0.03030596 0.034030095 0.093858056 -0.024445284 -0.1512294 -0.09656848
0.21469468 -0.08973285 -0.036041785 -0.13926415 -0.14471193 -0.014091459 -0.16918671 0.014213972
0.022343604 -0.08158611 -0.048416 -0.019603586 0.25209707 -0.20791788 0.04660955 0.1300581
-0.2146686 0.15491818 0.23946302 -0.02969007 -0.15330872 -0.12143224 -0.009563585 0.13909853
-0.06572316 -0.070754066 -0.24293147 -0.08112691 0.07223674 0.082658656 0.07785829 0.060885277
-0.009835077 -0.12125956 0.10098048 -0.34098548 0.17218746 0.03269124 -0.04445983 -0.046871863
-0.15223697 -0.0010711218 -0.013476994 -0.15866736 -0.05632275 -0.06922358 -0.12676199 -0.037232712
-0.010060041 0.11512836 0.100184046 -0.14588648 -0.2792045 -0.040636986 -0.10442767 -0.3052954
-0.23569754 -0.022642594 -0.0863683 0.14981599 -0.045589376 -0.010855151 0.023873735 0.045805942
0.03248361 -0.079040356 -0.1000568 0.0075339437 0.18666846 -0.10262187 -0.09570489 0.14070149
0.15039168 -0.028036077 0.13519189 -0.10807398 -0.10780814 0.21899915 -0.2035417 0.008525809
0.14511953 0.004178595 -0.107424706 -0.1574665 0.1384297 -0.0033071055 0.05802437 0.22465883
