logs/yuna_IROS/exported/policies/policy_1.pt (torch, 814728 bytes, 8 tensors)

weight f4 [512, 66]
00000000: 0103 e1bc 5fba 123f f922 ef3e ac8d 633d
00000010: 9eea 203f f5ac 2cbf a3d6 203e d729 52be
00000020: c4a5 4e3e 1927 4cbe cef5 15bd c78d 943d
00000030: fa55 103f 2a5c 833e a113 0cbf 56e8 e93e
00000040: 575c 51be c667 afbe cb48 8cbe b8b8 4e3e
00000050: aa2d 0a3f 7684 40bf 76d0 45be 06b9 6c3e
00000060: 8884 183c ba3b e33e cd1a 213e 0d17 5e3e
00000070: b078 39bf fcb2 c13e 418f eebd af4a 6cbe
00000080: 15cf bcbe dfb9 50be 00a3 9d3b 3f48 a7bd
00000090: 296a 88be 4133 f13e 7eae 023f 4499 613e
000000a0: 5940 39be 8399 b5bc 008b 20bd f42d 573f
000000b0: 4bb8 0f3f 9785 173f e9a8 b93d fd22 7e3e
000000c0: a33f abbd c5ae 083d 8658 ed3d 0ef1 83bd
000000d0: 6550 193d 5ebb cfbd 44f3 d43c ede5 b2bd
000000e0: 375f 65bd 1c10 0a3e 65f6 b8bd 2886 9cbe
000000f0: bb58 b6bc 88ef 9e3d 4965 64be 7735 dfbd
00000100: f7dc e2bd 3941 033e f10b 46be 453e 02bf
00000110: e8b8 463e be70 063f dc2b 24bd b283 6bbf
00000120: 744a 34be 7e76 e33e 6f6e bfbc 05e1 933d
00000130: cdf0 7bbd 28d2 ae3d bdeb e4be b9e3 5bbe
00000140: 074d 19bf 8468 26be 643c 843e d60d 153d
00000150: ce2e 23bf 204f f0bd ed8a 963c 8d7b 40be
00000160: 54a5 143f 8971 b7be 270c 94bd 055e f8be
00000170: 87ff 3a3e 8a24 2a3e 8343 b63d fb1d bdbd
00000180: dd7a 3b3f 1507 113f 3c53 55bd 30ed 043f
00000190: db62 30bf 5477 ad3c ceab c3bf 8d42 f33d
000001a0: 2611 1c3e 75bc 31bf 23f5 313e 38bf 91bf
000001b0: ddb5 3a3e 3a8d 98bf eb40 0e3f ab23 84bf
000001c0: 7ee8 a6bf c1eb 3abf 3bf6 003d 7839 9fbb
000001d0: 1045 9dbc f694 9e3b ac0e 21b8 7539 603c
000001e0: ca52 38bb 4535 cfbb 3511 b7bc f189 90bc
000001f0: e8a3 2f3c 3589 f3bc d647 6cbd e444 44bb
00000200: b174 9abc 88bb 963c 9cbb 69bc 2266 9cbb
00000210: 3fa8 493e 37a9 c43e e8b2 ed3e 1d43 13bf
00000220: c1c6 043f e8b1 d63e 34bf 9d3e 9848 a93d
00000230: 396f b43c a4d5 e7bd 74ef 303c 84da 9abd
00000240: d22c 17bf d207 9cbd 0de9 813e 785c cebe
00000250: 0f06 0a3f f827 16bf 8043 853e 032e 373c
00000260: 3837 4f3c 59c8 ce3d b0ba 90be eb66 13be
00000270: 04d6 393d cfa0 adbc 3a0b dd3d 02c3 86be
00000280: 3a67 f7be f757 32be 314c 98bf 4db9 c33e
00000290: 87e1 8f3d b316 813e 072a ae3e c4f0 033f
000002a0: a9f6 54be e36a 3fbe 49bb 353e fa09 2abf
000002b0: 767e 71bf 4906 d43d 943b b43e ffd0 27bf
000002c0: a739 4bbf 8ea8 4dbe ed39 70bf 0823 4dbf
000002d0: d327 db3c eb72 05bd 780e 34bc db9c 4a3b
000002e0: 841e 053d 29be ff3b dd31 d23c ee5e 933c
000002f0: a422 323c 14fa a2bc c5a2 88bc 9539 f8bb
00000300: bf2b 2bbb 315c 033d ac7a b93c 3a91 19bc
00000310: 78c8 b0bc 20fa 063d c53c 4a3d 10cd e5bb
00000320: 7517 713d 8ee0 f23e f29e c3be dc58 8dbf
00000330: dcb7 9bbd ed5d 723e ee1b 143c 09fd 08be
00000340: df21 c73d 37c0 b5bb 43ef 0cbf 997b 07be
00000350: cf54 f1be a9bd 333e 67f3 903d bccc 68bd
00000360: 48d0 b73e 34a1 223c 7f6b 59be ed51 103d
00000370: 6fb7 f3bd fc26 7abe 8d1d 6e3e 7c63 a6bd
00000380: e040 a83e 31b7 253d ef9a 343e 5875 193f
00000390: 9a2f 6b3d 9093 46be ac30 c8be 068a 5abe
000003a0: 4e68 eb3e a02f b93d 285c fcbe bf6d 3bbe
000003b0: 96ea 5cbf 81c5 75bf 67b6 9c3d 3da1 ab3d
000003c0: 5778 1d3f 2ae6 2dbf 59e4 10bd 6da9 53be
000003d0: f6d4 15bf 6d1e 733f 8ffb cc3c b4a0 bcbc
000003e0: d9f8 0abd a742 9b3c 462b 7dbc ca16 25bb
000003f0: 976a 583b ee47 c63b 6677 0e3d a023 103c
-0.027467253 0.5731563 0.4670637 0.05555503 0.62858 -0.6745141 0.15706877 -0.20523773
0.20180422 -0.1993679 -0.03661137 0.072536044 0.5638119 0.25656253 -0.5471745 0.4568507
-0.20445381 -0.3425886 -0.27399287 0.20187652 0.5397593 -0.7520212 -0.19317803 0.23117456
0.009308942 0.44381505 0.1573288 0.2168848 -0.7244978 0.37831867 -0.11648417 -0.23075365
-0.3687674 -0.20383404 0.004810691 -0.08168077 -0.26643494 0.47109416 0.51047504 0.22031122
-0.18090953 -0.022167927 -0.03919506 0.84054494 0.56140584 0.59188217 0.0906542 0.24818034
-0.08361747 0.0333698 0.1158915 -0.06442462 0.037430186 -0.10143159 0.025994904 -0.08735261
-0.055999007 0.13482708 -0.09031371 -0.30571103 -0.022259107 0.07760531 -0.22304262 -0.108988695
-0.11077302 0.12817849 -0.19340493 -0.50876266 0.19406474 0.5251578 -0.04008089 -0.91997826
-0.17606527 0.4442634 -0.023368089 0.072206534 -0.061508942 0.08536178 -0.44711104 -0.21473588
-0.5988316 -0.16250807 0.25827324 0.036390148 -0.63743293 -0.11733842 0.018376792 -0.18797131
0.5806477 -0.35828808 -0.072288804 -0.4850923 0.18261538 0.16615501 0.088995956 -0.09234234
0.7323435 0.5665143 -0.05208133 0.5192442 -0.6890084 0.021175064 -1.5286806 0.11877928
0.15240917 -0.6942819 0.17378668 -1.138648 0.18233438 -1.1918099 0.55567807 -1.0323385
-1.3039701 -0.7301598 0.031484824 -0.0048591457 -0.01919797 0.004839535 -3.8399055e-05 0.013685574
-0.0028125518 -0.006323489 -0.022347072 -0.0176439 0.010720231 -0.029728511 -0.057685696 -0.0029948289
-0.01885447 0.018399969 -0.014265921 -0.0047729174 0.19693087 0.3841035 0.46425557 -0.5752428
0.51865774 0.41932607 0.3080994 0.08265799 0.022025691 -0.113200456 0.010799278 -0.0756121
-0.59052765 -0.07618679 0.25373116 -0.40304923 0.53915495 -0.5865474 0.2602806 0.011180404
0.0126474425 0.10096807 -0.2826743 -0.14394729 0.045370117 -0.021194844 0.10793157 -0.26320654
-0.48320943 -0.17416368 -1.1898252 0.3822731 0.07025438 0.2521263 0.3401644 0.51539254
-0.20797218 -0.18693118 0.17747225 -0.66421473 -0.9433359 0.10352761 0.35201705 -0.6555328
-0.79384845 -0.2008383 -0.9383839 -0.8013158 0.026752388 -0.032580297 -0.010989778 0.0030916247
0.032499805 0.0078046513 0.025658542 0.017989602 0.010872517 -0.019894637 -0.016679177 -0.0075752237
-0.0026118604 0.032070342 0.022641502 -0.009373004 -0.021579966 0.03295338 0.04937436 -0.0070129707
0.05886026 0.47436947 -0.38207203 -1.1042743 -0.07603428 0.23668642 0.009039862 -0.13377775
0.09723257 -0.0055465954 -0.55052584 -0.13230743 -0.47135016 0.17552818 0.07077675 -0.056835875
0.35901093 0.009926129 -0.21232413 0.03523438 -0.119002216 -0.24428934 0.2325346 -0.08124444
0.32861996 0.040457908 0.17637227 0.5994468 0.057418443 -0.19392228 -0.39099634 -0.21341714
0.45978016 0.09042287 -0.4928906 -0.18303584 -0.8629545 -0.9600449 0.07651978 0.08380363
0.6151175 -0.6792933 -0.03537402 -0.206701 -0.5852808 0.949683 0.025022296 -0.023025848
-0.033928726 0.01895268 -0.015452212 -0.0025190585 0.0033022517 0.006051055 0.034781836 0.008797556

bias f4 [512]
00000000: 68ec 60be 54e7 10be c950 2ebe ceae 82bd
00000010: 65e1 28bd 2f3e 63be 735c 49bd 9f0f 4bbe
00000020: 92d1 bc3c 7be6 e63d d492 4a3d a738 60bc
00000030: 8aae 143e 17b9 33bd 4ee7 04bb 837d b9bc
00000040: 3567 823d af38 c73c 8e78 2dbc 335e 8abd
00000050: 5332 e6bd 0da6 19be 280b 49be 327e afbd
00000060: 1101 853d 3c3e 503c 15b5 6c3d c0bb 6f3d
00000070: 24e1 993d 0cc6 f3bd 1e3d 663d 097f 68be
00000080: eca9 df3b ac7e 8d3d 4177 b53d 1681 e5bc
00000090: 332e 09be 390a 76bd b4f2 383c f626 c0bd
000000a0: 4e37 3fbd e423 40bd 6e83 1bbd 61a1 f0bd
000000b0: 347e 92bd 6a0e c23c 17bf 063d 436b 06bd
000000c0: 1af5 493d e15c aebd 22a8 07be 30af b23d
000000d0: e2ca ca3d 92f2 ebbd 2785 b13d 95f2 12be
000000e0: a3fe 1a3d 7942 6aba ae52 733d 914f b6bd
000000f0: 7587 dabd e399 673d f3c0 42bd c882 813d
00000100: 9f59 3dbe 9efa 2dbd a73b 263d f69c 3e3d
00000110: fc9b 8fbd b587 293d 8950 b83d fcef e3bb
00000120: 2671 cfbc 12b5 a5bd fdc4 10be 65b1 393c
00000130: 5652 cdbd b2c3 9e3d 2aab 673c 0cac e7bd
00000140: 06d5 a93d feb3 2cbd f139 5a3c d609 cfbd
00000150: a699 d33d d4c0 0dbe b5d8 01be 7915 01be
00000160: cf8b 9cbb a59a bdbd 6391 33bd 7927 b8bc
00000170: f437 cd3c f4b0 17bd 1a2c 8cbd 41a8 01bd
00000180: 61ce ddbc 4c14 c13d 62c8 8d3d 9827 d43c
00000190: 74cf f4bd 106e a3bc 09d3 d53d 48d1 afbd
000001a0: badf 37bd d747 573d c16c 04bd 8228 8cbc
000001b0: bcbc 89bd 675f 8ebd 52bb 81bd ef8d e5bd
000001c0: f2a4 8cbd 8f3e 7ebc ae9e 1e3b 7305 23bd
000001d0: 7262 473c 39d3 abbd f018 17bd 932d 0d3d
000001e0: 27c7 c53d 7269 30be bc56 9abd d822 8a3d
000001f0: 9525 1fbc 3244 f6bd 3af7 2b3e 2af9 f83c
00000200: 0d60 86bd 896c 003e 4727 2ebe b4e7 243c
00000210: 6605 793d e416 db3d b275 ddbd 9ac7 663d
00000220: 2b8b c4bd 20c9 63bd e1de 5dbd 9292 95bc
00000230: cdcc a1bd 49ab ccbd 7b07 c6bc 6a2a 01be
00000240: 398a b2bd 8292 3cbc d59b 3fbd 5fd3 7cbd
00000250: dd47 6e3d f65f 9dbd 236d 0dbe 6245 dabd
00000260: 6af1 01bd 98fd 2ebe 73a3 88bd dcf4 cabd
00000270: 2474 dcbc d018 11be fb46 f2bd 81d2 b83c
00000280: 583b 05bd 28fa 08be 0948 80bd f1d7 1dbc
00000290: d4e5 263e 29c0 88bd 6ce4 ebbd 0767 1d3d
000002a0: b0c4 853d 63c0 2abe f950 babd d8bb 00be
000002b0: 64ee c8bd 973a 43be 8a11 9ebd 7208 433c
000002c0: b012 81bd 8d8c a33d 6ce3 0dbe 399a 153e
000002d0: d684 e5bb 5283 d13d a810 5cbc b09e 04bc
000002e0: 4856 c43d afff 17bd 8571 61bd bb64 dabc
000002f0: a515 543d 43e6 38be 3702 0cbe 27c3 c8bd
00000300: 79ed 27bd f9e0 023d 97cb 7a3d 9f26 21be
00000310: 85ac 06bd 1cd5 b2bd f68e 223d 1cc4 8ebd
00000320: ef27 50bd 59fa 1abb 52c1 a73c 63ca fb3d
00000330: 138c 2dbd 5e95 153e 02b5 403d efc6 07bc
00000340: a603 cd3d 174e 22be 8903 19bc e65e fdbd
00000350: 0271 933d 296f 5bbd 99fc b03c ff5c ce3c
00000360: f34f 0abd 5163 e0bd 262f a43d edca 1cba
00000370: 13e1 47bd 7c84 cdbd 1084 07be f328 91bc
00000380: 2942 883b a895 023e d7e4 d93c 871e 033e
00000390: 97d5 1fbc 5b22 a33c 4bf7 07bc 7bd7 21bd
000003a0: 83db 093d 33bb 1d3e 01d5 7dbd 3b0a 803d
000003b0: d721 b6bc 6bc7 663c cd13 82bd 1b88 c63d
000003c0: 5752 8b3c 83c4 b93c 06fc 54bd e922 143d
000003d0: 17d0 abbd 8350 1e3d 5d86 7f3d 6113 01be
000003e0: be39 833d 827c af3c a75f 3f3d d68f 0a3d
000003f0: 9dde 91bd 6142 aa3d 7180 793c 3aa7 02be
-0.21965182 -0.14150745 -0.17023005 -0.063809976 -0.041230578 -0.2219169 -0.049160432 -0.19830178
0.02304915 0.112744294 0.049456432 -0.013685382 0.14519706 -0.043877687 -0.002027947 -0.022642856
0.063673414 0.024319021 -0.0105878245 -0.06756248 -0.11240067 -0.1500475 -0.19633162 -0.08568992
0.06494344 0.01271015 0.05778988 0.05852866 0.07513645 -0.11903009 0.05621063 -0.2270471
0.006825676 0.06908926 0.088606365 -0.028015655 -0.1339653 -0.060068343 0.011288334 -0.09382431
-0.046683602 -0.046909228 -0.037967138 -0.117495306 -0.071529776 0.023688514 0.03289708 -0.032817136
0.049306013 -0.08513809 -0.13247731 0.087248206 0.09901978 -0.11520876 0.08667975 -0.1435035
0.037840497 -0.0008936297 0.05940502 -0.08901895 -0.10670368 0.056543242 -0.047547292 0.06323773
-0.18491219 -0.042475335 0.040584233 0.04653641 -0.070121735 0.041389186 0.08999736 -0.0069560986
-0.025322508 -0.08091177 -0.14137645 0.011333798 -0.1002547 0.0775217 0.01413993 -0.11312112
0.08292584 -0.04216384 0.013319478 -0.10109298 0.103320405 -0.1384309 -0.12680323 -0.12605847
-0.0047774087 -0.09258012 -0.043839823 -0.02247976 0.025051095 -0.03703399 -0.06844349 -0.0316546
-0.027075948 0.094276994 0.069229856 0.025897786 -0.11953631 -0.019949943 0.104406424 -0.08584839
-0.044891097 0.052558746 -0.03233028 -0.01710916 -0.06725451 -0.0695179 -0.06334557 -0.11208712
-0.06867398 -0.015517845 0.0024203467 -0.03980012 0.012169467 -0.08389897 -0.036889017 0.03446729
0.09657126 -0.17227724 -0.075360745 0.06744927 -0.00971355 -0.12024726 0.16793528 0.030392248
-0.06561289 0.12541403 -0.1700717 0.010065008 0.060796164 0.106977254 -0.10813464 0.0563427
-0.09596857 -0.05561173 -0.054167632 -0.018258367 -0.07900391 -0.099936076 -0.024173489 -0.12613836
-0.0871777 -0.01150954 -0.046779472 -0.061725017 0.058174003 -0.07684319 -0.13811164 -0.10657765
-0.03172437 -0.17088926 -0.066718005 -0.099099845 -0.026910849 -0.14169621 -0.11829945 0.022561314
-0.032527298 -0.13376677 -0.062637396 -0.009634004 0.1629861 -0.06677277 -0.115181774 0.038428333
0.06531656 -0.16674952 -0.090974756 -0.12571657 -0.098110944 -0.19065319 -0.07718189 0.011903869
-0.063023925 0.07985792 -0.13856286 0.14609613 -0.0070043607 0.102301255 -0.013431706 -0.008094475
0.09586769 -0.037109073 -0.0550399 -0.02665936 0.051778454 -0.18056588 -0.1367272 -0.09802847
-0.040997956 0.031952832 0.061229315 -0.15737389 -0.03287937 -0.08732054 0.03968712 -0.06970999
-0.050819334 -0.0023647754 0.020477924 0.122944616 -0.042369913 0.1460776 0.047047623 -0.008287176
0.100104615 -0.15850101 -0.009339222 -0.12371616 0.07199289 -0.053572807 0.021604823 0.025190828
-0.03376765 -0.10956443 0.08016805 -0.0005981166 -0.048798632 -0.10035035 -0.13233972 -0.017719721
0.0041582775 0.12752402 0.026598377 0.12804614 -0.009755514 0.019913843 -0.008298705 -0.03951214
0.03365661 0.15403442 -0.061970714 0.06251951 -0.022232933 0.014085631 -0.06351433 0.09693929
0.017007036 0.022676712 -0.05199816 0.036166105 -0.08389299 0.038651 0.062384 -0.12605049
0.06407498 0.021421675 0.04672208 0.03382858 -0.07122538 0.08313442 0.015228377 -0.12759104

weight f4 [256, 512]
00000000: febc f2bd 9221 73bc db63 013e d304 113b
00000010: cf0a 393d 9a74 823b 61a2 a23b 9644 a2bc
00000020: 6acd 87bd 50ed fcbd d789 d9bc 8b21 f03c
00000030: af48 d0bc 118e 96bc 18e8 613c c336 abbd
00000040: a7fa 45bd 1a20 22bd 83b3 be3c fccd 123d
00000050: e60f c33c c2df 423d 30cc 04bd 9c30 7d3d
00000060: 2350 923b 70b4 0a3b d94f c33d 372e e6bc
00000070: 9bdd dabc 9e5a b23d df63 34bc 8b30 2dbd
00000080: 8ec6 7fbd 8b70 093d 639b 9cbd ae9d 01bb
00000090: e17d c93a 5a44 c33c cea3 593d c043 f2bd
000000a0: 5e81 543c dd0a e2bc d9b7 bd3d a78f 023d
000000b0: 5805 5fbd 566d 4e3d 53b2 f13c 6737 103d
000000c0: 78d9 93bd a9bf fb3c a0b3 1b3c 14ef 953d
000000d0: 173e 3a3c 781c 7dbd a981 e0bd 58e8 7a3d
000000e0: 783c 9e3a 85a6 023d 2358 a7bd d6d1 813d
000000f0: 23cd b7bc 04bb b8bd cb93 d6bd 2af6 d6bd
00000100: bff8 87bc 4b14 5b3c 4aea c9bd 07f3 60bd
00000110: 14d1 64bd 1b3a 89bc 881d 153e c18a f1bc
00000120: e1e8 893c 778b 953c f733 3d3d 0987 dfbd
00000130: ae35 e2bc 2994 b7bc 6617 6b3d a4e5 033e
00000140: 9b53 3c3d eb34 b73c 847c 503e 4f2e 1c3b
00000150: 2a12 49bd 9f74 e5bd 52ba 053c 12cf bebb
00000160: 2a4c 50bd a505 bb3c 58be b8bb e4c6 613d
00000170: 9d36 0bbe b0cc e7bc d75c 083d c1fb 8cbd
00000180: 8f5b 10bd a155 eabd d166 6ebd 36aa a4bc
00000190: 72f2 6d3d f5c1 84bb 9475 093d c1e4 9a3c
000001a0: e2a1 25bb 3a5f d4bc 39bf 0ebd 883a 853c
000001b0: b329 1ebb 23a7 adbc 1247 97bc 0f26 b93b
000001c0: e65b 983d da85 b3bc e402 c63d 3e2a 993c
000001d0: d295 393d 9cbf 9f3d ad0d 733c bdd3 f03b
000001e0: 39b0 ffbd 2c2a 9abc b049 1fbd aecb d4bc
000001f0: 52b4 b8bd baeb 36bc 8863 68bd 8709 a1bd
00000200: af4f 1b3d c44a 1abe f5ae c1bc 3322 983c
00000210: d544 2abd 7cc1 93bd f065 923b 5068 0fbe
00000220: ae67 53bb 99c7 37bd 5fd8 a7bd 002c 6d3d
00000230: 44e7 8fbd 517a 503d b04b b23c 0a4b 103d
00000240: fc00 c63c c0cd 8dbd 0b51 1e3d 9487 dcbc
00000250: 35de 83bc 1737 e9ba 78b0 b23d 1453 9b3c
00000260: 5cd1 f1ba a37b 7e3d cc19 ffbc 5373 8f3d
00000270: c56d 8cbd 1012 a6bc 7a56 ea3c f28f 303e
00000280: c412 94bc 2aef 653d 85a8 d73d 71fa a939
00000290: 915f 78bd c8ca 5fbd bf53 9bbc d323 12bd
000002a0: 2a7c 4a3d 59e8 84bc b529 2a3b 7058 ed3c
000002b0: e447 12bc c5b5 f13b 55a2 4e3c 9a75 d3bb
000002c0: 12b3 4e3e 0c42 d23b cae9 9c3d 0f68 2d3c
000002d0: 9342 703d 6c02 8dbb ab19 2dbc ec65 bebc
000002e0: 9504 2ebd 2b91 0bbe 4dd4 3c3d f767 ff3a
000002f0: 7ce2 ec3c a14e a03c 094f 283d 9000 e539
00000300: a00c c03d c576 c73b 8d0d 473b 53f8 a9b9
00000310: 9bc1 973b bd84 273d 4016 df3c f8c1 d3bd
00000320: 064a 11bd ea45 31bc 0790 b0bd 00e6 fbbc
00000330: 8556 adbc eabd 3abe f886 d83a 4bd2 173c
00000340: 2331 9dbc ecd4 803d 434b 67bc 7a09 3f3d
00000350: ae4f 333d d341 073c 692d 6dbd b0cb b33a
00000360: 9c75 d43c 5b3a 02be 40a3 a53d 8239 25bd
00000370: 0e9e 1b3d ff84 e8bc 6784 ffbb 21c0 b13a
00000380: 2da5 4dbe 5908 d2bb 1ad7 543d c1c0 b8bd
00000390: e1c4 82bd 9984 8cbb 512d d9bc 8c6b 343c
000003a0: a120 a83c 6432 82bd 6369 f53c d74d d3bc
000003b0: ff26 903d 5cfb c3bd 5e82 813d cef1 0ebe
000003c0: 2b2e db3d ab35 663b 8bd7 ce3d a36b 493d
000003d0: 6db7 5fbc 87a0 a5bd 6dfc 09bd 0340 aebd
000003e0: 0d29 0dbd df25 5b3c 8ea1 b2bd 4d2a c9bc
000003f0: 92f1 0bbe 0113 883b c723 c83c ad08 163d
-0.11852454 -0.014839547 0.12635748 0.002212812 0.045176324 0.003981185 0.0049632047 -0.019808095
-0.066309765 -0.12349951 -0.026554985 0.02931287 -0.025425283 -0.01837829 0.013788246 -0.08360054
-0.048334744 -0.039581396 0.023278957 0.035840973 0.023811292 0.047576673 -0.03242129 0.061813936
0.0044651194 0.0021164678 0.09536714 -0.028098209 -0.026716998 0.0870869 -0.011010139 -0.042282622
-0.062445216 0.033554595 -0.07646825 -0.0019777822 0.0015372598 0.023836304 0.053134732 -0.118293285
0.012970297 -0.02759307 0.09263582 0.03187528 -0.054448456 0.05039724 0.029503977 0.035209086
-0.07219213 0.03073104 0.009503275 0.07320991 0.011367342 -0.061794728 -0.10962231 0.061256737
0.0012072464 0.031897087 -0.081711076 0.06338851 -0.022436684 -0.090200454 -0.10477408 -0.10496171
-0.016598104 0.013371537 -0.0985914 -0.05491927 -0.055863455 -0.01675134 0.14562047 -0.029485108
0.016834678 0.018254979 0.046192136 -0.10914428 -0.027613487 -0.022409515 0.05739536 0.1288057
0.04597817 0.0223641 0.20359999 0.0023831313 -0.04908959 -0.11203884 0.008162098 -0.0058230245
-0.050853886 0.02282984 -0.005637925 0.055121318 -0.13595052 -0.028295845 0.033291664 -0.06883956
-0.035243567 -0.11442114 -0.058203522 -0.020100694 0.058092542 -0.004051442 0.033559397 0.018907906
-0.0025273492 -0.025924314 -0.034850333 0.016263261 -0.0024133741 -0.021197861 -0.018466506 0.005650289
0.07439403 -0.021914411 0.0966852 0.0186969 0.045308895 0.078002185 0.0148348035 0.00734946
-0.12484784 -0.018818937 -0.038888633 -0.025976028 -0.09018768 -0.0111646 -0.056735545 -0.07863145
0.03791779 -0.15067583 -0.023642996 0.018570995 -0.04156955 -0.072146386 0.0044677183 -0.14004636
-0.0032257843 -0.044868086 -0.081955664 0.05790329 -0.07026532 0.0508979 0.021764606 0.035227813
0.024170391 -0.06924009 0.038651507 -0.026920117 -0.016097168 -0.0017792907 0.08725065 0.018960513
-0.0018449235 0.062129628 -0.03114023 0.07004418 -0.068568744 -0.020272285 0.028605688 0.17242411
-0.018075354 0.056136288 0.105301894 0.00032420785 -0.060638014 -0.054636747 -0.018960832 -0.035678696
0.04943482 -0.016224073 0.00259648 0.028972834 -0.008928273 0.007376405 0.012611945 -0.006453228
0.20185497 0.006416565 0.07661779 0.0105838915 0.05865724 -0.004303267 -0.010565202 -0.02324196
-0.04248484 -0.13629596 0.046100903 0.001948594 0.02891659 0.019568743 0.041091 0.00043678703
0.09377408 0.0060871565 0.0030373067 -0.00032419208 0.004631234 0.040898073 0.02723229 -0.10339731
-0.035470985 -0.0108198915 -0.08621221 -0.030749321 -0.02115942 -0.18236509 0.0016519716 0.009266446
-0.01918847 0.062906116 -0.014117065 0.046639897 0.04377716 0.00825544 -0.057904635 0.001371732
0.025934987 -0.12717573 0.08087778 -0.040338047 0.03799253 -0.02838373 -0.007797766 0.0013561287
-0.20082541 -0.0064096865 0.05196295 -0.0902114 -0.06385208 -0.004288268 -0.026510866 0.011011969
0.020523371 -0.063572675 0.029957479 -0.025793953 0.07038688 -0.09569427 0.06323694 -0.13959429
0.10702165 0.0035127203 0.10099705 0.049174916 -0.013654572 -0.08087259 -0.033687998 -0.08508303
-0.034462977 0.013375728 -0.0872222 -0.024556303 -0.1366637 0.004152656 0.024431122 0.036629368

bias f4 [256]
00000000: 3568 adba de86 6bbd e52e 8abe 6b4e a5bd
00000010: d899 abbd 0880 cabd d4d5 aabd cf5c 25be
00000020: fa76 11bc dd3a 21bc a3fc c5bb bed6 b1be
00000030: 7894 43bd 1f7c b3bd 03da 88bd ab90 7dbc
00000040: c578 d03c 72e5 e8bd 5ade c5bc 4b9e 56bd
00000050: bcb2 3dbe d582 09bd a2d7 ba3c 2e40 56bd
00000060: ee77 12be 88d7 c53b ed3e 98bd c0d5 9cbd
00000070: 9742 c9bc eee2 b9bd 14aa 1ebd 2ede c63c
00000080: 9720 ecbd 616b 93bd a622 58bd d402 6bbd
00000090: fdea 1cbe 8f1e 80bd bb41 cdbd 3f03 32bc
000000a0: 22bb 1fbd c66d fabc 9aa3 10bc 1fc3 92bd
000000b0: 2778 e23d f6dd 49bd f1eb 03be d7ce 82bd
000000c0: ffe0 7bbd dfb3 a6bd 7bb1 12be 0bc7 38bd
000000d0: 706d dbbc 105c 8538 d20f 58bc 0b1b 03be
000000e0: 3540 25be d220 f8bc bda1 45bd e6a4 ef3c
000000f0: 8891 d5bc 7d1e f6bd 722b fdbc 3db3 aabd
00000100: f369 debc 2a4f 57bd 43c0 b7bc 080d 7bbc
00000110: 879e 9abd b442 80bd 7ab1 9e3a 09d9 f0bd
00000120: 4bf7 d1bd 9ddd 61bb 614d ad3d 4f94 a7bd
00000130: 9fa7 38bd b1a2 54be 50b7 103d 04f2 46be
00000140: f988 e4bc 4089 abbe c73e 00bd 17ce acbc
00000150: 4f2e e6bd 5059 163d 7c9a 4abe 6f80 38bd
00000160: 1f74 84bd 2d52 8ebd e1e4 86be b0aa 36be
00000170: 2f13 7bbd 3f76 35be ed81 1dbe 9659 22be
00000180: 1ca8 afba 6202 ff3b 1a1d 05bd e362 2c3d
00000190: 632b a5bc 6b7b a8bc 4da5 a5bd 909a 29be
000001a0: a641 723c e0e3 12be e0f0 67bd 37a8 97be
000001b0: 9cad 6ebd f142 f0bd ea9a 86bd 45b9 22bd
000001c0: c561 1dbe ccf1 d0bd 8a3a 4b3d fb17 a4bd
000001d0: d09b d5bc cdf0 933c 9590 f5bd 0d5d f4bc
000001e0: 2e70 8ebd 79a5 873a 85a5 bebc 55b3 5fbd
000001f0: c93f 4ebe 2265 82bc a0a2 9a3b 116a d03a
00000200: 760b e3bc a40a 49bd dab5 75bd f757 cbbb
00000210: 4086 83bd 48ab 6abc 722a b7bd b421 97bc
00000220: 7ba2 d1bd 90ef f6bc 986e 84be 337b e9bd
00000230: e556 153d cc81 4d3c 9505 f3bd 8ef5 5c3d
00000240: 5dc5 5dbb 1554 39be 1157 8bbd cd0e acbd
00000250: bb8d d0bd 4dab a9bd 616b 31be d248 b1bd
00000260: 66db bebd 5497 54bd 68f0 1abe 3574 c33c
00000270: d545 833b b104 33bd 0e40 ea3b 5b0d 87be
00000280: 6a82 2abe 3d88 f2bc aa78 cbbc 8cf2 dabd
00000290: f9f7 aebd 820b 80bd 2783 52bb 9a83 663d
000002a0: 6e23 6bbe 7d58 f5bc fa29 52bb bcef 92bd
000002b0: 835d 153d 67ca bdbd 36fe 84be 82d7 35bd
000002c0: 689d 6a3d 5f7c 2dbe 6865 f0bc e964 ebbd
000002d0: 004c cfbd af35 82bd e9c5 fcbd dd93 20be
000002e0: e7e3 5dbb 51cd a8bc 359f b2bd e7ca 38bc
000002f0: 469b 8fbd 710f 1cbe 7396 d0bd 8ef3 2e3c
00000300: 0d98 00be d09b c83c 6272 c53c 74be 5f3c
00000310: 519b 91bd 0d41 21be 7c85 f8bd c647 0ebe
00000320: 6151 28be 8001 3b3d 06bd 2cbe c8ed 77be
00000330: 71e8 d5bc 555f 0ebe 2795 253c da67 44bd
00000340: 85ee 223c 9575 1ebe ec08 ebbc dbb8 33bd
00000350: 7504 8bbd d896 9abc 64d9 d1bd 26c2 e2bd
00000360: 5a1f a9bd 40f5 70bd f751 c9bd 6077 a0bd
00000370: 7159 36be c507 b1bd 79b3 823c ac8e 693c
00000380: 6003 46bc 3fb2 a7bd eacf a7be 17ec 8f3c
00000390: 9532 383d ed53 bcbd 9d22 04bd 9a4c fabd
000003a0: 0e8a e6bd 08c5 3cbe 879c 7dbe 8cdf 9abe
000003b0: a813 19bd aa64 1d3c 9335 aabb 1aec 2e3d
000003c0: 068e 6cbe c139 65be 5990 36bc d790 e83c
000003d0: 884d 5cbd 9e8d 1c3c 1c02 6abd 5910 27bd
000003e0: 6faf 44bd ed9b 453d fb0d 75bd 3040 2ebd
000003f0: b6b0 d9bd 1862 28be a9c9 3fbd c8b3 66bd
-0.0013229909 -0.057501666 -0.26988903 -0.08071598 -0.08378953 -0.09887701 -0.08341566 -0.16148685
-0.008878464 -0.009840694 -0.0060420795 -0.34734148 -0.047749013 -0.087639086 -0.066822074 -0.015476386
0.025448212 -0.11371888 -0.024153877 -0.052397054 -0.18525213 -0.033572037 0.0228079 -0.0523073
-0.14303562 0.006037656 -0.07433877 -0.07657957 -0.024567885 -0.090764865 -0.038736418 0.024275865
-0.115296535 -0.07198215 -0.05276742 -0.057375744 -0.15324016 -0.062558286 -0.10022303 -0.010865032
-0.038996823 -0.030569922 -0.008828068 -0.07166123 0.110580735 -0.049283944 -0.12882973 -0.06387108
-0.06149387 -0.081397764 -0.14325516 -0.045111697 -0.026785582 6.359082e-05 -0.013187366 -0.12803285
-0.16137774 -0.030289087 -0.04824995 0.029253434 -0.026070371 -0.12017534 -0.030904505 -0.08334968
-0.02715013 -0.05256573 -0.022430545 -0.015322931 -0.07549768 -0.062627226 0.0012107335 -0.11760146
-0.102522455 -0.0034464367 0.084620245 -0.081825845 -0.04508173 -0.20765187 0.03533107 -0.19428259
-0.027897345 -0.3350315 -0.03130987 -0.021094365 -0.112393014 0.03670627 -0.19785494 -0.04504436
-0.06467461 -0.069492675 -0.26346496 -0.1783855 -0.06129759 -0.17720889 -0.15381594 -0.15854487
-0.0013401541 0.0077822665 -0.032498457 0.042086493 -0.02016229 -0.020566663 -0.08088169 -0.16562867
0.01478616 -0.1434474 -0.0566262 -0.29620525 -0.058271036 -0.11731518 -0.06572516 -0.039727468
-0.15369327 -0.10202369 0.049616374 -0.080123864 -0.026075274 0.018059159 -0.119904675 -0.029829526
-0.0695499 0.0010348997 -0.023272285 -0.054614384 -0.2014152 -0.015917365 0.0047190934 0.0015900751
-0.027715426 -0.049082413 -0.05998788 -0.0062055546 -0.064220905 -0.014323063 -0.08943643 -0.018448688
-0.10236069 -0.03014353 -0.25865626 -0.114004515 0.036459822 0.012543153 -0.11866299 0.053945117
-0.0033839562 -0.18098481 -0.06803716 -0.084012605 -0.10183283 -0.08284626 -0.17326118 -0.086564675
-0.09319191 -0.05190213 -0.1513077 0.023859123 0.0040061274 -0.043705646 0.007148749 -0.26377377
-0.16651312 -0.02960598 -0.02483781 -0.106907934 -0.08543391 -0.06252195 -0.003212163 0.05627785
-0.22962734 -0.029949421 -0.0032068477 -0.07174632 0.036466133 -0.09267121 -0.25975198 -0.044394977
0.05727902 -0.16941975 -0.02934523 -0.114938565 -0.10121918 -0.063578956 -0.12342436 -0.15681405
-0.0033857764 -0.020605715 -0.087217726 -0.011278844 -0.07012038 -0.15240265 -0.10184946 0.010678185
-0.12558003 0.02448836 0.024102394 0.013656247 -0.071097024 -0.15747471 -0.12134835 -0.13894567
-0.16437294 0.045655727 -0.16868982 -0.242118 -0.026111813 -0.13903554 0.0101063615 -0.047950603
0.009944563 -0.15474541 -0.028690778 -0.043877464 -0.067879595 -0.018870756 -0.10246542 -0.11072187
-0.08257933 -0.05882764 -0.09830087 -0.07835269 -0.17807557 -0.0864406 0.01595472 0.014255207
-0.012085766 -0.081882946 -0.32775813 0.017568631 0.044970114 -0.09195695 -0.032259572 -0.12221642
-0.112568006 -0.18434536 -0.24766742 -0.30248678 -0.03737226 0.00960652 -0.005194375 0.042705633
-0.23101053 -0.22385313 -0.011142814 0.028389378 -0.053784877 0.009555249 -0.057130918 -0.040787075
-0.04801887 0.048244406 -0.059827786 -0.042541683 -0.10629408 -0.1644367 -0.046823177 -0.056323797

weight f4 [128, 256]
00000000: 595a db3d 197e 843d 7749 c4bd b0ca 1cbb
00000010: bdc2 c5b9 0a30 49ba 18c6 0abc 9a1c f2bd
00000020: 2a06 97bd da31 63bd 88c1 c73d 2622 f83d
00000030: 1bf4 493d 69ae 92bd 0c80 a53d a439 f2bc
00000040: ed34 dd3b 78a2 9cbc a996 d1bd 41d5 6c3d
00000050: 8bb8 103e 1774 c6bd b954 e53c affb 063c
00000060: 298f 00bd a1c5 e73c bdbe a4bc e214 b43d
00000070: 17d5 973d cc07 433d 2ca8 c9bd f0e7 eebb
00000080: 410c 63bb a042 16bd d015 203b 3ae2 073c
00000090: c323 79be 1720 bd3d b0cc 56bc ceb6 b63c
000000a0: d5f1 f83c 41ef c33d b970 5abe b71f 36bc
000000b0: 113b 2a3d 724a 983d 3c9c 6f3d f43b fe3b
000000c0: e92a d8bd af21 8cbd c6e2 f03b 0e2d 45bd
000000d0: 8cd4 893c f3a4 293c 9033 423c d4e8 003e
000000e0: 0501 6abd 230e fe3c a2e9 e03d 46f5 6d3c
000000f0: cd96 0e3e c845 cf39 241f 6abd f1ea 83bd
00000100: 1cdd 553c e59a 09be 65fd eebd 9a22 2abd
00000110: e61f f5bb 4f0c 1dbd 4e02 e13c b650 30be
00000120: 670e 8f3d 4e0e 0eba e825 45bb a8b4 b2bd
00000130: b8f7 deba d8d1 81bd 5694 f23c fc5f a93d
00000140: abbe f43c ddba 183e b885 20bd 34a0 883b
00000150: e061 be3d 34f3 633c 5a26 e2bd 3a6d 53bc
00000160: 81c3 8c3d 25a7 1dbd 5941 383d 6381 b3ba
00000170: 250e 023e f41e 71bd e54f 703c 39c4 a73d
00000180: 169a 20bb 3811 3fbc 95f5 a03d 688c 943d
00000190: 276c 64bd 6d8b 7abd 9f74 213d 66c3 ea3d
000001a0: 8330 81bd c4b5 023e 31bc 913d a85c d43d
000001b0: 2547 a4bd e356 c43c 5338 e33c 0f7f b8bc
000001c0: f170 5f3d 3d71 b9bd 4668 b43d 730c 94bd
000001d0: ca62 e0bd c51c 143d 9d1b 403d ef60 81bd
000001e0: cc73 aabd 0fa8 9b3d c274 5a3c 87db bfbd
000001f0: 8c17 03be 1cbb bd3d 0fff c8bd b831 16bd
00000200: e6bd 05bd e7b3 b7bc 3f32 edbc 642d dbbd
00000210: c1d2 69bd af4c b13c 558d 183d e69a e4bc
00000220: 0c1e 88be f33a 863b ddc5 b9bd 1060 ab3d
00000230: 16a1 4bbe e4c1 1c3a ac3e b8bc 3657 5ebd
00000240: 6ad0 503d 52e1 75ba bc59 e9bd a92f ee3c
00000250: ecbb de3d 8d00 debd c98b 93bd 1623 56bc
00000260: 06cb ce3b 5872 773c 0318 403d e9fe cbbc
00000270: 55ce ebbd 5ac0 21bd 404d 1fbd 3403 39bd
00000280: 37ec 7fbd b565 a4bd 933e 213e bb49 9f3d
00000290: a5e2 ef3d f1cc 863d 08f0 9a3d 630f fabc
000002a0: e258 85bc 2f56 d93b d95d 1cbd 52a5 833d
000002b0: a422 8abd 6151 5bbd a377 023c abb8 c33d
000002c0: 4940 5d3b 64a1 c9bc b541 cd3d e71b 4fbd
000002d0: df22 923d 1cc0 debc 9914 0dbc 3ad3 c2bd
000002e0: d887 d13c 8b41 003e 6c1b f83c 9039 30bd
000002f0: 9b91 a73b 167f 303d f79b 903d f22e 3fbb
00000300: 1562 c63d fd34 84bd e838 c8ba 7520 2ebe
00000310: 5293 d83d 9c56 5d3c 01b9 e63b d1a6 353e
00000320: 1ce4 1bbd 6fd6 c9bd 1951 293d 7529 4cbd
00000330: a8c3 913b 3a94 173c bce4 f8bb ad34 c33d
00000340: 8944 b1bc 0eea 0fbd 4233 a13d 8174 733d
00000350: 4064 5e3d b804 69bd 16b8 8e3c 2274 fb3d
00000360: d7d3 e93c 3e4f c3bc c13d 33bd 077b cbbd
00000370: b9ed c23d e31b 64bd 9396 133e b619 9e3b
00000380: 74d2 813d 4b47 82bc feba 763c eb52 abbc
00000390: 3561 cebc 4fe5 c43c af62 05bd cdb3 0a3d
000003a0: fbb3 af3c ac67 1cbd bd8b 11bc bd17 e53d
000003b0: 1a10 9dbb ce38 50bc 7383 f8bc 0cfc 5dbc
000003c0: d051 ea3b dd05 3cbc 167f cd3d c3d6 ed3d
000003d0: 87d5 af3c fb76 dcba d213 fdbd dc2f 56bd
000003e0: 93f7 f3bc 1693 5abd 5026 3ebd d295 6cbd
000003f0: 565b 15be 6e5f 15bc a12d 633d 11ca 98bc
0.10710592 0.06469364 -0.09584325 -0.0023924522 -0.0003771986 -0.00076747 -0.008470081 -0.118218616
-0.073742226 -0.055467464 0.0975371 0.12115888 0.049305063 -0.07162172 0.08081064 -0.0295685
0.006750694 -0.01912044 -0.10233814 0.057820562 0.14132898 -0.09690111 0.0279945 0.008238717
-0.03138653 0.028292479 -0.020110482 0.087930456 0.074136905 0.047614858 -0.09846529 -0.0072908327
-0.0034644755 -0.036684632 0.0024427064 0.008293683 -0.24330048 0.09234636 -0.013110325 0.022303965
0.030388752 0.095671184 -0.21332063 -0.01111596 0.041560236 0.07436074 0.058498606 0.007758612
-0.105550595 -0.06842362 0.0073512523 -0.04813867 0.016824983 0.010354268 0.011853114 0.12588817
-0.05712988 0.0310126 0.10982062 0.01452381 0.13924713 0.00039534108 -0.057158604 -0.06441296
0.013053205 -0.13437994 -0.11669425 -0.041536905 -0.007480609 -0.038341817 0.02746692 -0.17218289
0.06985169 -0.00054190017 -0.0030082408 -0.08725864 -0.0017011082 -0.06338853 0.029611748 0.08270261
0.029876074 0.14915033 -0.039190024 0.0041694883 0.09296012 0.013912965 -0.11042471 -0.01290446
0.06873227 -0.03848948 0.044984195 -0.0013695176 0.12700708 -0.05886741 0.014667486 0.081917234
-0.0024505905 -0.01166182 0.07859341 0.07253343 -0.055767205 -0.061168123 0.03941786 0.114630505
-0.06308081 0.1276465 0.07115973 0.10369235 -0.08021382 0.023967212 0.027736818 -0.022521524
0.05455107 -0.090548016 0.08808951 -0.07228937 -0.109563425 0.03616025 0.046901334 -0.06317317
-0.08322868 0.07600414 0.013333501 -0.093680434 -0.12801951 0.09264204 -0.098142736 -0.03666851
-0.032651804 -0.022424651 -0.028954623 -0.10702017 -0.057085756 0.02164301 0.03724416 -0.027905893
-0.26585424 0.0040963828 -0.090709426 0.08367932 -0.19885668 0.00059798197 -0.022490822 -0.05428239
0.05098001 -0.00093795836 -0.113940686 0.02907546 0.10875687 -0.10839949 -0.07204396 -0.013069889
0.0063108234 0.015102945 0.0468979 -0.024901824 -0.11513964 -0.03949008 -0.03889203 -0.04516907
-0.06248113 -0.080272116 0.15746526 0.07777735 0.11713151 0.06582058 0.075653136 -0.030524915
-0.016277734 0.0066325883 -0.038175438 0.06428017 -0.067448884 -0.053544406 0.007963094 0.09556707
0.003376024 -0.02461309 0.10022298 -0.05056372 0.071355574 -0.027191214 -0.008610868 -0.095129445
0.02557747 0.12525003 0.030286513 -0.043023646 0.005113793 0.04308995 0.07060998 -0.0029172269
0.096866764 -0.06455419 -0.0015275748 -0.17004569 0.10574974 0.013509419 0.007041097 0.17739417
-0.03805934 -0.09855353 0.041337106 -0.049844224 0.004448373 0.009251649 -0.0075956266 0.095315315
-0.021639125 -0.03513532 0.07871105 0.05943728 0.054294825 -0.056889266 0.017421763 0.1227801
0.028543396 -0.023841497 -0.043760065 -0.09935575 0.09517998 -0.055690657 0.14412908 0.0048248423
0.06338969 -0.015903136 0.015059231 -0.020913562 -0.025192836 0.024035124 -0.032564815 0.033862878
0.021448126 -0.038184807 -0.008883414 0.11186168 -0.004793179 -0.012708856 -0.030336117 -0.013548862
0.007150866 -0.011476007 0.10034005 0.11613228 0.021464122 -0.0016820127 -0.12357296 -0.052291736
-0.029781139 -0.05336293 -0.046423256 -0.057760067 -0.14585623 -0.0091169905 0.055463437 -0.01865104

bias f4 [128]
00000000: b808 dabd c620 39bd 489b 7cbc b1dd 3bbe
00000010: ee44 ca3b dd9b a5bc ab67 ebbd 6024 4fbd
00000020: b398 90bc 9e07 48bc 081c 0cbe fa42 aebd
00000030: ecf9 cabd 5729 80bd a542 babd 833d 91bd
00000040: afec 473d afa8 d43c bb60 93bd 5481 02be
00000050: 97b7 a0bd 5d62 59bd d792 08be 982b b0bd
00000060: 2cbd 06be 59c7 82bd 6c82 cebd eca3 48bd
00000070: f16f 45be 040b aebd 408d 38bd 27cd b0bc
00000080: fd2d 9cbd f006 8dbd c955 8bbd 27cb 1bbe
00000090: 9a08 dbbd f3de 06bd b954 23bd 4323 07bd
000000a0: 3011 0ebe fb7f a7bd a5d9 42bd 5786 ff3c
000000b0: eb86 95bd 6728 eabc 45bf 58bd f5dd 77bd
000000c0: 1551 f9bd e0af a8bd 06d5 62bd 7e88 59be
000000d0: 5615 a6be 8421 54be a16d 8cbe 4ed3 49bd
000000e0: 3be2 8a3b 7e95 3cbd 1bab 96bd 0617 4cbc
000000f0: 6461 a6bd fd36 573c 14cc 0fbe 102a febc
00000100: 6c71 9cbc fa4d bbbd d260 68bd f12d 8abd
00000110: e8db 26bd a186 533c efc5 dbbd 6b44 6cbe
00000120: e950 88bd cd38 05bd e341 f1bd b2ae edbd
00000130: 8696 8ebd 0132 46be 8acc 03be 3fae 12bd
00000140: aed8 9bbd 3ce3 543d 32cc dfbd bf4c 00be
00000150: ca70 2abe 8d1d 9ebd 05e8 3abd e55b 55be
00000160: 970a 77bd 9df3 3fbe cd20 9ebd 5711 c2bc
00000170: 570b edbd 5acf d0bd 5d4b b2bd b7e3 82bd
00000180: ac29 59be db25 93bc c68f 11be 8626 adbd
00000190: 74b0 6abd 8645 9ebc 0093 fcbd 99f9 16bd
000001a0: e7f1 afbd 7746 0cbe ae76 05bd 0451 9cbd
000001b0: ad20 3fbd d13b 06be e73a f6bd 06df cebd
000001c0: ce24 1bbe a94c e1bc 0763 93bd d19d 4cbd
000001d0: 3384 24bd 78cf 09bd 9da8 7f3a 9776 5bbe
000001e0: d055 e0bc 5f06 c1bd 43ef 2fbe b10b 0cbd
000001f0: 274e 2cbe eeee 1ebe 6be6 30bd 9fed 3ebc
-0.10646194 -0.04519727 -0.015417881 -0.18346287 0.006172768 -0.020215923 -0.114943825 -0.0505718
-0.017650938 -0.012208847 -0.13682568 -0.085088685 -0.0991095 -0.06257885 -0.09094743 -0.070918106
0.048809703 0.02595934 -0.07196184 -0.12744647 -0.07847517 -0.053072322 -0.13337265 -0.08602065
-0.13158101 -0.06385679 -0.1008347 -0.048984453 -0.19280984 -0.08498195 -0.04505658 -0.0215822
-0.07625959 -0.06886089 -0.068034716 -0.15214215 -0.10695 -0.032927465 -0.03987572 -0.032992613
-0.13873744 -0.08178707 -0.047570843 0.031191988 -0.07301124 -0.028583718 -0.052916784 -0.06051441
-0.12173668 -0.082366705 -0.055378936 -0.21243474 -0.32438153 -0.2071591 -0.2742739 -0.04927378
0.0042383946 -0.046041004 -0.073568545 -0.012456661 -0.081240445 0.013135669 -0.14042693 -0.031025916
-0.019097053 -0.09145732 -0.05673296 -0.06747044 -0.040737063 0.012910516 -0.10731112 -0.23072974
-0.066560574 -0.032524873 -0.11780145 -0.11605586 -0.06962304 -0.19355012 -0.12870994 -0.035810705
-0.07609688 0.05197452 -0.10927619 -0.12529276 -0.16644588 -0.0772048 -0.045631427 -0.20835836
-0.060312834 -0.18745275 -0.077211 -0.023689909 -0.115744285 -0.10195799 -0.08705781 -0.063910894
-0.21207303 -0.017962387 -0.14215001 -0.084546134 -0.057297185 -0.01932026 -0.123327255 -0.03685913
-0.08591061 -0.13698755 -0.032583885 -0.0763264 -0.04666202 -0.13108756 -0.120229535 -0.10101132
-0.15150759 -0.027502375 -0.07196622 -0.049955193 -0.040165137 -0.033645123 0.00097526034 -0.21431957
-0.027384669 -0.09425043 -0.17181115 -0.034190837 -0.16826688 -0.15520832 -0.043188494 -0.011653333

weight f4 [18, 128]
00000000: 99c2 a83d 0a54 e2bb 712a 403d 8a74 fb3c
00000010: 271b 78bd 77a0 ad3d 98cf ba3b 5cf1 5e3c
00000020: a7ce f83b dae8 1fbd 2a7c b83d 67e9 7fbc
00000030: 2f1f 5d3d e49a 59bd 9661 843c 2c65 bebd
00000040: e46e a93d cb7b b0bd df8b aabc 2950 803d
00000050: b275 11be 8dc5 44bd 80ab 773d a2a1 3b3d
00000060: 236d efbc 0180 593b aaa4 193c c19e 6c3d
00000070: b344 f7bd efba 853c 72eb bc3c dae9 653c
00000080: 8b85 45bd 70c0 c43d 2284 2cbd 94cb cd3c
00000090: 8943 1bbc b31b 4cbd 7e03 1b3d 983f 66bd
000000a0: 416f 0cbc aee4 ba3d 023b 4d3d d70f 4e3d
000000b0: 26c8 533d e5a4 89bc de01 8d3d 39b7 38bc
000000c0: e453 ed3c ea85 8cbc cedc 233c 72e6 8b3c
000000d0: d802 9d3d 593a 04be b1b4 823d 43e0 003e
000000e0: fb2c a23b 130d a53d 0d8a 0dbd fb06 96bb
000000f0: 4301 cbbd 4029 6dbd 3a24 b03d c441 b9bc
00000100: 665f 68bb a98f efbd a7a9 233d 50ed 1dbd
00000110: b11f c9bc 3f53 8c3c e934 abbd 6dc7 25bd
00000120: dc1f 933d 0ad4 813d d3e6 803c e9bb 7cbd
00000130: 937f a0bd c5b3 4a3c 3fcf 76bd ba51 993b
00000140: 2093 c5bc 4671 90bd c3df 843d 09de 043e
00000150: 90c2 323d 1797 a6bd d92d 383d a31f b1bd
00000160: 4122 a0bd 88d1 863c 09be 773d 0cd2 16bd
00000170: 909b 17bd aa51 623d b80f 60bd 10e8 f8bc
00000180: f316 ecbd 536c 283e 1501 13bd 0723 9f3d
00000190: e19f 3c3c e235 b9bc b2be bdbd 0c39 69bd
000001a0: 0db7 503d c27b 1a3e 8a47 75bc 977b 2a3d
000001b0: 36ab 0f3d 0f18 a9bd 506f 3d3d a52a 223d
000001c0: c9ab afbd a1cd e33c 0a39 04bd b040 a5bc
000001d0: 88a7 3bbd e944 843d 290b bf3c c914 de3c
000001e0: d6b7 67bc 4795 25bc 9795 cd3d 0002 f93c
000001f0: d1a7 9e3c 0944 60bd 2868 8d3d 0c90 a2bd
00000200: 6acf 013d 1945 343d 47b2 af3c 513e b9bc
00000210: dbf3 533d d2f7 393d 88df ea3c cbb8 833d
00000220: dbf1 453a 6247 6c3d b5c0 6abc 158d b53d
00000230: 76fc 4abc d757 863d 33b6 e2bc a5bc b6bd
00000240: 319f 3c3d dce9 6bbd d7b8 f4ba bfd2 dabc
00000250: 7c05 babc f96c 353d 0922 d33d a5c5 543c
00000260: 3b3f 26be e3c5 e4bb c1da 083c 32c1 5c3d
00000270: 8794 6bbe d235 27bd 129f 0cbd 5fd2 48bb
00000280: 048a 14bd 22f2 863d c174 e1bd ccd4 9e3a
00000290: 594c 863c 7258 863d 5a63 9fbc 256a 44bd
000002a0: 2333 5d3d 4447 143d a887 ddbc 3b9f ffbc
000002b0: f17b b53d 477d 4e3d f0c7 803c 2e5c 943d
000002c0: ee1f f13c 1a52 cfbc 5b4a 7bbd 6ddc 1c3d
000002d0: 7fbc 8c3d 210a 973d b38b 24be d404 613d
000002e0: 804a c13d 26d2 8a3a 85ab e339 8066 8dbd
000002f0: 6acf 25bd 3775 02be 89cc cbbd d8b3 8c3d
00000300: f79b c6bb aecd 9c3b 70d2 44bb 94d4 4e3b
00000310: 945b 183d 03e8 ec3c 2980 30bd 7c0b 353d
00000320: ae61 76bc 64bc aabc f439 5ebd e1dc 4fbe
00000330: d433 323d 6c42 c8bc c5ad d73c 6e5a 6bbd
00000340: fb95 4bbc 3fdf 94b9 1a2e 6ebc 809b eebd
00000350: 17e0 c4bd f642 123c ab78 343e a0a8 3a3d
00000360: 65da 40bd bd44 b83d 2be9 873d 7cab 89bd
00000370: 9446 533d 5741 333c 4fe4 84bd 22f4 7ebc
00000380: ada2 e6bb fd15 78bd 5e76 72bd 12e9 413c
00000390: d012 d7bd 8866 a13c 9fac 9fbd 4ee0 f13c
000003a0: 85f8 8bbd ec6b a83d 3a9f b0bd 83a3 42bb
000003b0: 31bc 813d 3501 63bc c0ea 08bd 0f85 25bd
000003c0: b027 c83d aa8d dbba 890c 613c 30b9 ecbc
000003d0: d157 e93d a097 a0bc ae4f c83c 46b4 9b3d
000003e0: ef2e 393d 33fd d9bc 9de2 8cbd 658e 5a3b
000003f0: 055d b2bd e0db bfbb f87b e23c 882f f4bc
0.082402416 -0.006906991 0.046915475 0.030695219 -0.06057277 0.08477872 0.0057010166 0.013607349
0.0075929943 -0.039040424 0.090080574 -0.015619612 0.053984817 -0.05312623 0.016159814 -0.09296641
0.08273104 -0.08617362 -0.020818649 0.06265289 -0.14205053 -0.04803996 0.06046629 0.045808442
-0.029226845 0.0033187869 0.009377638 0.057768587 -0.1207365 0.016324488 0.023061488 0.014032805
-0.04822306 0.09607017 -0.0421182 0.025121488 -0.009476551 -0.049831104 0.037845127 -0.05621299
-0.008571447 0.091256484 0.050105102 0.050308075 0.05170455 -0.01680226 0.06885122 -0.011274152
0.028970666 -0.017153699 0.010001374 0.017077658 0.07666558 -0.12912883 0.063821204 0.12585549
0.0049492097 0.08059134 -0.034555484 -0.004578469 -0.0991235 -0.057900667 0.0860066 -0.022614367
-0.0035457253 -0.11697323 0.039956715 -0.038556397 -0.024551244 0.017129539 -0.08359701 -0.04047339
0.07183811 0.06339271 0.015735066 -0.061702643 -0.07836833 0.012371962 -0.06025624 0.004678932
-0.024118006 -0.07052855 0.06487992 0.12975325 0.04364258 -0.08134287 0.0449656 -0.08648612
-0.078190334 0.016457334 0.060483966 -0.03682141 -0.03701359 0.055253662 -0.05470249 -0.030384094
-0.11527815 0.16447572 -0.035889704 0.07770353 0.0115127275 -0.022608701 -0.09264888 -0.05693917
0.05095582 0.15086272 -0.0149706695 0.04162177 0.03507539 -0.08256542 0.046248734 0.03959145
-0.08577687 0.027808012 -0.03228096 -0.020172447 -0.045814067 0.06458456 0.023320751 0.02710952
-0.014142951 -0.010106391 0.100382976 0.030396461 0.01936713 -0.054752383 0.06904632 -0.07937631
0.031691946 0.04401121 0.021447314 -0.022612723 0.05174623 0.045402355 0.028671041 0.06431731
0.0007550993 0.057685263 -0.0143281715 0.088648 -0.012389293 0.06559723 -0.02767477 -0.089227
0.046050254 -0.057596073 -0.0018670809 -0.02671182 -0.022707693 0.044293378 0.10309226 0.012986575
-0.16235058 -0.0069815977 0.008352936 0.053895183 -0.23005877 -0.04082281 -0.03433139 -0.003064297
-0.036264434 0.06589152 -0.11008597 0.0012117862 0.016393827 0.06559838 -0.019456554 -0.04795279
0.054003846 0.036200777 -0.027042225 -0.031203857 0.088615306 0.050412443 0.015720338 0.072441444
0.02943417 -0.025307704 -0.061350208 0.038296152 0.0687189 0.07374979 -0.16068916 0.054936245
0.09438038 0.0010591194 0.00043424606 -0.06904316 -0.04048101 -0.12740026 -0.09951121 0.0687024
-0.006061073 0.004785261 -0.0030032657 0.0031559812 0.03719671 0.028919226 -0.043090973 0.044200405
-0.015037937 -0.020841785 -0.054254487 -0.20299102 0.04350646 -0.024445735 0.026327977 -0.057459287
-0.012425895 -0.0002839509 -0.014537359 -0.11650753 -0.09613054 0.008927098 0.17624156 0.04557097
-0.047083277 0.08997486 0.0663627 -0.06722161 0.05158098 0.010940871 -0.06488859 -0.0155611355
-0.0070384354 -0.060567845 -0.059194915 0.011835353 -0.10501635 0.019702211 -0.07796597 0.029525902
-0.06834511 0.082237095 -0.0862412 -0.0029699511 0.06334723 -0.013855268 -0.033427 -0.040410098
0.09773195 -0.0016750593 0.013735899 -0.028896898 0.11393703 -0.01960355 0.024452057 0.07602744
0.045210775 -0.026609993 -0.068791606 0.0033349034 -0.08709148 -0.0058550686 0.027647004 -0.02980782

bias f4 [18]
00000000: d070 703b ed84 323e f264 4cbd 666c 1d3e
00000010: 1088 48be 4628 c3bb 2200 dc3e 3573 a63e
00000020: 9b92 da3d ba87 0abe 4428 93be 09e8 833d
00000030: 5483 c33d e949 1c3e aa5b e03b 5819 73bc
00000040: c956 54be 3a63 5cbe
0.0036688335 0.1743352 -0.049900956 0.15373382 -0.19583154 -0.0059557287 0.4296885 0.3250977
0.10672494 -0.13528338 -0.28741658 0.064407416 0.09546533 0.1526257 0.0068468647 -0.014837585
-0.20736231 -0.21522227
