logs/go1_IROS/exported/policies/policy_1.pt (torch, 762440 bytes, 8 tensors)

weight f4 [512, 42]
0	0xbe11d90b	-0.14242952
1	0xbda3d24b	-0.079990946
2	0x3d02eefc	0.031966195
3	0x3cb68a3d	0.022282714
4	0xbd920f13	-0.071317814
5	0x3d37dbcc	0.04488735
6	0xbe68f030	-0.22747874
7	0xbdf153f0	-0.11783588
8	0x3e39b788	0.18136418
9	0xbe6b3022	-0.2296758
10	0xbd89ce32	-0.06728782
11	0x3e07add5	0.13249905
12	0x3e93b2d6	0.28847378
13	0x3c8cc7c7	0.017185105
14	0xbd8401c3	-0.064456485
15	0x3cd76355	0.026292482
16	0xbc6ea84d	-0.014566493
17	0xbdc174fc	-0.09446141
18	0xbe43633f	-0.19080828
19	0xbc3425d8	-0.010995351
20	0x3e288d91	0.16460253
21	0xbc9f5f3d	-0.019454593
22	0x3dab2fcf	0.08358728
23	0x3e08c45f	0.1335616
24	0x3de11320	0.10989976
25	0x3d065334	0.032794192
26	0xbd3f5b38	-0.046717852
27	0x3de4e16e	0.1117581
28	0xbe40832e	-0.18800041
29	0x3c64bfd2	0.013961749
30	0x3cbfb810	0.023403198
31	0xbd268973	-0.040658426
32	0x3dfb2622	0.12263133
33	0xbdba2cff	-0.090906136
34	0xbd7e6734	-0.06211014
35	0x3db3eef1	0.08785809
36	0xbc8d2880	-0.017231226
37	0x3b1959f2	0.002339956
38	0x3c66b432	0.014081048
39	0x3dd6d56e	0.10489927
40	0x3c393127	0.011303223
41	0xbd81d8a1	-0.06340147
42	0xbd51e184	-0.05124046
43	0xbd9cf45d	-0.07663796
44	0xbdc5e402	-0.0966263
45	0x3cf9d567	0.030497266
46	0xbdab631b	-0.08368512
47	0xbdc3cd51	-0.09560645
48	0xbd57130c	-0.0525084
49	0xbdf47696	-0.11936681
50	0x3d8ffb54	0.07030359
51	0xbe3c7d40	-0.18407154
52	0x3e0ccd37	0.13750158
53	0xbe23b36b	-0.15986411
54	0x3e8da4ef	0.27664897
55	0x3df7ac60	0.12093425
56	0x3d867cb1	0.06566752
57	0x3d842633	0.064525984
58	0xbe8b822a	-0.27247745
59	0xbe253ebe	-0.16137215
60	0x3d8003f0	0.06250751
61	0xbdcc3e58	-0.099728286
62	0xbd75c5c1	-0.060003046
63	0xbdc58cdb	-0.09646007
64	0xbe0757d1	-0.13217093
65	0xbc2bab2a	-0.01047782
66	0xbde3ce33	-0.11123314
67	0x3ba46df9	0.0050179926
68	0x3dac6a2f	0.084186904
69	0x3ddb1999	0.10698242
70	0xbde8c514	-0.11365715
71	0xbe416847	-0.18887435
72	0x3d1e1a5b	0.038599353
73	0x3dda5b1c	0.10661909
74	0xbd8e1526	-0.069376275
75	0x3dd7cb2a	0.10536797
76	0xbd2acc01	-0.04169846
77	0x3d8d675f	0.06904482
78	0x3d602c5f	0.054729816
79	0xbdb09be0	-0.08623481
80	0x3d0fadb5	0.03507777
81	0xbd191907	-0.037377384
82	0xbcb85f75	-0.022506455
83	0x3c821d71	0.01588318
84	0xbe1b7b3a	-0.15183726
85	0x3d98d4cc	0.07462463
86	0x3dceecba	0.10103746
87	0xbd143585	-0.036183853
88	0x3d82e852	0.06391968
89	0xbde0dc01	-0.109794624
90	0x3c0e9f6f	0.008705004
91	0xbe50eb5d	-0.20402284
92	0x3b3c6e08	0.0028752107
93	0xbe266d8d	-0.16252728
94	0xbd042595	-0.032262404
95	0xbd90ab45	-0.07063917
96	0xbe39a7a0	-0.1813035
97	0x3d326912	0.043557234
98	0xbdb547aa	-0.088515595
99	0x3e658551	0.22414137
100	0xbe0f5e20	-0.1400075
101	0x3b7a8db4	0.0038231434
102	0xbd998da8	-0.07497722
103	0xbe5bb089	-0.21454062
104	0x3c896c37	0.016775234
105	0xbe0504c6	-0.12990102
106	0x3e087a0a	0.13327804
107	0xbd84c138	-0.06482166
108	0x3d319ffb	0.04336546
109	0x3e3e4828	0.18582213
110	0x3d38eb0a	0.045146026
111	0x3e46dc2d	0.19419928
112	0xbe00e2d7	-0.12586533
113	0xbe26d818	-0.1629337
114	0xbd518d7a	-0.051160313
115	0xbdd054c7	-0.1017242
116	0x3d1eb87c	0.038750157
117	0xbdef4b66	-0.11684303
118	0xbc9d382d	-0.019191826
119	0x3dcea7a0	0.10090566
120	0xbcbfd044	-0.023414738
121	0xbc2a4353	-0.010392028
122	0x3dd0e054	0.10199037
123	0xbda480e9	-0.080324
124	0xbde473c1	-0.11154891
125	0x3d848ab7	0.0647177
126	0x3d59db82	0.053187855
127	0x3c006589	0.007836708
128	0xbda9744b	-0.08274134
129	0xbc0b8041	-0.008514465
130	0x3db0a35f	0.086249106
131	0xbd82b340	-0.063818455
132	0xbe45bb01	-0.19309618
133	0xbd3c37c5	-0.045951623
134	0x3e087dbe	0.13329217
135	0xbc3e336b	-0.011608939
136	0x3e477c2d	0.19480963
137	0x3e5aec2f	0.2137916
138	0x3de94a6f	0.1139115
139	0xbe6f8eff	-0.23394392
140	0xbdaf005d	-0.08544991
141	0xbd39e195	-0.045381147
142	0xbdb67b2f	-0.08910214
143	0xbd2a024d	-0.0415061
144	0xbe5ec6ef	-0.21755575
145	0xbd1baf15	-0.038008768
146	0xbde1cd62	-0.11025502
147	0x3db9bee6	0.09069614
148	0xbd09b1fe	-0.033617012
149	0x3cabb035	0.020958045
150	0x3de1b764	0.11021307
151	0xbcb9df3b	-0.022689452
152	0xbc8b051f	-0.016970215
153	0x3df91f20	0.1216414
154	0xbdbbc273	-0.091679476
155	0x3c231a42	0.009954991
156	0x3ce9e6a3	0.028552359
157	0xbdf7114e	-0.120638475
158	0x3cf26b25	0.029592106
159	0xbdb00b8b	-0.08595952
160	0xbcf14241	-0.029450538
161	0xbda9455f	-0.082651846
162	0xbdda474d	-0.10658131
163	0x3d80dfa2	0.062926546
164	0x3d46287a	0.048378445
165	0x3c9b30ba	0.018944133
166	0xbd9574b0	-0.07297647
167	0x3dc23125	0.0948203
168	0xbd7c5336	-0.061602794
169	0xbe10e9a5	-0.14151628
170	0xbda0e301	-0.078557976
171	0xbc888935	-0.016666988
172	0xbdbce49d	-0.09223292
173	0x3d154c98	0.03645
174	0xbe48bb62	-0.19602731
175	0xbd46b0f3	-0.048508596
176	0xbde9fac3	-0.11424782
177	0xbe0f3eba	-0.13988772
178	0xbe857e8e	-0.26073116
179	0xbdc06172	-0.09393586
180	0x3e3b2c0e	0.18278524
181	0xbdb21fce	-0.086974725
182	0xbd744add	-0.059641708
183	0x3e1703bb	0.14747517
184	0x3d093183	0.033494484
185	0xbde37254	-0.11105791
186	0xbe35eb7b	-0.1776561
187	0x3c791453	0.0152026
188	0xbdf59312	-0.11990942
189	0x3db2b29e	0.08725475
190	0xbe5f0c9d	-0.21782155
191	0xbe1bbda3	-0.1520906
192	0x3ddc9c5f	0.10772013
193	0x3bce9214	0.006304035
194	0x3d6f36ea	0.05840198
195	0xbd1c7bdf	-0.03820407
196	0xbdb7f173	-0.089816
197	0x3db1ce38	0.08681911
198	0xbc7e6784	-0.01552761
199	0x3db207f2	0.08692922
200	0xbd13131d	-0.0359069
201	0xbc84d345	-0.016214022
202	0xbca84792	-0.02054194
203	0xbdd96a89	-0.10616023
204	0x3ce943ef	0.028474776
205	0x3d0cc0b9	0.034363482
206	0xbda5e229	-0.08099777
207	0xbd9ececa	-0.07754286
208	0x3dd276a7	0.102765374
209	0xbcaaeb08	-0.020864025
210	0xbab2fa33	-0.0013654887
211	0xbdefd2e7	-0.11710148
212	0x3df9acb7	0.12191146
213	0x3dee3feb	0.11633285
214	0xbd8f9093	-0.07009997
215	0x3e06982e	0.1314399
216	0x3d2bd997	0.041955557
217	0x3e3aa9de	0.18228862
218	0xbd2be3f0	-0.041965425
219	0xbdda9940	-0.10673761
220	0xbe144a67	-0.14481507
221	0xbda75888	-0.08171183
222	0x3de9cc3c	0.11415908
223	0xbe41546d	-0.18879862
224	0x3dc53895	0.09629933
225	0x3e31976d	0.1734292
226	0x3cabd4c6	0.020975482
227	0x3e43e4bc	0.19130224
228	0xbdc96c93	-0.09835162
229	0x3d4a1038	0.049331874
230	0x3dd48f61	0.1037891
231	0xbe195e35	-0.14977343
232	0x3cd0f1d3	0.025505936
233	0x3e13f145	0.14447506
234	0xbdd7b233	-0.10532036
235	0xbda2dded	-0.07952485
236	0xbde00707	-0.1093884
237	0x3e1c61d8	0.152717
238	0x3dacd982	0.08439924
239	0x3d5e6c71	0.054302637
240	0x3d8240c2	0.06360008
241	0xbe144b3c	-0.14481825
242	0x3d0bdbe2	0.034145243
243	0xbd308850	-0.043098748
244	0x3dc501cd	0.09619484
245	0xbdb6b561	-0.08921314
246	0xbdafe0ea	-0.08587821
247	0x3dc1cca7	0.094628625
248	0x3d31868d	0.04334121
249	0xbd6e6102	-0.058197983
250	0xbde1f3f8	-0.110328615
251	0xbe0d31c3	-0.13788514
252	0x3de961e8	0.11395627
253	0xbce5b1ba	-0.028038848
254	0x3d455b2f	0.048182663
255	0x3d91ddb5	0.071223654

bias f4 [512]
0	0x3dbdf412	0.09275068
1	0xbe2e697b	-0.17032425
2	0xbce8f13e	-0.028435346
3	0xbc9c2420	-0.019060194
4	0xbdf26200	-0.11835098
5	0x3de01ab4	0.10942593
6	0xbd85b175	-0.06527988
7	0x3df11216	0.11771028
8	0x3d30f16c	0.043198988
9	0x36a28165	4.8430397e-06
10	0xba9fd5cf	-0.0012194457
11	0x3d4caa2b	0.049966972
12	0xbaf47e77	-0.0018653412
13	0x3d12913c	0.035783038
14	0x3df796b5	0.12089292
15	0xbdf17137	-0.11789172
16	0xbbdd315f	-0.0067502703
17	0x3d4e6e3d	0.0503981
18	0xbcf9e0ba	-0.030502666
19	0xbbfeb1c4	-0.007772656
20	0xbd2c5bdd	-0.042079795
21	0x3d2e7b48	0.04259804
22	0xbd8070cb	-0.062715136
23	0xbd4693ef	-0.048480924
24	0x3e033cf0	0.12816215
25	0x3dd5b2ee	0.10434519
26	0xbe298fe5	-0.16558798
27	0xbc2dca18	-0.010607265
28	0x3dc18a93	0.09450259
29	0xbd8257af	-0.063643806
30	0xbd90d09e	-0.070710406
31	0x3ddc78d7	0.10765236
32	0xbd495623	-0.049154412
33	0x3d22505b	0.039627414
34	0x3da7cb32	0.08193053
35	0xbd23e79a	-0.040015794
36	0xbd78c755	-0.060736973
37	0xbc0203d1	-0.00793548
38	0xbd815d63	-0.0631664
39	0x3de0bf87	0.10974031
40	0xbdb4a659	-0.08820791
41	0x3ca7cdae	0.020483818
42	0x3e0a3b16	0.13499102
43	0x3d851fff	0.065002434
44	0xbc4a3aa0	-0.012343079
45	0x3d44b306	0.048022293
46	0xbb98d8f4	-0.0046645347
47	0x3db500e9	0.08838064
48	0x3d26ba44	0.04070498
49	0xb9967aeb	-0.0002870181
50	0xbd52f4a2	-0.05150283
51	0xbd778712	-0.060431547
52	0xbd3665b3	-0.04453058
53	0x3d2685a2	0.040654786
54	0x3d1d3f72	0.038390584
55	0xbda7a59f	-0.081858866
56	0x3d145ac1	0.036219362
57	0x3ca3933b	0.019967666
58	0x3dd5909a	0.10427971
59	0x3e1ae58e	0.1512663
60	0x3c92dcd2	0.017927561
61	0x3db16836	0.08662455
62	0xbd224575	-0.03961702
63	0xbdb9ec35	-0.09078256
64	0xbd75a378	-0.05997035
65	0xbe15f1bd	-0.14642997
66	0x3d861522	0.065469995
67	0xbb5337c5	-0.0032229286
68	0x3d5cf955	0.05394872
69	0x3d7ca466	0.06168022
70	0xbdc72112	-0.097231045
71	0x3decf496	0.115700886
72	0x3dcff68c	0.10154447
73	0xbdfea9a9	-0.12434704
74	0xbcf9282b	-0.030414661
75	0xbdd28cb5	-0.10280744
76	0x3d0a09f9	0.033700917
77	0x3d4afe6e	0.04955905
78	0x3d310803	0.04322053
79	0x3cb39328	0.021920756
80	0xbdf6fb51	-0.120596536
81	0x3dcc46ae	0.099744186
82	0x3d2995ae	0.04140251
83	0x3b80869d	0.003922297
84	0x3dae23aa	0.08502896
85	0xbd3b0283	-0.045656692
86	0xbdbd1326	-0.09232168
87	0xbd71d0fc	-0.059037194
88	0xbc50d39c	-0.012745764
89	0xbdc5f3fc	-0.09665677
90	0xbde59478	-0.11209959
91	0xbc33ecba	-0.010981733
92	0x3cbaed35	0.022818187
93	0xbb0b8a01	-0.0021291974
94	0xbe019ecf	-0.12658237
95	0xbdf5a227	-0.11993819
96	0xbe216683	-0.15761761
97	0xba98ac43	-0.0011648018
98	0x3ce72455	0.028215567
99	0x3ddaf309	0.106908865
100	0xbd7ba6ff	-0.061438557
101	0xbdfd2fdd	-0.12362645
102	0x3d3d5ae4	0.04622926
103	0xbdee1542	-0.11625148
104	0x3d7c2302	0.061556824
105	0x3e04ad57	0.12956749
106	0xbd7c78e4	-0.061638728
107	0xbd9ccca1	-0.07656217
108	0xbdfdc2b1	-0.1239065
109	0xbdbe8e2a	-0.093044594
110	0x3ddaa89a	0.106766894
111	0xbcdf1565	-0.027231881
112	0x3d6d42e4	0.05792512
113	0x3e082dcc	0.1329872
114	0xbb968dfb	-0.004594562
115	0x3c862e29	0.016379433
116	0xbe088c3a	-0.13334742
117	0x3cf55bab	0.029950937
118	0x3da44bd6	0.08022277
119	0xbd677e48	-0.056516916
120	0x3d15d22e	0.036577396
121	0xbce5abeb	-0.028036078
122	0x3e3c23b3	0.18372993
123	0xbca4ab07	-0.020101083
124	0x3db1b16f	0.08676421
125	0xbd54b44e	-0.051929764
126	0x3c821ea5	0.015883753
127	0xbd396f8d	-0.0452724
128	0x3d18ed3d	0.037335623
129	0xbdc5700a	-0.096405104
130	0x3d41e2d3	0.047335457
131	0xbd7e28d2	-0.062050648
132	0xbbe6e8b5	-0.007046784
133	0xbe1dc8a0	-0.15408564
134	0xbd14f13a	-0.036362864
135	0xbd6cde14	-0.057828978
136	0x3dd63ded	0.1046103
137	0xbc5eb4dc	-0.013592925
138	0xbdeaf7f8	-0.114730775
139	0xbcc12d78	-0.023581252
140	0xbdc198fd	-0.09453008
141	0xbd307bb5	-0.043086726
142	0x3e017c90	0.12645173
143	0xbe0170b1	-0.12640645
144	0xbd12b753	-0.035819363
145	0xbdc9d612	-0.09855284
146	0xbd84eb32	-0.064901724
147	0x3d89c796	0.06727521
148	0xbdfdebf8	-0.12398523
149	0xbe127d40	-0.14305592
150	0xbd8b6c81	-0.06807805
151	0xbd66a3d1	-0.05630857
152	0x3e2594fd	0.16170116
153	0xbd166780	-0.0367198
154	0x3dc70391	0.09717477
155	0x3b3edd31	0.002912354
156	0x3d9cf643	0.07664158
157	0x3def2033	0.116760634
158	0xbcba6333	-0.02275238
159	0xbdaffede	-0.08593534
160	0x3d990843	0.07472279
161	0xbe0e3137	-0.13885961
162	0xbcce4507	-0.0251794
163	0xbda2d546	-0.07950835
164	0x3d6b4501	0.057438854
165	0xbd554b1a	-0.052073576
166	0xbdd5018b	-0.10400685
167	0x3dd37647	0.10325294
168	0x3cd60107	0.026123537
169	0xbddcd9e6	-0.10783748
170	0x3cb9bbd8	0.022672579
171	0xbd061f79	-0.03274486
172	0xbde18fb1	-0.11013735
173	0x3babf148	0.005247269
174	0x3d700027	0.058593895
175	0xbc973f02	-0.018462662
176	0x3c79772b	0.015226166
177	0x3db7f110	0.08981526
178	0x3d10002b	0.03515641
179	0x3e0f5493	0.13997106
180	0xbc390c2b	-0.011294405
181	0x3d16d72d	0.0368263
182	0xbd9e2d57	-0.07723492
183	0x3e0da974	0.13834172
184	0x3d768e6a	0.06019441
185	0x3cd7ac06	0.026327144
186	0x3d6169f5	0.05503269
187	0xbdc5f71d	-0.09666274
188	0xbdd381f6	-0.103275225
189	0xbd8ca2f0	-0.06867015
190	0xbde9078f	-0.11378395
191	0x3d8464ed	0.064645626
192	0x3d3a514b	0.045487683
193	0xbda45340	-0.08023691
194	0x3daf800b	0.08569344
195	0x3d7018bc	0.05861734
196	0x3d13f205	0.03611948
197	0x3dca93ca	0.0989147
198	0x3d5a48c5	0.053292055
199	0x3e1ed97b	0.1551265
200	0x3d7fe2ac	0.06247203
201	0x3d103567	0.03520718
202	0x3dc15b3b	0.09441229
203	0xbc3e6f24	-0.011623178
204	0xbe0a806c	-0.13525552
205	0x3de9ba0c	0.11412439
206	0x3dd220c7	0.10260158
207	0x3decfe24	0.11571911
208	0x3df2d851	0.11857665
209	0x3d6167fa	0.0550308
210	0xbd8de794	-0.06928936
211	0x3c9ee7b9	0.019397603
212	0xbdfb8aa7	-0.12282305
213	0x3dcfc0c8	0.10144192
214	0x3e17daf4	0.14829618
215	0x3d9732ce	0.07382737
216	0xbdcca7f2	-0.099929705
217	0x3df1abf6	0.11800377
218	0xbc160938	-0.009157471
219	0x3c39f434	0.0113497265
220	0x3da2e793	0.079543255
221	0x3dec1a3f	0.115284435
222	0xbba81a82	-0.005130113
223	0x3ca1c516	0.019747298
224	0xbde6a5f7	-0.11262124
225	0x372fb67f	1.04733035e-05
226	0xbcab79d9	-0.020932125
227	0xbd50df36	-0.05099412
228	0x3dddff57	0.10839718
229	0x3dd92d6e	0.10604368
230	0x3d42e2e7	0.047579672
231	0xbd0ffdd6	-0.035154186
232	0xbdf64390	-0.12024605
233	0xbd333ce6	-0.04375925
234	0xbc65720d	-0.014004243
235	0x3d917c8e	0.07103835
236	0xbd3febd0	-0.046855748
237	0xbd355564	-0.044270888
238	0x3d1f56e8	0.03890124
239	0xbb716db9	-0.0036839081
240	0x3d98efeb	0.07467636
241	0x3dc76694	0.09736362
242	0x3e09d106	0.13458642
243	0x3d909b9c	0.0706093
244	0xbc6fa200	-0.014626026
245	0x3d947c52	0.07250275
246	0xbbd63b76	-0.00653785
247	0x3db1900d	0.08670054
248	0xbde5c5d7	-0.112193756
249	0x3d156bf2	0.036479898
250	0xbdba4350	-0.0909487
251	0xbd726bf1	-0.059184972
252	0x3a4b29da	0.0007750072
253	0xbe0539a4	-0.1301027
254	0xbd9c95ef	-0.07645785
255	0xbd56f9a8	-0.052484185

weight f4 [256, 512]
0	0xbd0bad40	-0.03410077
1	0xbcd33d57	-0.025786085
2	0xbcd688d8	-0.026188299
3	0xbd74764b	-0.059683125
4	0x3d2a7d7b	0.041623574
5	0x3d01477b	0.03156231
6	0xbcd76692	-0.026294027
7	0xbbf87b98	-0.007583093
8	0x3c0b0821	0.008485825
9	0x3d937a48	0.07201058
10	0xbc739ee0	-0.014869422
11	0xbd21c7f2	-0.039497323
12	0x3d19614e	0.037446313
13	0xbb96392f	-0.0045844535
14	0x3b1d50d0	0.0024004467
15	0xbc8f61df	-0.017502723
16	0x3d15c7aa	0.036567368
17	0x3dd1ed63	0.10250356
18	0x3cd492f9	0.025948988
19	0xbd990184	-0.07470992
20	0xbd909f34	-0.070616156
21	0xbd37b7d2	-0.04485304
22	0x3cb19166	0.021675777
23	0x3c9cfb3f	0.019162772
24	0x3d21e086	0.039520763
25	0x3d0d911c	0.034562215
26	0xbd793a23	-0.06084646
27	0xbd9343b8	-0.07190651
28	0xbceeef2c	-0.02916678
29	0x3d24ff75	0.040282685
30	0xbc95887d	-0.01825356
31	0x3d5a46b8	0.0532901
32	0x3d9536c3	0.072858356
33	0x3cadab26	0.021199774
34	0x3ba85ac6	0.005137774
35	0x3d6585fd	0.056035984
36	0xbc88eb6f	-0.016713826
37	0x3c4b7d19	0.012419962
38	0xbc0fcfba	-0.008777553
39	0x3c117dfd	0.008880136
40	0x3d94986e	0.07255636
41	0xbc383d18	-0.011245035
42	0x3d287ccf	0.04113465
43	0x3d93f69a	0.0722477
44	0xbc0ef134	-0.0087244995
45	0xbd026e68	-0.031843573
46	0xbd69a39f	-0.057040807
47	0xbd5f3b88	-0.054500133
48	0xbd18b885	-0.037285347
49	0xbc956966	-0.018238734
50	0xbd2460a9	-0.040131245
51	0x3d16d25a	0.0368217
52	0xbd829bdf	-0.06377386
53	0xbcb30e8b	-0.02185752
54	0xbdc89d39	-0.09795613
55	0x3cf8c439	0.030367004
56	0xbd5fee2c	-0.054670498
57	0x3dde207d	0.108460404
58	0x3d2d7b5a	0.042353965
59	0x3c899d1e	0.016798552
60	0xbc86013b	-0.016358009
61	0xbcff6eec	-0.031180821
62	0xbd950761	-0.07276798
63	0x3d56c110	0.052430212
64	0x3ca832d9	0.020532059
65	0x3d605c23	0.05477537
66	0xbda113e6	-0.078651235
67	0xbda38a85	-0.07985405
68	0x3da44e10	0.08022702
69	0x3cc15571	0.023600312
70	0xbc3f6179	-0.011680954
71	0xbcdee1dc	-0.027207308
72	0x3ccb4f71	0.024818154
73	0x3c592495	0.013253351
74	0xbcce4ba7	-0.025182558
75	0x3d20cb52	0.0392564
76	0xbc173358	-0.00922855
77	0xbd2a11b2	-0.04152078
78	0x3cb59a18	0.022168204
79	0x3cfaa5ef	0.030596701
80	0x3d0a204a	0.0337222
81	0x3c5b633b	0.013390358
82	0x3dc55e06	0.09637074
83	0xbd643a2f	-0.05571955
84	0x3c13a447	0.009011335
85	0xbd0ebd32	-0.0348484
86	0xbd44baf0	-0.04802984
87	0x3d6d0a0b	0.057870906
88	0x3d3884b2	0.045048423
89	0x3dbec413	0.09314742
90	0x3c241881	0.010015608
91	0x3d969181	0.073519714
92	0xbd1fe43b	-0.039036017
93	0x3cfc4130	0.030792803
94	0xbd86b79e	-0.06577991
95	0x3d909a18	0.07060641
96	0xbca58cf2	-0.02020881
97	0x3daf85cc	0.085704416
98	0xbd21bc68	-0.03948632
99	0x3d8d0d5d	0.068873145
100	0xbd64a8e4	-0.05582513
101	0x3d1cb663	0.038259875
102	0x3ca53c1f	0.02017027
103	0x3cc9cfb0	0.024635166
104	0xbbef2e48	-0.0072992183
105	0x3d0d7e27	0.034544136
106	0x3d39a073	0.045319032
107	0x3d9d5ae7	0.07683354
108	0xbb482fab	-0.003054599
109	0x3d645e5c	0.05575405
110	0xbd5f35ba	-0.054494597
111	0x3d0078a1	0.03136504
112	0x3bdf975c	0.0068234634
113	0x3d16651a	0.03671751
114	0x3d91c66c	0.07117924
115	0xbd4e12a8	-0.05031076
116	0x3cdd10e0	0.026985586
117	0x3cdefca0	0.02722007
118	0x3dad216b	0.084536396
119	0x3ca09bb3	0.019605493
120	0x3c92f65a	0.017939735
121	0x3d3ca506	0.046055816
122	0xbcb50e74	-0.022101618
123	0xbbf6b09d	-0.007528378
124	0x3d25044c	0.0402873
125	0x3c17cf2c	0.009265702
126	0x3d0b5ac3	0.034022104
127	0x3ce5e04a	0.02806105
128	0x3970f37c	0.00022978889
129	0xbcf00f3e	-0.029304143
130	0x3dc8badd	0.09801266
131	0x3c8af04b	0.016960284
132	0x3b940f5f	0.004518434
133	0x3d9af271	0.07565773
134	0xbc1895bc	-0.009313043
135	0x3d35c534	0.04437752
136	0x3ce10014	0.027465858
137	0x3cd23614	0.025660552
138	0xbda33d6f	-0.07970702
139	0xbd67ac80	-0.056560993
140	0x3d075480	0.03303957
141	0x3d3a278f	0.045447882
142	0xbd023ece	-0.031798176
143	0x3c87a39c	0.016557507
144	0xbc98f3cc	-0.018670939
145	0xbb0e6fd3	-0.0021734133
146	0x3b611726	0.0034346073
147	0xbd5527e5	-0.05204
148	0xbc698fe0	-0.014255494
149	0x3c3684d9	0.011140072
150	0x3d556ce5	0.052105803
151	0x3d35aa16	0.04435166
152	0xbae8cce1	-0.0017761254
153	0xbbb5f07c	-0.0055523496
154	0x3b1046a2	0.0022014757
155	0x3c489e2e	0.012244744
156	0xba813923	-0.0009858947
157	0xbc9684b3	-0.018373823
158	0x3c91e7a2	0.017810646
159	0x3d1de6e7	0.038550284
160	0xbd6ea1c5	-0.058259744
161	0x3d67e918	0.05661878
162	0xbc4de85b	-0.012567605
163	0xbd690bba	-0.05689595
164	0x3ca8dca5	0.020613024
165	0xbcb7a162	-0.02241582
166	0xbaddeec3	-0.0016932118
167	0x3d151a2c	0.036401913
168	0xbd46e9f4	-0.04856296
169	0xbd865338	-0.065588415
170	0xbcd4f027	-0.02599342
171	0x3a8ef319	0.0010906189
172	0x3d253ed1	0.04034311
173	0xbbdf533c	-0.006815342
174	0x3d4be82b	0.04978196
175	0x3bf13fb7	0.0073623317
176	0x3d31e76a	0.043433584
177	0xbd358c66	-0.044323348
178	0x3dd69825	0.10478238
179	0x3cd656a0	0.026164353
180	0xbbd0e3ae	-0.006374798
181	0xbd91f7ae	-0.07127319
182	0xbd1f0989	-0.038827453
183	0xbcc877d2	-0.024471197
184	0xbcd04460	-0.025423229
185	0x3c16db49	0.009207555
186	0xbb4f0449	-0.0031588248
187	0xbd086c71	-0.033306543
188	0x3d381079	0.044937585
189	0xbcae6edb	-0.021293094
190	0xbc40f9d3	-0.011778313
191	0x3d92194f	0.071337335
192	0xbd7c4838	-0.06159231
193	0xbc3e56d8	-0.011617385
194	0x3d0c29ed	0.03421967
195	0x3d61aded	0.05509751
196	0xbd51e1f9	-0.051240895
197	0x3d4c79ab	0.04992072
198	0x3c8ddaa7	0.017316176
199	0xbc4260b2	-0.011863874
200	0x3cbd01da	0.023072172
201	0x3deef796	0.11668317
202	0x3cf640d9	0.030060219
203	0xbcc2732b	-0.023736557
204	0x3cd16d14	0.025564708
205	0x3c9f238d	0.019426132
206	0x3d4fb9f2	0.05071444
207	0xbde70d09	-0.11281783
208	0x3e036d14	0.12834579
209	0x3cbca947	0.023029936
210	0xbb931166	-0.004488158
211	0x3cbb9231	0.022896858
212	0x3d832525	0.06403569
213	0x3d0ce466	0.034397505
214	0x3d73ddb6	0.059537612
215	0xbbf700d4	-0.0075379405
216	0xbcc08a45	-0.023503432
217	0xbd441f23	-0.047881257
218	0xbd13fca6	-0.036129616
219	0xbd22fe1b	-0.039793115
220	0x3a8df259	0.0010829672
221	0xbd17eb59	-0.03708968
222	0xbd0302e2	-0.03198517
223	0xbda21dc4	-0.079158336
224	0xbd30a818	-0.043129057
225	0x3dcc8e28	0.09988052
226	0x3c8c80ab	0.017151197
227	0x3c8ff2e6	0.017571878
228	0x3c7ee368	0.015557148
229	0xbce0d666	-0.027445983
230	0xbd283fbe	-0.041076414
231	0x3d88216a	0.06646998
232	0xbd7a11cb	-0.061052125
233	0x3d1197e7	0.035545256
234	0x3dbd9e39	0.09258694
235	0xbd31e85e	-0.043434493
236	0x3d8e35c6	0.0694385
237	0x3d2e3a17	0.042535868
238	0x3c14dcfb	0.009085889
239	0x3b6b8b74	0.0035941275
240	0xbd88637d	-0.06659601
241	0x3d5eb549	0.054372106
242	0x3caf9b56	0.021436375
243	0xbbd57119	-0.0065137264
244	0x3c96f089	0.018425243
245	0xbc3042f3	-0.010758149
246	0x3d1e0402	0.03857804
247	0xbbf0c3eb	-0.007347574
248	0xbc9b5f8c	-0.018966459
249	0x3d4be08b	0.049774688
250	0xbc532479	-0.012887114
251	0x3d8c8de0	0.06862998
252	0x3cf6c95a	0.030125309
253	0x3dd10e7a	0.10207839
254	0xbc9f4a52	-0.019444618
255	0xbdc2e087	-0.095154814

bias f4 [256]
0	0x3bd4c6c4	0.0064934213
1	0x3baf200d	0.005344397
2	0x3b958a90	0.004563637
3	0xbc67d282	-0.01414931
4	0xbbe1927c	-0.0068839174
5	0x3b95791e	0.0045615574
6	0x3c2d86b3	0.010591197
7	0x3ce95dc7	0.0284871
8	0xbc47604d	-0.012168956
9	0x38bf7f23	9.131271e-05
10	0x3c937229	0.017998772
11	0x3bc82632	0.006108069
12	0x3af67755	0.0018803874
13	0xbcd85b2e	-0.026410665
14	0x3d00050e	0.03125482
15	0x3c5749e1	0.013140173
16	0x3d1eac94	0.038738802
17	0x3b92bdab	0.0044781766
18	0xbbd6d668	-0.006556321
19	0xbbbdb5d6	-0.005789499
20	0x3d1e1e6a	0.038603224
21	0xbbc29b86	-0.00593895
22	0x3d3ecded	0.046583105
23	0x3cddfa95	0.027097026
24	0x3d177701	0.036978725
25	0xbd9e6d78	-0.07735723
26	0xbcaaeb42	-0.020864133
27	0xbccf35ca	-0.025294203
28	0x3c79d0bc	0.01524752
29	0xbc05e6f3	-0.008172738
30	0x3cd47e68	0.025939181
31	0xbc8c4b76	-0.017125826
32	0xbd3b0e48	-0.045667917
33	0x3d18de9c	0.03732167
34	0xbbb97174	-0.0056592766
35	0xbcb823af	-0.022477953
36	0x3ba44ef9	0.005014297
37	0x3cbb2040	0.022842526
38	0xbd553cfe	-0.05206012
39	0xbcb6eae3	-0.0223288
40	0xbb2360fd	-0.0024929636
41	0xbd81ed6c	-0.06344113
42	0xbca1a864	-0.019733615
43	0x3a85d7dc	0.0010211426
44	0xbd129fa9	-0.035796795
45	0x3d036ee3	0.03208817
46	0x3b983c94	0.0046458934
47	0x3cbe732f	0.023248283
48	0xbd183b93	-0.03716619
49	0x3b462938	0.003023697
50	0xbce4b03e	-0.02791607
51	0x3d062e15	0.03275879
52	0xbd50353e	-0.050832026
53	0xbd019167	-0.031632807
54	0xbcd1a133	-0.025589561
55	0xbb9f6209	-0.0048639816
56	0xbca337af	-0.019924013
57	0xbcbde5d2	-0.023180876
58	0xbcfdfe1d	-0.03100496
59	0xbc0ca181	-0.008583427
60	0xbc69dec6	-0.014274305
61	0x3cc309d6	0.023808401
62	0x3ca03de6	0.019560765
63	0x3c82b96a	0.015957553
64	0xbb9c5e41	-0.004771978
65	0xbd5b7ffe	-0.05358886
66	0xbcaba2b4	-0.020951606
67	0x3c9605bb	0.01831328
68	0xbca9986b	-0.020702561
69	0xbd292a07	-0.041299846
70	0xbbcf5681	-0.0063274507
71	0x3cb518de	0.022106584
72	0xbd958e66	-0.07302551
73	0x3d01fee7	0.031737234
74	0xbc7ad04f	-0.015308454
75	0xbcc763f0	-0.024339646
76	0x3ca7f89b	0.020504287
77	0xbcf0427f	-0.029328583
78	0xbd0444de	-0.03229224
79	0xbc24a6e8	-0.010049559
80	0x3c426233	0.011864233
81	0xbc5c10f2	-0.013431774
82	0xbbf7e373	-0.007564956
83	0x3d166a02	0.03672219
84	0xbd2312e4	-0.039812937
85	0x3baa5ddd	0.0051991777
86	0xbc0d4384	-0.008622054
87	0x3ab39350	0.0013700519
88	0xbbc3f5be	-0.0059802225
89	0xbcdd7f7e	-0.027038332
90	0x3aa5bdab	0.0012645026
91	0xbc1bde4d	-0.00951345
92	0x3d11188c	0.0354238
93	0xbaa09f18	-0.0012254445
94	0xbc2ece7b	-0.010669346
95	0x3cebf165	0.02880163
96	0xbcb253d0	-0.02176848
97	0x3d23caed	0.039988447
98	0xbc8b92b8	-0.017037734
99	0x3bcad079	0.0061894027
100	0x3a92b151	0.001119176
101	0xbcc9c2ec	-0.024629079
102	0xbc59e18b	-0.013298403
103	0xbb859f95	-0.0040778616
104	0xbd00cc61	-0.03144491
105	0xbb543975	-0.003238288
106	0x3cef1160	0.02918309
107	0xbcd7cd9e	-0.026343163
108	0xbd07dec3	-0.033171427
109	0xbbf1ef02	-0.0073832283
110	0x3c37b1bc	0.011211809
111	0xbcb13f6d	-0.02163669
112	0xbd154f23	-0.036452424
113	0xbc1539e6	-0.009108042
114	0x3c1ca005	0.009559636
115	0x3cc4e698	0.024035737
116	0xbcfa1de1	-0.030531825
117	0x3c94fe24	0.01818759
118	0xbbdc9f43	-0.0067328527
119	0x3bc53d47	0.0060192677
120	0xbcf97c3a	-0.030454744
121	0x3d2ef7e0	0.04271686
122	0x3be93a21	0.007117525
123	0xbcc1c87d	-0.02365517
124	0xbb121cc2	-0.0022294973
125	0xbcd4ee1e	-0.02599245
126	0xbc9ad170	-0.018898696
127	0x3c4dfe44	0.012572829
128	0xbd01a20e	-0.031648688
129	0xbc2dfe73	-0.010619747
130	0xbceb69fe	-0.028737064
131	0xbccb85ce	-0.024844076
132	0xbb664a51	-0.003513951
133	0xbd23762e	-0.039907627
134	0xbc322bee	-0.0108747315
135	0x3d68b2ec	0.05681126
136	0xbb996908	-0.00468171
137	0x3bd8d55d	0.0066172318
138	0x3d0442f4	0.032290414
139	0xbcd4b81d	-0.025966698
140	0xbc89615b	-0.016770056
141	0x3bbe5197	0.005808066
142	0x3ce3ab4d	0.027791644
143	0x3ceac3fa	0.028657902
144	0x3c94e624	0.018176146
145	0x3c248d69	0.01004348
146	0x3d331c38	0.043728083
147	0xbd0e79e0	-0.034784198
148	0x3c6f480c	0.01460458
149	0xbc6a733b	-0.0143097
150	0x3c4863a6	0.012230789
151	0xbbea2d17	-0.0071464884
152	0x3c6bcf36	0.014392665
153	0xbb06c3a6	-0.0020563393
154	0x3c05e46a	0.008172134
155	0xbc18a2cb	-0.009316157
156	0xbc8935e4	-0.01674933
157	0x3bd17f7d	0.0063933716
158	0xbd024fc8	-0.031814367
159	0x3c47d2f5	0.012196292
160	0xbd0a005e	-0.033691756
161	0xbcb71094	-0.022346772
162	0x3c7d300d	0.015453351
163	0xbd696a22	-0.05698598
164	0xbcaa4195	-0.020783225
165	0xbcc4fdf4	-0.024046876
166	0x3cd449ad	0.025914038
167	0xbb670d11	-0.003525559
168	0xbc0b4276	-0.008499732
169	0xbb64b1cc	-0.0034896014
170	0xbcb0db5d	-0.021588976
171	0xbcdb02a1	-0.026734652
172	0xbd2676e5	-0.04064073
173	0xbd2c867a	-0.042120434
174	0xbbb59a69	-0.0055420888
175	0x3c3bd545	0.011464422
176	0xbd4e1829	-0.05031601
177	0x3cf6a06a	0.030105788
178	0x3b4aa49a	0.0030920864
179	0x3c43084d	0.0119038345
180	0x3c41cdf2	0.011828886
181	0x3c8c8d98	0.01715736
182	0x3d1582e8	0.036501795
183	0xbb17385a	-0.002307436
184	0x3c709379	0.014683598
185	0xbc8a9472	-0.016916487
186	0x3c9d8df8	0.019232735
187	0x3c3f81a2	0.011688622
188	0x3cbc4a5d	0.022984678
189	0xbc47a1b7	-0.012184552
190	0x3c9c9181	0.01911235
191	0xbcb6513f	-0.022255538
192	0xbd34becf	-0.04412728
193	0x3d115dc4	0.035489812
194	0x3c1b1870	0.009466276
195	0xbbcfedfb	-0.006345508
196	0xbd3200e0	-0.043457866
197	0x3caedb86	0.021344911
198	0xbc979e0e	-0.018507984
199	0x3cbacc81	0.022802593
200	0xbd2bb295	-0.041918356
201	0xbc9442fa	-0.018098343
202	0x3c69b611	0.014264599
203	0x3b1dd786	0.002408476
204	0x3d3b6638	0.04575178
205	0xbd3cb423	-0.04607023
206	0x3caa5ec5	0.020797143
207	0xbc98540e	-0.018594768
208	0xbb88a9d3	-0.0041706352
209	0xbd55bcd2	-0.052182026
210	0x3a9e7955	0.0012090603
211	0x3c274fe3	0.010211918
212	0xbd3d5733	-0.046225738
213	0x3b24360f	0.0025056635
214	0x3cfc0a8c	0.030766748
215	0xbcde6cb2	-0.02715144
216	0x3c81a666	0.015826415
217	0xbd51a773	-0.051185083
218	0xbc731aca	-0.01483793
219	0xbd710d48	-0.058850557
220	0x3cd88bee	0.026433911
221	0xbc6f36f1	-0.014600501
222	0xbce582de	-0.028016504
223	0xbd01b419	-0.031665895
224	0x39bbd9aa	0.00035829592
225	0x3cc14d7c	0.023596518
226	0xbd044d0e	-0.032300048
227	0xbc86dd0f	-0.01646283
228	0x3c84de73	0.016219353
229	0xbd4b481e	-0.049629323
230	0x3c156b05	0.009119754
231	0xbd31936b	-0.04335348
232	0x3cb1b2ee	0.021691766
233	0x3d095c77	0.033535447
234	0x3b5c92ec	0.0033656908
235	0xbc19a0c2	-0.009376707
236	0x3c938b8a	0.018010873
237	0x3d2f78a3	0.042839658
238	0x3c29e743	0.0103700785
239	0x3c250113	0.010071057
240	0x3c6a7efa	0.0143125
241	0x3d09df7a	0.03366039
242	0x3c10c30c	0.008835565
243	0xbce3dac9	-0.027814286
244	0xbc970f03	-0.018439775
245	0x3c921063	0.01783008
246	0x3bf2382e	0.007391951
247	0xbc0e47f3	-0.008684146
248	0x3c90016c	0.017578803
249	0xbd01134b	-0.03151254
250	0xbc2d1eb4	-0.010566402
251	0x3c2e3226	0.0106320735
252	0xbc89e6e8	-0.016833737
253	0xbd12e5fe	-0.03586387
254	0x3cf2f294	0.029656686
255	0x3d166f1a	0.03672705

weight f4 [128, 256]
0	0x3d6c3c2a	0.057674564
1	0xbc502951	-0.012705163
2	0xbd821dc8	-0.063533366
3	0x3d1826ea	0.037146486
4	0x3d0d8ed8	0.034560055
5	0x3d1eddff	0.03878593
6	0xbd313715	-0.04326542
7	0xbc9d2847	-0.019184245
8	0xbd88672a	-0.06660302
9	0x3def2997	0.116778545
10	0x3da8b2a3	0.08237197
11	0xb94c3549	-0.00019474806
12	0xbe0a449f	-0.1350274
13	0xbd15e654	-0.03659661
14	0xbd81e844	-0.06343129
15	0x3db1c9d1	0.086810715
16	0x3dd97629	0.106182404
17	0x3c50248e	0.012704028
18	0xbd6682f0	-0.056277215
19	0x3e0f2600	0.1397934
20	0xbce4b39f	-0.027917681
21	0xbd36e10d	-0.04464822
22	0x3cc9374c	0.0245625
23	0x3c502836	0.0127049
24	0xbd72ecec	-0.059307978
25	0x3e40b2e5	0.18818243
26	0x3ddbb32a	0.10727532
27	0x3de7e18e	0.11322318
28	0x3dc9e86e	0.098587856
29	0x3da852c2	0.0821891
30	0xbdec0c5f	-0.11525797
31	0xbd80a10a	-0.06280716
32	0x3c9db63a	0.019251931
33	0x3d4c83dd	0.049930442
34	0xbd26c363	-0.04071368
35	0xbdc748ed	-0.09730706
36	0xbc813c5b	-0.01577585
37	0x3d8e17fb	0.06938168
38	0xbd116a08	-0.03550151
39	0x3d85a1bb	0.06524988
40	0xbdbb697b	-0.09150978
41	0x3d80cdff	0.06289291
42	0x3dd06a63	0.10176542
43	0x3c8dddad	0.017317617
44	0xbd13b16e	-0.036057882
45	0xbd732836	-0.05936452
46	0x3988b80c	0.00026077067
47	0x3d0c5578	0.034261197
48	0x3c81ee15	0.015860597
49	0x3d25edbd	0.040509928
50	0xbc9aea38	-0.018910512
51	0x3dad6921	0.084673174
52	0x3d314bec	0.043285295
53	0x3d7d3652	0.061819382
54	0xbd157b5b	-0.036494594
55	0x3d51ee5b	0.051252704
56	0xbd8cfd39	-0.06884236
57	0x3dd08e42	0.101833835
58	0xbc421842	-0.011846604
59	0xbcd44f0f	-0.025916604
60	0x3b0ddb12	0.0021645469
61	0x3dc16f85	0.09445099
62	0x3cf69bd6	0.030103605
63	0x3e02ad73	0.12761478
64	0x3dbd1804	0.09233096
65	0x3de62190	0.1123687
66	0xbda2c458	-0.07947606
67	0x3d88c4db	0.06678172
68	0x3837da91	4.3834156e-05
69	0x3d90cce0	0.07070327
70	0xbc89a028	-0.016800001
71	0xbdbbe376	-0.09174244
72	0x3e2f6d69	0.1713158
73	0xbd1dc129	-0.03851429
74	0xbd954306	-0.07288174
75	0x3d8e89a0	0.06959844
76	0xbd637746	-0.05553367
77	0xb8c5f15b	-9.438648e-05
78	0xbb523b04	-0.0032078633
79	0xbd197695	-0.037466604
80	0xbddb58de	-0.107103094
81	0xbdcf502d	-0.10122714
82	0x3d0f2331	0.03494567
83	0xbd7d865b	-0.06189571
84	0x3de92b37	0.11385196
85	0xbd1fa571	-0.038976137
86	0xbd7fa341	-0.06241155
87	0xbdb82f30	-0.08993375
88	0xbce3a54c	-0.02778878
89	0xbdaeb975	-0.08531467
90	0xbdbcd864	-0.09220961
91	0xbca6681b	-0.020313313
92	0x3dc0ce22	0.09414317
93	0xbbb5d34c	-0.00554887
94	0x3e0f3f8e	0.13989088
95	0xbd7bc3b9	-0.061465953
96	0xbd264307	-0.040591266
97	0x3da52a0a	0.08064659
98	0x3d1a27b6	0.037635528
99	0x3d1fb24f	0.038988408
100	0x3c86b82e	0.016445246
101	0xbc82361f	-0.015894948
102	0xbb01b794	-0.001979326
103	0xbc6e78f7	-0.014555207
104	0xbd0e0cfd	-0.034680355
105	0xbd4159c7	-0.04720476
106	0x3d9c3714	0.07627693
107	0x3d31e5d6	0.04343208
108	0x3cc2f3b4	0.023797847
109	0xbcee04ad	-0.029054964
110	0x3d7427c9	0.059608255
111	0x3d08628e	0.033297114
112	0x3d0e9edb	0.034819465
113	0xbd30a10c	-0.043122336
114	0x3ba5b0f0	0.005056493
115	0xbdb87fc3	-0.090087436
116	0xbd9c290f	-0.07625019
117	0x3c93f558	0.018061325
118	0xbcc056f8	-0.02347897
119	0x3c9c20a2	0.01905853
120	0x3c7d4bfa	0.015460009
121	0x3dc22732	0.09480132
122	0x3b25bcd5	0.0025289555
123	0xbd8c5ca0	-0.06853604
124	0x3ccaf626	0.024775576
125	0x3c478d21	0.012179644
126	0x3d146efe	0.036238663
127	0xbc63df57	-0.013908229
128	0x3dc33fb3	0.09533634
129	0x3c8be9fa	0.017079342
130	0x3d3cf370	0.046130598
131	0xbb37fe37	-0.0028075108
132	0xbdc3939a	-0.09549637
133	0x3d279d46	0.040921472
134	0x3db28e31	0.08718527
135	0xbdfdcd3f	-0.12392663
136	0xbda001c4	-0.07812837
137	0x3c75d343	0.015003982
138	0x3dea225e	0.11432336
139	0xbd7d23f2	-0.06180186
140	0x3dbea7b5	0.09309331
141	0x3c13833c	0.009003457
142	0x3dad81d4	0.084720284
143	0xba697c59	-0.0008906774
144	0xbca98d25	-0.020697186
145	0x3cb46a4e	0.022023346
146	0xbd9b8f6f	-0.07595717
147	0xbd63dbc6	-0.055629514
148	0xbda131fd	-0.07870863
149	0xbd3208cd	-0.043465424
150	0x3cbce6fd	0.023059363
151	0xbc947f89	-0.01812722
152	0x3da68740	0.08131266
153	0xbd96c1a5	-0.073611535
154	0xbcca15a5	-0.024668524
155	0x3d5b5e06	0.053556465
156	0xbd4afac2	-0.049555548
157	0x3de4639b	0.11151811
158	0xbd17d13f	-0.037064787
159	0xbc02542b	-0.0079546375
160	0x3d20b3c8	0.039233953
161	0xbcd4aa45	-0.025960097
162	0x3da73c7d	0.08165834
163	0x3d58d23e	0.052934878
164	0x3d94c6b7	0.07264464
165	0x3b6684f7	0.0035174468
166	0x3da207bf	0.07911634
167	0x3d4fcba2	0.05073131
168	0xbd57347e	-0.052540295
169	0x3e1e1af2	0.15439966
170	0xbcd9ac16	-0.026571315
171	0x3dc337e8	0.09532148
172	0xbc059cc1	-0.008155049
173	0xbd141767	-0.03615513
174	0x3d8baab7	0.06819671
175	0xbb262036	-0.002534879
176	0x3df22bec	0.11824784
177	0x3d47cf0b	0.048781436
178	0xbd632c10	-0.055461943
179	0x3c853d1b	0.016264489
180	0x3d4dd6e5	0.050253768
181	0x3d1df373	0.03856225
182	0xba35d899	-0.00069368776
183	0xbd5f2e4e	-0.05448752
184	0x3d7494bb	0.059712153
185	0xbc24ef32	-0.010066794
186	0x3ad47d06	0.0016211576
187	0x3d4f868c	0.050665423
188	0xbb7dee34	-0.0038746716
189	0xbd317642	-0.04332567
190	0xbd9bb40d	-0.07602701
191	0x3d000287	0.03125241
192	0x3d355d25	0.044278283
193	0x3ccfb0f9	0.025352942
194	0x3cba970d	0.022777105
195	0x3d1027b1	0.035194103
196	0x3ca42b85	0.020040283
197	0xbd496c7e	-0.04917573
198	0xbc81f3bb	-0.01586329
199	0xbd8b9cfc	-0.06817052
200	0x3d11c448	0.03558758
201	0x3d95a261	0.07306362
202	0x3dedf1ae	0.11618362
203	0x3d89b086	0.06723122
204	0xbc87a28c	-0.016557
205	0x3d015477	0.031574693
206	0x3c22dab1	0.009939835
207	0xbd8d5d53	-0.06902566
208	0x3d260654	0.04053338
209	0x3d3c4386	0.045962833
210	0xbd189629	-0.03725258
211	0xbc2f3eef	-0.010696157
212	0x3cde8144	0.027161248
213	0x3d2f7c41	0.042843107
214	0xbd05c2fe	-0.032656662
215	0x3d0ccdb3	0.034375858
216	0x3d675f60	0.05648744
217	0xbc6a8a8b	-0.014315258
218	0x3d925452	0.07144989
219	0xbcc448d6	-0.023960512
220	0x3d0d3e34	0.03448315
221	0x3e2d27cc	0.16909713
222	0xbcea86e4	-0.028628774
223	0x3d17dd48	0.037076265
224	0x3e4421e4	0.19153553
225	0xbd4c6072	-0.049896665
226	0x3d3307ea	0.04370872
227	0x3e09661b	0.13417856
228	0x3d0c18d6	0.034203373
229	0x3db10a12	0.08644499
230	0xbb87e805	-0.004147532
231	0x3d1930aa	0.037399925
232	0x3e0bbdf3	0.13646679
233	0x3dc4504f	0.0958563
234	0xbdab75b8	-0.083720624
235	0xbac55920	-0.0015056469
236	0x3ca004e2	0.019533578
237	0xbd991014	-0.0747377
238	0xbdc9b031	-0.09848059
239	0x3d8d077d	0.06886194
240	0x3e14a09e	0.14514396
241	0x3d81e96f	0.06343352
242	0xbc708472	-0.014680015
243	0x3dd678c6	0.104722545
244	0xbd3ae878	-0.045631856
245	0x3d06dc6b	0.03292505
246	0xbd012628	-0.03153053
247	0xbd899b16	-0.067190334
248	0x3dc6d12e	0.097078666
249	0xbd3277f4	-0.043571427
250	0x3d140702	0.036139496
251	0x3bc702d3	0.0060733347
252	0x3cf7ca0e	0.030247714
253	0x3cf20bea	0.029546697
254	0xbd0b7b06	-0.03405287
255	0xbd5365c6	-0.05161073

bias f4 [128]
0	0xbd706130	-0.058686435
1	0xbd3a71e2	-0.045518763
2	0xbabf6afe	-0.001460403
3	0x3c9b1b8d	0.018934036
4	0xbe08d3fd	-0.13362117
5	0x3d6a0781	0.057136063
6	0xbd21b71b	-0.039481264
7	0x3d9104a7	0.070809655
8	0x3cad4225	0.021149704
9	0xbc75f9d0	-0.015013173
10	0x3d88b91d	0.066759326
11	0x3d8cdeae	0.0687841
12	0xbd532b8f	-0.051555213
13	0x3d5071e3	0.05088986
14	0xbd2a29db	-0.041543823
15	0x3d06f039	0.032943938
16	0xbd86d640	-0.06583834
17	0x3cb8859f	0.022524653
18	0xbd4ebda5	-0.050473828
19	0xbda56cc7	-0.08077388
20	0x3d625f2d	0.055266548
21	0xbc41f593	-0.011838335
22	0xbd58b90e	-0.052910857
23	0xbd841e20	-0.064510584
24	0x3d3758b3	0.044762325
25	0xbcad84ec	-0.021181546
26	0x3c0b4ebf	0.008502661
27	0x3cbeef56	0.023307484
28	0x3d3816ab	0.044943493
29	0x3d44107d	0.047867287
30	0xbd2dcc43	-0.042431127
31	0xbc237876	-0.009977451
32	0xbd76d0fe	-0.060257904
33	0xbbac31c6	-0.005254957
34	0xbc42c7c7	-0.011888451
35	0xbce6420d	-0.028107667
36	0x3d35b4bc	0.044361815
37	0xbd48169b	-0.048849683
38	0x3d20110e	0.039078765
39	0xbd5bbb60	-0.05364549
40	0x3bfff141	0.007810742
41	0x3b26e63a	0.0025466816
42	0x3d89af2e	0.06722866
43	0x3d0a3920	0.033745885
44	0xbcaac73e	-0.02084696
45	0x3d13f433	0.03612156
46	0x3d86f476	0.06589596
47	0x3d80070d	0.06251345
48	0x3d578f8b	0.052627128
49	0x3d28ebdc	0.041240558
50	0x3b833d84	0.004005136
51	0x3c50b760	0.0127390325
52	0x3bd1089b	0.0063791997
53	0x3c1d177e	0.0095881205
54	0xbd5a0490	-0.053227007
55	0xbbb33249	-0.005468641
56	0xbcb54f79	-0.022132622
57	0x3d3ee575	0.046605546
58	0x3c79b948	0.015241928
59	0x3ce5d8b9	0.028057443
60	0x3d535bc0	0.05160117
61	0x3bf75498	0.007547926
62	0xbd88aa04	-0.06673053
63	0x3bedfab1	0.0072625508
64	0xbd04a38f	-0.032382544
65	0xbdad6f23	-0.08468463
66	0x3d2bec06	0.041973136
67	0xbcf70e93	-0.030158317
68	0x3cb091eb	0.021553954
69	0x3c59a88e	0.0132848155
70	0xbcdcb095	-0.02693967
71	0x3cda5e9c	0.026656441
72	0xbd02c300	-0.031924248
73	0xbd93e146	-0.07220702
74	0x3d4df992	0.050286837
75	0x3c31798c	0.010832202
76	0xbc43ded9	-0.0119549865
77	0xbd3ee654	-0.046606377
78	0xbca78e3f	-0.02045357
79	0xbd2264ab	-0.039646786
80	0x3d4bf245	0.049791593
81	0x3cffa032	0.031204317
82	0xbc59df70	-0.013297901
83	0x3d4647c6	0.048408292
84	0xbd06cdc6	-0.032911085
85	0xbd608fba	-0.05482457
86	0x3d20b30a	0.039233245
87	0x3d6adc42	0.05733896
88	0xbcf77401	-0.030206682
89	0x3d486e6f	0.048933443
90	0xbb25f422	-0.0025322516
91	0x3cf607f2	0.030033085
92	0xbcd8ec92	-0.026479993
93	0xbc1d6daf	-0.00960867
94	0x3bbafe77	0.005706604
95	0x3db472a9	0.08810932
96	0xbcf08bc3	-0.029363519
97	0x3c0a9f5d	0.008460847
98	0x3ca9bd0e	0.020720031
99	0x3cbfbd2a	0.02340563
100	0x3ba0d100	0.0049077272
101	0xbcdf40d8	-0.0272526
102	0xbc0fbe6f	-0.00877343
103	0xbd7c9afc	-0.061671242
104	0xbd924a42	-0.0714307
105	0xbd770163	-0.060304057
106	0xbdb52954	-0.08845773
107	0x3c535bd9	0.012900316
108	0xbac4409f	-0.0014972872
109	0x3d11e951	0.0356229
110	0xbd9c3bad	-0.0762857
111	0x3a879cba	0.0010346391
112	0xbd6045c8	-0.05475405
113	0xbc825f3c	-0.015914552
114	0xbd7df8e8	-0.062004954
115	0xbb9dcf20	-0.004815951
116	0xbc8d14b1	-0.01722178
117	0x3d7292c9	0.059222016
118	0x3d8e1777	0.06938069
119	0x3d4ec7c6	0.050483488
120	0x3cd34778	0.025790915
121	0x3ca1771b	0.019710114
122	0xbc186334	-0.009300996
123	0xbd76ee7f	-0.06028604
124	0xbd817b9d	-0.063224055
125	0x3d1e2443	0.0386088
126	0x3bf363f2	0.007427686
127	0xbd3c6542	-0.045995004

weight f4 [12, 128]
0	0x3cbf7a1c	0.023373656
1	0xbc1a5a31	-0.009420917
2	0xbda0ea5d	-0.07857201
3	0x3d276e1d	0.040876497
4	0x3a004eba	0.00048945437
5	0x3d303718	0.04302129
6	0x3ceae7ea	0.028675038
7	0xbd4eafa5	-0.050460476
8	0x3d6589a8	0.056039482
9	0xbbcfe75f	-0.0063447203
10	0xbd4f1290	-0.050554812
11	0x3d182f50	0.037154496
12	0xbc6f012e	-0.014587684
13	0xb9223540	-0.00015469361
14	0xbd815e07	-0.063167624
15	0xbd289ec5	-0.04116704
16	0x3d475a14	0.04866989
17	0x3d1f468d	0.03888564
18	0x3c8b37fc	0.016994469
19	0x3c24d610	0.010060802
20	0xbb9080d7	-0.00440989
21	0x3daccadd	0.084371306
22	0x3d03f4b8	0.032215804
23	0x3d9f9b54	0.07793298
24	0x3dca6107	0.09881788
25	0x3cc842f0	0.02444598
26	0x3cd3ed9a	0.025870133
27	0x3d4a958d	0.04945903
28	0xbd99e13b	-0.075136624
29	0xbd028375	-0.03186365
30	0x3d40c869	0.047066126
31	0xbd7f0f98	-0.06227073
32	0xbc8db88f	-0.017299918
33	0x3ca12032	0.019668672
34	0xbd672e48	-0.05644062
35	0xbd5c3c1c	-0.053768262
36	0x3d9f7207	0.07785421
37	0x3d36c6b5	0.044623096
38	0xbc5bf940	-0.013426125
39	0x3d2cc0ee	0.04217618
40	0xbc911e14	-0.017714538
41	0x3d0d6c3a	0.03452704
42	0x3d8abc44	0.0677419
43	0xbd80b545	-0.062845744
44	0xbc86fa79	-0.016476857
45	0x3be86649	0.0070922715
46	0x3bde4a1e	0.006783738
47	0x3d6c2077	0.05764815
48	0x3d33548d	0.043781806
49	0x3c09d6de	0.008413045
50	0xbd28f46a	-0.041248716
51	0xbd08c416	-0.033390127
52	0x3cd9b4ec	0.026575528
53	0xbcf8b10e	-0.030357864
54	0xbca961e3	-0.020676559
55	0x3d629334	0.055316165
56	0xbd1cc3ea	-0.038272776
57	0xbd85533e	-0.06510018
58	0xbd1d1ab9	-0.038355563
59	0xbc3ccb51	-0.011523084
60	0x3d019149	0.031632695
61	0xbd716535	-0.05893441
62	0x3b91312c	0.0044309106
63	0xbc207ad8	-0.009794913
64	0xbd2dbc01	-0.042415623
65	0x3d7b733f	0.061389204
66	0xbc933657	-0.017970247
67	0xbd57aa7e	-0.05265283
68	0xbd329c3e	-0.043606035
69	0xbb741da8	-0.0037249122
70	0x3d268a5d	0.040659297
71	0xbca199a3	-0.01972658
72	0xbb149c87	-0.0022676305
73	0xbcd5bec5	-0.026091943
74	0xbb992113	-0.004673132
75	0x3d8e65f8	0.06953043
76	0xbd82e751	-0.06391776
77	0xbd9e3470	-0.077248454
78	0x3c5caa56	0.013468346
79	0xbdabcacd	-0.083882906
80	0x3ca8c0e8	0.020599797
81	0x3d5aba41	0.05340028
82	0xbbf0a3ec	-0.0073437598
83	0x3d1a3ae5	0.037653822
84	0x3d6c51d0	0.05769521
85	0xbc93db1a	-0.018048812
86	0xbb2537d5	-0.002521028
87	0x3d191914	0.037377432
88	0xbcbb7287	-0.02288176
89	0x3c25493c	0.010088261
90	0xbda3966b	-0.07987674
91	0xbb2e5585	-0.0026601267
92	0x3bcd1bf2	0.006259435
93	0xbc9cf067	-0.019157602
94	0x3cd90687	0.02649237
95	0x3d63748e	0.055531077
96	0x3cd61200	0.02613163
97	0x3c99535f	0.018716512
98	0xbc9d8fc8	-0.0192336
99	0x3d1a6b83	0.037700187
100	0x3c37a3e3	0.011208507
101	0xbbffdc5b	-0.007808251
102	0x3d0db665	0.034597773
103	0xbd8d2d07	-0.06893354
104	0xb9c35684	-0.00037257758
105	0x3ab427fd	0.0013744828
106	0x3baf1c00	0.005343914
107	0xbd502930	-0.05082053
108	0x3db79b12	0.08965124
109	0x3d9038e6	0.070421025
110	0xbcc19c96	-0.023634236
111	0xbb80b583	-0.003927888
112	0xbd8885bb	-0.06666132
113	0xbcd73592	-0.026270662
114	0xbdc2cf89	-0.095122404
115	0xbd20f287	-0.039293792
116	0xbd424b07	-0.047434833
117	0xbd6b4b9a	-0.057445146
118	0x3c296971	0.010340081
119	0xbc4d0d2d	-0.012515348
120	0xbbfe8736	-0.0077675832
121	0x3cd3a440	0.025835156
122	0x3cef51a1	0.029213728
123	0xbcca3d9a	-0.024687577
124	0xbcc702ec	-0.024293385
125	0x3bb690ee	0.005571476
126	0x3d2cfe50	0.04223472
127	0xbc2cc6cb	-0.010545443
128	0x3d4fdd5f	0.050748225
129	0xbd637020	-0.055526853
130	0xbd17b723	-0.037039887
131	0xbdad411d	-0.08459685
132	0x3d0d8a05	0.034555454
133	0x3c4cef3f	0.012508213
134	0xbd112e31	-0.035444442
135	0xbd67d2a1	-0.056597356
136	0xbc01623b	-0.007896955
137	0xbd32f902	-0.043694504
138	0xbcfd55bf	-0.030924676
139	0xbdabbe7b	-0.08385941
140	0xbd52487d	-0.05133866
141	0xbcec4f83	-0.028846508
142	0xbd834d6e	-0.06411253
143	0x3d3eec4d	0.046612073
144	0x3c6d16c6	0.014470762
145	0x3dbecdeb	0.093166195
146	0x3ca7de32	0.020491693
147	0xbd1ba584	-0.037999645
148	0xbd86ddd7	-0.06585281
149	0x3dca250b	0.09870347
150	0x386365c0	5.421578e-05
151	0xbd110e79	-0.035414193
152	0xbcaeea16	-0.021351855
153	0x3d55c72c	0.0521919
154	0x3d7a70bc	0.061142668
155	0xbc63da8c	-0.013907086
156	0x3cbfe39f	0.023423968
157	0xba94ae86	-0.0011343516
158	0x3d3963f9	0.045261357
159	0x3cc373f5	0.023859004
160	0x3d901854	0.0703589
161	0x3d5d0f36	0.053969584
162	0x3d306772	0.043067403
163	0x3c5bebc9	0.013422915
164	0xba89184d	-0.0010459513
165	0xbcbe8871	-0.02325842
166	0x3c070a8e	0.0082422625
167	0xbdf32f36	-0.11874239
168	0xbd3aaa90	-0.045572817
169	0x3cfc3573	0.030787205
170	0xbd6eabc8	-0.058269292
171	0x3c042784	0.008066062
172	0xbd61f38b	-0.0551639
173	0x3cbb046e	0.02282926
174	0xbce71a57	-0.028210802
175	0x3c562f3e	0.013072787
176	0x3c8dba82	0.017300848
177	0xbc77daac	-0.015127819
178	0xbde3afb8	-0.111175
179	0x3c47007c	0.012146112
180	0xbd3d5d0b	-0.04623131
181	0xbd5b874c	-0.053595826
182	0x3d47b7cb	0.048759263
183	0xbdb921df	-0.090396635
184	0x3c1345ab	0.008988778
185	0xbd202e2e	-0.03910654
186	0xbb22b4b7	-0.0024826953
187	0x3d3a3c48	0.045467645
188	0xbce9859e	-0.028506096
189	0xbdade3cc	-0.084907144
190	0x3cef261c	0.029192977
191	0x3cd2f15c	0.025749855
192	0x3d686719	0.056738947
193	0x3d3aed0d	0.045636225
194	0xbd3e3077	-0.04643294
195	0x3d896c5a	0.067101195
196	0xbb198a20	-0.0023428276
197	0x3d8b6e57	0.06808155
198	0x3d8006ea	0.06251319
199	0x3da95656	0.082684204
200	0xbda264ec	-0.079294056
201	0x3d870a55	0.065937676
202	0xbd5d5717	-0.054038133
203	0xbd8d38c9	-0.068955965
204	0x3d65d088	0.056107074
205	0x3ba98450	0.0051732436
206	0xbc6343c2	-0.013871135
207	0xbdafb707	-0.085798316
208	0xbc1ba8c1	-0.009500683
209	0xba7e7c98	-0.0009707897
210	0xbb91e475	-0.004452283
211	0x3d1d8f82	0.038466938
212	0x3d5d0f86	0.053969882
213	0xbd890def	-0.06692111
214	0xbc313336	-0.010815432
215	0x3d1e1db1	0.038602535
216	0xbb04d915	-0.0020270993
217	0xbd27cc45	-0.04096629
218	0x3b803a78	0.00391322
219	0x3c7bd222	0.015369924
220	0xbd7f8e49	-0.062391553
221	0xbd18c801	-0.037300114
222	0xbd36da01	-0.0446415
223	0x3c5d2535	0.01349764
224	0xbd783dbd	-0.060605753
225	0xbd9904c0	-0.07471609
226	0xbd929950	-0.07158148
227	0xbdc24400	-0.09485626
228	0x3cc8d22e	0.024514284
229	0x3d802811	0.06257642
230	0xbd81441b	-0.06311818
231	0xbcb615cc	-0.02222719
232	0x3ca2f018	0.019889876
233	0xbdab9afd	-0.08379171
234	0x3c759951	0.014990167
235	0x3d46a9d2	0.048501797
236	0x3da4e6de	0.08051847
237	0x3cb657ef	0.022258727
238	0xbd82eae2	-0.063924566
239	0x3ca768d1	0.020435723
240	0xbcddc3ec	-0.027070962
241	0x3d822229	0.06354172
242	0x3dc3bb1d	0.095571734
243	0xbd716b44	-0.058940187
244	0xbdbd4e57	-0.09243458
245	0xbd8a1c60	-0.06743693
246	0x3dee9570	0.11649597
247	0xbdcfd1ab	-0.10147413
248	0x3dcf9eec	0.10137734
249	0xbd2614c3	-0.040547144
250	0xbc803b8a	-0.01565339
251	0xbd266511	-0.04062373
252	0xbd35af61	-0.044356707
253	0x3c80b087	0.015709175
254	0xbda41a7d	-0.08012865
255	0xbca210b5	-0.019783357

bias f4 [12]
0	0xbd9fb30b	-0.077978216
1	0x3daa4629	0.08314163
2	0x3dde156a	0.10843928
3	0x3d80daec	0.06291756
4	0xbc2dde7e	-0.010612128
5	0x3d53514d	0.051591206
6	0xbd80a11d	-0.0628073
7	0x3c9b8ff3	0.018989539
8	0x3d42e6d4	0.047583416
9	0x3db05525	0.0860999
10	0xbad3bfd5	-0.0016155193
11	0x3d552331	0.052035514
