logs/go1_IROS/exported/policies/pos_obs42.pt (torch, 761749 bytes, 8 tensors)

weight f4 [512, 42]
0.0474968 -0.08975795 0.041008927 0.017947346 -0.11372217 -0.057279117 -0.38255817 -0.12035459
0.27820873 -0.25925928 0.016208028 0.16902801 0.17499427 -0.0004742811 -0.04374255 0.2520857
0.27608332 -0.17907426 0.16199364 0.115573734 0.2595123 -0.51647353 0.37011847 0.58890957
0.30823416 -0.10023654 -0.031452432 -0.058997825 -0.52812076 -0.036394514 -0.0048780185 0.040691677
0.028849036 0.022093154 0.013013627 -0.029969323 -0.004093688 0.019013865 -0.009548148 -0.0079045445
-0.040134862 -0.00781931 -0.06128415 -0.11105608 -0.08694776 0.031016555 -0.22971359 0.03656639
-0.002814 -0.18063937 0.17025033 0.056539666 0.4519795 -0.3842546 0.60455376 0.38132036
0.101541616 0.17841393 -0.61240363 -0.17128481 0.13125949 -0.15426584 -0.030118108 -0.11957895
-0.28661454 0.1462761 -0.57363814 0.018762937 0.064922005 0.5030728 0.15167178 -0.16638571
-0.01681278 0.03105077 -0.045035664 -0.030560138 -0.016495567 0.07586942 -0.030390618 -0.016293447
0.056367524 0.02078235 0.03641924 0.033598203 -0.114784814 0.07808236 0.060618583 0.016600423
0.07722133 -0.028788216 -0.07390725 -0.2608846 -0.035376888 -0.29885697 0.41584525 -0.14837083
-0.26059872 0.020280227 -0.21426915 0.4861178 0.057055842 -0.021451471 -0.24978393 0.016218185
-0.18891247 0.43371335 0.039102376 -0.42446497 0.4266769 0.32370418 0.09155242 -0.049574513
0.121280506 -0.18377522 -0.053560656 -0.060552593 0.038020793 -0.085866936 0.05166291 0.08441496
0.019137474 -0.052284483 0.042381503 -0.07893269 0.0462294 0.011666913 0.05879701 0.00029402092
-0.079255834 0.022487933 0.036204822 -0.21822686 -0.056080695 -0.20944555 0.0836958 -0.0034803452
0.5535863 0.40467453 -0.15476534 -0.3693936 -0.0025552122 -0.30068457 0.20942444 -0.18200178
-0.36773315 -0.095272645 -0.2517118 0.22545516 -0.21900891 0.11099101 0.020655941 0.00873056
-0.07136014 0.098350585 -0.048166 0.06944703 -0.0058368617 -0.030229181 0.005205352 -0.01779259
0.020615779 -0.020995859 -0.08635169 0.015149103 -0.014045311 -0.02246669 0.033768307 0.020932103
-0.041932948 -0.12189824 -0.04681789 -0.05078488 -0.22079371 0.08981216 -0.1653506 -0.13630848
-0.101588264 -0.38031027 -0.089516394 -0.14033768 0.94380814 -0.38293165 -0.11878969 0.49413905
0.07060794 -0.16042168 -0.32542586 0.10126418 -0.37878886 0.40865305 -0.33579916 -0.067059524
0.3248073 -0.037950348 0.09962466 -0.14483352 -0.28282487 0.082215816 -0.007402472 0.04464771
0.022739101 -0.031044818 0.0314258 0.04026155 0.040725477 0.10428324 -0.04374055 -0.11381693
-0.009607703 -0.01720083 0.00015936089 -0.14722814 0.14580946 0.09289703 0.30823633 -0.115002744
0.1156241 0.46168616 -0.09010084 -0.15141791 -0.09940932 -0.1883655 0.45076334 -0.02317803
0.09110947 0.17642148 0.14964221 0.41993552 -0.12623695 0.32749677 0.24974228 0.10362148
-0.22216994 0.27645767 0.059810158 -0.27530077 -0.022465428 0.075088985 0.042563017 0.07957336
0.019748554 -0.03165882 0.020700794 0.0033412597 0.029048763 -0.039734732 -0.065652095 0.051497143
-0.0051858877 -0.018895697 -0.06968663 0.008354813 -0.0017209119 0.08893554 0.067553915 0.061964665
00000000: 018c 423d 04d3 b7bd faf8 273d 5006 933c
00000010: 2be7 e8bd 829d 6abd aade c3be 787c f6bd
00000020: 6071 8e3e a2bd 84be b3c6 843c ae15 2d3e
00000030: b331 333e efa8 f8b9 632b 33bd 6011 813e
00000040: cb5a 8d3e 3e5f 37be a9e1 253e ecb1 ec3d
00000050: ccde 843e 9c37 04bf 2b80 bd3e c7c2 163f
00000060: ded0 9d3e d148 cdbd 44d4 00bd b4a7 71bd
00000070: ec32 07bf 6a12 15bd c9d7 9fbb 51ac 263d
00000080: d054 ec3c b4fc b43c 1c37 553c 3a82 f5bc
00000090: 5824 86bb f7c2 9b3c d66f 1cbc 1082 01bc
000000a0: 7464 24bd 901c 00bc 1705 7bbd 5f71 e3bd
000000b0: ab11 b2bd 6e16 fe3c 0a3a 6bbe a4c6 153d
000000c0: 166b 38bb 87f9 38be 1a56 2e3e 2396 673d
000000d0: db69 e73e 05bd c4be 09c4 1a3f 6c3c c33e
000000e0: 0df5 cf3d 24b2 363e 7cc6 1cbf 4965 2fbe
000000f0: e368 063e ddf7 1dbe 40ba f6bc cfe5 f4bd
00000100: 24bf 92be 67c9 153e f3d9 12bf bbb4 993c
00000110: d4f5 843d 61c9 003f d94f 1b3e 0461 2abe
00000120: f5ba 89bc 2f5e fe3c 5177 38bd 4159 fabc
00000130: b621 87bc 6d61 9b3d bff5 f8bc d679 85bc
00000140: a2e1 663d bf3f aa3c 572c 153d 459e 093d
00000150: 4d14 ebbd a5e9 9f3d 314b 783d 9cfd 873c
00000160: 3726 9e3d 44d5 ebbc af5c 97bd ab92 85be
00000170: 5be7 10bd c803 99be abe9 d43e 86ee 17be
00000180: 326d 85be b822 a63c 5f69 5bbe 6fe4 f83e
00000190: 63b3 693d ffba afbc 5cc7 7fbe 00dc 843c
000001a0: 4572 41be ad0f de3e d029 203d 7953 d9be
000001b0: 6575 da3e 8ebc a53e d67f bb3d a50e 4bbd
000001c0: ea61 f83d 922f 3cbe 6b62 5bbd ff05 78bd
000001d0: b1bb 1b3d 01db afbd 7d9c 533d c0e1 ac3d
000001e0: 31c6 9c3c 4128 56bd 3a98 2d3d 76a7 a1bd
000001f0: 0a5b 3d3d 9426 3f3c 22d5 703d d226 9a39
00000200: e250 a2bd 9d38 b83c 824b 143d dd76 5fbe
00000210: dfb4 65bd e578 56be b468 ab3d 8116 64bb
00000220: d5b7 0d3f 8031 cf3e ce7a 1ebe 2821 bdbe
00000230: 5975 27bb 54f3 99be 5c73 563e ad5e 3abe
00000240: 8547 bcbe 4e1e c3bd 5ee0 80be b8dd 663e
00000250: df43 60be 414f e33d a636 a93c 9f0a 0f3c
00000260: 4425 92bd 086c c93d b649 45bd 3f3a 8e3d
00000270: 2543 bfbb 30a3 f7bc a891 aa3b c4c1 91bc
00000280: 6ce2 a83c 82ff abbc 28d9 b0bd f133 783c
00000290: 4e1e 66bc 100c b8bc a350 0a3d cd79 ab3c
000002a0: e2c1 2bbd c9a5 f9bd 1ec4 3fbd ce03 50bd
000002b0: bf17 62be 70ef b73d ab51 29be 7394 0bbe
000002c0: 820d d0bd 07b8 c2be 5f54 b7bd aeb4 0fbe
000002d0: 699d 713f 9e0f c4be 0248 f3bd cbff fc3e
000002e0: e59a 903d 9545 24be 389e a6be 9863 cf3d
000002f0: 9df0 c1be f93a d13e deed abbe 8156 89bd
00000300: 244d a63e d371 1bbd 0408 cc3d 3d4f 14be
00000310: 6cce 90be c460 a83d 7090 f2bb 84e0 363d
00000320: 5a47 ba3c b451 febc 57b8 003d 4ce9 243d
00000330: c2cf 263d 7492 d53d 4a29 33bd da18 e9bd
00000340: a169 1dbc c1e8 8cbc 1d1a 2739 f9c2 16be
00000350: 134f 153e cc40 be3d 27d1 9d3e 8f86 ebbd
00000360: 54cc ec3d 2162 ec3e ca86 b8bd 4c0d 1bbe
00000370: 1d97 cbbd e3e2 40be 74ca e63e dadf bdbc
00000380: 9a97 ba3d d5a7 343e cf3b 193e ca01 d73e
00000390: 4244 01be a8ad a73e 71bc 7f3e 8037 d43d
000003a0: 8480 63be dc8b 8d3e 7ffb 743d 39f4 8cbe
000003b0: 6b09 b8bc 41c8 993d 8f56 2e3d 5cf7 a23d
000003c0: b8c7 a13c aeac 01bd b694 a93c 09f9 5a3b
000003d0: acf7 ed3c e3c0 22bd 9b74 86bd abee 523d
000003e0: 61ee a9bb 26cb 9abc ddb7 8ebd a0e2 083c
000003f0: 3990 e1ba d623 b63d b559 8a3d a9ce 7d3d

bias f4 [512]
0.08759984 -0.17128657 0.022167295 0.0155787915 -0.16187494 0.08887924 -0.08076025 0.10953669
0.06273141 -0.02171793 -0.06011648 0.08392726 -0.016599093 0.013782365 0.11804773 -0.13525142
-0.007030841 0.07154354 -0.036580496 -0.014137971 -0.055834033 0.026773619 -0.07382829 -0.08077978
0.15108867 0.068183705 -0.14437598 -0.008565613 0.071323715 -0.030448362 -0.09577875 0.118211515
-0.044612948 0.019149572 0.06792733 -0.039130066 -0.077600956 -0.009540402 -0.02579665 0.1375936
-0.07812422 0.011587599 0.062258366 0.10545794 -0.019124245 0.07121716 -0.052351598 0.059623756
0.067375384 -0.028623538 0.010008326 -0.04099859 -0.05796942 0.03917629 0.027775371 -0.07504024
0.053049754 0.041772168 0.12473931 0.11868327 0.038747832 0.114475235 -0.0774637 -0.11075016
-0.13167018 -0.10527077 0.09837144 0.00015051235 0.086413234 0.044675957 -0.08445098 0.10466834
0.07246769 -0.14082158 -0.004914629 -0.12362195 0.059140556 0.06287275 0.05936205 -0.0047746277
-0.11234375 0.11063705 0.08931191 0.014076377 0.07890948 -0.058196273 -0.090478286 -0.044144567
-0.05374129 -0.08235535 -0.09446587 -0.014517973 0.005019195 -0.013078294 -0.12487949 -0.13343367
-0.17144327 -0.0023194351 0.01883016 0.12835611 -0.06662629 -0.119823694 0.02972848 -0.13064507
0.06960677 0.07366137 -0.0407583 -0.066497274 -0.1579128 -0.1269837 0.06763901 -0.035574228
0.033518504 0.12533012 0.035025895 0.03369086 -0.12715001 0.057407297 0.07311306 -0.031858448
0.06420635 -0.023915086 0.19130127 -0.031098735 0.054169025 -0.042915516 0.008515531 -0.045590024
0.083356634 -0.10806855 0.027181007 -0.07043802 -0.04563191 -0.1634908 -0.06300875 -0.0508147
0.10310089 -0.03720294 -0.15614513 -0.0313207 -0.099100605 -0.07443113 0.10687802 -0.17199238
-0.040845297 -0.15059248 -0.04312547 0.09607836 -0.16656329 -0.17647123 -0.07092571 -0.096656896
0.19332796 -0.0484628 0.10760441 -0.0015341891 0.08946606 0.0934795 0.016224632 -0.089536145
0.080269754 -0.122544475 -0.06850526 -0.04914726 0.06679381 -0.10781549 -0.07973784 0.11181874
0.07536587 -0.12218198 0.04248347 -0.046967234 -0.123263605 -0.021163478 0.027524231 -0.014427105
-0.038758714 0.06749407 -0.03161596 0.16149817 -0.01046702 0.015118224 -0.051783115 0.16888893
0.107698254 0.015000111 0.08028727 -0.11569328 -0.14673363 -0.06814034 -0.070045084 0.100545354
0.035760604 -0.083619215 0.09318245 0.045797955 -0.02192508 0.1278041 0.061388537 0.15593462
0.04461484 0.020689208 0.12664434 0.02007886 -0.09435972 0.07933461 0.09958868 0.12739436
0.12099976 0.02920219 -0.10239185 0.04055675 -0.17204773 0.12312348 0.12857482 0.053082064
-0.09186181 0.1210471 0.0014108059 0.03263155 0.07467373 0.07291643 0.0043174885 -0.001557298
-0.07675374 0.0588017 -0.02480438 -0.017434688 0.09189898 0.121952 0.0074093216 0.00097607786
-0.12242761 -0.03899805 -0.032953046 0.095484264 -0.038391694 -0.036604915 0.039068274 -0.0017277101
0.07475024 0.060800698 0.12189 0.016001187 0.044399843 0.058205035 -0.017957954 0.07890058
-0.14692761 0.03690221 -0.13185506 -0.05844817 0.013837329 -0.09873511 -0.10214484 -0.06325663
00000000: 8b67 b33d bf65 2fbe 3098 b53c 303e 7f3c
00000010: 8bc2 25be 5206 b63d a165 a5bd c654 e03d
00000020: 5379 803d cde9 b1bc b33c 76bd 0ee2 ab3d
00000030: d2fa 87bc 6ecf 613c 02c3 f13d 597f 0abe
00000040: f862 e6bb 6b85 923d 6ed5 15bd f3a2 67bc
00000050: 3ab2 64bd 5954 db3c 4933 97bd df6f a5bd
00000060: fdb6 1a3e e6a3 8b3d 4cd7 13be c956 0cbc
00000070: 2b12 923d d86e f9bc a627 c4bd e118 f23d
00000080: 11bc 36bd 90df 9c3c 7c1d 8b3d d946 20bd
00000090: 40ed 9ebd 594f 1cbc 7f53 d3bc 56e5 0c3e
000000a0: 97ff 9fbd ead9 3d3c a102 7f3d 55fa d73d
000000b0: 73aa 9cbc 4dda 913d a16e 56bd 0a38 743d
000000c0: 1bfc 893d e97b eabc f6f9 233c 23ee 27bd
000000d0: 5871 6dbd 5177 203d 2d89 e33c b3ae 99bd
000000e0: b34a 593d 4b19 2b3d 5377 ff3d 3710 f33d
000000f0: 0cb6 1e3d fe71 ea3d 4aa5 9ebd fbd0 e2bd
00000100: 8cd4 06be 3498 d7bd f776 c93d dad2 1d39
00000110: 6cf9 b03d 23fe 363d a3f4 acbd 5b5c d63d
00000120: f169 943d 8833 10be e50a a1bb 812d fdbd
00000130: 5e3d 723d 6ec3 803d 9f25 733d 7b74 9cbb
00000140: 7b14 e6bd ad95 e23d 2ae9 b63d 9ba0 663c
00000150: 4b9b a13d 375f 6ebd ae4c b9bd efd0 34bd
00000160: d41f 5cbd eca9 a8bd 5277 c1bd cbdc 6dbc
00000170: 0f78 a43b 5746 56bc d1c0 ffbd d6a2 08be
00000180: d38e 2fbe aa01 18bb b541 9a3c c96f 033e
00000190: 5d73 88bd 2066 f5bd 2489 f33c d2c7 05be
000001a0: ff8d 8e3d c6db 963d 2df2 26bd b92f 88bd
000001b0: e5b3 21be 0408 02be 5286 8a3d 48b6 11bd
000001c0: b34a 093d 8a56 003e 5077 0f3d 6dff 093d
000001d0: 9d33 02be ea23 6b3d 4dbc 953d 017e 02bd
000001e0: 9e7e 833d 92e9 c3bc 7be4 433e c6c2 febc
000001f0: 57e0 5d3d 2ec8 2fbd ba84 0b3c 9bbc 3abd
00000200: e2b6 aa3d 0b53 ddbd b4aa de3c cf41 90bd
00000210: 87e8 3abd 226a 27be bb0a 81bd 1323 50bd
00000220: 8f26 d33d 1c62 18bd 82e4 1fbe 224a 00bd
00000230: 42f5 cabd 596f 98bd dde2 da3d c51e 30be
00000240: 664d 27bd ea34 1abe 55a4 30bd bbc4 c43d
00000250: 918f 2abe e0b4 34be 8041 91bd 0df4 c5bd
00000260: c4f7 453e ee80 46bd b35f dc3d d816 c9ba
00000270: fb39 b73d 2e72 bf3d 85e9 843c ba5e b7bd
00000280: 7864 a43d 99f8 fabd 7c4c 8cbd a34e 49bd
00000290: 31cb 883d 5ece dcbd 984d a3bd 3901 e53d
000002a0: 6c59 9a3d 8c3a fabd 2603 2e3d b760 40bd
000002b0: a171 fcbd 085f adbc 7f7a e13c aa5f 6cbc
000002c0: 75c1 1ebd 553a 8a3d bd7f 01bd c75f 253e
000002d0: dd7d 2bbc 6db2 773c 881a 54bd 38f1 2c3e
000002e0: e790 dc3d 07c3 753c a76d a43d 99f0 ecbd
000002f0: 5741 16be 2a8d 8bbd cc73 8fbd b9ea cd3d
00000300: b679 123d 8d40 abbd 71d6 be3d a396 3b3d
00000310: 3a9c b3bc 14df 023e 8c72 7b3d 53ad 1f3e
00000320: 0dbe 363d 6a7c a93c 0eaf 013e 6c7c a43c
00000330: ab3f c1bd 2f7a a23d 26f5 cb3d ab73 023e
00000340: b9ce f73d 6e39 ef3c d1b2 d1bd d61e 263d
00000350: 482d 30be 2a28 fc3d 1ea9 033e 946c 593d
00000360: 0b22 bcbd 8be7 f73d caea b83a a9a8 053d
00000370: 8aee 983d 3655 953d b879 8d3b 401e ccba
00000380: 1131 9dbd 0dda 703d 8e32 cbbc 31d3 8ebc
00000390: 8835 bc3d f8c1 f93d e5c9 f23b 7adf 7f3a
000003a0: 54bb fabd 6bbc 1fbd c6f9 06bd 418d c33d
000003b0: 9c40 1dbd 09ef 15bd 0e06 203d 5574 e2ba
000003c0: a716 993d 270a 793d 77a1 f93d ec14 833c
000003d0: 9cdc 353d 6768 6e3d 8f1c 93bc a196 a13d
000003e0: 3174 16be c626 173d 0305 07be 5967 6fbd
000003f0: f7b5 623c a235 cabd 5031 d1bd b18c 81bd

weight f4 [256, 512]
0.007755718 0.013542464 -0.020996714 -0.0571609 0.054563243 0.0076896944 -0.056901973 -0.031743154
-0.051569667 0.0787074 -0.025276998 0.021802532 -0.018767519 0.00082734076 -0.047909405 0.060831323
0.03255395 0.011396949 -0.0019510579 -0.09217521 -0.026569663 -0.027104067 0.029952424 -0.021832809
0.12865518 0.011706615 -0.09840715 -0.038335223 -0.0026591169 -0.040454526 0.014872235 0.0829822
0.053293616 -0.007763248 -0.0123384 -0.03220185 -0.028218392 0.0039101937 -0.042443264 -0.024317754
0.082376905 -0.0061282692 0.045930836 0.046125837 -0.012875938 -0.07847229 -0.03804021 0.0069667785
0.003427569 0.036665846 -0.069283284 -0.0018161543 -0.06599322 0.032361448 0.039001185 -0.0011105206
0.0025405446 0.06839703 0.058413927 0.034012254 -0.021969086 0.022404013 -0.056330692 0.05256216
0.044819534 0.027500853 -0.001233897 -0.02152183 0.014979458 0.0004919358 0.029833142 -0.030682286
0.0064232294 0.042142265 0.057710726 -0.047214925 0.0039855586 0.005672494 -0.01168605 0.026946498
0.009258964 0.0068275393 -0.063130654 -0.018313965 -0.0024812156 -0.048043214 -0.030802464 0.029678965
0.019823814 0.0770642 -0.0027066865 0.05124088 0.009287527 -0.011886375 -0.04495807 0.036496688
-0.011220918 0.008962856 -0.016255822 0.09541396 0.010338804 0.050485577 0.00605903 0.023187133
0.04958851 0.013367983 -0.019215526 0.00032723037 0.014733377 0.08323411 0.024736024 0.02041429
0.024128553 -0.022669252 0.07215761 -0.055853065 0.043123532 0.123485945 0.08328553 0.0103156995
0.005061135 0.055988766 -0.008916536 0.043829706 0.015116873 0.00977281 0.026541071 0.037091777
-0.042217985 -0.01923368 0.08585316 -0.0059323558 0.034973137 0.10796906 -0.004936456 0.030683765
-0.037211176 0.06179356 -0.081821874 -0.056079317 -4.062262e-05 0.057084493 -0.017008357 -0.00012681824
-0.0026448232 -0.06731342 -0.023383666 -0.024841039 -0.054938987 -0.05788271 0.00011715082 0.06658096
-0.056667402 0.009673735 0.059489187 -0.015334009 0.005061355 -0.062290363 -0.0182634 0.004993651
0.009543574 0.011001498 -0.093604095 -0.0036345944 0.0127287805 -0.07767687 -0.019638788 0.0076615494
0.01883429 -0.08375536 -0.014225078 -0.012834388 -0.0142863775 -0.012519017 0.116951145 0.03703833
0.014000379 -0.021701453 0.07090451 0.10491484 -0.02626064 -0.09186974 -0.0029074838 -0.013469388
-0.04019191 -0.044262074 0.020464392 0.037105553 -0.0027540333 0.008199052 -0.06075135 0.011516435
-0.051804896 0.033913773 -0.024388766 0.00053847546 -0.02868479 0.0068605123 0.029346108 -0.03544633
0.038186286 0.028949989 -0.04225343 0.036544655 -0.015275137 -0.08107447 -0.010821699 -0.02254928
0.05594966 0.02067047 0.0053496403 0.026040036 0.0034863527 0.04003938 0.03590062 0.024786355
-0.013336947 -0.031430043 -0.0222559 0.015325784 -0.0055019157 -0.014653423 0.0074761286 -0.0956402
-0.008467344 0.03944492 0.013535242 -0.025295384 0.034819547 -0.015971603 -0.043886818 0.011502023
-0.021323526 0.022145787 0.10507017 -0.008326579 0.071049616 0.025378488 0.047000356 -0.12146486
-0.040356945 0.06581522 0.020030398 -0.016277356 -0.015997732 0.06544429 0.009021768 0.0032209016
0.01457646 0.08756352 -0.019554794 0.039460517 0.021189172 0.032513026 -0.017112248 -0.059356865
00000000: ae23 fe3b 36e1 5d3c 4d01 acbc 8c21 6abd
00000010: b57d 5f3d d5f9 fb3b 0b12 69bd 1c05 02bd
00000020: b73a 53bd 5831 a13d b511 cfbc 399b b23c
00000030: 57be 99bc e6e1 583a a73c 44bd 442a 793d
00000040: 4a57 053d 45ba 3a3c a4ba ffba 5bc6 bcbd
00000050: 9fa8 d9bc 5909 debc c95e f53c b8da b2bc
00000060: 2fbe 033e 1acd 3f3c b089 c9bd 6505 1dbd
00000070: 9444 2ebb a5b3 25bd adaa 733c 92f2 a93d
00000080: 684a 5a3d d862 febb 0027 4abc 16e6 03bd
00000090: 422a e7bc 1521 803b fdd8 2dbd 0736 c7bc
000000a0: 39b5 a83d a6cf c8bb f921 3c3d 72ee 3c3d
000000b0: 99f5 52bc 14b6 a0bd 0dd0 1bbd 9349 e43b
000000c0: 11a1 603b ed2e 163d 65e4 8dbd 070c eeba
000000d0: 7427 87bd 708d 043d b5bf 1f3d e38e 91ba
000000e0: 447f 263b be13 8c3d 7143 6f3d 6f50 0b3d
000000f0: 83f8 b3bc 9f88 b73c 03bb 66bd 6b4b 573d
00000100: b094 373d 7849 e13c b7ba a1ba 8d4e b0bc
00000110: 676c 753c 41f5 003a a264 f43c 6b59 fbbc
00000120: f479 d23b 5e9d 2c3d 1562 6c3d 7064 41bd
00000130: 4a99 823b 54e0 b93b d976 3fbc e7be dc3c
00000140: e9b2 173c 8db9 df3b a54a 81bd 2b07 96bc
00000150: e49b 22bb f6c8 44bd 7355 fcbc 4d21 f33c
00000160: 8d65 a23c d6d3 9d3d aa62 31bb f5e1 513d
00000170: b62a 183c 12bf 42bc f425 38bd 8d7d 153d
00000180: f1d7 37bc f1d8 123c ee2a 85bc 6568 c33d
00000190: 1664 293c f7c9 4e3d d48a c63b f1f2 bd3c
000001a0: 521d 4b3d 6205 5b3c e169 9dbc 1e90 ab39
000001b0: 4364 713c a576 aa3d 34a3 ca3c de3b a73c
000001c0: 3ea9 c53c deb4 b9bc 5ec7 933d 2fc6 64bd
000001d0: 4da2 303d 33e6 fc3d 9b91 aa3d 2e03 293c
000001e0: e1d7 a53b 7a54 653d aa16 12bc c786 333d
000001f0: c3ac 773c 231e 203c a96c d93c 8ced 173d
00000200: c4ec 2cbd f38f 9dbc c8d3 af3d 3564 c2bb
00000210: fe3f 0f3d e21e dd3d ffc1 a1bb 855c fb3c
00000220: bf6a 18bd 3e1b 7d3d 3a92 a7bd 6db3 65bd
00000230: 3562 2ab8 6ed1 693d 1c55 8bbc 83fa 04b9
00000240: c554 2dbb 9edb 89bd 1a8f bfbc 6f7f cbbc
00000250: b407 61bd 6c16 6dbd deae f538 995b 883d
00000260: 141c 68bd 967e 1e3c efaa 733d 7f3b 7bbc
00000270: b9d9 a53b 2e24 7fbd 209d 95bc c8a1 a33b
00000280: a75c 1c3c a13f 343c 81b3 bfbd 6032 6ebb
00000290: 608c 503c 0d15 9fbd 86e1 a0bc bc0d fb3b
000002a0: 5e4a 9a3c ee87 abbd 4d10 69bc 5347 52bc
000002b0: 6911 6abc 901c 4dbc 1584 ef3d 81b5 173d
000002c0: d861 653c 3fc7 b1bc 6236 913d 97dd d63d
000002d0: 8e20 d7bc 3426 bcbd 7c8b 3ebb b5ae 5cbc
000002e0: 46a0 24bd 264c 35bd f1a4 a73c fefb 173d
000002f0: 037d 34bb 5155 063c 68d6 78bd 6eaf 3c3c
00000300: 5f31 54bd 2be9 0a3d f3ca c7bc 7a28 0d3a
00000310: 5dfc eabc 26ce e03b 4067 f03c 2c30 11bd
00000320: 3969 1c3d 8728 ed3c ef11 2dbd d9af 153d
00000330: 9144 7abc 5f0a a6bd 7f4d 31bc 45b9 b8bc
00000340: 782b 653d 1e55 a93c 094c af3b ea51 d53c
00000350: 4b7b 643b 5500 243d 870c 133d c10c cb3c
00000360: 3683 5abc cabc 00bd 0152 b6bc ff18 7b3c
00000370: 6a49 b4bb e914 70bc 50fa f43b 02df c3bd
00000380: 9dba 0abc ff90 213d ebc2 5d3c 4438 cfbc
00000390: f19e 0e3d e1d6 82bc aac2 33bd fb72 3c3c
000003a0: adae aebc 156b b53c 072f d73d 346c 08bc
000003b0: 7682 913d 8ce6 cf3c 7283 403d 92c2 f8bd
000003c0: 534d 25bd 21ca 863d ca16 a43c 1758 85bc
000003d0: ad0d 83bc a807 863d 0ad0 133c c315 533b
000003e0: 1bd2 6e3c 8154 b33d 6031 a0bc 5aa1 213d
000003f0: ea94 ad3c 612c 053d fc2e 8cbc 2f20 73bd

bias f4 [256]
-0.012388966 0.045809582 -0.08400099 -0.11554139 -0.0032528837 -0.080233894 -0.004053283 0.061168544
-0.083270155 -0.11470619 -0.013286263 0.016275758 -0.022181377 -0.089733794 0.010559099 -0.0023381696
-0.006831373 0.057613693 -0.02223405 -0.10229668 -0.045269564 -0.051727097 -0.013987863 -0.004616854
-0.013456498 -0.03135627 -0.0880426 -0.08616302 -0.0526715 -0.015794808 0.058315013 -0.047562014
-0.076536916 -0.015969343 0.0019699172 -0.052850038 0.0017002211 -0.031216977 -0.16288534 -0.08424212
0.002348441 -0.24044713 -0.066059776 -0.03473968 -0.038984433 -0.056333866 -0.02735729 -0.10972978
-0.06740667 -0.19327043 -0.04483311 0.009631917 -0.11418739 -0.12390011 -0.07170934 0.00076198194
-0.08218153 -0.015055948 -0.045991797 0.04309794 -0.015714094 0.02055095 0.023059608 -0.023685768
-0.036442704 -0.054964997 -0.10627327 -0.09801874 -0.121356614 -0.13372028 -0.13199787 -0.07241831
-0.06850677 -0.0060557225 -0.08338617 -0.08617348 -0.039451715 -0.1788477 -0.0028914516 -0.05998526
-0.06362683 -0.104022264 0.0057686428 0.0053370763 -0.019316433 -0.024185544 -0.07284458 -0.037610658
-0.024334367 -0.114714615 -0.050421696 -0.05033382 -0.0030868375 0.03920822 -0.061498255 0.04037174
0.0074508064 -0.0018825536 -0.12768032 -0.030590035 -0.041872587 0.005191239 -0.14438857 -0.15212987
-0.042839117 -0.028348608 -0.08070331 -0.04202846 -0.12733261 -0.03853521 -0.00592822 -0.1615616
-0.07454924 -0.020786183 -0.017369857 -0.00543742 -0.032365605 -0.06572467 -0.22466898 0.011828569
-0.020201495 0.03256861 -0.030735195 -0.07016532 -0.058126397 -0.03238124 -0.04141739 -0.066054545
-0.10050171 0.050611194 -0.02150091 -0.02890416 -0.050068688 -0.07535699 -0.040339928 0.029490339
-0.03436312 -0.060839202 0.036273744 -0.079492696 -0.02837281 -0.05724855 -0.05295983 0.06412228
-0.025497237 -0.04764246 -0.022876063 -0.031004421 -0.020299535 -0.044878256 -0.009223354 0.0071844924
-0.04280865 -0.0040615997 -0.009121671 -0.020896414 -0.053935442 -0.07616785 -0.045817003 -0.10452884
-0.07741324 -0.09281337 0.013275045 -0.2875962 -0.10491691 -0.001047196 0.0129193915 0.020407565
-0.029513072 0.0008331728 -0.03855605 -0.10603659 -0.1555668 -0.1810563 -0.10328839 0.000758981
-0.14041813 -0.05240035 -0.0739576 0.01272429 -0.05307674 -0.010139069 0.027650803 0.0061211395
0.055017356 -0.10369262 -0.030882243 -0.0984963 -0.0354938 -0.077629775 -0.02687631 -0.05168666
-0.059797965 0.0037599567 -0.016091175 -0.037346013 -0.15477844 -0.002218678 0.0093223145 0.022641929
-0.024519786 -0.0028994938 -0.040822174 0.04106271 0.050506767 -0.17416243 -0.030910194 -0.006958545
-0.10614602 -0.10907475 -0.045176037 0.012789748 -0.091411434 -0.011854568 0.0037729656 -0.106706604
-0.040754788 -0.15494823 -0.060610104 -0.040632278 -0.064831525 -0.10098601 -0.0821888 -0.19079873
-0.03820194 0.092777476 -0.10150756 -0.05002429 0.029603638 -0.0056061703 0.02292952 -0.08607761
0.08667038 0.00066568155 0.08538723 -0.07787819 -0.0036147393 -0.0020671575 -0.020742558 -0.06307043
0.032713346 -0.0071143457 -0.04188549 -0.06073153 -0.035027854 -0.006905528 -0.035109717 -0.015767802
0.050585575 -0.062406167 -0.0814424 -0.009862749 -0.06155919 0.0034109238 0.016172362 0.09320305
00000000: 17fb 4abc d4a2 3b3d b608 acbd f7a0 ecbd
00000010: 552e 55bb ab51 a4bd 67d1 84bb de8b 7a3d
00000020: 8b89 aabd 14eb eabd a0ae 59bc bd54 853c
00000030: b8b5 b5bc 5ac6 b7bd 1200 2d3c fa3b 19bb
00000040: b6d9 dfbb 56fc 6b3d 2f24 b6bc ec80 d1bd
00000050: 946c 39bd cbdf 53bd 5a2d 65bc fa48 97bb
00000060: a578 5cbc 6f6f 00bd ae4f b4bd 3d76 b0bd
00000070: 12be 57bd 1d64 81bc b9db 6e3d 63d0 42bd
00000080: 63bf 9cbd 24d2 82bc ba19 013b 4879 58bd
00000090: f4d9 de3a bfba ffbc 6acb 26be 2287 acbd
000000a0: 4de8 193b c637 76be 594a 87bd 324b 0ebd
000000b0: 24ae 1fbd 57be 66bd 651c e0bc 02ba e0bd
000000c0: 820c 8abd afe8 45be eca2 37bd 30cf 1d3c
000000d0: 14db e9bd 57bf fdbd 59dc 92bd bebf 473a
000000e0: ca4e a8bd 39ad 76bc e561 3cbd 7787 303d
000000f0: d8ba 80bc 775a a83c 81e7 bc3c a808 c2bc
00000100: f244 15bd fa22 61bd cda5 d9bd 0dbe c8bd
00000110: d189 f8bd f8ed 08be 732a 07be 0d50 94bd
00000120: 474d 8cbd 156f c6bb 5ec6 aabd b97b b0bd
00000130: 1f98 21bd da23 37be 827e 3dbb 1bb3 75bd
00000140: c94e 82bd a009 d5bd e206 bd3b a4e2 ae3b
00000150: 7f3d 9ebc c320 c6bc 8a2f 95bd a20d 1abd
00000160: de58 c7bc 7fef eabd fb86 4ebd d62a 4ebd
00000170: 8a4c 4abb cc98 203d 98e5 7bbd d65c 253d
00000180: e525 f43b 04c0 f6ba a1be 02be f497 fabc
00000190: 9782 2bbd 451b aa3b 99da 13be efc7 1bbe
000001a0: 1278 2fbd 573b e8bc c747 a5bd 0926 2cbd
000001b0: 7b63 02be 19d7 1dbd 8441 c2bb 6770 25be
000001c0: 46ad 98bd c947 aabc 3b4b 8ebc 632c b2bb
000001d0: cc91 04bd a89a 86bd a00f 66be 9dcc 413c
000001e0: 9b7d a5bc aa66 053d 60c8 fbbc d6b2 8fbd
000001f0: f215 6ebd 31a2 04bd 48a5 29bd 9b47 87bd
00000200: d7d3 cdbd af4d 4f3d ad22 b0bc 6bc8 ecbc
00000210: d314 4dbd c454 9abd 7b3b 25bd b995 f13c
00000220: 58c0 0cbd 8732 79bd c793 143d 11cd a2bd
00000230: 186e e8bc 757d 6abd 68ec 58bd 8b52 833d
00000240: 95df d0bc bd24 43bd 9566 bbbc fcfc fdbc
00000250: 364b a6bc 43d2 37bd 8d1d 17bc e46b eb3b
00000260: 1f58 2fbd 2b17 85bb 1073 15bc f52e abbc
00000270: 69eb 5cbd e4fd 9bbd 9caa 3bbd 3713 d6bd
00000280: d58a 9ebd f014 bebd 937f 593c cf3f 93be
00000290: adde d6bd 1142 89ba dbab 533c c42d a73c
000002a0: 66c5 f1bc 4869 5a3a f3ec 1dbd b629 d9bd
000002b0: e74c 1fbe d366 39be dd88 d3bd 5af6 463a
000002c0: c5c9 0fbe c0a1 56bd 1577 97bd 8a79 503c
000002d0: ff66 59bd 561e 26bc f083 e23c d793 c83b
000002e0: e159 613d cc5c d4bd c2fc fcbc 6eb8 c9bd
000002f0: f261 11bd 5cfc 9ebd b52b dcbc 64b5 53bd
00000300: b6ee 74bd 9b69 763b a4d1 83bc 22f8 18bd
00000310: 3d7e 1ebe 3d67 11bb 9fbc 183c 917b b93c
00000320: b8dd c8bc 6f05 3ebb 2735 27bd 5f31 283d
00000330: 2fe0 4e3d a357 32be 6037 fdbc 8204 e4bb
00000340: 1663 d9bd 9562 dfbd 820a 39bd 178c 513c
00000350: eb35 bbbd a939 42bc dc43 773b fe88 dabd
00000360: 7eee 26bd c0aa 1ebe 4d42 78bd 086e 26bd
00000370: 64c6 84bd c1d1 cebd 9a52 a8bd be60 43be
00000380: a379 1cbd 1e02 be3d 32e3 cfbd 45e6 4cbd
00000390: 5483 f23c f7b3 b7bb b0d6 bb3c 7549 b0bd
000003a0: 3d80 b13d 2281 2e3a 80df ae3d 9a7e 9fbd
000003b0: 43e5 6cbb 2679 07bb 4cec a9bc 122b 81bd
000003c0: 6efe 053d 751f e9bb 1f90 2bbd a0c1 78bd
000003d0: 5e79 0fbd c447 e2bb 35cf 0fbd 7a2b 81bc
000003e0: d232 4f3d 9c9d 7fbd 46cb a6bd 5e97 21bc
000003f0: 7d25 7cbd ce89 5f3b e77b 843c 3ee1 be3d

weight f4 [128, 256]
0.0058527845 -0.050532997 0.024118442 0.018024264 0.0069240513 0.070909604 -0.053266697 0.013977798
-0.03215359 -0.006569257 0.0887283 -0.04527001 -0.038408488 -0.020619806 -0.021039644 -0.0050596655
-0.018580085 0.02660164 -0.00465252 0.008064173 0.03418759 -0.021412676 0.011589646 -0.03493474
-0.00595001 0.01967693 0.032335095 0.040861223 -0.03435828 0.0052330825 -0.054416843 -0.03100987
0.040458042 0.04774543 -0.01383828 -0.0112181585 -0.031834725 0.026590038 -0.029846882 0.005266591
-0.017289542 0.016528573 0.042754646 0.0060943174 -0.026248354 -0.051309023 -0.01988925 0.029201508
0.011462521 0.007858081 -0.02251013 0.036289737 0.0038452118 -0.013518787 0.020519735 -0.01737012
-0.025894575 0.043850206 -0.006183421 -0.019677212 0.010166609 0.008605104 0.015031997 0.029605143
0.030977266 0.015396189 -0.046641305 0.063429795 -0.0024903754 -0.0038781287 -0.0068040523 -0.032341685
0.02041956 0.0005078573 -0.044275355 0.027862318 -0.044009224 0.03554749 -0.024097959 -0.04446993
-0.07910573 -0.06382571 0.02458875 -0.02755939 0.04474375 0.0016795996 0.023028744 -0.052969456
0.0005114297 -0.014028218 -0.02533633 -0.039127048 0.020411266 -0.012439612 0.03142002 -0.032112256
-0.018877694 -0.05674278 0.03657723 0.040311217 -0.008290902 -0.006878582 -0.023971597 -0.019833896
-0.0061142263 -0.0268872 0.006961218 0.011286741 0.008411862 0.0023838957 0.078330465 0.016661486
0.030887654 0.010555103 0.024767967 -0.012603613 0.00714109 0.06407046 -0.047451857 0.0015063857
-0.0076830043 -0.00835731 0.009527872 -0.05419589 -0.025895372 -0.01710845 0.003917114 -0.0043302807
-0.032952998 0.01630808 -0.026310613 -0.009342558 0.017826889 0.011467066 0.0026628762 0.00072805997
-0.019966481 0.03435156 0.044620518 -0.033086985 0.023622215 0.0057673226 0.009820225 0.009438401
-0.023754153 0.031294014 0.0013735867 -0.028388899 -0.06625423 -0.035668418 0.012953939 -0.023662215
0.0499044 -0.07550765 -0.021694778 0.0393084 -0.0023874738 0.013356808 -0.01624164 0.011475852
0.02165023 -0.0069691595 0.037562113 -0.013365965 0.03332257 0.01123674 0.055239204 0.01876908
-0.0312214 0.015498708 -0.0042425664 0.028597867 -0.015935253 -0.04960846 -0.0074825813 -0.0001519826
-0.015042625 0.026367262 0.006432559 0.021560185 -0.008101092 -0.045008246 0.0007727604 -0.043023102
0.005804319 0.019777467 -0.06269264 0.03344108 0.019016342 -0.059894133 0.029035315 0.014076538
0.024972836 0.00079481985 0.0061866227 0.0038583195 -0.036338765 -0.015272822 -0.001705586 -0.045931477
0.04419076 0.018110137 -0.011664287 -0.00165021 -0.004074052 -0.054808784 -0.041919593 -0.036749568
-0.0075047333 -0.016947692 -0.042659875 0.005139269 0.012111374 0.020476224 -0.015170633 -0.025714826
0.02255648 0.07244834 0.0035016905 0.003521928 -0.022043772 0.015432018 -0.024798797 -0.036664423
0.006254818 -0.05218277 0.005277432 0.032790616 -0.043821257 0.011833986 0.020319665 0.017046113
0.019223226 0.020607619 -0.037354406 0.028967252 0.02943154 -0.021446565 -0.009505537 0.0052849543
0.017288925 0.0049978686 0.020524252 0.05132122 0.045250133 -0.0025455186 -0.024202706 -0.055245824
0.037674557 -0.048739236 -0.04021276 0.0028103916 0.011781387 0.0069467733 -0.03460985 -0.038892787
00000000: b7c8 bf3b b0fb 4ebd 0a94 c53c 9fa7 933c
00000010: 27e3 e23b 0e39 913d 2e2e 5abd 2203 653c
00000020: 7cb3 03bd ec42 d7bb 2fb7 b53d 0c6d 39bd
00000030: 3852 1dbd deea a8bc 555b acbc 8dcb a5bb
00000040: 4335 98bc afeb d93c 2b74 98bb 981f 043c
00000050: 4908 0c3d a369 afbc 80e2 3d3c bb17 0fbd
00000060: 4df8 c2bb 8331 a13c ce71 043d 195e 273d
00000070: 45bb 0cbd 477a ab3b 32e4 5ebd 6908 febc
00000080: 55b7 253d b690 433d f4b9 62bc 5ecc 37bc
00000090: 2165 02bd 5ad3 d93c 7381 f4bc 5e93 ac3b
000000a0: cca2 8dbc ee66 873c 7f1f 2f3d d7b2 c73b
000000b0: ca06 d7bc 6929 52bd c8ee a2bc 0038 ef3c
000000c0: 4ccd 3b3c 2ebf 003c 2a67 b8bc 8ca4 143d
000000d0: f3ff 7b3b e77d 5dbc 0119 a83c c84b 8ebc
000000e0: dc20 d4bc 469c 333d 4b9e cabb 1b32 a1bc
000000f0: d991 263c 6cfc 0c3c c448 763c 7c86 f23c
00000100: 09c4 fd3c 4c40 7c3c f40a 3fbd 7be7 813d
00000110: 9135 23bb 3428 7ebb 87f4 debb b778 04bd
00000120: ec46 a73c ba21 053a 135a 35bd 843f e43c
00000130: 0443 34bd 3f9a 113d 1569 c5bc 1a26 36bd
00000140: 2f02 a2bd 0eb7 82bd 596e c93c 3bc4 e1bc
00000150: 3945 373d 0326 dc3a c7a6 bc3c 80f6 58bd
00000160: 7711 063a 9cd6 65bc 238e cfbc af43 20bd
00000170: 8735 a73c 84cf 4bbc 47b2 003d 2488 03bd
00000180: 65a5 9abc 1e6b 68bd 01d2 153d 601d 253d
00000190: 90d6 07bc ba65 e1bb 1560 c4bc b27a a2bc
000001a0: d959 c8bb 8c42 dcbc ee1a e43b 06ec 383c
000001b0: e8d1 093c 223b 1c3b b96b a03d ab7d 883c
000001c0: 1b08 fd3c 50ef 2c3c 31e6 ca3c 627f 4ebc
000001d0: ceff e93b 6037 833d e15c 42bd eb71 c53a
000001e0: b6c1 fbbb 19ed 08bc cb1a 1c3c 82fc 5dbd
000001f0: 8822 d4bc 0527 8cbc 225b 803b 07e5 8dbb
00000200: b9f9 06bd 8698 853c 5b89 d7bc 8711 19bc
00000210: b209 923c 5ce0 3b3c a683 2e3b 47db 3e3a
00000220: bf90 a3bc 39b4 0c3d 01c4 363d 3886 07bd
00000230: 6083 c13c cffb bc3b 02e5 203c 86a3 1a3c
00000240: 1298 c2bc 272e 003d ec09 b43a d68f e8bc
00000250: 4cb0 87bd 0c19 12bd c23c 543c 43d7 c1bc
00000260: 8e68 4c3d c1a3 9abd 3fb9 b1bc d801 213d
00000270: 2a77 1cbb 83d6 5a3c 300d 85bc 3605 3c3c
00000280: d35b b13c 8c5d e4bb bbda 193d ecfc 5abc
00000290: 3f7d 083d 4e1a 383c 8142 623d 9dc1 993c
000002a0: 05c4 ffbc 4bee 7d3c 3a05 8bbb 1346 ea3c
000002b0: a68a 82bc 3e32 4bbd 7130 f5bb 855d 1fb9
000002c0: 5875 76bc 2800 d83c 37c8 d23b fc9e b03c
000002d0: 71ba 04bc 915a 38bd 1393 4a3a fe38 30bd
000002e0: 2832 be3b 5b04 a23c 0065 80bd 84f9 083d
000002f0: 29c8 9b3c 8d53 75bd 78db ed3c 48a1 663c
00000300: d593 cc3c 755b 503a 27b9 ca3b dcdb 7c3b
00000310: f5d7 14bd dc3a 7abc f88d dfba a522 3cbd
00000320: 5f01 353d b65b 943c 911b 3fbc dc4b d8ba
00000330: a07f 85bb 2d7f 60bd e1b3 2bbd b786 16bd
00000340: 44ea f5bb e3d5 8abc 1fbc 2ebd 5067 a83b
00000350: c96e 463c c1bd a73c 3f8e 78bc e6a7 d2bc
00000360: 5ec8 b83c cc5f 943d 9e7c 653b 26d0 663b
00000370: 2495 b4bc 93d6 7c3c d926 cbbc 6f2d 16bd
00000380: 37f5 cc3b 9abd 55bd 4fee ac3b 744f 063d
00000390: eb7d 33bd 56e3 413c 6d75 a63c 4aa4 8b3c
000003a0: 077a 9d3c 4fd1 a83c ef00 19bd bb4c ed3c
000003b0: 6a1a f13c b5b0 afbc 1dbd 1bbc 692d ad3b
000003c0: 81a1 8d3c 29c5 a33b 7a22 a83c 3336 523d
000003d0: 3458 393d b7d2 26bb c144 c6bc 7249 62bd
000003e0: a350 1a3d cba2 47bd 23b6 24bd 8c2e 383b
000003f0: b806 413c c2a1 e33b 0fc3 0dbd 0b4e 1fbd

bias f4 [128]
0.026742617 -0.026175627 -0.06411246 -0.02191057 -0.06327012 0.007160989 -0.08893567 0.09366706
0.02034608 0.0063521615 0.059504624 0.094449446 -0.09045467 -0.047872633 -0.0060548447 0.22051762
-0.064890884 0.07458356 -0.096833415 -0.2900775 -0.06270019 -0.03150409 -0.104890965 -0.19657686
0.029700618 -0.0029995467 -0.005978547 0.090720154 0.025437914 0.020541925 -0.43162248 0.037885685
-0.033017706 -0.10487698 0.038068503 -0.026341733 0.1386308 -0.52565026 0.0542971 -0.10664192
0.018277254 -0.16692424 -0.014796127 0.00288769 -0.04273129 0.072176486 0.13237154 0.038551882
0.06363816 0.037976008 -0.06756595 -0.007331306 -0.15994714 0.033803623 -0.26481858 -0.18904169
0.013523019 0.025848472 0.05257284 0.015746422 0.03997242 -0.03685677 -0.21567245 0.049337145
-0.26842785 -0.23057583 0.068777196 -0.11441922 -0.012332433 0.026455412 -0.098498255 0.04813457
-0.059063524 -0.12815678 0.02150294 -0.02877233 -0.026778083 -0.04756348 -0.109227434 -0.13512538
-0.04170735 -0.0013033131 -0.0068465234 0.055313785 -0.06767403 -0.060713448 0.079471655 0.020059422
-0.027548278 0.002705962 -0.007562497 -0.0670224 -0.06689148 -0.111316055 -0.111882515 0.07465698
-0.054069664 0.0007371056 0.07998311 -0.047119707 0.021931691 -0.2974198 -0.009335742 -0.0465175
-0.14689223 -0.05278506 -0.3477105 -0.05449741 0.019936176 0.056507006 -0.24810702 0.036852587
-0.1353854 0.083566576 -0.1978512 0.01386227 0.008479579 -0.013157126 -0.02276305 -0.0012242094
0.01477532 0.06816797 -0.036939412 -0.09207262 -0.07887438 0.043514527 -0.10860179 -0.09175447
00000000: 5513 db3c 456e d6bc 654d 83bd cc7d b3bc
00000010: c493 81bd bba6 ea3b e823 b6bd 84d4 bf3d
00000020: d3ac a63c cb25 d03b 1fbb 733d b66e c13d
00000030: 4c40 b9bd 1816 44bd b867 c6bb 5fcf 613e
00000040: 83e5 84bd 44bf 983d 9950 c6bd 0a85 94be
00000050: f568 80bd 6f0a 01bd 13d1 d6bd 724b 49be
00000060: b64e f33c 0b94 44bb b0e7 c3bb 7dcb b93d
00000070: 2c63 d03c 8a47 a83c 9ffd dcbe 052e 1b3d
00000080: 933d 07bd bec9 d6bd b8ed 1b3d 9eca d7bc
00000090: 3cf5 0d3e 0491 06bf a366 5e3d 1467 dabd
000000a0: 2eba 953c 30ee 2abe 746b 72bc 663f 3d3b
000000b0: 0107 2fbd 44d1 933d 688c 073e 94e8 1d3d
000000c0: b954 823d bb8c 1b3d 0460 8abd 743b f0bb
000000d0: 2fc9 23be ab75 0a3d 4d96 87be 2594 41be
000000e0: a78f 5d3c 2dc0 d33c 9e56 573d a4fe 803c
000000f0: 1fba 233d 20f7 16bd 3dd9 5cbe bf15 4a3d
00000100: 606f 89be 121c 6cbe 0fdb 8c3d a054 eabd
00000110: f90d 4abc 05b9 d83c 74b9 c9bd c128 453d
00000120: 98ec 71bd 883b 03be ef26 b03c f3b3 ebbc
00000130: b65d dbbc ecd1 42bd a2b2 dfbd 4f5e 0abe
00000140: 54d5 2abd eed3 aaba cd58 e0bb b590 623d
00000150: af98 8abd aaae 78bd 09c2 a23d a853 a43c
00000160: edac e1bc 8256 313b d3ce f7bb 0a43 89bd
00000170: 66fe 88bd acf9 e3bd a922 e5bd c2e5 983d
00000180: 2778 5dbd 523a 413a 2fce a33d 9800 41bd
00000190: 17aa b33c 6847 98be f1f4 18bc 2289 3ebd
000001a0: eb6a 16be 2635 58bd 1c07 b2be ad38 5fbd
000001b0: 3151 a33c e473 673d c40f 7ebe bdf2 163d
000001c0: 78a2 0abe f424 ab3d 8199 4abe 931e 633c
000001d0: efed 0a3c fc90 57bc 9379 babc a775 a0ba
000001e0: 2f14 723c a69b 8b3d c84d 17bd 9290 bcbd
000001f0: e488 a1bd 4a3c 323d 9e6a debd c4e9 bbbd

weight f4 [12, 128]
0.003225599 -0.0069625396 -0.005555039 0.03189439 -0.004492843 0.0012139871 0.0005327367 0.040700532
0.004705991 -0.0011640544 -0.021596834 -0.005887474 -0.07409431 0.0047813007 -0.0036962517 -0.06559346
-0.0013656671 0.08668891 -0.028880684 0.09653802 -0.03307309 0.024873681 0.030515468 0.018683806
0.04148157 0.00640165 -0.0020486547 -0.011200951 0.00044374386 -0.0013927335 0.026752198 -0.0043191025
0.013113823 -0.016991928 0.0057517467 0.002371793 -0.024147123 0.13970171 -0.009008328 0.021571698
0.0017728453 -0.0570877 0.03950399 0.0035596977 -0.014363395 -0.0007206813 -0.029751161 0.0012282028
0.038552944 -0.015410092 -0.032276392 -0.007636118 0.0015977451 0.0012817289 -0.07326752 0.078505315
0.0045302026 -0.07174054 -0.04861997 -0.024401342 -0.0009749184 -0.00068485376 0.006585331 -0.008949769
0.027368477 -0.025002608 -0.043941576 -0.0054284115 0.0068965647 0.0072476226 0.0022483896 0.017568951
0.03067688 0.0029797438 0.007618567 -0.001250918 0.0019468876 0.0072370986 0.04346958 -0.017026488
-0.062298223 -0.003774256 0.018608887 -0.001068215 -0.00043086053 0.0028429693 0.0014801362 -0.0019704308
0.0045104153 -0.007853409 -0.003947983 0.0046757185 0.023691457 -0.004065595 -0.0077152755 0.005693951
0.039910056 -0.0028976616 -0.0069233 0.0035854143 -0.00036339738 -0.017178617 -0.010137728 0.006514031
-0.0019613171 -0.0036400417 0.0621697 0.009916196 -0.001365884 0.0076457392 0.023367537 2.0502188e-05
0.04422421 -0.02924219 0.010146373 -0.0036028826 -0.0047215344 -0.0030049793 0.004224952 -0.06025363
0.004930071 -0.022314865 -0.0052576745 0.013039728 -0.006245091 0.005366837 0.017161617 -0.011484505
-0.00074933126 -0.006913389 -0.033976596 0.00023503057 0.002564701 -0.0052491883 -0.0059466558 -0.02518839
0.010377019 -0.012748565 -0.006819419 -0.0077640456 0.014450765 0.066892676 0.010542753 0.08626452
-9.135501e-05 0.1622959 -0.053516828 -0.047851246 -0.02059711 0.09602594 0.013758867 0.047751267
0.07321011 0.0008041229 -0.026485655 -0.0101329805 0.0018033921 0.0039313887 -0.07174888 -0.0040343767
-0.016574403 0.015601513 0.0017452064 -0.005264866 0.0018413479 -0.15649055 -0.0123581225 -0.047807675
0.0101014795 -0.04190991 0.03403315 0.007936954 -0.015617829 -0.002791361 0.013287781 -0.010080777
0.056138482 0.017277015 -0.06260025 0.0031978495 -0.059770532 -0.009724403 -0.059739396 0.0020622567
-0.008509901 0.012616986 0.003752416 0.0144049255 -0.007579404 0.009344225 0.01932468 -0.005683727
0.015934689 -0.04493064 0.0024338106 -0.07432104 8.630086e-05 0.0041352008 -0.00041424835 0.064523846
-0.042378448 0.10123495 -0.0073980116 -0.0029135493 -0.00077648455 -0.007835808 -0.058000386 -0.016374156
0.06857785 0.004718577 -0.0063374806 -0.012332887 -0.024799557 0.00027094947 -0.013216288 -0.019463101
-0.010073101 -0.011079566 -0.0028611927 0.015701525 0.051783588 -0.020202715 -0.0421087 0.019928727
0.06267721 0.0024117779 0.05488899 0.006396927 0.0015171843 0.10825975 0.012450409 0.010583583
-0.012960851 -0.0141296685 -0.046193786 0.05848351 -0.0019085995 0.0036604898 -0.12546013 -0.005456097
-0.044128627 0.08807013 0.022450428 0.0029586656 0.0048923297 -0.0111675225 0.00054513826 -0.013526874
0.015107565 -0.012508559 -0.012168942 -0.009538859 0.010933548 -0.0033456602 -0.0038888082 -0.00037481866
00000000: 9264 533b 0426 e4bb 0b07 b6bb b1a3 023d
00000010: b338 93bb a61e 9f3a 5ba7 0b3a 9ab5 263d
00000020: b734 9a3b 2f93 98ba d8eb b0bc b6eb c0bb
00000030: c2be 97bd 75ac 9c3b d03c 72bb dd55 86bd
00000040: 2f00 b3ba f589 b13d 2f97 ecbc bab5 c53d
00000050: a677 07bd e4c3 cb3c 93fb f93c c80e 993c
00000060: 94e8 293d efc4 d13b b942 06bb 3284 37bc
00000070: 4ba6 e839 628c b6ba 6d27 db3c 4287 8dbb
00000080: 5cdb 563c a832 8bbc 2679 bc3b 1570 1b3b
00000090: 30d0 c5bc f70d 0f3e ab97 13bc 21b7 b03c
000000a0: d15e e83a cbd4 69bd f0ce 213d d149 693b
000000b0: 7254 6bbc 1aec 3cba b5b8 f3bc a6fb a03a
000000c0: b1e9 1d3d 9c7a 7cbc 4034 04bd 6738 fabb
000000d0: 6e6b d13a afff a73a 480d 96bd 65c7 a03d
000000e0: 1872 943b b4ec 92bd bc25 47bd 53e5 c7bc
000000f0: ab91 7fba c287 33ba c3c9 d73b 0da2 12bc
00000100: db33 e03c 45d2 ccbc 15fc 33bd d1e0 b1bb
00000110: 94fc e13b 777d ed3b b859 133b c3ec 8f3c
00000120: 154e fb3c ce47 433b 2ca5 f93b d8f5 a3ba
00000130: b52e ff3a 2f25 ed3b 290d 323d 227b 8bbc
00000140: 6c2c 7fbd 8259 77bb aa71 983c 5903 8cba
00000150: 1fe5 e1b9 1c51 3a3b 2101 c23a 5822 01bb
00000160: 1bcc 933b 96ab 00bc 155e 81bb c536 993b
00000170: 9614 c23c af38 85bb 6cd0 fcbb 5394 ba3b
00000180: ba78 233d b2e6 3dbb dadc e2bb 45f9 6a3b
00000190: 5f86 beb9 2cba 8cbc b718 26bc a773 d53b
000001a0: 7189 00bb c48d 6ebb a8a5 7e3d 8a77 223c
000001b0: 7607 b3ba 1c89 fa3b 476d bf3c 1dfc ab37
000001c0: 7224 353d 518d efbc f93c 263c 571e 6cbb
000001d0: 1ab7 9abb 30ef 44bb 7771 8a3b 83cc 76bd
000001e0: 6f8c a13b aacd b6bc 9248 acbb 95a4 553c
000001f0: 9fa3 ccbb 4bdc af3b 8596 8c3c 8129 3cbc
00000200: c56e 44ba b689 e2bb 0b2b 0bbd 8a72 7639
00000210: 8b14 283b 6201 acbb 2adc c2bb e257 cebc
00000220: 5f04 2a3c 5bdf 50bc 6f75 dfbb 8969 febb
00000230: e7c2 6c3c 07ff 883d 83bb 2c3c 74ab b03d
00000240: d995 bfb8 e530 263e 7634 5bbd abff 43bd
00000250: 45bb a8bc 3fa9 c43d df6c 613c d596 433d
00000260: 2fef 953d c6cb 523a 72f8 d8bc cd04 26bc
00000270: cc5f ec3a e1d2 803b 14f1 92bd ce32 84bb
00000280: 0bc7 87bc 7d9d 7f3c 69bf e43a e684 acbb
00000290: 6259 f13a 0f3f 20be b979 4abc fbd1 43bd
000002a0: ad80 253c baa9 2bbd 5866 0b3d ff09 023c
000002b0: ece1 7fbc 44ef 36bb feb4 593c d829 25bc
000002c0: 77f1 653d 8788 8d3c 8f34 80bd 0393 513b
000002d0: f2d1 74bd 1a53 1fbc 4cb1 74bd ed26 073b
000002e0: 1d6d 0bbc 7ab7 4e3c 18eb 753b a302 6c3c
000002f0: a65c f8bb 8518 193c cb4e 9e3c 8f3e babb
00000300: 7789 823c 3109 38bd 9180 1f3b a135 98bd
00000310: 6cfc b438 9480 873b 792f d9b9 1425 843d
00000320: 0695 2dbd 4554 cf3d 056b f2bb 3ff1 3ebb
00000330: ff8c 4bba c361 00bc d091 6dbd 1823 86bc
00000340: 8b72 8c3d 4b9e 9a3b a4aa cfbb e10f 4abc
00000350: 7128 cbbc 390e 8e39 2189 58bc 1571 9fbc
00000360: a609 25bc 1187 35bc d982 3bbb 7ca0 803c
00000370: 071b 543d 2a80 a5bc 2c7a 2cbd 9241 a33c
00000380: e95c 803d eb0e 1e3b 47d3 603d 509d d13b
00000390: 42dc c63a 4ab7 dd3d cdfc 4b3c c466 2d3c
000003a0: c059 54bc 2080 67bc b235 3dbd 688c 6f3d
000003b0: f929 faba d4e4 6f3b 9f78 00be 0fc9 b2bb
000003c0: 38c0 34bd 1d5e b43d f6e9 b73c 2ce6 413b
000003d0: d64f a03b fcf7 36bc 9ce7 0e3a d29f 5dbc
000003e0: b885 773c b3f0 4cbc 3e60 47bc e048 1cbc
000003f0: a022 333c dd42 5bbb 60db 7ebb 4f83 c4b9

bias f4 [12]
-0.2522932 0.27236542 -0.20428407 0.17983833 0.16310352 -0.20474507 -0.26752663 0.2621308
-0.0026711936 0.24905406 0.21580088 -0.07516945
00000000: 932c 81be 7b73 8b3e d82f 51be 8a27 383e
00000010: 9c04 273e b1a8 51be 40f9 88be 0236 863e
00000020: 310f 2fbb 0708 7f3e e8fa 5c3e 71f2 99bd
