logs/go1_IROS/exported/policies/pos_obs42_rand_mass6.pt (torch, 761749 bytes, 8 tensors)

weight f4 [512, 42]
00000000: c86b aebb 5df9 793d e0b7 483d 9566 123d
00000010: 8a2c 26be 204f 52bd e194 0fbf 7279 dcbd
00000020: 156d 813e 33a6 283e de03 bb3c bef8 883e
00000030: c6c7 343e e290 cdba 7b82 79bd 805c 2dbe
00000040: 2a40 d1be f43b 94be de8b 40bf fb64 eabe
00000050: 8f20 4c3f 91b5 39bd fce9 b93d f0ee 783e
00000060: f2c7 853e 24fb 4abe 4fc4 2bbe 2c1b c73e
00000070: e055 debe 1f93 923e abbf 2dbc 9cc5 a3bd
00000080: 99d6 633d 4976 173d b878 16bd 6bb0 56bc
00000090: 001a 223c 3a37 b83c 76fb 64ba 92b5 083d
000000a0: dcf0 c13c 4840 0d3d 175e 1fbe 9ddb aebd
000000b0: 9ff2 2dbd 9737 b7bb 5093 f8bd fe75 6bbd
000000c0: 73e6 0a3d 8f55 5ebe 1dfb 453e b908 63be
000000d0: 85d2 293f 2b5e a0be 3575 333e afa1 223f
000000e0: 088d 973d 0e5a a63e 2e90 47bf 32e9 4dbe
000000f0: 6864 6f3d 8508 c5bd 151d 10bd fc95 73be
00000100: d71f 35be fac6 7e3e 49fa babe 15b0 06bb
00000110: 229f c8bc 4802 ba3e 5710 8e3d 1949 b9be
00000120: 4d0e 3f3c 1d12 943d 62dc 79bd 6e94 f2bc
00000130: efff 37bd ef0a b33c 73ef 98bc df7b 903c
00000140: 3766 a43c e2af 5bbd 359e b4bb d8fa 183c
00000150: be93 af3c 9d07 efbd 58bf eb3d 3245 b1bd
00000160: f088 663e 8504 c0bd e28a 313d 3397 a8be
00000170: a49e 223c da87 2f3c 989b aebc c88d a2be
00000180: 179d 173e 0437 8c3e 6217 e7be 6848 543e
00000190: 76fa a8be 1e2e acbd 2008 30be 9e7c 17be
000001a0: 4737 75bd 2010 07be ef2f 853e dd14 42bf
000001b0: cde3 8e3e e484 343e 6fc9 8c3d 0b95 8b3e
000001c0: bf1a 7c3d 218c 0dbe 386b cb3c 800b 1ebd
000001d0: 1606 a03c 85ad e1bb de55 ef3c 6666 4e3d
000001e0: ece6 043c 8303 a0bb 99fa d13c 6698 09bc
000001f0: a1f8 13bd 27f8 ba3c 7dc3 e5bc 11a4 313e
00000200: 2b4f d0bd ae81 073d ab87 49bd 74ac 4fbe
00000210: c2ac c9be 38c5 65be 89c6 283e d6fa 553e
00000220: b144 363d 55a5 de3e c017 983e 1189 7dbe
00000230: 0bdc 1cbe 5d18 4dbe 804e 89be 0215 22be
00000240: 861a d2be 7c78 a6bd 0527 983c bdb3 a33e
00000250: 7ca6 babe c974 b2bd e2e9 0b3e 6f44 25bd
00000260: f74d 90bc 5375 863e 98a2 0e3d a4f7 d73d
00000270: f8ac bdbc 3dd4 513c 5a19 603c b734 cf3a
00000280: 8d8b bf3c 5ab1 49bc 5123 60bd dbe7 7d3c
00000290: 6b3d 473d a3da 7abb c40b c3bc ba5e c13c
000002a0: 1c38 b2bd 08ca 77bd f989 67bd bb9c 4ebd
000002b0: 164f 99bc ce64 b0bd 254f ffbd 7b45 a5bd
000002c0: 14e1 96bd 07ad 8cbe 53bb 24bf c528 26be
000002d0: 7690 213f c103 78bd 713d 00be 24c8 133e
000002e0: f4d2 26be 9498 84be 2581 b7bd 7674 89be
000002f0: 0853 57be 3280 cc3e 5d52 f8be d47d 38be
00000300: ebb7 203c 7aa6 99bc b3f2 403d d5fb b0bd
00000310: 4381 c0be 82c6 04bd 4ae3 643a 570c 863c
00000320: f51e 0d3d fb5a 193d a48e cb3c 52d1 1d3c
00000330: f5ac c5ba d713 2d3d c162 26bc 6494 d4bc
00000340: fbb3 223c a6ae 023c 3416 c4bc 8dca dfbb
00000350: 9824 363e 5155 9b3d a525 6ebb 2950 f6bc
00000360: a118 0f3e 16a6 9b3e 554d 363d cb2e ebbe
00000370: 1919 96be 5e01 6dbc 008a df3e 8b7e 90be
00000380: c593 923e 21dc e13c 21bb b3bd e4fc c83e
00000390: bd1c 78be e682 363e c035 473e 4203 60bc
000003a0: 7526 acbc 654e d23c e1ec d23d 31f3 15be
000003b0: dc4c 9cbd 2faa 843d 0a6c f43c 364d 923d
000003c0: df05 8dbc 6e3e 35bc 1302 8eb9 6ed9 8abb
000003d0: cb66 883d 1301 c3bd 7978 433d 8bdc 6c3d
000003e0: a179 b0bd 50bc 5b3c 68cc a0bc 88bf 37bc
000003f0: ad4b 123e 8c03 233d 99d7 803d dcde ff3c
-0.005322907 0.061028827 0.049003482 0.03574236 -0.16227928 -0.05134499 -0.56086546 -0.10765351
0.25278535 0.1646965 0.022828992 0.26752275 0.17654333 -0.0015683437 -0.06091545 -0.16929817
-0.40869266 -0.2895199 -0.7521342 -0.45780167 0.7973718 -0.04533917 0.09077832 0.24309897
0.2612911 -0.19822365 -0.16774105 0.38887918 -0.43424892 0.2862787 -0.010604779 -0.07996675
0.05562458 0.03697804 -0.03673622 -0.013103585 0.009893894 0.022487272 -0.00087349804 0.033376284
0.023674421 0.03448513 -0.15563236 -0.08537982 -0.04246771 -0.0055913436 -0.12137473 -0.057485573
0.03391118 -0.21712326 0.19334073 -0.22171296 0.6633685 -0.31321844 0.1752518 0.6352796
0.073999465 0.3249058 -0.77954376 -0.20108488 0.058445364 -0.096207656 -0.035183985 -0.23787683
-0.17687927 0.24880591 -0.36519077 -0.002055173 -0.024489943 0.36329865 0.0693671 -0.36188582
0.011661124 0.07230017 -0.06100119 -0.029611792 -0.04492181 0.0218558 -0.018668866 0.017637191
0.020068271 -0.05363453 -0.005512024 0.00933715 0.021432754 -0.11671374 0.11511105 -0.08655776
0.22513175 -0.09375862 0.04334534 -0.32927856 0.009925518 0.010713542 -0.021314427 -0.31748796
0.14806019 0.27385724 -0.45135027 0.20730746 -0.33003587 -0.08407234 -0.171906 -0.14793631
-0.05986717 -0.13189745 0.26013133 -0.75813085 0.27908173 0.17628819 0.06874358 0.27262148
0.061548945 -0.13822986 0.0248314 -0.038585186 0.019534152 -0.00688714 0.02921575 0.050390624
0.008111697 -0.004883231 0.02563219 -0.008398151 -0.036125783 0.022823406 -0.028047318 0.17347743
-0.1017135 0.033082657 -0.04920165 -0.2028063 -0.39389616 -0.22438514 0.16481985 0.20896468
0.044499103 0.43485513 0.2970562 -0.24759318 -0.15318315 -0.20028825 -0.26817703 -0.15828326
-0.4103586 -0.08128449 0.018573293 0.31973067 -0.36455142 -0.08713681 0.13663438 -0.040348466
-0.017615302 0.26261386 0.03482303 0.105452806 -0.023153767 0.012806949 0.013677919 0.0015808557
0.023381973 -0.01231035 -0.05472118 0.015497173 0.048642557 -0.003827729 -0.023809321 0.02360474
-0.08702108 -0.060495406 -0.056528065 -0.05044244 -0.018714469 -0.08612977 -0.124662675 -0.08069893
-0.07367149 -0.2747576 -0.64348334 -0.1622649 0.63111055 -0.060550455 -0.12523438 0.14431816
-0.1629141 -0.25897658 -0.08960179 -0.26846665 -0.21027768 0.39941555 -0.48500338 -0.1801675
0.009809474 -0.01875614 0.047106456 -0.08641783 -0.3759862 -0.032415874 0.00087313785 0.016363306
0.03445335 0.03744028 0.02484829 0.009632425 -0.0015081452 0.04225525 -0.010155381 -0.025949664
0.009930606 0.00797621 -0.023936369 -0.006829566 0.17787397 0.07584632 -0.0036338356 -0.03006752
0.13974239 0.3040015 0.044507343 -0.45934138 -0.29316023 -0.014465658 0.43659973 -0.28221545
0.28628364 0.027570786 -0.087759264 0.3925544 -0.24229713 0.17823371 0.19454098 -0.013672652
-0.021014431 0.025672147 0.10299087 -0.14643551 -0.07631847 0.064777724 0.029836673 0.07143633
-0.017214714 -0.011062248 -0.00027085896 -0.0042373454 0.06660231 -0.09521689 0.047722314 0.057827514
-0.08616949 0.013411596 -0.019628718 -0.011215098 0.1428668 0.039798304 0.06291122 0.031234197

bias f4 [512]
00000000: dd5b ec3d cdaa 5bbe 272d aebd fd05 dd3c
00000010: e87d 2cbe bf63 9a3d 419d 02be b0d8 b33d
00000020: 605c 133e f8c1 8a3c 3bbf 5dbd 90e4 c53d
00000030: 3046 18bd ec28 a03d 05c0 ec3d 2b74 03be
00000040: 0e4c ccbc fe8c 9d3d 5962 b1bc d309 333c
00000050: 45ee 8abc 2598 813d 1841 88bd 6876 5fbd
00000060: 16f3 4f3e e820 043e b498 4bbe 968d 8a3d
00000070: e0d1 d23b f8b7 47bd 730f 8cbc d102 073e
00000080: 46af 16be ba76 573d 8c74 ac3d af78 efbd
00000090: d200 c8bd 9864 06ba d6cd 2abd 4492 4f3e
000000a0: a3a7 7abd 355a 15bc d96e 393e 3509 e23d
000000b0: c009 e93c d00f 843d 67a9 bebc 02d9 973d
000000c0: 1ae9 443d 947f cbbd d87a 73bd 7ab1 73bd
000000d0: 9c69 b4bd 413e 0b3d 90f6 0a3c ac8b d0bd
000000e0: 5342 a33c ff8d 623d f830 253e d546 0a3e
000000f0: 27e7 953d 98f3 e13d 996a 69bd 3c70 02be
00000100: 9374 18be a6bb 19be 06d0 4a3d fae7 bfbb
00000110: 85ce 033e 992f 1d3d 068c 63bd 9f55 2e3e
00000120: 3e10 0d3e a02b 38be 969f a93c 7e50 32be
00000130: 8888 c73d 5f91 4d3d 8cb8 d93d 4199 1bbd
00000140: ad53 d7bd ca4f 113e ff7c 303d 57a9 50bb
00000150: fe4f 773d f036 a1bd 61c0 64bd 6695 89bd
00000160: 126d 1bbd 686c b6bd 8d81 63bd ab82 1ebc
00000170: 9fe6 87bd f428 a53c 67cb f0bd edb3 25be
00000180: c78e fbbd 0151 223d dcb2 873d 4386 0d3e
00000190: decd aebd d8eb 24be e4ec 2b3d ee45 49be
000001a0: 13d0 423d 5825 f13d 2424 64bd 09e4 8abd
000001b0: 287e c4bd e1c0 f7bd 54fa 9f3d 4225 cdbd
000001c0: f26d a63d 35b4 3c3e 75f1 3f3d 5db1 063d
000001d0: 9503 49be fee2 873c 94d0 bd3d 8891 cdbc
000001e0: bdf2 c43d f4ff 493c 41d6 723e 844e 94bb
000001f0: 1baf df3d 5d4d c6bc 1deb c8bc 49ae a5bd
00000200: ddd2 083e 8b14 d6bd 8e39 853d cb4b b3bd
00000210: 29de f33c 8f38 15be d0e6 f9bd c1f7 023c
00000220: 6ada cb3d c9f9 233b 6514 20be 68fd 34bd
00000230: b99a e5bd 32d6 87bd 7a14 e63d 9915 26be
00000240: cd9d 69bd 6bee 2bbe 4b5d 89bd 287e b23d
00000250: f5bd 1cbe f943 99be feba 9cbd b15a ffbd
00000260: 5878 6e3e d014 9dbd 6752 a83d eabc c5bb
00000270: 95e4 8a3d 96a1 ae3d 7dfc 93bd fb1e b3bd
00000280: 65d0 223d c82d 0abe d1da a6bc c73d debd
00000290: e8a4 b23d ea8b d6bd 272f cfbd f477 e83d
000002a0: e6e4 2a3d fdcb 2ebe 593c babc 0467 24bd
000002b0: 3238 5cbe dc37 f93c e525 a83d 6376 133d
000002c0: 9ae4 96bd bdc6 ba3c 4fd0 16bc e00f 0d3e
000002d0: 1661 debb 1106 0e3c 021c c2bc a153 073e
000002e0: 4f25 ea3d 7070 9d3d 6092 003e a3bf 29be
000002f0: 6407 10be 0aab c3bd 8812 d5bd eafa c53d
00000300: 20df 473d f0df a1bd 0ee0 d03d 1178 053e
00000310: 9a90 1f3c c3d9 203e 08cd 213d ac87 3d3e
00000320: 9a32 c73d 0934 893d b6c9 053e ccc7 9dbb
00000330: 0e66 39be d00d 093e b257 cb3d ef4f 123e
00000340: 47be 183e 0ada 733d e331 1cbe ed85 7a3d
00000350: ec16 4abe c975 413e 2795 0e3e 16b7 413d
00000360: 3aac 99bd 95f4 313e 9ae8 493c f6f8 ac3c
00000370: 665f f33d 2606 1d3e 8656 8d3c 581e 50bc
00000380: 3eb3 1dbe a7cd 413d ac3a ad3b 496e 46bd
00000390: 0c64 213e 19e1 383e d8df 3e3d f093 42bd
000003a0: 76db cebd cee8 77bd 634a bcbc 31f7 cd3d
000003b0: d0a7 2bbd f23d abbc 40d2 093d 07fb 29bd
000003c0: 22d3 ac3d 1562 9d3d 2ba3 e03d cf4b 313d
000003d0: f256 eebc d1c1 d23d bcfe d83c 0148 f93d
000003e0: ec57 36be f17c 48bc 8223 3cbe d4dd 4bbd
000003f0: b50a a83c 8aa8 3cbe 21b2 6bbd 0f61 97bd
0.11540959 -0.21451874 -0.08504706 0.026980394 -0.16844904 0.07538556 -0.127553 0.08781564
0.14390707 0.016938195 -0.05413745 0.096627355 -0.03717631 0.07820305 0.11560062 -0.12837283
-0.02493861 0.07692908 -0.021653341 0.010927635 -0.016959319 0.063278474 -0.06653041 -0.05455628
0.20307574 0.12903178 -0.1988247 0.067652866 0.0064337105 -0.04875943 -0.01709721 0.13184668
-0.14715299 0.05260346 0.08420667 -0.116929404 -0.097657815 -0.0005126684 -0.041700207 0.2027064
-0.061195027 -0.009115745 0.18108691 0.11036912 0.028447032 0.064483285 -0.023274137 0.07414438
0.048073865 -0.09936443 -0.059443325 -0.059495427 -0.08809206 0.033994917 0.008481637 -0.1018289
0.019929087 0.0553112 0.16131961 0.13503583 0.073194794 0.1103279 -0.056986425 -0.12738127
-0.1488822 -0.15012988 0.049514793 -0.005856511 0.1287175 0.03837547 -0.05555346 0.1702485
0.13775727 -0.17985392 0.02070598 -0.17413518 0.09742838 0.050187465 0.10630903 -0.03798795
-0.10514007 0.14190593 0.043087956 -0.0031839216 0.06037902 -0.078718066 -0.05584753 -0.067179486
-0.037945814 -0.089073956 -0.05554347 -0.009674708 -0.06635784 0.02016113 -0.11757546 -0.16181917
-0.12283092 0.039628033 0.066259116 0.13820748 -0.0853536 -0.16105592 0.041973963 -0.19655582
0.047561716 0.11774701 -0.05569853 -0.067817755 -0.09594375 -0.120973356 0.07811418 -0.10016872
0.08126439 0.18428119 0.04686113 0.03288399 -0.19630273 0.01658773 0.09268299 -0.025093809
0.09616611 0.01232909 0.23714544 -0.0045259614 0.109220706 -0.024206812 -0.024526173 -0.08089883
0.13361688 -0.10453137 0.06505118 -0.08754691 0.02976902 -0.14572357 -0.12202227 0.007993639
0.099537686 0.002502071 -0.1563278 -0.04418698 -0.11211152 -0.066326514 0.11234374 -0.16219176
-0.057035256 -0.16790168 -0.06707247 0.08715469 -0.15306838 -0.29934672 -0.076528534 -0.1246847
0.23288095 -0.07669985 0.08218842 -0.006034483 0.0678188 0.08526914 -0.07225893 -0.087461434
0.03974952 -0.13494027 -0.020368012 -0.10851627 0.087228596 -0.10475905 -0.101164155 0.11351004
0.0417222 -0.17070003 -0.022733854 -0.040137306 -0.21505812 0.030422144 0.08210353 0.036001574
-0.07367821 0.022799844 -0.009204938 0.13775587 -0.006786476 0.0086684385 -0.023694996 0.13215496
0.11432897 0.076874614 0.12555838 -0.1657701 -0.1406532 -0.095541075 -0.10403925 0.09666999
0.048796773 -0.07904041 0.10198985 0.13034083 0.009739066 0.1570807 0.039502174 0.18508786
0.09726448 0.06699378 0.13065228 -0.0048150774 -0.18105337 0.13384175 0.09928836 0.14288305
0.14916335 0.05953411 -0.15253405 0.061162878 -0.19735307 0.18892588 0.13924085 0.047293745
-0.07503553 0.17378457 0.012323523 0.021114808 0.1188343 0.15334377 0.017253172 -0.012702547
-0.15400407 0.047315266 0.0052865352 -0.04844502 0.15760821 0.18054618 0.046600193 -0.047504365
-0.101004526 -0.060524754 -0.02298469 0.10056914 -0.041908085 -0.020903561 0.033647776 -0.041499164
0.08438708 0.07684723 0.10968622 0.043285187 -0.029094193 0.10290874 0.026488654 0.12171937
-0.17806977 -0.01223682 -0.1837292 -0.0497721 0.020512918 -0.18423668 -0.057542924 -0.07391559

weight f4 [256, 512]
00000000: 0628 5dbd a83b 3b3c a796 6ebd 3b1c 86bd
00000010: d3f2 8c3c a2d0 cd3c 1fa9 093c c1af a6bd
00000020: 6b28 18bd 144d 833d 1f08 013b a4d2 41bd
00000030: f2ad 1abd 682d 2f3d 4b78 63bd 98c7 a03c
00000040: 154f 5dbc 9e08 c6bc 3f2c 25bd b45f 7bbc
00000050: c79c 84bc 9f90 89ba c7ab 2cbb 8b5a 713c
00000060: a413 8b3d 1fd5 8d3d 2496 a13c cfb2 89bd
00000070: 7d16 27bc ef4e 213d 6085 d03c fc58 503d
00000080: 4303 783d da4a 913c 5f66 34bc c65a c1bd
00000090: 6c23 74bd dc0d 93bb 5b98 81bd ba3a 3bbd
000000a0: 9b80 553c 50cb 0b3c 05ae 05b8 d287 21bd
000000b0: 1494 8fbc fac9 70bc ca6d 9ebd 6552 78bd
000000c0: cd9b 85bd 9459 343d ac9f d23b 31f1 493d
000000d0: 250e 3a3c f2cd c13d d321 abbd b9e0 e33b
000000e0: 57a7 d3bc 205a 553d 6969 823d a20a 933d
000000f0: 8bc0 433c 8a09 9c3b 9305 4ebd 6eb0 933d
00000100: 0753 ed3d e324 eabb c9ab 85bd 5582 04bb
00000110: 5e45 e73c d885 0cbc 39f4 7ebd dfed 733c
00000120: 9e1e 583c f5ba cdbb 8a7a 4cbb 8df2 f3bc
00000130: 1282 f83c 513a 0ebd d30e c4bc 7504 18bd
00000140: 3464 3abd 3f88 1dbd 5613 02bd 84df 01bd
00000150: e6ff 873c 524d 13bd f543 c8bc de1f d33c
00000160: 5b28 893c b9f3 4a3b ae27 3fbc fdb3 9fbc
00000170: b099 1bbd 3f41 a33b 6591 d1bc cf66 e43b
00000180: e144 03bd e4b4 44bc 0629 4ebd 53cf 3d3c
00000190: ba92 963b 7d3e cabc 2274 d3bc 39e1 473d
000001a0: 1d8a c93c 88b4 bb3d 887b 40bd d642 13bd
000001b0: d4f3 a13c 9d2a 843c 28c2 003c 86da ffbc
000001c0: 7b34 c63c 2745 2ebb 1ae3 82b9 05d3 4bbc
000001d0: 6f4b 983b 9700 ab3d 67ac fabc 539b 33bc
000001e0: 1923 10be 370b af3d 96ad f5bc 4114 9b3b
000001f0: 4747 cc3b ed34 d7bb e5b1 69bd 64b6 203c
00000200: 599d c53c 2595 14bd 0255 973b edc7 483b
00000210: d9af 1d3d 13b2 c73c 241f dcbc e9b0 623c
00000220: 9805 fc3d 3fe5 ffbc 485b 0bbd 8c59 3fbd
00000230: 3d64 29bc 2db1 173d 482d 0f3d bd13 003c
00000240: 5d11 0e3d 133a 8dbd 89d6 97bc baea e83c
00000250: 56d1 92bd 6250 4dbd a5c7 923b 8da6 9a3b
00000260: 73c7 3cbd 9304 0abd 9fe4 ebbc 7e0a 203d
00000270: cc8d a9bd bfd3 c7bd 1507 8d3b d20b 4239
00000280: 3e98 ca3b 976a 72bd 0499 f6bc ec8c ad3d
00000290: 4812 133c cfb2 1fbd 94c6 edbd 268a 5d3c
000002a0: d1cb 6a3d 3ce2 b2bd ff67 0e3d 377b 9dbb
000002b0: 18c1 383c 0d63 a6bd c027 c43d a665 18bd
000002c0: f064 a33b 69e4 c63a 68f2 32bb c7be 273b
000002d0: c072 6abc e6e6 e5bc 5166 c1bc 1a72 08bd
000002e0: 53cb 8abd 4516 dabc d962 b93c ce73 75bc
000002f0: 7423 773c 2503 283d 5ae7 a5bd c2e8 28bc
00000300: cf6e a5bc af75 bd3d 10d3 223c 7b21 bcbb
00000310: 20f9 b2bc 5656 ad3c fbea 403d 852a 733d
00000320: 52b8 1c3d 35ed 8e3d 27da 3dbc 7a84 a23c
00000330: 4c25 6e3a 163e 8fbd a25d 0dbd d0d4 293d
00000340: c12d b13c af44 403d 45be 39bc 794d 6d3c
00000350: 4d6c 9f3b 72d8 6f3d a711 10bd a376 553b
00000360: 2424 6d3d e775 59bd eb24 1dbd 7f36 573d
00000370: 160d 0cbc a08c 93bd 70aa c9bd 624e fabc
00000380: 6047 b6bc 0f0e 07bd 1c8f 9d3c cceb 693c
00000390: e291 69bc 4e4b f63b 3c7b ceba de2b 063d
000003a0: 6092 103d 61be 48bd 5647 8dba 4a05 c8bc
000003b0: ccd1 193d 3e73 0d3c 8989 423d 3f2d 933c
000003c0: efd0 143d ed47 86bb 2137 8c3d 601c 323c
000003d0: 77cb 0cbd f4bd f03c 95b1 7f3d 0581 083d
000003e0: c299 4dbc 181e cb3d a21e e4bc 9535 b7bc
000003f0: 9600 5abd 899d 0cbd 9425 3cbd 2291 11bd
-0.053993247 0.011427797 -0.058249142 -0.06548353 0.017205631 0.025123898 0.008402138 -0.08138991
-0.03714792 0.06411186 0.0019688678 -0.047320023 -0.037763543 0.042767912 -0.055534642 0.019626424
-0.013507624 -0.02417403 -0.0403254 -0.015342642 -0.016188039 -0.0010495371 -0.0026347504 0.01473106
0.067908555 0.06925415 0.019724913 -0.06723558 -0.010198233 0.039381918 0.025454223 0.050866112
0.060549986 0.017735887 -0.011010735 -0.09441142 -0.059604093 -0.004487736 -0.063278876 -0.045710303
0.01303115 0.00853236 -3.187174e-05 -0.03943617 -0.017526664 -0.014696592 -0.07735784 -0.060625453
-0.06523857 0.04403074 0.006427726 0.049302284 0.011355911 0.09463109 -0.08356061 0.0069542793
-0.02583663 0.052087903 0.06367762 0.071797624 0.011947761 0.0047618793 -0.050298285 0.07211386
0.11588102 -0.0071455105 -0.06526906 -0.0020219286 0.028231319 -0.008576833 -0.062244628 0.014888256
0.013190893 -0.0062783905 -0.0031200969 -0.029778743 0.03033546 -0.034723584 -0.02393285 -0.037113626
-0.045505717 -0.038460013 -0.03175672 -0.0317073 0.016601514 -0.03596241 -0.024446467 0.025772031
0.016742876 0.0030968024 -0.011667175 -0.019495005 -0.037988365 0.004982143 -0.025582025 0.0069702636
-0.03204811 -0.012006018 -0.05033209 0.0115850745 0.004595128 -0.024688 -0.025812212 0.048798773
0.02460199 0.09165293 -0.04699281 -0.03595241 0.019769587 0.0161336 0.00785879 -0.03123213
0.024194947 -0.002659151 -0.00024964736 -0.012440448 0.0046476643 0.08349722 -0.030599786 -0.010962325
-0.14075889 0.08547061 -0.029989999 0.004732639 0.006234083 -0.0065675885 -0.05705442 0.00980911
0.02412288 -0.036275048 0.004618288 0.0030636743 0.03849778 0.024376905 -0.026870318 0.013836124
0.123057544 -0.031237243 -0.0340226 -0.046716258 -0.01033884 0.037034202 0.034955293 0.007817206
0.034684528 -0.068958424 -0.018534916 0.028432239 -0.07168834 -0.050125487 0.004479366 0.0047195614
-0.046088647 -0.03369577 -0.028795538 0.039072506 -0.08278999 -0.09757184 0.0043038228 0.00018505685
0.0061826995 -0.059183683 -0.03010226 0.08474144 0.008976527 -0.038988885 -0.116101414 0.013521707
0.05732328 -0.08734557 0.034767147 -0.004805948 0.011276506 -0.08124361 0.09577894 -0.037206315
0.004986398 0.0015174273 -0.002730513 0.002559589 -0.014309585 -0.028064203 -0.023608359 -0.03331194
-0.06777062 -0.026621947 0.022630142 -0.014981223 0.015084136 0.041018624 -0.081007674 -0.0103094
-0.02019444 0.09250962 0.0099380165 -0.005741296 -0.021847308 0.021159332 0.047099095 0.05936672
0.03826172 0.069788374 -0.011587656 0.01983856 0.0009084537 -0.06994264 -0.034513123 0.04146272
0.021628262 0.0469405 -0.011336868 0.014483803 0.0048652054 0.058556028 -0.035173085 0.0032571934
0.057895795 -0.053090956 -0.038365286 0.052542206 -0.008548042 -0.072045565 -0.098469615 -0.030554954
-0.022250831 -0.03297239 0.019233279 0.01427741 -0.014255973 0.0075163012 -0.001575328 0.03275668
0.035295844 -0.049009684 -0.0010778706 -0.024416585 0.037553594 0.008633433 0.047494445 0.017965911
0.036332067 -0.0040979297 0.068464525 0.010871023 -0.034373727 0.029387452 0.062425215 0.033326168
-0.012548866 0.09917849 -0.027846638 -0.022364417 -0.053223215 -0.034329925 -0.045934275 -0.0355388

bias f4 [256]
00000000: 12ea a3bc 392e 8bbc d2c2 983b 476c 19be
00000010: 9a0a acbc 402d 0bbe e310 a83c c7e2 febc
00000020: 21b3 cfbd 009f 00be 24b2 6abd 1e1f 8cbc
00000030: 46ce 5dbe 5d17 8dbd 76ce 133d 951e 663d
00000040: 6043 85bd 7812 cd3c 4f3b 24bd 133b 17be
00000050: 50ef fcbc 59e5 58bd d38d 833b fc98 16bc
00000060: f23c 80bd 0d28 abbd 0d3e 99bd d054 20bd
00000070: 66ca 3ebb 8ea0 c8bd ce57 c7bd eee6 21bd
00000080: f31a 05be c42f 2bbd 0976 45bd f26d c7bd
00000090: b024 d53c 48fa abbc 73da 5cbd dd13 68bd
000000a0: 8532 84bb 1858 29ba 08e6 e9bc 24a1 1dbd
000000b0: 80fb a5bd 163e 8fbd fc22 9ebd 6a5b 49be
000000c0: 7ec6 73be 468b 23be f6e7 e2bc c522 51bd
000000d0: c7b9 54be 7521 11bd 53f2 54bd 7e39 17bd
000000e0: ef28 09be c0f1 4bbd 64c3 cbbc eab1 ff3c
000000f0: 86a7 acbc a2d3 14bd b95c c13b f7a2 83bd
00000100: 3e23 14be e0ef edbd 3158 43bc d600 eabc
00000110: f66a 8dbd 8d7c 0ebe 517f 86bd c2c8 bfbd
00000120: 205d afbd bf83 de3c c3c7 76bd 032d 34be
00000130: 6d65 f9bd 0c25 403b 4af5 03bb 356f b03c
00000140: cc15 37bd c65d dabd 8c7b 32bd cf9d e63c
00000150: 8df1 f3bd 40a2 00be a228 efbd ec17 7dbd
00000160: 73ad 82bd 6b64 96be 2382 e13b 8f2f d5bc
00000170: 55ce 123d d1ca d7bc 0b80 8bbd 302d 6bbd
00000180: 95e0 77bd eb10 b5bb 110b 05be 25e3 25bb
00000190: 9cbc 05be 1c52 61bd 8543 b1bb 0164 11be
000001a0: f44e b0bd 680a 89bc cf8e 423c 6439 35be
000001b0: ce12 cabd f13b 1abe 8ac0 c1bd b08e 42bd
000001c0: 91af e4bd 915e b1bd f76a a03b c829 bebc
000001d0: 7060 54bd ed9b 64bd fa40 52bd c5a8 23bc
000001e0: 1057 50bd c95f 0bbd f0b0 73bd e378 0cbd
000001f0: 781b f2bc 09f4 79bd bc32 58bd 43df 8dbc
00000200: 6513 41bd 86a4 cabc 57a9 94bd 4ead c8bd
00000210: 415f 9abd c126 60bd 3b6f 84bd 1354 c0ba
00000220: 297d 31bd 8cce 9abc 6410 4abc 2c7e 73bd
00000230: 19f8 22bd 334f 87bd 1678 ddbd 94a4 af3c
00000240: ea11 6cbb 4e48 57be bf20 0abe 2468 44bd
00000250: 7e7a 55bd 674a 83bd 3a95 eb3c 17bb 28bd
00000260: 9086 d8bd db03 9a39 7b54 b7bc 4630 e5bc
00000270: e6df a3bd e8b3 34bd 64bc 93bd d035 33bd
00000280: 5dbe 64bd 9706 1abd c609 f3bc 7f51 b9bd
00000290: 4258 48be 8ffb 09bc 4527 a7bb 04a2 cabc
000002a0: dd0c e9bc abe9 b7bc e7d9 89bd efe1 0bbe
000002b0: 0836 d1bd 9aac c3bd d2c8 e0bd 9e5d 14be
000002c0: 0536 d4bd 5d55 2c3c d11c b5bd 188b ca3c
000002d0: a7d5 babb e53e d9bd 2ae6 5b3c 0d98 b4bd
000002e0: 9ce3 a7bc 1aca 42bd 6b6c 85bd 1172 10bd
000002f0: 9d67 9ebd d88a 92bd 3dd3 27bd 0a1e bebd
00000300: e5d0 9ebc 7145 05be ba77 09bd f1b8 a73c
00000310: 1291 9bbd fe06 98bd c40e 20bd 6f76 cf3b
00000320: 90dc e5bd 50e4 17bd aac2 acbc 2db8 83bd
00000330: f515 eabd 37d9 d5bd ae54 d9bc 3cf6 35bd
00000340: 2ac2 b2bd fb3b 68bd eb3e a0bb b756 99bd
00000350: 97a6 b5bd 2b7b 8abd 7ce3 b5bd 3439 80bd
00000360: 4d4d c6bc fdb9 f3bd cd98 0bbe 337b 42bd
00000370: 4874 20bd 50da 51bd 3d31 9bbd 4130 f6bd
00000380: b56e 2bb9 641c 293d d54c f3bd 1edc 03be
00000390: 393a 043d 2d74 c5bd 4a28 c23b ad23 f3bd
000003a0: 8b52 3dbd f0e0 48bd a55b 89bd 9074 13be
000003b0: 4c87 e8bd f34d dd3b 6e7a 00be 70eb 8bbc
000003c0: 78b7 f2bc f39b 60bd d59e 63bd 5fc2 8dbd
000003d0: 2c43 f8bd 6781 94bc 272b 35bd 5482 78bd
000003e0: 7614 e73c efa8 81bd 311e c5bc 5ff2 8ebd
000003f0: 1f35 a5bd 81b9 72bd d264 223d 863f 81bd
-0.020009074 -0.016989814 0.0046618963 -0.14982711 -0.021001149 -0.1359148 0.020515865 -0.031113995
-0.10141588 -0.12560654 -0.057298794 -0.017104682 -0.21660718 -0.06889222 0.03608557 0.05618151
-0.065069914 0.02503322 -0.040095624 -0.14768629 -0.030875832 -0.052953098 0.0040147095 -0.009191748
-0.062616244 -0.083572485 -0.07482538 -0.039143384 -0.0029112338 -0.097962484 -0.09733544 -0.039526872
-0.12998562 -0.0417936 -0.04820827 -0.09737767 0.02601847 -0.020993367 -0.053919267 -0.056659568
-0.0040343427 -0.00064599654 -0.02855207 -0.038483754 -0.081046104 -0.06994264 -0.077215165 -0.19663778
-0.23806188 -0.15971097 -0.027698498 -0.05105855 -0.20773993 -0.035432298 -0.05198891 -0.036920063
-0.13394521 -0.049791098 -0.024873443 0.031212766 -0.021075975 -0.03633464 0.005900946 -0.064275675
-0.14466569 -0.11618018 -0.011922882 -0.028564852 -0.06905167 -0.139147 -0.065672524 -0.093644634
-0.08562684 0.02716243 -0.0602491 -0.17595296 -0.121775486 0.0029318957 -0.0020135217 0.021537403
-0.04469852 -0.10662417 -0.043574855 0.02815142 -0.119113065 -0.12561893 -0.11677672 -0.06179039
-0.06380739 -0.29373488 0.0068819686 -0.026023654 0.035841305 -0.026341828 -0.06811532 -0.05741614
-0.060516912 -0.0055256984 -0.12992503 -0.002531239 -0.1306023 -0.055009946 -0.0054096603 -0.14198305
-0.08608809 -0.016728595 0.011874869 -0.17697674 -0.09866868 -0.15061928 -0.09460552 -0.04749936
-0.11166299 -0.08660615 0.0048955637 -0.023213282 -0.051849782 -0.055812765 -0.051331498 -0.009988968
-0.05086428 -0.034026895 -0.059494913 -0.034294974 -0.029554114 -0.061023746 -0.05278276 -0.017318374
-0.047137637 -0.024736654 -0.072588615 -0.0979868 -0.075376995 -0.05472446 -0.06466528 -0.0014673494
-0.043332253 -0.018897317 -0.012333009 -0.0594465 -0.039787386 -0.06606903 -0.1081392 0.021440782
-0.003602142 -0.21023676 -0.13489054 -0.04795088 -0.05211877 -0.064106755 0.02875768 -0.041194048
-0.10572541 0.00029376041 -0.02237915 -0.02797712 -0.080016896 -0.044116884 -0.07213667 -0.04375249
-0.055845607 -0.03760394 -0.029667746 -0.09048747 -0.19564918 -0.008421793 -0.005101117 -0.024735458
-0.028448517 -0.022450289 -0.06731015 -0.13660406 -0.10215384 -0.095544055 -0.109758034 -0.14488837
-0.10361866 0.010518399 -0.08843387 0.024724528 -0.005701739 -0.10607699 0.013421575 -0.08818064
-0.020494275 -0.04755602 -0.0651482 -0.035265032 -0.077346064 -0.071553886 -0.040972937 -0.09283073
-0.019386718 -0.13014771 -0.033561446 0.02047393 -0.07596029 -0.07423209 -0.03907658 0.006331257
-0.112237096 -0.03708297 -0.021088917 -0.06431613 -0.11429969 -0.10441821 -0.026529636 -0.04442428
-0.0872844 -0.056697827 -0.004890313 -0.07487243 -0.08869665 -0.06761774 -0.0888128 -0.06260911
-0.024206782 -0.11900709 -0.13632508 -0.047480773 -0.039173394 -0.05123359 -0.07577751 -0.120209225
-0.00016349072 0.04128684 -0.11879889 -0.12876937 0.032282088 -0.096412994 0.005925213 -0.11872039
-0.046221297 -0.049042642 -0.06706933 -0.14399934 -0.11353931 0.006753677 -0.12546703 -0.017080039
-0.0296285 -0.054836225 -0.055571396 -0.06921839 -0.12122187 -0.01812811 -0.044230606 -0.060671166
0.028207999 -0.0633105 -0.024062248 -0.06979822 -0.08066773 -0.05925894 0.03964693 -0.06310944

weight f4 [128, 256]
00000000: 85c2 fcbc b07e 173d 2d5f c0bd fb07 c4bc
00000010: 4adc dabd 13c8 8a3d 6d27 253d f031 36bc
00000020: cd00 6fbd 10d7 45bd 36b8 a43b e0a5 c3bc
00000030: b3e6 ed3c a26e 2c3d b6ff 1d3d f18c 753d
00000040: 4492 83bc fc9d 62bc aa7a d13c 0579 093e
00000050: cc63 593d 6628 fd3c 57b0 c53d e4b4 71bd
00000060: 5289 f1bc f42d c03d 8051 6ebb 8b21 043c
00000070: 30ae 82bb 2b25 423e d9c4 ebbc 5d71 9abd
00000080: 4971 673c a617 3e3d 8826 5bbc 0352 00be
00000090: 857a 263c 5bd6 b1bd 0237 87bd a540 d9bc
000000a0: 1967 b33d 2bb5 ef3c 30ee 98bc 2b5c a8bb
000000b0: 24fa 553d 23f6 08bb 7ec5 bdbc dd34 ae3c
000000c0: 799a 713d 1d23 303d da24 803d 8c31 4fbc
000000d0: 1a65 2d3d bf64 1e3d 229e 45bc 3811 59bd
000000e0: 0757 db3c fbfe b03d 137e 16bd 225a 04bd
000000f0: 96bf e3bc 7cad 84bd 6646 8cbc 6b29 223d
00000100: 2ffe 8cbc a76e 0fbc 1e35 a03d 89c0 013c
00000110: f9ce 963d ee90 403d 91c5 223d 5895 c53c
00000120: d537 b23d 57c2 133d a94e 83bc 9c6b f53d
00000130: 2bdf cabd 5406 793c 7f7a b73d 9743 983d
00000140: a163 99bd d724 a1ba 00b1 1ebe 2e67 373c
00000150: 35aa a33d 9ebb bdbd c9b8 91bc 5614 843d
00000160: 9169 c73a ee94 86bd 935a 823c 5764 1d3b
00000170: 988f 52bb 1308 903d d7b9 013d f2be f73a
00000180: fba3 8a3b 1045 16bd 98f0 113e 8911 aa3c
00000190: 7f1a a0bd eb55 c2bc 6931 0bbd 658f 9abc
000001a0: d226 a1bd 7ff8 adbb aba0 94bb 9f23 533d
000001b0: ea69 033d b447 ed3d ea15 11bc e9d0 6dba
000001c0: 2617 133d 9ebd f2bb 1e01 253d fe9f 21bb
000001d0: d418 0abe bb64 f6bd 3536 f0bd 0bc7 b6bd
000001e0: 59d1 7cbd 685d 0cbc ab71 ab3d a9b8 333c
000001f0: 41c3 3a3c 80b0 afbd 4d76 02bc 4b6d 46bc
00000200: fa89 9cbc e105 12bd 0cf8 263d 006d 8fbc
00000210: 9ffc ac3b e75c 533c 9197 413c 9a29 53bd
00000220: 4b74 a4bc 68fb a5bc c73f fa3b f941 903d
00000230: 8302 e93c 0fdb 32bd 069c 0cbd ee10 f3b8
00000240: 81b0 19be d633 66bd 9bea af3b b702 093d
00000250: 41d1 94bd a560 b9bd 0fc1 41bd c184 c1bb
00000260: 8e32 4cbd b287 633d 1e1f 9bbc a2c8 c93d
00000270: 059a 39bd e30c 153e d4f6 09bd e161 6a3d
00000280: f69a 763c dc84 94bd 88d3 013b 9881 543d
00000290: f90d fe3d 8c18 1d3d 64ac 613d 8ef1 783b
000002a0: cd0c 02bd 6141 1f3d cf96 12bd baed dd3d
000002b0: d538 bebc fb96 d03c d3cc e03d 20a5 b03c
000002c0: 730e d1bc 4a43 c2bc 7809 a53c c3ef d13d
000002d0: 3416 65bd 27ae 783d 44d0 593d b94c 413d
000002e0: 37a4 08be 6313 8b3d ac4a 9c3d b636 94bc
000002f0: ac75 e1bc 5d50 92bd c1df cfbd 98bf be3c
00000300: 2223 d73d b294 4bbd cf13 a1bc 29ff d63c
00000310: 8ed8 19bd 9750 003c a6f1 043c 9186 08bd
00000320: 400e ed3c e74c 913d e27e 883d 6fbe cb3c
00000330: bbb0 69bd 0d88 fcbc c6b4 76bd 1934 1dbc
00000340: 0678 bb3c 6cc8 e4bc 8611 bfbd 4560 bb3c
00000350: 231f 0c3d fc58 f33b 525a d0bc 6d0b 46bc
00000360: ba05 423c b975 db3c 55a1 4cbd 5008 923d
00000370: 3722 8a3b 6ac8 593d 4db2 48bc f4e2 6cbd
00000380: a54f cc3d 3b31 2cbc a59b f03c 4580 bb3d
00000390: 9ffe 0abb 1fe1 8eba bbe6 99bc 4d95 ef3d
000003a0: 44f1 86bc 892f c13d 5cbb fd3c 979e b73d
000003b0: e412 f53d 08f5 3fbd 5613 febb 51a4 a7bd
000003c0: d158 36bb ca8b bd3c fc2a 03bc d50a 4f3b
000003d0: 92de dcbc c8fd b23d df66 6dbd f247 4ebd
000003e0: 7bc3 db3d b8f6 693c 750e 053e 0f73 a73c
000003f0: 4d99 8d3d be39 353c 0708 813d 623e 183d
-0.030854473 0.036986053 -0.09393153 -0.023929587 -0.10686548 0.067764424 0.040320802 -0.011120304
-0.058350373 -0.048300803 0.0050268425 -0.023882806 0.02904067 0.042097695 0.038573943 0.059948865
-0.016060956 -0.013831612 0.025571186 0.13425072 0.05307369 0.030903053 0.09652775 -0.0590104
-0.029484425 0.09383765 -0.0036364496 0.008064638 -0.00398805 0.18959491 -0.028780388 -0.075411536
0.01412613 0.04640927 -0.013375886 -0.12531285 0.010161047 -0.08683463 -0.06602289 -0.026520083
0.08759899 0.029261192 -0.018668264 -0.0051379404 0.052240506 -0.0020898662 -0.02316546 0.021265442
0.058985207 0.043002237 0.06257029 -0.01264609 0.042332746 0.038670298 -0.012061628 -0.052994937
0.026774896 0.08642384 -0.036741327 -0.03231252 -0.027801316 -0.06478402 -0.017123412 0.03959028
-0.017211048 -0.008754409 0.07822631 0.007919439 0.07363696 0.047013216 0.039739195 0.024119064
0.08702055 0.03607401 -0.016028719 0.119834155 -0.09905847 0.015199263 0.08958911 0.07434767
-0.07489706 -0.0012294304 -0.15497208 0.011194034 0.07991449 -0.09264301 -0.017788308 0.06449191
0.0015213956 -0.06571375 0.01591233 0.0024016106 -0.0032129046 0.0703279 0.03167137 0.0018901511
0.004230974 -0.036686957 0.14251935 0.020760315 -0.07817554 -0.02372261 -0.033982668 -0.018867204
-0.078687325 -0.005309164 -0.0045357547 0.051547643 0.03208343 0.11585942 -0.008855322 -0.00090719626
0.035910748 -0.007407858 0.04028427 -0.0024662013 -0.13486034 -0.120309316 -0.11729089 -0.08924683
-0.061723087 -0.008567192 0.0837129 0.010969319 0.011399091 -0.085785866 -0.007962775 -0.012111018
-0.019108761 -0.035650138 0.0407639 -0.01750803 0.005279138 0.012900568 0.011815921 -0.051553346
-0.020074984 -0.020261481 0.0076369974 0.07043833 0.02844358 -0.04366594 -0.034328483 -0.00011590296
-0.15008737 -0.05620178 0.0053685433 0.033449855 -0.072664745 -0.090516366 -0.047303256 -0.005905718
-0.0498529 0.05554933 -0.018935736 0.09852721 -0.0453129 0.14555697 -0.03368266 0.05722225
0.015051594 -0.072519034 0.001980992 0.051881403 0.12405009 0.038353488 0.055096045 0.0037985775
-0.03175049 0.03888071 -0.035788354 0.10836358 -0.023220459 0.025462618 0.10976567 0.021563113
-0.025519585 -0.023713727 0.020146117 0.10250809 -0.055929378 0.06071296 0.053177133 0.04719231
-0.13343893 0.06790807 0.0763143 -0.018092494 -0.02752193 -0.07144234 -0.101500995 0.023284718
0.10504748 -0.049702354 -0.019662766 0.026244717 -0.03756004 0.007831714 0.008114254 -0.033331458
0.028937459 0.07094746 0.06664826 0.02487108 -0.05705331 -0.030826593 -0.060230993 -0.009594941
0.02288438 -0.0279276 -0.09329514 0.022873053 0.03420938 0.0074263792 -0.025433693 -0.012087685
0.011842186 0.026789533 -0.049958546 0.07130492 0.0042155045 0.053169645 -0.0122495415 -0.057833627
0.099761285 -0.010509784 0.029371092 0.09155325 -0.0021208895 -0.0010900832 -0.018786779 0.11698399
-0.016472466 0.09432895 0.030973129 0.089657955 0.11966494 -0.04686454 -0.00775377 -0.08185638
-0.0027823935 0.023137946 -0.008005854 0.003159215 -0.026961599 0.08739811 -0.057959434 -0.05036158
0.10730644 0.014280014 0.12993796 0.020440606 0.069140054 0.01106113 0.06300359 0.037168868

bias f4 [128]
00000000: e503 a3ba 7652 61bd 4d0c 7fbd c54f 83bb
00000010: c7c0 a3bd 0e99 9fbc 1551 4dbd 5935 79bc
00000020: 42b7 903c 05c9 dd3c 56c5 cebd 4355 063c
00000030: 4f5e f3bd 6403 32bc 0c9c ba3c 7fca 173e
00000040: 8ddc e8bd 0caf 083d 5095 0abe 288a 53be
00000050: 70e9 70bd e1ad 82bc 793a bdbd a49a 04be
00000060: aa09 ee3c 90df 21bd d77a 943c 6f68 273d
00000070: 6c85 fc39 1dcb 71bd 0a4c 19be 41b4 9bbd
00000080: a145 edbd 4147 86bd 7332 14bc f9a1 03bd
00000090: e8be a53c bfdd bbbe d315 973c c834 79bd
000000a0: 1981 113c e400 afbd d487 c9bb 466b 14bd
000000b0: edda 31bd 69b9 7d3d 8e2a c23d 1e24 063c
000000c0: 8643 763d be96 f73c 6a2e d2bc e96e 243c
000000d0: 20d4 7abd 38cb 843b 318c 2cbe 7573 febc
000000e0: 3bf3 48bd e3c5 323c ed1d 8ebc 09f1 57bc
000000f0: 6487 eebc 23f7 45bd 4037 2abe 0d32 12bc
00000100: 26b7 a5be ab8e 11be 73de 6f3d 4c20 77bc
00000110: d40d 2dbc 2d2e b1bd 98b6 a7bd 55c1 df3b
00000120: 5509 86bd 6a04 57be e498 4c3d ec74 ba3c
00000130: 822d 223b 24cc fdbd 8426 01be ba7d d8bd
00000140: f3dc bb3c 5007 c03b f2ea 32bd c8b5 033c
00000150: f7a7 cfbc 2b99 c3bd 6fe2 e93a 1073 563d
00000160: 30ae 4fbd b38a 51bc c0f3 9cbd ef15 bdbc
00000170: e697 b1bd 312b bcbd 985b c2bd 7b72 71bc
00000180: 7528 32bc 8087 92bd 30c0 6a3e e885 6b3c
00000190: 8200 31bc 08ca 42be f832 d2bc 284e 1bbd
000001a0: 40e1 dfbd 1719 fbbd c45d 3abe 4593 30bd
000001b0: 42ad 1c3d 8c08 5dbc b6b2 23be 5d59 9cbd
000001c0: 352f 09bd e462 233e d262 a9be 4010 33bd
000001d0: 8517 973c 7e60 33bd 9994 293d 0945 643b
000001e0: c3b3 fabd 7845 763c 6b20 8abd 8c36 07bd
000001f0: f1c8 b2bc 8cb3 0d3d 2933 2dbe c62f 6fbd
-0.0012437074 -0.05501028 -0.06226759 -0.004007312 -0.07995754 -0.019482162 -0.050126154 -0.015210473
0.01766551 0.027073393 -0.100962326 0.008199039 -0.11883222 -0.010865066 0.022779487 0.1482334
-0.11370192 0.033370063 -0.1353352 -0.20658171 -0.058816373 -0.015952053 -0.092396684 -0.12949616
0.029057343 -0.039519846 0.01812498 0.04087108 0.00048164593 -0.059031595 -0.14970413 -0.0760274
-0.11585546 -0.06556559 -0.009045231 -0.03213689 0.020232633 -0.36692616 0.018443024 -0.06084135
0.008880877 -0.08545092 -0.006150225 -0.036235116 -0.043421675 0.0619444 0.09480773 0.008187322
0.06012299 0.030223247 -0.025656898 0.010036209 -0.061237454 0.004052546 -0.16850354 -0.031060914
-0.049060088 0.010911438 -0.017348254 -0.013180026 -0.029117294 -0.04833139 -0.16622639 -0.008923066
-0.32366294 -0.1421458 0.058561753 -0.015083384 -0.010562379 -0.086513855 -0.08189124 0.006828467
-0.06544749 -0.20997778 0.049950495 0.02276083 0.0024746363 -0.12392452 -0.12612349 -0.105708554
0.022932505 0.0058602467 -0.043681093 0.0080389455 -0.025348647 -0.09550699 0.0017843972 0.052355826
-0.050703228 -0.012789416 -0.07663679 -0.023081748 -0.086715505 -0.091879256 -0.09490126 -0.014736767
-0.0108739035 -0.07154751 0.22924876 0.014375187 -0.010803344 -0.19022381 -0.02565907 -0.037916332
-0.10931635 -0.12260645 -0.18199831 -0.043109197 0.03825117 -0.013490807 -0.15986142 -0.07634232
-0.033492286 0.15955693 -0.33083206 -0.04371667 0.018443832 -0.043793194 0.04140148 0.0034831187
-0.12241318 0.015031211 -0.067444645 -0.033011004 -0.021824332 0.034595057 -0.16914047 -0.05839517

weight f4 [12, 128]
00000000: 5f2e e6bc ef68 4abd 1fce 99bb 306b 093d
00000010: 82be 13bd bc1e 393d 0241 96b9 7281 ac3c
00000020: 9785 d13b 5ced e7ba 81d7 383d 1b6d 5e3b
00000030: efea 703b 5aab 85bc 57be bb3c 285c a1bd
00000040: 9d40 53bb 9655 bb3d fdab 403c 37be 0fbe
00000050: e2f0 693d 60b8 b8bc d187 833d 9e8e c23c
00000060: f509 bf3c fc3f 7d3c dcf1 103c 225a 9dbb
00000070: ac3a 023b f46c b83b b292 2e3d 01bd 6e3c
00000080: 8cd6 b7ba b50a 9a3c 3433 04bc 1ef1 e63b
00000090: fa05 3b3c 9e7c 093e 3399 4c3c 25a0 2b3c
000000a0: b58a f93a 745d e2bd b499 31bb f5cd cfbb
000000b0: 694f c8bc 3722 4d3b 569b bfbd 8638 f23b
000000c0: a4c8 c03c 7ac6 0bbd 5127 5d3b 36c0 adb8
000000d0: da53 34bb e667 e23b e17e 72bc 4c8f 023c
000000e0: 290f 4a38 2324 debc 80dc f43b 3ac0 223c
000000f0: d712 ca39 6ea6 7ebc ab72 2cbc 4d77 7bbc
00000100: 98c2 3b3d afb7 18bd b0b3 f93b 11c1 663b
00000110: 437f a43b 7b50 2b3c 9075 a4bc a81b f53b
00000120: 06d3 503c 9ce4 6b3c 053e 993d 617f 2a3d
00000130: 7de0 4fbd ed5b 7cba 5666 e13c 9648 803b
00000140: 0315 6cbd 53f9 8abc 934f 0a3d 6291 953c
00000150: 6cbe 0a3a 7394 01bc 6cbb bbbc 0306 543c
00000160: 4240 62bc b8eb b3bc 6def 8c3c 0008 633b
00000170: b61b 25bb 1079 ccbc a80c f9bc 6893 c63c
00000180: 643b dbbb e281 f03b e056 143d 933b f7bb
00000190: 3956 823b b538 26bd 25cb 99bb d614 bfbc
000001a0: da3a 2dbb e768 bf3c 50f9 8c3c b73d 8e3c
000001b0: 10a3 8f3b 2381 183c 53a2 9a3d 1019 15bc
000001c0: fd9c acbb 2de9 c0bd 55ed 053d 1f09 fc3c
000001d0: d1ad ceba 832e c13c 19d8 8ebb 935a be3b
000001e0: c641 d7bb e297 be3c 516e 753c 6bef 553c
000001f0: 6e17 99bb 9bc0 6e3b ba72 d03d 5a2a 253c
00000200: f09e 213d fa35 0239 77a0 4abd 210d 9ebc
00000210: 727b debc 29fa 0b3d c5ba a338 b4a7 313d
00000220: 0ce3 bdbb d3cc 063c c98e 863b e9a2 ea3b
00000230: 2e28 8d3c 6927 bf3c c307 0e3e fc9f 7b3d
00000240: f5b8 8ebb f137 873c 429e 333d 0f26 fabd
00000250: c2f1 b1bc b813 aa3c e39a 023d dc5c 40bc
00000260: dccf f93b 813f fdbc e1d5 aebc e7c7 32bc
00000270: 05ee a5bb d330 24bc a86d e33a 23e4 b5bc
00000280: 057a 5e3d 170e 34bb 758a d63a ae4a 99bc
00000290: 646e c4bc 88bb c1bc 5c11 ae3c ed25 00bc
000002a0: 3b66 183a 7939 13bc e305 4c3b 11f0 81bc
000002b0: fb86 a83c 6af0 82bb 1f99 5c3d 407a bebb
000002c0: 84c0 aabd 365e 85bd 66a5 86ba edfd 87bb
000002d0: 3cf4 7e3b 4ce3 3bbc 73a3 87bd 15b4 b0bb
000002e0: 869a 77bc 0e74 1a3c ea12 a8bd 3c09 90bc
000002f0: 0d0d b2b9 2a4d ab3b f307 e43d 65b5 293d
00000300: 959d 56bd 9419 353c fd5d c7bb e4b5 773b
00000310: b531 9ebb 5afb 4a3d d067 20bd e5d6 dfbb
00000320: 6312 ad3c add1 c1bb 3b40 233d 1b88 a5bd
00000330: 9357 77bd bbe0 e83b ec01 733d 886f 61bb
00000340: d320 3c3d fd41 043a 9e22 fabb 813e d1bb
00000350: a845 94bb 5c82 d23b dc57 593d 3520 9cbc
00000360: 544c c2bd 2aff 8cbb bedc 40bc b2fe b5bc
00000370: 6bbb 90bd 1cd3 48bc 70f4 08be 741e b8ba
00000380: eaaa ed3b 1c56 a3bc d9ff 5d3c 6c20 45bc
00000390: 69db 29bc 2edb d53d 90aa c4bc b5ff 16bd
000003a0: 785b d33b c989 5cbb 3ddc 72bb 01e4 a23c
000003b0: fad0 6bbb 04b7 0fbc dbf3 f1bd a3e2 49bd
000003c0: 6bdb 44bc 31af 0a3d 6033 90bd 51a8 7c3c
000003d0: 80cb 0f3c bbba d4bc 3d24 383d 489c 1c3e
000003e0: 396d a83c 51c3 bc3d 2aa6 c3ba e2f9 59bc
000003f0: 9ed8 55bb 6587 f63b 2176 77bd e429 2bbc
-0.028098283 -0.04941648 -0.004693761 0.033549488 -0.036070354 0.045195326 -0.00028658664 0.021057818
0.006394099 -0.001769464 0.045127396 0.0033939544 0.0036761125 -0.016317058 0.02291791 -0.078789055
-0.0032234557 0.091471836 0.011759755 -0.14037405 0.05711449 -0.022548854 0.06422389 0.023749646
0.023320178 0.01545715 0.008846726 -0.0048020044 0.0019871397 0.0056282226 0.04262037 0.014571429
-0.0014025732 0.018803934 -0.008068848 0.0070477864 0.011414999 0.13426444 0.012487697 0.010475193
0.001903853 -0.11052981 -0.002709967 -0.0063416907 -0.024451928 0.0031300911 -0.093558 0.007391992
0.023533173 -0.03412483 0.0033745358 -8.285085e-05 -0.00275158 0.0069093583 -0.014800758 0.007968735
4.8174672e-05 -0.02711684 0.0074725747 0.009933526 0.0003854248 -0.01554261 -0.010525386 -0.015348268
0.045839876 -0.03728455 0.0076202974 0.0035210291 0.0050200536 0.0104562 -0.02007559 0.0074801035
0.012745624 0.014397766 0.074825324 0.041625384 -0.050751198 -0.0009626735 0.027514618 0.003914903
-0.057637226 -0.01696459 0.033767294 0.0182578 0.00052926573 -0.007908928 -0.022916518 0.012940886
-0.013809266 -0.021962985 0.01720401 0.003464222 -0.002519352 -0.02496007 -0.030401543 0.02424021
-0.0066904295 0.007339702 0.036215663 -0.0075449436 0.0039775637 -0.040581424 -0.004693406 -0.023325365
-0.0026432783 0.023365451 0.017208725 0.017363412 0.0043834522 0.009308132 0.07550492 -0.009100214
-0.005267738 -0.09419475 0.03269704 0.030766068 -0.0015768354 0.023581749 -0.004359257 0.005809137
-0.00656912 0.023265783 0.014979915 0.01305757 -0.0046719825 0.003643072 0.10178132 0.010080898
0.039458215 0.00012417874 -0.049469437 -0.01929337 -0.027158473 0.03417412 7.807234e-05 0.043372825
-0.0057948884 0.008227545 0.004106377 0.0071605337 0.017231073 0.023334222 0.13870148 0.06143187
-0.0043555447 0.016506167 0.0438521 -0.1221429 -0.021721724 0.020761356 0.031885993 -0.011740889
0.0076236557 -0.03091407 -0.02134222 -0.010911918 -0.0050637745 -0.010021406 0.0017351406 -0.02220351
0.054315586 -0.0027474219 0.0016368168 -0.018712368 -0.02397842 -0.023648992 0.021248512 -0.007821542
0.00058135734 -0.0089858705 0.0031131438 -0.015861543 0.020572176 -0.0039959447 0.053856965 -0.005812913
-0.08337501 -0.0651211 -0.0010272681 -0.0041501434 0.00389029 -0.011467766 -0.06622972 -0.005392561
-0.015112525 0.009427084 -0.082067326 -0.017582528 -0.0003396053 0.0052277045 0.11134329 0.041432757
-0.052396376 0.011053462 -0.0060842023 0.0037797624 -0.004827703 0.049556114 -0.039161503 -0.0068310373
0.021126932 -0.005914888 0.039856177 -0.08082601 -0.06038625 0.007106868 0.059328005 -0.0034398753
0.04592974 0.00050452334 -0.007633521 -0.006385625 -0.0045249052 0.0064242315 0.053062305 -0.019058326
-0.09487215 -0.004302879 -0.011771379 -0.022216175 -0.07066997 -0.012257364 -0.13374496 -0.0014047162
0.0072530406 -0.019938521 0.013549768 -0.012031656 -0.010367253 0.10442196 -0.024007112 -0.036864955
0.006450113 -0.0033651462 -0.0037057542 0.019884111 -0.0035982714 -0.008771662 -0.1181409 -0.049288403
-0.012015204 0.03385848 -0.07041049 0.015420989 0.0087765455 -0.025967946 0.044956435 0.15293992
0.020559894 0.09216941 -0.001492684 -0.013304206 -0.0032630335 0.0075234645 -0.06041539 -0.010446999

bias f4 [12]
00000000: ac3c 88be 0dc2 a13e da0f 77be ec71 f43d
00000010: a5fa 463e be1a 6dbe 9e7c 9ebe 7938 073e
00000020: 3ec2 89be 0814 893e 2a2f 153e 9751 cebd
-0.2660879 0.31593361 -0.2412714 0.119357914 0.19431551 -0.23154733 -0.3095445 0.13205136
-0.26906008 0.26773095 0.14568773 -0.10074156
