logs/go1_IROS/exported/policies/pos_obs42_highFS_noRand.pt (torch, 761749 bytes, 8 tensors)

weight f4 [512, 42]
0	0xbde7da1a	-0.113208964
1	0xbd57bab5	-0.052668292
2	0x3d869c7e	0.06572817
3	0xbc16572f	-0.00917606
4	0xbe451fd9	-0.1925043
5	0xbd14d242	-0.03633333
6	0xbbad141e	-0.005281939
7	0xbed6bd96	-0.41941518
8	0x3ea08a18	0.31355357
9	0xbe7a1a43	-0.2442408
10	0x3dd64062	0.10461499
11	0x3e43db49	0.1912662
12	0x3f4f2328	0.8091302
13	0x3d9a7755	0.07542292
14	0xbe458c71	-0.19291855
15	0xbd57c885	-0.052681465
16	0x3d826f3c	0.063688725
17	0xbde5820c	-0.11206445
18	0x3f195d04	0.59907556
19	0x3ea2e134	0.3181244
20	0x3e4ca626	0.19985256
21	0xbefabca1	-0.48972037
22	0x3e5ac719	0.21365012
23	0x3e0eb013	0.13934354
24	0x3e702b4a	0.23454013
25	0x3e0603db	0.13087408
26	0x3db24bab	0.08705839
27	0xbe149131	-0.14508511
28	0xbdfb5997	-0.12272947
29	0x3da4fb93	0.080557965
30	0xbcade174	-0.021225668
31	0x3c414713	0.011796731
32	0xbce36367	-0.02775736
33	0xbb94a314	-0.004536042
34	0xbbaeaa99	-0.0053303954
35	0xbd6760f0	-0.05648893
36	0xbd8bd925	-0.068285264
37	0x3be8d033	0.0071048974
38	0x3c870b53	0.016484892
39	0xbc5b8044	-0.01339728
40	0x3c24a5c5	0.010049288
41	0xbcdd97ec	-0.027049981
42	0x3977d234	0.00023634062
43	0xbde9b694	-0.11411777
44	0xbddc5d1c	-0.10759947
45	0x3d3ebb99	0.046565626
46	0xbce4b133	-0.027916526
47	0xbd9c6d0b	-0.07637986
48	0xbd7f5269	-0.06233445
49	0xbe73fc96	-0.23826823
50	0x3e2b334d	0.16718788
51	0xbe9c839d	-0.30569163
52	0x3eaa0b0f	0.33211562
53	0xbe8e54db	-0.27799115
54	0x3efb0b01	0.49031833
55	0x3e3e3970	0.18576598
56	0x3d6ecd43	0.05830122
57	0x3e92c474	0.28665507
58	0xbe5bf723	-0.21480994
59	0xbe6f2000	-0.23352051
60	0x3eae59c2	0.34052855
61	0xbb2aba88	-0.0026051123
62	0xbdaf7093	-0.08566394
63	0xbeab27c7	-0.33428785
64	0x3e45580a	0.19271865
65	0x3e2731f2	0.16327646
66	0xbe8d7ca2	-0.2763415
67	0x3e7832d7	0.24238144
68	0x3dabe2e6	0.08392887
69	0x3e3bcc45	0.18339641
70	0xbe54a551	-0.20766188
71	0xbc9820cc	-0.018570326
72	0x3b9eb0ce	0.004842854
73	0x3cf93bdb	0.03042405
74	0xbd027cd4	-0.031857327
75	0x3cdf1294	0.027230538
76	0xbbd164c5	-0.0063901865
77	0x3ceba60f	0.028765706
78	0xbbe877de	-0.0070943674
79	0xbd281637	-0.04103681
80	0x3be6770c	0.0070332345
81	0xbcfe0fc5	-0.031013379
82	0x3c80d869	0.015728192
83	0x3bc1ee50	0.0059183016
84	0xbc8dfea5	-0.017333338
85	0x3c928915	0.017887631
86	0x3d9d347b	0.076760255
87	0xbcefa93f	-0.029255508
88	0x3d606766	0.05478611
89	0xbcc4ba78	-0.024014696
90	0x3dcfb031	0.10141028
91	0xbe2be231	-0.16785504
92	0x3d845b3b	0.06462713
93	0xbc9d440f	-0.019197492
94	0xbdd9cc11	-0.10634626
95	0xbe93a2e0	-0.288352
96	0x3ca92126	0.02064569
97	0xbd119691	-0.035543982
98	0xbe9dc437	-0.30813763
99	0x3f2d4a37	0.6769137
100	0xbe88caac	-0.26717126
101	0x3c181349	0.009281942
102	0xbf106ad8	-0.5641303
103	0xbea86b9d	-0.32894602
104	0xbe1180ee	-0.14209339
105	0x3e9e0d16	0.3086936
106	0x3e723093	0.23651342
107	0xbe7aa639	-0.24477471
108	0x3d9c0150	0.07617438
109	0x3e69ed54	0.2284444
110	0x3d889a48	0.06670052
111	0x3e442606	0.1915513
112	0xba994b1c	-0.0011695358
113	0xbe3050dc	-0.17218345
114	0x3ad305b7	0.0016099726
115	0xbc680ef9	-0.014163726
116	0x3c31ee14	0.010859985
117	0x3cf7522d	0.030190552
118	0xbc5df733	-0.013547706
119	0x3d49d28b	0.049273055
120	0xbcc90bdd	-0.02454179
121	0x3bd30b3b	0.0064405478
122	0xbb991732	-0.0046719545
123	0xbd75642a	-0.059909977
124	0xbcbc5209	-0.022988336
125	0x3cd37486	0.025812399
126	0xbad9c28e	-0.0016613768
127	0xbdbf43a1	-0.09339071
128	0xbdab5514	-0.08365837
129	0x3c50b5c4	0.012738649
130	0xbdbe1f15	-0.09283272
131	0xbcc05f64	-0.023482986
132	0xbe5abc86	-0.21360978
133	0xbd234bbf	-0.03986716
134	0x3e1c42b4	0.1525982
135	0x3df4b454	0.11948457
136	0x3e67efe2	0.22650102
137	0x3ef65d3a	0.48118
138	0x3e26856c	0.16261834
139	0xbe7ccdc8	-0.24687874
140	0xbb6c65cc	-0.0036071418
141	0xbc0d4d6d	-0.008624417
142	0x3cede6ad	0.029040659
143	0xbe2a6520	-0.16640139
144	0xbf0be3cf	-0.54644483
145	0xbd8aa24c	-0.06769237
146	0xbe8b27ac	-0.27178705
147	0x3f5ab318	0.85429525
148	0xbea62db1	-0.32456735
149	0xbd28f4c0	-0.041249037
150	0x3daf0f15	0.085477985
151	0xbd25294e	-0.040322594
152	0xbd108708	-0.035285026
153	0x3c73056b	0.014832835
154	0x3da25eb0	0.079282165
155	0xbe5075a3	-0.20357375
156	0x3b1cc5e7	0.002392167
157	0xbc24a087	-0.010048038
158	0xbcfc5fce	-0.030807402
159	0xbc94eb0e	-0.018178489
160	0x3beca106	0.007221344
161	0xbcc38c56	-0.023870628
162	0xbbb01e7e	-0.0053747287
163	0x3d409bb7	0.0470235
164	0xbd37daad	-0.04488628
165	0xbc501f05	-0.012702708
166	0x399acd21	0.00029526002
167	0x3c1032f8	0.008801214
168	0x3e1c123c	0.15241331
169	0xbe806e3b	-0.250841
170	0xbd8fd104	-0.070222884
171	0xbcc4160d	-0.023936296
172	0x3d8a7988	0.067614615
173	0xbd931f18	-0.07183665
174	0xbeb5d3b5	-0.35513082
175	0xbe95ed0c	-0.29282415
176	0xbe2f455b	-0.17116301
177	0xbe0172e5	-0.12641485
178	0xbe8d8e5a	-0.27647668
179	0xbda93062	-0.082611814
180	0x3f008c91	0.5021449
181	0xbcf1e374	-0.029527403
182	0xbe3e5bf9	-0.18589772
183	0x3d706764	0.05869235
184	0xbd6c4aca	-0.057688512
185	0xbe6400ee	-0.2226598
186	0xbed860c5	-0.4226133
187	0xbd8d3b91	-0.06896127
188	0x3cfdd79b	0.030986598
189	0x3f17d9cc	0.59316707
190	0xbeb452e9	-0.35219505
191	0x3c03a531	0.00803499
192	0x3dcc4ead	0.09975944
193	0xbcc0fa77	-0.023556931
194	0x3e630ead	0.22173567
195	0xbde47451	-0.11154998
196	0xbef3c483	-0.47610864
197	0x3dbb377f	0.091414444
198	0x3cb1c7eb	0.021701774
199	0x3d6ca6f5	0.05777641
200	0xbd009844	-0.03139521
201	0x3c52cb8c	0.012865912
202	0x3d206ac6	0.039164327
203	0x3bc781a1	0.006088451
204	0xbca5b7e7	-0.020229293
205	0xbbcd443a	-0.0062642368
206	0xbd1e0957	-0.038583126
207	0xbe0bf1aa	-0.13666406
208	0x3c937e0b	0.018004438
209	0x3cfa4050	0.030548245
210	0x3d3a7cd4	0.0455292
211	0xbe11d8ca	-0.14242855
212	0x3e26edae	0.16301605
213	0x3dec8697	0.115491085
214	0xbd0c164c	-0.03420095
215	0x3e73d78e	0.23812696
216	0x3df109d8	0.11769456
217	0x3e952aea	0.29134303
218	0x3dc988b0	0.09840524
219	0x3b828b58	0.003983896
220	0xbe2f153c	-0.17097944
221	0xbdf26d8d	-0.118373014
222	0x3f077b8e	0.52922904
223	0xbe7c3ab5	-0.2463177
224	0x3e7e5ea6	0.24840793
225	0x3f2478c4	0.64246774
226	0xbe2cc819	-0.16873206
227	0x3efc19a8	0.49238324
228	0xbe8f24a8	-0.27957654
229	0x3e304e76	0.1721743
230	0xbd9dc6d2	-0.077039376
231	0x3e46cc20	0.19413805
232	0x3cae8376	0.02130292
233	0xbbfbfe28	-0.00769021
234	0xbe045ab9	-0.12925233
235	0xbe47e55e	-0.1952109
236	0x3cb0355d	0.02150982
237	0x3e908dbe	0.2823314
238	0x3e231eef	0.15929769
239	0x3e49b75c	0.19698852
240	0x3c0f3722	0.008741172
241	0xbd223cc7	-0.039608743
242	0x3d07ab92	0.033122607
243	0xbc72f738	-0.014829449
244	0x3c044573	0.008073199
245	0xbd4e21b9	-0.05032513
246	0xbbb0a68a	-0.0053909468
247	0x3dacbfc2	0.084350124
248	0xbd62b96e	-0.05535262
249	0xbd100b7e	-0.03516721
250	0x3b87fbd3	0.004149893
251	0xbd1e7856	-0.03868898
252	0xbe2d1cc2	-0.16905501
253	0x3dd576b2	0.1042303
254	0x3d47e314	0.048800543
255	0x3d9753dc	0.07389042

bias f4 [512]
0	0x3d660db4	0.056165412
1	0xbe243c1e	-0.16038558
2	0xbce789ca	-0.028263945
3	0xbc063cea	-0.008193234
4	0xbe13ba66	-0.14426574
5	0x3dfea03a	0.124329045
6	0xbd8c6576	-0.0685529
7	0x3db6aab8	0.08919281
8	0x3dc1bdcb	0.09460028
9	0xbcb71b64	-0.022351928
10	0xbd9b88cf	-0.075944535
11	0x3d5e75c9	0.054311547
12	0x3d022a34	0.03177853
13	0x3bfca705	0.00771034
14	0x3de6c6d8	0.11268395
15	0xbdb9b9a5	-0.09068612
16	0x3d1a8903	0.03772832
17	0xbc0b6bf7	-0.008509628
18	0x3cf4fc21	0.02990538
19	0xbce52874	-0.027973391
20	0x3b7ec187	0.0038872676
21	0x3d6b6dcf	0.05747777
22	0xbdae6085	-0.085145034
23	0x3ae7e9cf	0.0017693582
24	0x3e16c444	0.14723307
25	0x3da1548b	0.078774534
26	0xbdaa232d	-0.083074905
27	0xbc050528	-0.008118905
28	0x3d452ece	0.04814034
29	0xbcfe8415	-0.031068841
30	0x3c4743d0	0.012162164
31	0x3de9a3b6	0.114081785
32	0xbd85f274	-0.06540385
33	0x3b7a2128	0.0038166735
34	0x3de2b9cc	0.11070594
35	0xbd81d78f	-0.06339943
36	0xbcee2fc2	-0.029075507
37	0xbbe33277	-0.006933506
38	0xbcfca582	-0.030840639
39	0x3dcb8f8b	0.09939488
40	0xbc81e218	-0.01585488
41	0x3c531d8c	0.0128854625
42	0x3dde1d25	0.10845403
43	0x3d47bc42	0.04876352
44	0x3d246a01	0.040140156
45	0x3dd92fa5	0.106047906
46	0xbd08e00f	-0.033416804
47	0x3d68efe6	0.05686941
48	0x3bcfcd5b	0.006341619
49	0xbd9f2869	-0.077713795
50	0x3c0e15c9	0.008672186
51	0xbd212739	-0.039344046
52	0xbda81b28	-0.08208305
53	0x3d9ae24f	0.07562696
54	0x3c9f4a64	0.019444652
55	0xbe0274f5	-0.12739928
56	0x3cd71b57	0.026258154
57	0x3cbc1990	0.022961408
58	0x3e30c0f8	0.17261112
59	0x3dfab9de	0.122424826
60	0x3da8bb78	0.08238882
61	0x3e0295c2	0.1275244
62	0xbd96c34d	-0.073614694
63	0xbdad87a6	-0.084731385
64	0xbd505b0d	-0.050868083
65	0xbe0a55b8	-0.13509262
66	0x3da9390d	0.08262835
67	0x3c3215df	0.010869472
68	0x3da349a5	0.07973031
69	0x3db67ccb	0.08910521
70	0xbe1bb875	-0.15207084
71	0x3df9e1f3	0.122012995
72	0x3de2163c	0.11039397
73	0xbe066b85	-0.13126953
74	0x3d2237d7	0.039604034
75	0xbe15797f	-0.14597128
76	0x3da7deaf	0.081967704
77	0x3d14feac	0.036375687
78	0x3be5ca60	0.0070126504
79	0xbbc33a23	-0.005957858
80	0xbe2d91e5	-0.16950186
81	0x3e1a575d	0.15072389
82	0x3d80002e	0.06250034
83	0x3c8b2961	0.016987504
84	0x3dcdf24b	0.10055979
85	0xbda31285	-0.07962517
86	0xbd2e2659	-0.04251704
87	0xbdc484e0	-0.095956564
88	0x3c70e101	0.014702083
89	0xbddf61c0	-0.10907316
90	0xbe1ecb48	-0.15507233
91	0xbd80eacd	-0.06294785
92	0xbd0b6b9f	-0.034038182
93	0xbd52c9da	-0.051462032
94	0xbe3428e8	-0.1759373
95	0xbe10e3f7	-0.14149462
96	0xbe3d69b1	-0.1849735
97	0x3d09792e	0.03356283
98	0x3d6f81a4	0.058473244
99	0x3dc0c7eb	0.09413131
100	0xbd26e768	-0.04074803
101	0xbe458fa9	-0.19293083
102	0x3d451fb4	0.048125938
103	0xbe16c9b2	-0.14725378
104	0x3d9770e8	0.07394582
105	0x3e200c29	0.15629639
106	0xbdc7da11	-0.0975839
107	0xbd94e239	-0.07269711
108	0xbe0ce740	-0.1376009
109	0xbd3a921d	-0.0455495
110	0x3dd6275c	0.10456726
111	0xbd352119	-0.044221018
112	0x3d271f77	0.04080149
113	0x3e34ff42	0.17675498
114	0x3d7bdb96	0.06148871
115	0x3d1fd4bc	0.03902124
116	0xbe4940ed	-0.19653673
117	0x3d9222de	0.07135557
118	0x3ddfd6c8	0.10929638
119	0xbcf4836f	-0.029847829
120	0xbc05fda2	-0.008178147
121	0xb962cbe2	-0.00021628992
122	0x3e4ffae0	0.20310545
123	0x3d151ff2	0.03640742
124	0x3c8e0b6a	0.017339427
125	0xbd978318	-0.07398051
126	0xbbc62268	-0.006046582
127	0xbd4687fc	-0.04846953
128	0x3d8700f9	0.065919824
129	0xbe0bb137	-0.13641821
130	0x3cfbc088	0.030731454
131	0xbde878af	-0.113511436
132	0xbc75001e	-0.014953641
133	0xbe178e74	-0.14800435
134	0xbdc39279	-0.09549422
135	0xbd45ebf4	-0.048320726
136	0x3dde31d4	0.10849348
137	0xbd0c15cd	-0.03420048
138	0xbe179607	-0.14803325
139	0xbd13cea3	-0.036085736
140	0xbd8ce405	-0.06879429
141	0xbd5f8b2a	-0.054576077
142	0x3dc8cfdf	0.09805273
143	0xbe49864c	-0.19680136
144	0xbc4b6793	-0.012414831
145	0xbe27575c	-0.16341919
146	0xbdb3310f	-0.087495916
147	0x3d53add4	0.051679447
148	0xbe2c597b	-0.16831009
149	0xbe260ef6	-0.16216645
150	0xbc93c6bb	-0.018039098
151	0xbddffd50	-0.109369874
152	0x3e3914f1	0.18074395
153	0xbd62f622	-0.05541051
154	0x3e196f88	0.14983952
155	0xbd73bf90	-0.05950886
156	0x3db4c4c1	0.0882659
157	0x3e183b35	0.14866336
158	0xbd8fb9e0	-0.07017875
159	0xbe06b61b	-0.13155405
160	0x3e001639	0.12508477
161	0xbe11e544	-0.14247614
162	0xbe01c539	-0.1267289
163	0xbd5016e6	-0.050803088
164	0x3d5c45b0	0.053777397
165	0xbdece071	-0.11566246
166	0xbe0882c0	-0.13331127
167	0x3d8dfcb0	0.06932962
168	0x3da40b76	0.080099985
169	0xbe081a3a	-0.13291255
170	0x3cab9c7e	0.020948645
171	0xbd986e8d	-0.07442961
172	0xbe2491d9	-0.16071261
173	0xbc8cb6ef	-0.017177073
174	0x3dbdf2ee	0.09274851
175	0xbceaa74b	-0.028644225
176	0xbd6cf6a1	-0.05785239
177	0x3de45663	0.111492895
178	0xbc7b992b	-0.015356342
179	0x3e1cef3f	0.1532564
180	0xbd9e1c9e	-0.07720302
181	0x3cad5693	0.021159446
182	0xbcc919d8	-0.024548456
183	0x3e3034ed	0.1720769
184	0x3dc06eb5	0.09396116
185	0x3d1d7bd2	0.038448162
186	0x3df06288	0.11737543
187	0xbe134c04	-0.14384466
188	0xbe00fe8a	-0.12597099
189	0xbde4b06e	-0.11166464
190	0xbdf0592f	-0.117357604
191	0x3d82f875	0.06395046
192	0x3d086897	0.03330287
193	0xbdc80d6d	-0.09768186
194	0x3da8d454	0.082436234
195	0x3db5e7b5	0.08882085
196	0x3dcdb094	0.10043445
197	0x3e0712ed	0.13190813
198	0x3d88ff4c	0.06689319
199	0x3e5ab127	0.21356641
200	0x3d15f1a3	0.036607396
201	0x3cf20a5f	0.029545961
202	0x3e1156e6	0.14193305
203	0x3c6f2c01	0.014597894
204	0xbdf8c4ad	-0.12146888
205	0x3d71949f	0.058979627
206	0x3dfa31aa	0.12216504
207	0x3e25375e	0.16134402
208	0x3e139c3b	0.14415066
209	0x3da90a49	0.08253915
210	0xbddedab3	-0.10881557
211	0xbc3edb3f	-0.011648952
212	0xbe210174	-0.1572321
213	0x3e461be6	0.1934658
214	0x3dd994b3	0.10624065
215	0x3dc2c229	0.09509689
216	0xbd8621b0	-0.06549394
217	0x3e1baf3e	0.15203568
218	0xbba9999a	-0.0051757814
219	0x3daea796	0.08528058
220	0x3d9c0bc1	0.076194294
221	0x3df23e1b	0.11828252
222	0xbce5de15	-0.028059999
223	0xbd1a71be	-0.03770613
224	0xbe20c9a2	-0.15701917
225	0x3d888775	0.066664614
226	0x3d20f68d	0.03929763
227	0xbd74dafc	-0.059779152
228	0x3d8ca32c	0.0686706
229	0x3de26c8b	0.11055859
230	0x39d854b2	0.00041261833
231	0x398e873b	0.00027185105
232	0xbd1258e3	-0.0357293
233	0xbc125c1f	-0.008933096
234	0xbd78838a	-0.06067232
235	0x3d597918	0.053094
236	0xbd52b7c0	-0.05144477
237	0xbc4b4b67	-0.012408114
238	0x3d0ed263	0.03486861
239	0xbd8fa95b	-0.07014724
240	0x3e026988	0.1273557
241	0x3dacac88	0.08431345
242	0x3e206ce7	0.15666543
243	0x3dad095e	0.08449052
244	0xbc9c2070	-0.019058436
245	0x3d612572	0.05496735
246	0x3d350d75	0.044202287
247	0x3d9fa357	0.077948265
248	0xbdeaa385	-0.1145697
249	0x3daab6d6	0.083356544
250	0xbe3ae450	-0.18251157
251	0xbda511d1	-0.08060039
252	0x3c904790	0.017612249
253	0xbd8de752	-0.069288865
254	0xbde7217f	-0.11285686
255	0xbd80159e	-0.06254123

weight f4 [256, 512]
0	0xbb91901e	-0.004442229
1	0xbc6a435b	-0.014298285
2	0xbd6c3e7c	-0.057676777
3	0xbe11098b	-0.14163797
4	0xbd0fb0ec	-0.035080835
5	0x3c04238f	0.008065118
6	0x3da37e0f	0.07983028
7	0xbdfdb898	-0.12388724
8	0xbdd7ce7b	-0.1053743
9	0x3d313e5a	0.043272354
10	0xbcdad7e1	-0.026714267
11	0xbcafda33	-0.02146635
12	0xbda2c00b	-0.079467855
13	0x3d799b11	0.0609389
14	0x3de17f40	0.11010599
15	0x3d9cc1c5	0.07654146
16	0x3ce488fa	0.027897347
17	0x3db63ac8	0.088979304
18	0xbbd501e4	-0.0065004695
19	0xba73630e	-0.00092844747
20	0x3d8d86dd	0.06910489
21	0x3d1ed647	0.03877857
22	0x3d76292f	0.06009787
23	0xbdc92a22	-0.09822489
24	0xbc027697	-0.007962844
25	0x3dc3e96d	0.09566007
26	0xbd905b73	-0.070486926
27	0x3b9e5e94	0.004833052
28	0x3db5d2f5	0.088781275
29	0x3d9012f2	0.070348635
30	0x3ba7d947	0.005122337
31	0xbd9607c5	-0.07325701
32	0x3d44b2ea	0.04802219
33	0xbd587304	-0.052844062
34	0x3d08b529	0.033375893
35	0x3c90575f	0.017619787
36	0xbe0e0d3b	-0.13872235
37	0xbd04e7e2	-0.032447703
38	0xbdd307c3	-0.10304215
39	0xbd10a93e	-0.035317652
40	0xbd0ce46e	-0.034397535
41	0x3c36d0a8	0.011158146
42	0xbd8252de	-0.06363462
43	0x3de6b736	0.112654135
44	0xbd9ec4bf	-0.0775237
45	0xbd94879c	-0.07252428
46	0x3d21e01a	0.03952036
47	0xbc670e2f	-0.014102503
48	0xbba8b46e	-0.005148462
49	0x3d5f8339	0.054568503
50	0xbdc389b1	-0.09547747
51	0xbcdbaaaf	-0.026814787
52	0xbd9fd0ca	-0.07803495
53	0x3c1831a4	0.009289179
54	0xbd11a487	-0.035557296
55	0xbcd90268	-0.026490405
56	0x3d83acd3	0.06429448
57	0x3dc7c14d	0.09753666
58	0x3ba4c4ea	0.005028357
59	0xbce1fc70	-0.027586192
60	0xb9bd9b01	-0.00036164376
61	0xbde761af	-0.112979285
62	0xbd819f4a	-0.0632921
63	0xbc58e471	-0.013238058
64	0x3d330793	0.043708395
65	0xbd00c103	-0.03143407
66	0xbd10cb13	-0.035349917
67	0x3ddaf7ca	0.10691793
68	0x3b88689b	0.0041628606
69	0x3dbbfd10	0.09179127
70	0x3cb00549	0.021486895
71	0x3cbe74e3	0.023249095
72	0xbc837979	-0.016049134
73	0x3d98d263	0.07462003
74	0xbd84c704	-0.06483272
75	0x3d18c798	0.037299722
76	0xbdc6c88f	-0.09706222
77	0xbcbd83d2	-0.023134146
78	0x3d6b6b95	0.057475645
79	0xbcbb8775	-0.02289174
80	0xbd9ec01a	-0.07751484
81	0x3d8b1084	0.067902595
82	0x3d5b149e	0.05348646
83	0xbd5582ba	-0.052126624
84	0x3d62d706	0.055380844
85	0x3d7ed615	0.062215883
86	0xbdc0afd7	-0.09408539
87	0x3bbbf0ce	0.0057354933
88	0x3d436025	0.047699112
89	0x3d095aa2	0.0335337
90	0x3d312792	0.043250628
91	0xbd3d3f78	-0.046203107
92	0xbca39b2b	-0.01997145
93	0x3d03e88d	0.0322042
94	0xbd639046	-0.05555751
95	0x3cbabfcb	0.022796532
96	0x3c5c5981	0.013449074
97	0xbdd5e2e9	-0.1044367
98	0x3cd3c316	0.02584986
99	0x3c2915f3	0.0103201745
100	0x3ce55443	0.02799428
101	0x3c177aaa	0.009245554
102	0x3c2ac3cd	0.010422659
103	0xbde32866	-0.1109169
104	0x3c964ddf	0.018347679
105	0xbd10b116	-0.035325132
106	0x3d9cce55	0.07656542
107	0xbca41370	-0.0200288
108	0x3dd285ac	0.10279402
109	0x3d157a36	0.036493503
110	0xbd8c87d7	-0.06861847
111	0x3d7c0750	0.06153041
112	0x3d82be84	0.06383994
113	0x3d07dc4f	0.033169087
114	0xbc43a1e5	-0.011940454
115	0xbd408eab	-0.04701106
116	0xbb08256a	-0.0020774254
117	0xbca7fefd	-0.02050733
118	0xbe153d73	-0.14574222
119	0xbdc771fb	-0.09738537
120	0xbd4fea2a	-0.050760426
121	0xbcc8a483	-0.024492508
122	0x3c3002c8	0.010742851
123	0x3d8d6d05	0.069055595
124	0x39b0fefe	0.0003375932
125	0x3ddcba91	0.10777772
126	0x3c8ec999	0.017430114
127	0x3de5500f	0.111969106
128	0xbb413d47	-0.0029485987
129	0x3c84a128	0.016190127
130	0xbd228bc0	-0.039684057
131	0x3cc5e214	0.024155654
132	0x3d057924	0.03258623
133	0x3c89fa2f	0.01684293
134	0x3ca3a5d9	0.019976543
135	0xbda1951c	-0.078897685
136	0xbd9f4dac	-0.077784866
137	0x3a8e6f5d	0.0010866929
138	0xbd78b220	-0.06071675
139	0x3b3310ff	0.0027323363
140	0xbd1d30d9	-0.038376663
141	0x3bd201f4	0.0064089242
142	0xbd8f7512	-0.07004751
143	0x3cc241cc	0.023713015
144	0xbae2bfb4	-0.0017299564
145	0xbd4f657d	-0.050633896
146	0xbe20100c	-0.15631121
147	0xbd1dd047	-0.038528707
148	0x3c95962f	0.01826009
149	0x3d422665	0.047399897
150	0x3d07e190	0.033174098
151	0x3e056d44	0.13029963
152	0xbc7d187d	-0.015447733
153	0xbd41550d	-0.04720025
154	0xbd661c1f	-0.056179162
155	0xbc9db064	-0.019249149
156	0xbc96f1ec	-0.018425904
157	0x3bb5b943	0.0055457666
158	0x3c8f4a7b	0.01749157
159	0x3d699540	0.0570271
160	0xbcaab6d7	-0.020839138
161	0xbbee33a1	-0.0072693382
162	0x3c974dc9	0.018469708
163	0xbd0e426f	-0.034731325
164	0xbd8dd08f	-0.06924545
165	0xbd8e3975	-0.06944553
166	0xbdd041ea	-0.10168822
167	0x3c9c9d0b	0.019117853
168	0x3c0372dc	0.00802299
169	0xbdadb8ab	-0.08482488
170	0xbd6a70f9	-0.057236645
171	0xbda27396	-0.079322025
172	0x3cd121a6	0.02552874
173	0xbcdb710c	-0.026787303
174	0xb9c709b4	-0.00037963467
175	0xbd7a9285	-0.06117489
176	0x3e077da2	0.13231519
177	0x3cfaf12c	0.030632578
178	0x3d42952a	0.047505535
179	0x3d178c36	0.03699895
180	0x3d98e1ec	0.07464966
181	0x3d9d2bca	0.07674368
182	0xbca7a1f2	-0.020462964
183	0xbbd275cb	-0.0064227334
184	0xbd1f9d36	-0.038968287
185	0x3d0b6861	0.03403509
186	0x3cd12073	0.025528168
187	0x3cf6eec4	0.03014315
188	0xbc535d60	-0.01290068
189	0x3d5411e8	0.05177489
190	0x3c851b15	0.016248265
191	0x3cd22139	0.025650607
192	0xbac2ee78	-0.0014872095
193	0xbd123316	-0.03569325
194	0xbd38bb6f	-0.045100626
195	0xbd7d1a0f	-0.06179243
196	0xbddf458f	-0.10901939
197	0xbc8f8467	-0.017519189
198	0x3d45a8f2	0.048256822
199	0xbd6bcebe	-0.05757021
200	0x3c9c8f77	0.019111378
201	0x3d99515a	0.0748622
202	0x3dd01fe8	0.10162336
203	0xbddde8f3	-0.10835447
204	0x3cf3fb72	0.029782984
205	0xbdbcf874	-0.09227076
206	0x3dbdc442	0.09265949
207	0xbdb92b2a	-0.09041436
208	0xbbad00b1	-0.0052796234
209	0x3c963250	0.018334538
210	0xbb3322be	-0.002733394
211	0x3d8c3182	0.0684538
212	0xbd2d18fd	-0.04226016
213	0xbd1a8ad8	-0.037730068
214	0x3d95d9e4	0.0731695
215	0xbd7a614a	-0.06112794
216	0xbdfb1f71	-0.12261856
217	0xbc90a190	-0.017655164
218	0xbd443c2e	-0.047908954
219	0xbcb580df	-0.022156177
220	0x3ba34fc1	0.0049838726
221	0x3c8a4b91	0.016881736
222	0x3b01bc37	0.0019796023
223	0x3b46cce6	0.0030334531
224	0x3c9a8a27	0.018864704
225	0xbd5a17d7	-0.05324539
226	0x3b9af52d	0.0047289343
227	0xbd5833e4	-0.05278386
228	0x3db2ba63	0.08726957
229	0xbcca51e9	-0.02469726
230	0x3d5f79c1	0.054559473
231	0x3d9c3fbc	0.07629344
232	0xbe0bf059	-0.13665904
233	0xbd276df3	-0.04087634
234	0x3d8f6c04	0.07003024
235	0x3d6cc63c	0.05780624
236	0x3c72fac1	0.014830292
237	0xbc957e9c	-0.018248849
238	0xbda9e3a0	-0.08295369
239	0x3d1b0a0f	0.03785139
240	0x3ded9000	0.115997314
241	0x3d6601a8	0.056153923
242	0x3c1d8274	0.009613622
243	0x3d5eeca2	0.05442489
244	0xbe366bb1	-0.17814519
245	0xbd8d9315	-0.06912819
246	0xbdb1e9f1	-0.08687199
247	0x3cdc9161	0.02692479
248	0xbe2513ad	-0.16120787
249	0x3ca6d936	0.020367246
250	0x3d59b510	0.05315119
251	0x3daf3433	0.08554878
252	0x3d12edc5	0.035871286
253	0x3d9d87df	0.07691931
254	0x3d120855	0.035652477
255	0xbdffb9ee	-0.12486635

bias f4 [256]
0	0x3c0e3748	0.008680172
1	0x3b473cd8	0.0030401256
2	0xbda2e656	-0.07954089
3	0xbd20a438	-0.03921911
4	0x3ca5a248	0.020218983
5	0xbe0488bf	-0.1294279
6	0xbcf2b58c	-0.029627584
7	0x3c4d2fb6	0.012523582
8	0xbc91ef34	-0.017814256
9	0xbda43335	-0.080175795
10	0xbb497af4	-0.0030743452
11	0xbd5edadd	-0.054407943
12	0xbe3a07f2	-0.18167093
13	0xbd4a4b4f	-0.049388226
14	0x3d1f17ab	0.03884093
15	0xbd792327	-0.06082454
16	0x3c443e44	0.011977736
17	0xba581817	-0.0008243336
18	0xbdcf32ad	-0.101170875
19	0xbc52b07a	-0.012859458
20	0x3b703adc	0.0036656177
21	0xbdb95d9a	-0.09051056
22	0x3be02a7b	0.0068410016
23	0xbc5721cf	-0.013130619
24	0xbd159b35	-0.03652497
25	0xbd476ed4	-0.04868968
26	0xbd108684	-0.035284534
27	0xbc08aaf4	-0.00834154
28	0xbb838746	-0.0040139286
29	0x3bd4369b	0.006476236
30	0x3d2c5801	0.042076115
31	0xbcfe2518	-0.031023547
32	0xbdb6fe9c	-0.08935282
33	0xbcd3f9ef	-0.025876014
34	0xbd05ad2f	-0.032635864
35	0xbd8c99ca	-0.068652704
36	0x3cbd8ead	0.023139322
37	0xbb160b87	-0.0022895054
38	0xbe17d86c	-0.14828652
39	0xbc02db88	-0.007986911
40	0xbc6326fd	-0.013864276
41	0xbddee629	-0.10883743
42	0xbd394f21	-0.04524148
43	0xbd19fc98	-0.037594408
44	0xbcae600c	-0.021286033
45	0xbc834f30	-0.01602897
46	0xbddee29b	-0.10883065
47	0xbb9b1734	-0.0047329906
48	0xbde0fbdf	-0.109855406
49	0xbe21daf8	-0.15806186
50	0xbd8a7dc3	-0.067622684
51	0xbd977aa0	-0.07396436
52	0xbdf37c8e	-0.11888991
53	0xbddb9cd5	-0.10723273
54	0xbdaa4cbd	-0.08315418
55	0xbcba3608	-0.022730842
56	0xbdbc12bf	-0.09183263
57	0xbd9ee283	-0.077580474
58	0xbc8c50c7	-0.017128361
59	0x3d7dcf2e	0.06196516
60	0x3bbe91b8	0.005815711
61	0xbcf692db	-0.030099323
62	0xbc4f59e0	-0.012655705
63	0xbcd855b7	-0.02640806
64	0xbd88a053	-0.066712044
65	0xbd68d7e0	-0.0568465
66	0xbdaaa323	-0.08331897
67	0xbcf98610	-0.030459434
68	0xbe52fe20	-0.20604753
69	0xbdcc713f	-0.099825375
70	0xbcaa921a	-0.02082162
71	0xbda6b2a1	-0.081395395
72	0xbde30b6f	-0.11086165
73	0xbd7d5990	-0.06185299
74	0xbc8df0f3	-0.017326808
75	0xbdad6152	-0.08465828
76	0x3c980927	0.018559052
77	0xbd8232c6	-0.063573405
78	0xbd83e7a5	-0.06440667
79	0xbd9ec56c	-0.07752499
80	0x3cfc2366	0.030778598
81	0xbda16ff7	-0.07882684
82	0xbd39d4e3	-0.04536904
83	0xbc5f907a	-0.013645286
84	0xbd0b794f	-0.034051236
85	0xbe00eb2d	-0.12589712
86	0xbd631788	-0.055442363
87	0xbcf61fe7	-0.03004451
88	0xbe102ea4	-0.14080292
89	0xbda5c9e6	-0.0809515
90	0xbdb4b403	-0.08823397
91	0xbd24b849	-0.04021481
92	0xb8a777ef	-7.98552e-05
93	0xbc3fcf9a	-0.011707211
94	0xbcf65384	-0.03006912
95	0x3c70eddf	0.01470515
96	0xbcef111d	-0.029182965
97	0x3c4604b2	0.01208608
98	0xbd243f28	-0.040099293
99	0xbc1e6573	-0.009667742
100	0xbcf34396	-0.029695313
101	0xbceb6807	-0.028736128
102	0xbd1cb52f	-0.038258728
103	0xbe0b18b8	-0.13583648
104	0xbd6d0903	-0.057869922
105	0xbd7ddfb8	-0.061980933
106	0xbe12208d	-0.1427023
107	0xbe0aa7f6	-0.13540635
108	0xbd0d8504	-0.03455068
109	0xbe0de41b	-0.13856547
110	0xbd103437	-0.035206046
111	0xbe3134f4	-0.17305356
112	0xbd96acbd	-0.07357166
113	0xbcd7cdcf	-0.026343254
114	0x3d05220c	0.032503173
115	0xbd5be6a0	-0.053686738
116	0xbd8dcb71	-0.06923569
117	0xbcc132c7	-0.023583783
118	0xbd4db5f9	-0.05022237
119	0xbce546d7	-0.02798788
120	0xbd18eb98	-0.037334055
121	0x3cc9e770	0.02464649
122	0xbd657d7a	-0.056027867
123	0xbd6fd2b5	-0.058550555
124	0xbe0cd192	-0.1375182
125	0xbd4f9f84	-0.050689235
126	0xbd6bc60f	-0.05756193
127	0xbd660af8	-0.056162804
128	0xbdf9617f	-0.12176799
129	0xbb2463db	-0.0025083933
130	0xbe07722c	-0.13227147
131	0xbda51441	-0.08060504
132	0xbda8c8f9	-0.082414575
133	0xbd9d3b84	-0.07677367
134	0x3b6d38e5	0.0036197242
135	0xbbfb6617	-0.007672082
136	0xbdb62a79	-0.0889482
137	0xbdfef95c	-0.12449905
138	0xbd5c5fea	-0.05380241
139	0xbd9d533d	-0.07681892
140	0xbdc1253e	-0.094309315
141	0xbcf11a71	-0.029431554
142	0xbc96d431	-0.018411728
143	0x3ce43ec1	0.027861955
144	0xbd0dc728	-0.03461376
145	0xbdd25ac3	-0.10271218
146	0xbde61b48	-0.11235672
147	0xbc54e072	-0.012992965
148	0xbd5c2605	-0.053747196
149	0xbda45c5d	-0.080254294
150	0xbce480c6	-0.027893435
151	0xbda78e63	-0.08181455
152	0xbd0fd2f2	-0.035113283
153	0x3cc3aac2	0.023885135
154	0xbd751536	-0.05983468
155	0xbd8fc137	-0.07019275
156	0xbd350995	-0.04419859
157	0xbe044655	-0.12917455
158	0xbdad7afd	-0.08470724
159	0xbd971561	-0.073771246
160	0xbd8c9618	-0.068645656
161	0xbd8ce4e8	-0.06879598
162	0xbd1e0659	-0.038580272
163	0xbe97827d	-0.29591742
164	0xbe291d81	-0.16515161
165	0xbd0a9b23	-0.033839356
166	0x3b53e4d2	0.0032332432
167	0xbd915ec8	-0.07098156
168	0x3cebab1f	0.02876812
169	0xbd411981	-0.047143463
170	0xbd3909e2	-0.04517544
171	0xbc8fe39d	-0.01756459
172	0xbd509eb7	-0.050932612
173	0xbe549bfc	-0.20762628
174	0xbe224fa6	-0.15850696
175	0x3c8236ed	0.015895331
176	0xbe452bf0	-0.19255042
177	0xbd86dd8c	-0.065852255
178	0xbca7833f	-0.020448325
179	0xbdb75549	-0.08951814
180	0xbdab0f54	-0.08352533
181	0xbd5fd18a	-0.05464319
182	0xbd216bdf	-0.039409515
183	0xbce01b66	-0.027356815
184	0xbd5e77a1	-0.054313306
185	0x3abe2b4c	0.0014508753
186	0xb8393515	-4.4156874e-05
187	0xbd1026f9	-0.035193417
188	0xbc2f2f29	-0.010692396
189	0xbd85f0ec	-0.06540093
190	0xbd1be10a	-0.03805641
191	0xbd9c69cd	-0.076373674
192	0xbcf37fb8	-0.029723987
193	0xbda61b11	-0.08110631
194	0xbe0d2d90	-0.13786912
195	0xbd1eb7c2	-0.038749464
196	0xbdaf7515	-0.085672535
197	0xbb11f3fc	-0.002227067
198	0xbcf64e94	-0.030066766
199	0xbc3f530d	-0.011677516
200	0xbd951adb	-0.07280513
201	0xbd968971	-0.073504336
202	0xbcbbc155	-0.022919336
203	0xbd4ed1ea	-0.05049316
204	0xbb2a4c5a	-0.002598545
205	0xbd889254	-0.06668535
206	0xbdaf37fd	-0.08555601
207	0xbc6c5852	-0.014425354
208	0xbe4d00aa	-0.20019785
209	0xbd90ad77	-0.07064336
210	0xbdd53a67	-0.1041153
211	0xbc6195e6	-0.013768649
212	0xbdc9e435	-0.0985798
213	0xbbc384b4	-0.005966747
214	0x3d31fe85	0.04345562
215	0xbe08ea20	-0.13370562
216	0xbca4e785	-0.020129928
217	0xbe722711	-0.23647715
218	0xbd99ab45	-0.0750337
219	0xbd46f3b7	-0.04857227
220	0xbc9a39e8	-0.01882644
221	0xbcc4ca3d	-0.024022216
222	0xbd9c6ab6	-0.07637541
223	0xbe2642b0	-0.16236377
224	0xbd8e9692	-0.06962313
225	0x3d8c9c16	0.068657085
226	0xbd5cd1d8	-0.05391106
227	0xbd5edb57	-0.054408398
228	0xbccd6b43	-0.02507556
229	0xbd9f3daf	-0.07775437
230	0xbc8a9bd4	-0.016920008
231	0xbe3645db	-0.17800085
232	0x3ce6e5fb	0.028185835
233	0x3b38ddea	0.0028208443
234	0x3cb3f847	0.021968974
235	0xbe6f3efe	-0.23363873
236	0xbd8bb0fc	-0.068208665
237	0xbd79131a	-0.060809232
238	0xbd0fab39	-0.0350754
239	0x3ce0ead2	0.027455721
240	0x3d2f29cb	0.042764466
241	0x3c9519f4	0.018200852
242	0xbcd64e42	-0.026160363
243	0xbdd9e51a	-0.10639401
244	0xbe0d6d9a	-0.13811341
245	0x3c4ed8f0	0.012624964
246	0xbcddf59c	-0.027094655
247	0xbd74d87c	-0.059776768
248	0xba91c29f	-0.0011120624
249	0xbd26c339	-0.040713523
250	0xbd9c80b2	-0.07641734
251	0x3c65b1d4	0.014019448
252	0xbe031f55	-0.12804921
253	0xbd2ff784	-0.04296066
254	0x3cb4f7a8	0.022090748
255	0xbd0cab46	-0.034343027

weight f4 [128, 256]
0	0xbba88f29	-0.005144019
1	0xbd1463d8	-0.03622803
2	0xbc911bdd	-0.017713482
3	0x3d85838f	0.065192334
4	0x3cc659a2	0.024212662
5	0x3d961960	0.07329059
6	0x3dc99d21	0.09844423
7	0x3d471a28	0.04860893
8	0xbc14b82c	-0.009077113
9	0xbb88104d	-0.004152334
10	0x3d9ace40	0.0755887
11	0x3a43a105	0.00074626534
12	0xbc89a735	-0.016803363
13	0x3d1e7c1c	0.03869258
14	0xbc8623b2	-0.016374443
15	0x3d56bb45	0.052424688
16	0xbc259893	-0.010107177
17	0x3d9f83a4	0.0778878
18	0xbcdc67fe	-0.026905056
19	0x3d0e780e	0.03478246
20	0x3b24b5cd	0.0025132776
21	0xbc516a1e	-0.012781648
22	0xbdafe124	-0.08587864
23	0xbd93d116	-0.07217614
24	0x3d854cae	0.06508766
25	0xbcdc0f43	-0.026862746
26	0xb9c1c814	-0.00036960898
27	0x3d95c6a6	0.0731328
28	0xbcd091ea	-0.025460202
29	0x3c823192	0.015892778
30	0xbd18eb4b	-0.037333768
31	0xbdf4708c	-0.11935529
32	0xbc77df7f	-0.015128969
33	0x3cb61a5d	0.022229368
34	0xbbd89e58	-0.006610673
35	0x3cdde398	0.027086064
36	0xbc1e9999	-0.009680175
37	0xba7c24b6	-0.00096185075
38	0x3dbb8677	0.091565065
39	0x3c25a246	0.01010949
40	0xbd3a3c1f	-0.045467492
41	0x3aabfade	0.0013121029
42	0xbcd3fed0	-0.02587834
43	0x3d875689	0.06608302
44	0xbdd2194c	-0.10258731
45	0x3cceaf79	0.025230156
46	0xbc8707ed	-0.016483271
47	0xbc21af43	-0.009868446
48	0xba3260cb	-0.00068045844
49	0xbc9261cc	-0.017868899
50	0x3d08a1f7	0.033357587
51	0x3d159147	0.0365155
52	0xbbaec066	-0.0053329943
53	0xbcd6875c	-0.026187591
54	0xbd2ae89a	-0.041725732
55	0xbc996f16	-0.018729728
56	0xbc19b228	-0.009380855
57	0xbd6ce0cc	-0.05783157
58	0xbcd14aff	-0.025548456
59	0xbd1c67a7	-0.038184788
60	0xbc9db7df	-0.019252716
61	0x3d613ac0	0.05498767
62	0xbc5b7e67	-0.013396836
63	0xbc53742f	-0.012906118
64	0xbd261c93	-0.040554594
65	0x3cbc8608	0.02301313
66	0xbda97dab	-0.082759224
67	0x3c6e18b2	0.014532255
68	0x3d85a56f	0.065256946
69	0x3cc5d142	0.024147633
70	0xbd17e765	-0.03708591
71	0xbd677423	-0.05650724
72	0x3c1d0654	0.009584028
73	0xbbb6670d	-0.005566484
74	0xbbb16dc8	-0.0054146983
75	0x3ccebfd0	0.025237948
76	0x3cd8d91a	0.02647071
77	0xbc91666b	-0.017749032
78	0x3d24dd45	0.04025008
79	0xbcb5330a	-0.022119064
80	0xbd8d3d6d	-0.06896482
81	0xbdbf7d3f	-0.09350061
82	0x3ca28c81	0.019842388
83	0xbd0fa6e4	-0.03507127
84	0xbd8f13a8	-0.06986171
85	0x3dee5f37	0.116392545
86	0xbc41c188	-0.011825927
87	0x3d169d44	0.036771074
88	0xbddf3a0d	-0.10899744
89	0xbd91cb9c	-0.071189135
90	0xbc2fb111	-0.010723368
91	0x3b7cbb28	0.0038563702
92	0x3b377eec	0.0027999235
93	0x3c241a8e	0.010016097
94	0x3ca17ff7	0.019714339
95	0xbce67046	-0.028129708
96	0xbb608650	-0.0034259744
97	0xbcfbe33b	-0.030748
98	0x3cce5d05	0.02519084
99	0x3d040646	0.032232545
100	0xbd300970	-0.04297775
101	0x39d10881	0.00039869922
102	0xbd96814c	-0.0734888
103	0x3b2a17f0	0.002595421
104	0xbd4e187b	-0.050316315
105	0xbd07a726	-0.03311839
106	0x3d213232	0.03935451
107	0xbbbada37	-0.005702283
108	0xbd2b020e	-0.041750006
109	0x3c15631f	0.009117871
110	0x3cdcb546	0.026941907
111	0x3d180fcc	0.03712444
112	0x3d151b3e	0.036402933
113	0x3d5136a4	0.0510775
114	0x3de6e0ca	0.11273344
115	0xbcbc0397	-0.02295093
116	0x3c974557	0.018465681
117	0x3ce8c4d6	0.028414171
118	0x3d5f0e84	0.054457203
119	0xbd9b2652	-0.075756684
120	0xbce0bac6	-0.02743281
121	0xbc66bc45	-0.014082973
122	0x3c08f5c3	0.008359375
123	0x3d9658fb	0.073411904
124	0x3d9a48c6	0.07533412
125	0xbcb1c97c	-0.02170252
126	0xbba3617f	-0.0049859877
127	0xbc8eab39	-0.01741563
128	0xbcae9083	-0.021309143
129	0x3d5ed4a7	0.05440202
130	0x3daeb1a1	0.08529974
131	0x3c2a287d	0.01038563
132	0xbcc36397	-0.0238512
133	0x3ce2dc19	0.027692841
134	0xbc9bf6ad	-0.019038523
135	0x3c5f7eaf	0.013641044
136	0x3d3cef1c	0.04612647
137	0x3d102546	0.035191797
138	0x3c095aa3	0.008383426
139	0xbcba9b30	-0.022779077
140	0x3cafbc2f	0.021452038
141	0xbc9aca43	-0.018895274
142	0x3cccb10e	0.02498677
143	0x3cf87068	0.030327037
144	0xbd696c13	-0.056987833
145	0xbc9b1232	-0.018929575
146	0xbc953b21	-0.018216671
147	0xbc9f3e6c	-0.019438945
148	0xbd233a45	-0.039850492
149	0x3c4e7510	0.012601152
150	0xbc18375f	-0.009290545
151	0x3c53a48a	0.012917647
152	0x3d10a73f	0.03531575
153	0xbdf64f37	-0.12026828
154	0xbd062afb	-0.032755833
155	0x3c507b28	0.012724675
156	0x39d85e65	0.0004126906
157	0x3d5aa088	0.05337575
158	0xbd7f033a	-0.062258936
159	0x3d52ba87	0.051447418
160	0x3da1173d	0.078657605
161	0xbd516f09	-0.051131282
162	0x3caa11ae	0.020760383
163	0x3dc529d6	0.0962712
164	0x3dd0df2e	0.10198818
165	0x3c03e414	0.0080499835
166	0x3d8e0598	0.06934661
167	0xbd4c3a70	-0.049860418
168	0xbc18841d	-0.009308842
169	0xbd07f2c1	-0.033190493
170	0xbd1ed1ba	-0.03877423
171	0xba8d3b42	-0.0010775106
172	0x3cb4a1f8	0.022049889
173	0xbd49dea8	-0.049284607
174	0x3af8ea36	0.0018990699
175	0x3c002cee	0.007823212
176	0x3cdeb862	0.02718753
177	0x3df13f6b	0.11779674
178	0x3ce98f1a	0.028510619
179	0x3d1bbdd5	0.038022835
180	0x3b97b381	0.004629553
181	0xbd1b500f	-0.037918147
182	0x3b72b425	0.0037033644
183	0xbcf7fc07	-0.030271543
184	0xbd153a63	-0.036432635
185	0xbcbd452b	-0.02310427
186	0xbd9f39fd	-0.07774732
187	0x3ae9acca	0.0017827984
188	0xbba7de3c	-0.005122928
189	0xbcc57791	-0.024104865
190	0xbc865417	-0.016397519
191	0x3c22ea13	0.009943503
192	0x3cee2761	0.029071512
193	0xbd5770b1	-0.052597705
194	0xbbc76c2d	-0.0060858936
195	0xbc59d7d6	-0.013296088
196	0x3d3122de	0.043246143
197	0xbb1cad04	-0.0023906836
198	0xbdc9590a	-0.09831436
199	0xbcb4bf57	-0.022063894
200	0x3cd979dc	0.026547365
201	0x3d225b3c	0.03963779
202	0x3ad37ae9	0.0016134653
203	0xbc34eac4	-0.011042301
204	0xbc5e5b29	-0.013571539
205	0x3d82f27c	0.063939065
206	0xbbd32417	-0.006443511
207	0x3d031fa9	0.032012615
208	0x3d15a7fd	0.03653716
209	0x3c545f3d	0.01296216
210	0xbd1ce414	-0.03830345
211	0x3c1c39d4	0.009535272
212	0x3cec9064	0.028877445
213	0x3d31b52c	0.04338567
214	0xbd9c4f01	-0.07632256
215	0xbcbbf2e5	-0.02294297
216	0xbd1729f6	-0.03690525
217	0xbda55e41	-0.08074618
218	0xbc3cf6bf	-0.011533438
219	0x3cad145c	0.021127872
220	0xbd13e776	-0.03610941
221	0xbcd3abec	-0.025838815
222	0xbd1d428f	-0.038393553
223	0xbbfc5f44	-0.0077017862
224	0xbd81369a	-0.063092425
225	0xbd6a9412	-0.057270117
226	0xbd7e4fe4	-0.06208791
227	0x3d9003bd	0.07031963
228	0xbd9f2d94	-0.07772365
229	0xbd9082b9	-0.07056183
230	0x3bf135df	0.0073611583
231	0x3d29eb5b	0.041484218
232	0xbd95e15e	-0.07318376
233	0xbd1a1149	-0.03761414
234	0xbd2c686b	-0.04209177
235	0x3c3b5620	0.011434108
236	0x3d421e1c	0.047391996
237	0xbce66149	-0.028122561
238	0x3c8451f3	0.016152358
239	0xbd2e4e83	-0.042555343
240	0x3b50b24f	0.0031844561
241	0xbe001272	-0.12507036
242	0xbd0de07c	-0.034637913
243	0xbd0509cf	-0.032480057
244	0x3cc7fbe8	0.02441211
245	0xbd920366	-0.071295545
246	0xbc239c8b	-0.009986053
247	0xbd21bb1f	-0.039485093
248	0x3c0a9199	0.008457565
249	0xbd4b8ae8	-0.04969302
250	0xbd9e72eb	-0.077367626
251	0xbd84ef8b	-0.06491002
252	0xbc030601	-0.007997037
253	0xbca6db1c	-0.020368151
254	0x3cfca836	0.030841928
255	0x3cba4122	0.022736136

bias f4 [128]
0	0xbc09b4dd	-0.008404938
1	0xbdccd845	-0.10002188
2	0x3c826761	0.015918436
3	0x3c3ab157	0.01139482
4	0xbd79a322	-0.06094659
5	0xbd2fb3d4	-0.042896107
6	0xbce2f976	-0.027706843
7	0x3d629da4	0.05532612
8	0x3ce23e25	0.027617523
9	0xbc734c95	-0.014849802
10	0xbc2c599e	-0.010519413
11	0x3d29f756	0.041495644
12	0xbdce0f94	-0.10061565
13	0xbdd4dee1	-0.10394073
14	0xbd2d0fad	-0.042251278
15	0x3dead19c	0.11465761
16	0xbdd2f623	-0.10300853
17	0x3c05370f	0.008130803
18	0xbdfce7cf	-0.123489015
19	0xbe5c6379	-0.21522321
20	0xbd79e79c	-0.061011896
21	0xbb7d84f2	-0.0038683978
22	0xbe059fcf	-0.13049243
23	0xbe46026a	-0.19336858
24	0x3b717b84	0.0036847303
25	0xbb7a00c9	-0.003814744
26	0xbcc79b03	-0.024365908
27	0x3d6499e5	0.055810828
28	0xbc25131a	-0.010075355
29	0xbd5a7f61	-0.053344134
30	0xbe8074e7	-0.2508919
31	0x3cb1e755	0.021716753
32	0xbd869ed9	-0.065732665
33	0x3c2ad2a0	0.0104261935
34	0xbd674be9	-0.056468878
35	0xbc4a8187	-0.012359983
36	0x3d26c578	0.040715665
37	0xbf28ce34	-0.6593964
38	0xbd486108	-0.04892066
39	0xbd9bae7e	-0.07601641
40	0xbd228f0a	-0.039687194
41	0xbdfbd228	-0.122959435
42	0xbc0f019c	-0.008728411
43	0xbb990dd6	-0.004670839
44	0xbc80a363	-0.015702909
45	0x3c89287b	0.016742935
46	0x3cf85666	0.030314635
47	0xbd0e2d02	-0.03471089
48	0xbd160724	-0.036627904
49	0x3cba58c6	0.022747409
50	0xbcf06988	-0.029347196
51	0x3bb53803	0.0055303588
52	0xbd442730	-0.047888935
53	0x3c1f1d6b	0.009711604
54	0xbe147d14	-0.14500839
55	0xbdd1e0a7	-0.10247927
56	0xbd52ccd7	-0.05146488
57	0x3d5309bd	0.05152296
58	0x3ccfe228	0.025376394
59	0x3dafbbeb	0.085807644
60	0x3c1f78fa	0.009733433
61	0xbcdc2246	-0.026871812
62	0xbdf796dc	-0.12089321
63	0x3c99d6e4	0.018779226
64	0xbe23d68c	-0.15999812
65	0xbe4582a7	-0.19288121
66	0x3bfd58ed	0.007731548
67	0xbdd0d19d	-0.101962306
68	0x3b32a9d9	0.0027261882
69	0x3b0a82e5	0.0021135148
70	0xbd90e69f	-0.070752375
71	0x3ca4f5f5	0.020136813
72	0xbda7116d	-0.081576206
73	0xbdf22e7c	-0.118252724
74	0x3dc46127	0.09588843
75	0x3c3220dd	0.010872093
76	0xba80b6d1	-0.0009820109
77	0xbcc72e08	-0.024313942
78	0xbc92f8da	-0.017940927
79	0xbcbd5d4a	-0.023115773
80	0x3d8e3fc6	0.069457576
81	0x3c88c07a	0.016693342
82	0xbbe52ae2	-0.0069936374
83	0x3c2d9903	0.010595563
84	0xbd939da7	-0.07207804
85	0xbdac7764	-0.084212095
86	0x3d0a35cb	0.033742707
87	0x3d78a1e0	0.06070125
88	0xbc67c6e8	-0.014146544
89	0xbc864132	-0.01638851
90	0xbd6c4508	-0.05768302
91	0xbd3e3f1e	-0.046446912
92	0xbd8f65e2	-0.070018545
93	0xbe386a3e	-0.18009278
94	0xbdc34546	-0.09534697
95	0x3d4e17d6	0.0503157
96	0xbdf7f5b1	-0.12107409
97	0xbd645f62	-0.055755027
98	0x3cda6919	0.026661443
99	0xbd6a4192	-0.05719144
100	0xbc46931a	-0.012120033
101	0xbea5ec79	-0.32406977
102	0xbdb68081	-0.08911229
103	0xbd36935c	-0.044574127
104	0xbdba2fd7	-0.09091156
105	0xbdc08eab	-0.09402212
106	0xbe3705c6	-0.17873296
107	0xbca2b212	-0.019860301
108	0x3cfc44e1	0.030794563
109	0xbcd28a0a	-0.025700588
110	0xbe59c735	-0.21267398
111	0xbc594176	-0.013260236
112	0xbde0c634	-0.10975304
113	0x3d5e496b	0.054269236
114	0xbe2a406a	-0.16626135
115	0xbd332ec7	-0.043745782
116	0xbca433e0	-0.020044267
117	0xbbbc4115	-0.005745063
118	0x3c675b12	0.014120834
119	0xbc26a1e9	-0.010170438
120	0x3ca779df	0.020443855
121	0xbbea8a37	-0.00715759
122	0xbdbb65ff	-0.091503136
123	0xbca2c380	-0.019868612
124	0xbdff2a98	-0.12459296
125	0x3cdd7c72	0.02703688
126	0xbdd350e5	-0.10318164
127	0xbd973a5f	-0.0738418

weight f4 [12, 128]
0	0xbb397698	-0.0028299447
1	0xbceee825	-0.02916343
2	0x3bff7086	0.0077953963
3	0xbd07f313	-0.033190798
4	0x3acb7e11	0.0015525242
5	0x3c245543	0.010030094
6	0xbc07287e	-0.0082494
7	0x3cb85f19	0.022506284
8	0x3aaef8cc	0.0013349294
9	0xbab2862d	-0.001362031
10	0x3c98ecfc	0.01866769
11	0xbb3cf5db	-0.0028833065
12	0x3c4eb6f3	0.012616861
13	0x3c89e8f7	0.01683472
14	0x3c90c47f	0.017671822
15	0xbdd6484f	-0.104630105
16	0xbb0244f3	-0.0019877523
17	0xbc5f0897	-0.013612888
18	0x3d261ca9	0.040554676
19	0x3c31fb0d	0.010863078
20	0xbddd4e9d	-0.1080601
21	0x3b33c993	0.002743338
22	0xbc463939	-0.012098604
23	0x3dd3b07d	0.10336397
24	0xb9e7c657	-0.00044207528
25	0xbc9b9fd2	-0.018997107
26	0xbc0f777e	-0.0087565165
27	0x3cdb4e49	0.026770728
28	0x3c62aa64	0.01383457
29	0xbc7ff822	-0.015623124
30	0x3ca03501	0.019556524
31	0x3d0db65b	0.034597736
32	0x3cb49968	0.022045806
33	0xbb8c76d5	-0.004286627
34	0x3ce2cdd5	0.027686039
35	0x3b93be34	0.004508758
36	0xbd805595	-0.062663235
37	0x3de359af	0.1110109
38	0xbaaf596c	-0.001337809
39	0x3c865680	0.016398668
40	0xbbbd9e80	-0.005786717
41	0xbb9bb0dc	-0.004751308
42	0xbd2ab86f	-0.041679796
43	0xbc62da6e	-0.013846023
44	0xbce6cf4d	-0.02817502
45	0x3cb2871b	0.021792939
46	0x3d65ed90	0.05613476
47	0xbcb4a99a	-0.022053529
48	0xbc80db43	-0.015729552
49	0xbb060db4	-0.0020454945
50	0x3cd7364e	0.026271012
51	0xbc0011d6	-0.007816752
52	0xbce12a96	-0.027486127
53	0xbcaae86c	-0.02086278
54	0x3d58fe11	0.05297667
55	0x3c328fb8	0.010898523
56	0xbb669254	-0.0035182433
57	0xbd941b4f	-0.07231771
58	0xbcb92b6c	-0.022603713
59	0xbc0c5927	-0.008566177
60	0x3b239b20	0.0024964288
61	0x3b5d2052	0.0033741188
62	0xbd9fe8e3	-0.078080915
63	0xbd2193e6	-0.039447688
64	0xbcc4114d	-0.02393403
65	0x3d95f2cf	0.07321703
66	0xbc1a5649	-0.009419986
67	0x3be20c58	0.006898444
68	0xbacc0d64	-0.0015567956
69	0xba552e12	-0.000813217
70	0x3b8ddc8f	0.004329271
71	0xbc3eb252	-0.011639195
72	0x3c048c57	0.0080901
73	0x3cc103ba	0.023561347
74	0x3c1bca1d	0.009508637
75	0xbd183a81	-0.03716517
76	0xbc43b94e	-0.011946036
77	0xbb20536e	-0.002446379
78	0x3d11f989	0.035638366
79	0x3b832ab5	0.004002894
80	0x3d6de0fc	0.05807589
81	0xbc1cc5cb	-0.009568642
82	0x3ad07b9a	0.0015905977
83	0x3b580161	0.0032959806
84	0x3c293a75	0.010328879
85	0x3c52fdfd	0.012877938
86	0xbb495e4d	-0.0030726374
87	0x3c80f921	0.015743794
88	0xbc39c2a6	-0.011337912
89	0x3c2ace67	0.010425187
90	0x3d4c94b6	0.04994651
91	0x3c1debd2	0.0096387435
92	0x3ccc963e	0.024973985
93	0x3da5dc30	0.08098638
94	0x3cd1890a	0.02557804
95	0xbcafd00e	-0.021461513
96	0x3a84ac11	0.001012208
97	0xbd1ac24c	-0.037782952
98	0xbc47b77f	-0.012189745
99	0xbb9e556e	-0.0048319614
100	0xbb403370	-0.0029327534
101	0x3cacd2e2	0.02109665
102	0xbd07c06b	-0.03314249
103	0x3b73b10f	0.0037184393
104	0xbc3b24fb	-0.011422391
105	0xba17105d	-0.0005762631
106	0x39b68fd7	0.00034820914
107	0x3c67f6d5	0.01415797
108	0x3c6ec9ea	0.014574507
109	0x3b04ad50	0.0020244904
110	0x3c45b449	0.012066909
111	0xbd083432	-0.033252902
112	0x3d0244b9	0.03180382
113	0xbca3d519	-0.019999074
114	0xbd73db97	-0.05953559
115	0x3c56beec	0.013107043
116	0xbb686864	-0.0035462612
117	0xbb07bb2b	-0.0020710926
118	0xbe095c01	-0.13414003
119	0x3c7eb4d6	0.015546044
120	0xbbbe65e4	-0.005810486
121	0x3d12bbc9	0.035823617
122	0x3c01f226	0.007931268
123	0x3ab97ef8	0.001415222
124	0x3bf37114	0.0074292514
125	0xbbc3981d	-0.005969061
126	0xbd80965d	-0.062786795
127	0xbb7e83c8	-0.0038835872
128	0x3c4da46b	0.012551407
129	0x3c8f4c5a	0.017492462
130	0x3b723ad8	0.0036961343
131	0x3da671bb	0.08127161
132	0x3c639bd1	0.01389213
133	0xbc9e826a	-0.019349296
134	0xbc5ad939	-0.013357454
135	0x3c2fd036	0.010730794
136	0x3c349203	0.01102114
137	0xbcd0ce2c	-0.025488935
138	0x3ca1a6d0	0.019732863
139	0x3bfc9182	0.0077077756
140	0x3db10a74	0.08644572
141	0xbda8aae6	-0.08235721
142	0xbbfe8867	-0.0077677253
143	0xbceb41b4	-0.028717853
144	0xbd95b245	-0.07309393
145	0x3ce88dd6	0.028387945
146	0x3d0a2f2f	0.033736404
147	0xbdca6c99	-0.098839946
148	0xbcf2da16	-0.029645007
149	0x3c2bb742	0.010480704
150	0xbd0b3115	-0.033982355
151	0x3c6ca75b	0.0144441975
152	0x3b75dd8f	0.0037516092
153	0x3d1b4530	0.03790778
154	0xbcac8d9e	-0.021063622
155	0xbc83b3e5	-0.016076991
156	0x3cb335e2	0.02187628
157	0xbaf2a79e	-0.0018513089
158	0xbd8c5e5b	-0.068539344
159	0x3d2b3d5a	0.041806556
160	0xbd16286c	-0.036659643
161	0x3c18498b	0.009294878
162	0xbc82d389	-0.015970008
163	0x3b42d5ed	0.002972956
164	0xbb67ab9a	-0.0035350085
165	0xbd3a80c1	-0.045532946
166	0x3bc934c9	0.0061403257
167	0xbc1f7461	-0.009732337
168	0xbc4e54ff	-0.012593507
169	0xbd658f69	-0.05604497
170	0x3c9e5d11	0.019331487
171	0x3d3c9a8f	0.046045836
172	0x3cd39853	0.02582947
173	0xbc2e3a99	-0.010634088
174	0x3d1d1c89	0.03835729
175	0x3cb17bc5	0.021665463
176	0xbd45dc4f	-0.048305806
177	0x3cada60f	0.021197347
178	0xba5a49f5	-0.00083270605
179	0xbbb2f019	-0.005460751
180	0xbc50fe5e	-0.012755958
181	0xba043299	-0.000504294
182	0x3de35df1	0.11101902
183	0xbd850c59	-0.06496496
184	0xbb955823	-0.004557626
185	0xbde5cde9	-0.11220915
186	0xbc3d4d20	-0.011554033
187	0xbc555e91	-0.013023035
188	0x3b1ca3fd	0.0023901456
189	0x3c00db44	0.007864777
190	0x3d8b814e	0.06811772
191	0x3aa18d7e	0.0012325493
192	0x3d031c0d	0.032009173
193	0x3d52a636	0.051428042
194	0x3c5af82c	0.013364833
195	0xbcb25015	-0.021766702
196	0xbaa95999	-0.0012920379
197	0xbc6222c9	-0.013802239
198	0x3c84ce19	0.016211556
199	0xbb50f523	-0.0031884394
200	0x3d13549c	0.03596936
201	0xbd5f0c7e	-0.054455273
202	0x3aa1d668	0.0012347223
203	0x3d251b6c	0.040309355
204	0x3d40ee6a	0.04710237
205	0xbc7ff0b8	-0.015621357
206	0x3db7057e	0.089365944
207	0xbbf73f8c	-0.007545417
208	0xbda8de79	-0.08245558
209	0xbd28fd9a	-0.04125748
210	0xbaef485e	-0.001825582
211	0xbbd88979	-0.006608185
212	0x3b177f6a	0.0023116716
213	0x3b910f7d	0.004426895
214	0x3b5bcff6	0.0033540702
215	0xbcee31c9	-0.029076474
216	0x3c28586e	0.0102749895
217	0x3b5d581f	0.0033774448
218	0xbd6253b5	-0.05525561
219	0xbcdc7729	-0.026912289
220	0x3afdf497	0.0019375262
221	0xbc269e9d	-0.010169652
222	0x3cbc10a3	0.022957152
223	0xbc784666	-0.015153503
224	0xbb05f40e	-0.0020439657
225	0x3d1f0a3b	0.038828116
226	0xbd714434	-0.058902934
227	0x3dbd0c03	0.09230807
228	0xbcbeee44	-0.023306973
229	0xbd397aea	-0.045283236
230	0xbccd1316	-0.025033515
231	0xbc898019	-0.016784715
232	0xbd1feba8	-0.0390431
233	0xbce12309	-0.027482526
234	0xbcfd0502	-0.030886177
235	0xbc5ac505	-0.013352637
236	0x3c05f66a	0.0081764255
237	0x3d165986	0.03670647
238	0xbdcf5654	-0.10123888
239	0x3bf1dbb3	0.0073809265
240	0x3ca35741	0.019939067
241	0x3d33d0a6	0.043900155
242	0x3dc65e46	0.0968595
243	0xbcb5284d	-0.022113943
244	0x3baf4335	0.005348588
245	0xbc45d9a4	-0.012075815
246	0xb9d4092c	-0.00040442625
247	0xbb971e3b	-0.004611758
248	0xbd065382	-0.032794483
249	0xbace3a60	-0.001573395
250	0xbb0cdebf	-0.0021495072
251	0xba91fc71	-0.0011137855
252	0x3b6eea53	0.0036455586
253	0x3d272a22	0.040811665
254	0xbd033110	-0.03202921
255	0x3c8f116d	0.017464364

bias f4 [12]
0	0xbe9b9189	-0.30384472
1	0x3e44f5a4	0.1923433
2	0xbe3ca89f	-0.18423699
3	0x3e255349	0.16145052
4	0x3e095711	0.1341212
5	0xbe598c86	-0.21245012
6	0xbea3e080	-0.32007217
7	0x3e55ab20	0.2086606
8	0xbdb4f590	-0.088359
9	0x3e88223a	0.26588613
10	0x3e72a0d6	0.23694167
11	0xbc314ecf	-0.010822012
