logs/go1_IROS/exported/policies/pos_obs45.pt (torch, 767893 bytes, 8 tensors)

weight f4 [512, 45]
00000000: e811 41be 1697 b0bd ae4a 4ebd 839b 2f3d
00000010: 793a 7d3e 0a11 cd3c 773b e0bd 9f70 8abe
00000020: 1b60 973e 15d4 16be 777a 46be 98e6 ea3d
00000030: c1d4 2c3e 0c0e 3b3f 13f8 71be 572f 983e
00000040: 919b 0c3f 03ba cfbe 4fc8 b23d b9f2 8dba
00000050: 399a 8c3e 9569 00bc e4bb a33e f6db 653e
00000060: 220a edbd 3786 efbd 5659 d13d 87cf 1b3d
00000070: c11c 97be 173d c73d f9eb 163d 0956 99bd
00000080: b910 523e cb43 c9bd fcba a13c cf6d 083d
00000090: 3efa 2cbe 73b0 6d3d 80a4 c13c 2402 f2bb
000000a0: 1fbe a83b 4d7e 39bd b640 adbd 1944 f13c
000000b0: 4b02 7cbd 7d71 fd3c e5f6 c1bd 0515 00be
000000c0: 43ac 783e 5db3 0dbe 4851 793d e345 e2bd
000000d0: 5358 633e a0a2 82be 0b5b 9abd b758 65be
000000e0: 4a90 b93d 84ae e4bc d8b4 883e 48a5 9dbe
000000f0: d59c 473f 7bd3 52be 555d 85be 288f 153f
00000100: 29d6 b9bd 0635 2a3e 33e8 f33d 90b4 aebc
00000110: 5f83 2a3e ece6 7c3e 98da 67be 53d3 d9bc
00000120: d601 8c3d 7d62 3b3e 52fc 66be 3dd1 823e
00000130: 0a89 83bd 1927 023e 1fe3 b93a 4232 aabc
00000140: 0eeb 093d 05a0 70bd 25ff 6a3b eb48 923c
00000150: b16e 88bc 6c22 cc3b 188f b2bc 2b04 d53a
00000160: c2bc 9c3c 1540 cbbd 0e6c c9bd 7a3e d8bd
00000170: a7e2 e13d db29 48be c911 e9be 5244 63bd
00000180: 1d08 f3bd c8e6 e93c 1a7d 34bc 48a0 0b3f
00000190: 935f f53d 95a4 cd3b 168f 143e 7151 4dbe
000001a0: 194a 7ebd ec90 c8be 4bca c23e 98fc 5dbe
000001b0: 43c5 283e b84e b43e a3ea 043e 712a b03e
000001c0: 86aa 093f e311 88bc 0e1a 6cbd b1d9 94be
000001d0: a613 cbbc c3a8 debe 0ce6 0dbe 2bf4 193e
000001e0: 0bc0 f83d af57 233e feb3 aa3d 56bc 0ebd
000001f0: 0d7f 47bd d4ed 493c c66c 933c 401b eabc
00000200: 8642 753c 2445 99bd bcfd ab3b 4b0e 483d
00000210: a6a4 54bb ce71 85bc 4df7 0d3c ac4c 12bd
00000220: cb59 d63d 93c3 a83e 387f 2f3f 363b 23bd
00000230: dd40 8bbd e07c 2ebd 43dd 693e cbd9 73be
00000240: 39a1 8b3e bad7 1fbd a09e 3ebe 526b bd3e
00000250: d219 3a3e cee2 15bd e16f 7fbe 20c1 913e
00000260: 7388 e23d 0535 4abe 0dd4 91be 03e1 693e
00000270: 3893 423e 5c0e e2bd eebd 88bd f255 5bbe
00000280: 766c 97bc 2c67 f83d 1b72 7dbe 0e0f 8a3e
00000290: f988 b63d 5c00 edbc 774b 31be c45e 773d
000002a0: 3ca4 693c b5e3 60bd d965 b9bc fadb 46bd
000002b0: 11eb 3c3d 3704 ca3d 8ab6 67bd d365 913c
000002c0: ada3 f1bd b181 36bd 9b3d dcbb 831a 47bd
000002d0: d9e0 5d3e 40be 0d3d 9a4a 79be 7304 d33e
000002e0: 3aa5 8c3e 3bd3 04be 3587 d3bd e161 9fbb
000002f0: e25c 69be 1cd7 34be 3198 8bbe 2665 98be
00000300: cbd0 203e f93c a7bb 7b3c 243e e750 a33d
00000310: 5589 ebbe 71cd b43e 4288 fd3d 658f 41be
00000320: 1b3d 15be c62e 813d 2d02 0e3e e4a8 133c
00000330: c809 a83d d625 a1bd 8ff9 00bd db2e 51bc
00000340: f546 893d c826 9bbd f23e cc3b 984d bdbd
00000350: 3906 b03e ba63 703d eca5 213d 3256 263c
00000360: bca5 3f3d e676 873c 15f1 923c 892b f73c
00000370: e4d0 123d d034 1aba f625 5c3d bdd3 39bd
00000380: d068 63ba 23a9 cebc ade5 31bd afc7 a93d
00000390: 7b5d 64bd ae77 df3d ebc5 a63d 9303 99bd
000003a0: 3257 96bd 6fc5 0d3e eda7 15be 5284 433d
000003b0: 48f0 b3be 3209 033d 9b43 f13c 9ce0 c83d
000003c0: 99a3 b9be 9670 ecbd 66b2 463e 6f8e e3be
000003d0: 7f83 5f3e c0bc 9fbe aa57 8cbe e933 52bd
000003e0: 0587 dcbc ca72 2dbe 6a36 c8bd 6bfb e4bd
000003f0: 2e9f d13d 6dac 8a3d b2e1 dbbc cb99 9c3e
-0.18854487 -0.08622567 -0.05036419 0.042872917 0.24729337 0.025032539 -0.10948842 -0.27039048
0.2956551 -0.1472934 -0.19382654 0.114697635 0.16878034 0.7306831 -0.23629789 0.29723617
0.54924875 -0.40571603 0.08729612 -0.0010829783 0.27461413 -0.007837673 0.31979287 0.2244719
-0.11574198 -0.11695521 0.102221176 0.03803971 -0.29514125 0.09728449 0.036846135 -0.07487113
0.20514192 -0.098273836 0.019742481 0.033307847 -0.16892335 0.058029603 0.02363801 -0.007385509
0.0051496173 -0.045286465 -0.08459608 0.029451417 -0.061525624 0.030937904 -0.094709195 -0.12508018
0.24284463 -0.13837953 0.06086853 -0.11048486 0.22201662 -0.25514698 -0.07536896 -0.22397123
0.09060724 -0.027915247 0.26700473 -0.30790162 0.7797368 -0.20588486 -0.2604777 0.58421564
-0.09074051 0.1662179 0.11909523 -0.021326333 0.16651677 0.24697465 -0.2264198 -0.026590025
0.06836288 0.18299289 -0.2255719 0.2555026 -0.064226225 0.12710227 0.0014182067 -0.020775918
0.03367143 -0.058746357 0.0035857644 0.017857036 -0.016654344 0.0062296893 -0.021796748 0.0016251853
0.019132975 -0.09924332 -0.09835063 -0.105587915 0.11029559 -0.19547217 -0.45521381 -0.055485077
-0.11866782 0.028552428 -0.011016155 0.54541445 0.1198112 0.006275723 0.14507708 -0.20050599
-0.062082384 -0.39173067 0.38044962 -0.21678388 0.164815 0.35216308 0.12980132 0.3440738
0.53775823 -0.016610092 -0.057642035 -0.29072335 -0.024789643 -0.4348813 -0.13857287 0.15034549
0.12146004 0.15951417 0.08335112 -0.03484758 -0.04870515 0.012324769 0.017996203 -0.028577447
0.014969474 -0.07483891 0.0052487534 0.048841756 -0.003244677 -0.016289618 0.008664918 -0.03571765
0.104663454 0.3296171 0.68553495 -0.03985139 -0.06799481 -0.04259956 0.22838311 -0.2381355
0.2727144 -0.039024092 -0.18615198 0.3699594 0.18173912 -0.03659325 -0.24945022 0.28467655
0.11061182 -0.19746788 -0.28482094 0.22839741 0.19001472 -0.11037895 -0.06676851 -0.21419504
-0.018484335 0.121290535 -0.24750559 0.2696461 0.08912844 -0.028930835 -0.17313944 0.06039311
0.014260348 -0.05490466 -0.022631573 -0.04854963 0.046122614 0.09864085 -0.056570567 0.017748749
-0.11798797 -0.044557277 -0.006721211 -0.048609268 0.21667804 0.034605265 -0.24344864 0.41214332
0.27469808 -0.12971203 -0.10328523 -0.004863963 -0.22789338 -0.17660183 -0.2726455 -0.2976467
0.15704648 -0.005103704 0.16038696 0.07974415 -0.46003214 0.3531299 0.12379505 -0.18902357
-0.14574091 0.063077495 0.13868017 0.009012435 0.082049906 -0.07868545 -0.031487998 -0.012767519
0.06702987 -0.07575756 0.0062330896 -0.092433155 0.34379748 0.058688857 0.039464876 0.0101523865
0.046788916 0.016536187 0.017937222 0.030172126 0.035843745 -0.00058825035 0.05374714 -0.045367945
-0.0008674981 -0.025227135 -0.043431927 0.0829004 -0.055753212 0.10911499 0.081432186 -0.07471385
-0.0734085 0.13844846 -0.1461484 0.047733612 -0.35144258 0.03199119 0.029451182 0.09808466
-0.36257628 -0.115449116 0.19403991 -0.44444606 0.21827506 -0.31198692 -0.27410632 -0.051319037
-0.026919851 -0.1693832 -0.09776004 -0.11180767 0.10235439 0.06771169 -0.026841018 0.30586085

bias f4 [512]
00000000: d238 7d3d 5b0e 67bd 2dc7 20bd 80f2 a1bd
00000010: 98b8 c1bd 4fe6 813b abe5 e6bc 768b f43d
00000020: 490e b3bd 17c4 eebd ea09 5f3d 8bd4 83bc
00000030: e2fb 9c3d 3b9e ae3d 20f8 c23c 2bbe ab3d
00000040: 68c9 3c3c 8095 77bc d3a6 4ebc 6667 d53d
00000050: 7ca8 993d 8a09 2d3d 8f70 d83c 4ef5 6a3c
00000060: 7135 42bd a4bf 9b3b 51fc f6bd 6428 383e
00000070: 5019 75bd ef47 efbc 4228 393d e271 1b3d
00000080: 0c0e 53bd f335 d13c fae8 22be d86b 883d
00000090: 0a10 8e3d 672b 083e 1830 d239 7fe8 0bbd
000000a0: 7d40 74bd 2838 abbd ba62 75bd d42a 9c3b
000000b0: 4dd1 073e 4a24 923d ba13 343d f246 09bc
000000c0: c445 ebbd d19a 4a3d bf47 eebb 4807 923c
000000d0: 5734 8cbd 4623 fb3c 20e4 b63d bea3 583d
000000e0: 7f72 883d 02cd 693c f6b8 38be f849 53bd
000000f0: 920f cabd a4bb a53d e1a7 283e 1976 f83c
00000100: 8ce3 b23d cf6a 08bd 20e8 45bd ebf8 773c
00000110: 8916 013d 90cd 79bd 6c5c 783c 5060 043d
00000120: e84e 59bd 55e5 12be 7786 1dbc bf0e 05be
00000130: 4168 3e3c 9b69 03be 1951 fdbd 80f6 263e
00000140: b474 ab3d 749b f3bd 74cf bb3d 800f 55bd
00000150: 8928 6cbc 488a 2abe f475 223d 9d2b c9bd
00000160: 12f0 833d 7d2a 883a 710c 083a 989a a2bb
00000170: 6981 a73d 4eab 51bd 74fb d93c b978 99bd
00000180: 69e3 bebd 1555 87bd 0a56 a7bd 7259 d6bd
00000190: 863f e43d 16d3 9d3d 78f2 8cbb afe9 ae3d
000001a0: 1e9d 953d 04cb 33bd 9bbc e23d f8c6 e43d
000001b0: 53af f13d 679a 973d 7dd0 7abd 5f68 e2bd
000001c0: 604b 5d3c 5983 c23d d17f 86bd fc1d 553d
000001d0: 5a04 063e c6d3 2b3e 108b 10bd eb1b 723d
000001e0: 2d3f c13c dde0 163e c92f 033d 7998 413d
000001f0: 620c cf3d d2f4 a4bc 103f 9c3d d87c e5bd
00000200: b6b3 d73d 60f1 08be 5505 07bd ef5d 343b
00000210: 49e3 663c bf76 10be dbcc 7d3d 6d26 083e
00000220: 019f b6bd 40a8 6bbc 833b 89bd 25b8 08be
00000230: bb3d 63bd 6c47 7abd 8fe6 293c 7c77 d73b
00000240: b4a3 963d e587 8a3a dad1 f5bd 9269 cebd
00000250: 3446 9f3d 5407 b83c c728 dabc 17c3 dab9
00000260: 9b4e 05be 6f5a a4bb 8324 96bc 9ac6 01bc
00000270: 6194 d7bd 76ea 0dbe d2ce a93c 1460 ffbc
00000280: 9b8a 16be fb7b d0bc a66e 68bd 3854 123c
00000290: f75d dabd f5b2 be3d 783b dcbd 6b65 3b3d
000002a0: 7383 3e3d 6bf7 8c3d 3209 f2bd a7ab 95bd
000002b0: df45 bbbd 46cc 37bd db73 c03d f2aa 543d
000002c0: 6410 823c cab0 7c3d b551 6a3d 2e72 a43d
000002d0: 6ec1 823d bd32 54bd 91e0 5f3d 9477 8bbd
000002e0: 8408 f4bc 3254 bbbd 2b32 9f3d 6ff1 b5bc
000002f0: 79f5 d43d 5770 e1bc ce2c 3abe 145a 31bd
00000300: 735c 023e 17c4 fe3d f54f 50bd 8281 2bbe
00000310: 76e7 9b3b 424f 953d 2793 333c 51c8 16bd
00000320: 05b4 423d c4b5 13bd 2a7c d13c 4a8e a43d
00000330: 3e2c 90bc 7abf 0dbd 8ee4 773d 4b83 d6bc
00000340: 9f95 a53d ebbc 39bd a2c4 e8bc 5fd5 a93d
00000350: 3bf6 d13d 5519 e93d c972 8fbd 77f4 b2bd
00000360: 49fc 993d fdb5 1ebd 6483 9f3d a6c9 17bd
00000370: 5f41 4a3d 470d cc3d f326 a9bd b94e 673c
00000380: b690 183e eab3 9abd 4f13 d93c bc23 263e
00000390: 8b0e 12be 3f15 90bd 4dca a2bc b846 d93d
000003a0: c205 c7bd 0780 a9bd 7455 373c 5706 eebd
000003b0: 6f43 7e3c 8e0e 18bd 6b06 96bd 022b 96bd
000003c0: c8a8 303d 1715 4abd 8b88 9dbc 79da af3b
000003d0: a11f 333d 0191 96bd b1df a7bd dec1 babd
000003e0: 7f9c ce3d c9b6 cabc 741a cfbd 0b5e e33d
000003f0: b7c4 103e 3d73 463d be83 d93c cb2d 1ebd
0.061821766 -0.056410175 -0.03925245 -0.07907581 -0.094590366 0.0039642225 -0.028185686 0.119406626
-0.08742959 -0.11658495 0.054452814 -0.01609256 0.0766523 0.08526274 0.023799956 0.08385881
0.011522628 -0.015111327 -0.012613016 0.10420112 0.07502839 0.042245425 0.02642086 0.014340712
-0.047414247 0.00475307 -0.12059844 0.17984158 -0.059838593 -0.029209105 0.04520441 0.037950404
-0.051527068 0.02553842 -0.15909186 0.066611946 0.06936653 0.13297807 0.00040090154 -0.034157272
-0.059631813 -0.0836032 -0.059908606 0.0047658477 0.13263436 0.07135828 0.043964125 -0.008378731
-0.11487916 0.04946405 -0.0072717364 0.017825738 -0.068459205 0.030656468 0.0893023 0.05289053
0.066624634 0.014270069 -0.18039307 -0.051584214 -0.09866251 0.0809243 0.1647029 0.03032975
0.08734807 -0.033304986 -0.048317075 0.01513503 0.03151563 -0.060987055 0.015158754 0.032318413
-0.053053766 -0.14345296 -0.009614578 -0.12993906 0.011621536 -0.12833254 -0.12368984 0.1630497
0.08371869 -0.11894885 0.09170428 -0.052016735 -0.014413961 -0.16654313 0.03966327 -0.09822772
0.06442274 0.0010388639 0.0005189842 -0.0049622767 0.0817898 -0.05118876 0.02660916 -0.07493729
-0.09320719 -0.06608025 -0.081707075 -0.10466279 0.11144929 0.07706277 -0.0043013655 0.08540665
0.07305358 -0.043894783 0.1107113 0.11170763 0.118010186 0.07402497 -0.061233986 -0.110550635
0.01350674 0.09497709 -0.06567348 0.05203055 0.13087597 0.16780004 -0.03528887 0.059108656
0.023589695 0.14734216 0.032027993 0.04726455 0.10109784 -0.02013627 0.07629216 -0.11205453
0.10532324 -0.13373327 -0.03296407 0.002752181 0.014092275 -0.14107798 0.061962944 0.13295908
-0.08917046 -0.014383376 -0.06700804 -0.13351496 -0.055478793 -0.06110327 0.010369911 0.006575523
0.07355443 0.0010569064 -0.12002917 -0.1007873 0.07777062 0.022464432 -0.026630772 -0.00041725553
-0.13018267 -0.0050156633 -0.018327957 -0.007920885 -0.10526348 -0.13858971 0.020728502 -0.031173743
-0.14701311 -0.025449743 -0.056746148 0.008931212 -0.106624536 0.09311477 -0.1075353 0.045751017
0.04651208 0.06883129 -0.1181816 -0.07308131 -0.09144186 -0.044872545 0.09397098 0.05192084
0.015876956 0.061692037 0.05720683 0.080295905 0.0638455 -0.0518062 0.054657523 -0.06809917
-0.029789217 -0.09146918 0.07773241 -0.022209851 0.10398383 -0.027519388 -0.18181154 -0.043298796
0.12730579 0.12439745 -0.050857503 -0.16748622 0.004757817 0.07290508 0.010960377 -0.03681213
0.04753496 -0.036062017 0.025571901 0.08034952 -0.017599221 -0.034606434 0.0605207 -0.026185652
0.080851786 -0.04534618 -0.028414074 0.082926504 0.10252043 0.11381785 -0.070043154 -0.08738034
0.07518823 -0.038747776 0.07788733 -0.03705754 0.04937875 0.0996347 -0.08259382 0.01411789
0.14898953 -0.07553847 0.026498465 0.16224569 -0.1426336 -0.07035302 -0.019871855 0.10609192
-0.09717895 -0.082763724 0.011189807 -0.11622303 0.015519007 -0.037123255 -0.07325443 -0.07332422
0.043129712 -0.04933652 -0.019230148 0.00536662 0.043731336 -0.07351876 -0.081969626 -0.091190085
0.10088443 -0.024745362 -0.101124674 0.11101922 0.14137541 0.048449744 0.026552077 -0.03861789

weight f4 [256, 512]
00000000: f42c d9bc c379 38bd feaa cdbb 557e b9bd
00000010: 1109 8fbc 6ed1 1f3c c594 233d a129 c9bd
00000020: b082 663d d257 bd3c fcc9 debd 8e8a f539
00000030: 431f d4bc 3938 a7bb 8fc4 e8bb 6d58 aebd
00000040: bea3 003d 0524 a13d 11fd 3cbd b1a4 073d
00000050: 2fc4 7cbd c75e a2bd c4c4 623b 7ff8 aebd
00000060: 030e 6f3c 7a1a 293d 4f43 a1bd 93ed db3c
00000070: 312d f93d c69f 933c e293 a73c 0bd2 4dbd
00000080: b38d b53d 33c0 f13d bb46 71bc 06f0 423d
00000090: 5fed 14bc 282d 6bbc 130c 22bd 85af ddbd
000000a0: c2d1 22bd 795a c1bc 9e15 69bd 59df b63d
000000b0: e1d3 a83c e904 04bd 2a62 853d 0227 043d
000000c0: ae32 2cbd 86bc 8cbd d490 13bd 8ae3 85bc
000000d0: f4cc 29bb 97c8 1d3d a657 0fbd 7805 1abc
000000e0: f58a 083c 4c6f e03c c1e0 6b3c ee3b 23bd
000000f0: e15b 833a 7a95 b63b afaa 8ebc f2a9 81bc
00000100: 063d 393d 6fee e4bd 7dcc 1f3d 1832 0ebd
00000110: 9671 f53c dd33 2b3d 2f76 cabd 9146 7bbd
00000120: 8f23 cbbb 3320 8abc da0a cebc 7787 743d
00000130: 0f29 8f3d 2197 02bd 2e4f c53c 2727 033d
00000140: 58f4 203d a273 9bbc 1c04 a63c 1076 23bd
00000150: 1b1f 883d d1e8 673d 6aea ba3d aa58 3ebd
00000160: 11c7 693d 1885 66bd 981a acbd 996a 7a3d
00000170: 23a7 6fbc a90a 8fbb 2e58 78bc 04a0 a4bc
00000180: 04b2 85bd 90d3 e63c 4283 993d 8452 b6bd
00000190: 3f6a 2a3d 1a6c e7bd 4c9d 0c3c 5c05 44bd
000001a0: a21a aabd c34e b0bd 3dca 863d e818 783b
000001b0: 965e 02ba 8666 adbd 66cf debc 95bc dbbc
000001c0: 5ee6 f13c c2da 833d 03f1 87bd 1a91 71bc
000001d0: 2d96 d7bc 1cc3 b63d 8a59 533c 3ec2 47bd
000001e0: 3442 c83d 0d95 013d db4c 6abd e7bc bf3c
000001f0: b075 993d 9739 cfbd a036 04bd 01d8 c73d
00000200: ae0b 74bb 84af 8fbd 994b 1b3d 9d13 553d
00000210: e0db 1e3d 3551 6abd 1faf fcbd 1d13 0b3d
00000220: d4dc 883c ef5a b03c f934 ec3c a52e 9c3c
00000230: e66e 54bd d375 adbd b2af 303d 5272 6abc
00000240: 0872 dbbd 9070 1abc 7768 aa3d 33ac aa3a
00000250: 7ab4 3abd e93d 10bd 4dc0 f8bc 2372 063e
00000260: e54d 2a3c f1cb 8fbd c553 81bc 672c ea3b
00000270: d35b 5a3c b06b 31bd c2d6 00bc cf50 b23d
00000280: 18fb 723c 0a37 6f3d bb2a 42bc af30 9bbd
00000290: fabd dfbd edc4 90ba b674 a9bd 0cfa 9e3d
000002a0: 8972 64bc 39f2 b8ba 9c65 53bd 0c29 fdbd
000002b0: 8aef cd3c 2ee3 a73d 6601 a73c 047f fe3c
000002c0: c30a 80bd afe4 2a3b c63f 643d 3160 9f3d
000002d0: b6d1 74bd 2971 b3bd 85ad 73bd 5311 583c
000002e0: d533 7abb 18b2 1ebc 45e7 ecbd 56b5 db3d
000002f0: 3cd1 cbbc f9e4 efbc 2b2c 98bc f90f 9e3d
00000300: 540a 8ebd 6940 56bc b725 c23b 0139 703d
00000310: cdff 193d c7eb 483b ac18 793d c85d 553d
00000320: f951 dc3c 4e14 5cbc 3143 c7bd a600 e7bc
00000330: c1c0 423d 57f1 b3bb 569c 08bd ffdb 96bc
00000340: 380c 9cbd 086e e23c 1558 d4bb bb2b 5ebc
00000350: 263b 25bc 6b9d eabb 805f c23c 2373 e03d
00000360: d35e 3bbd bb3d 2bbd 42ad a4bd 5450 693d
00000370: 2fdd c33c f792 303d 52f0 86bd d216 e6bc
00000380: 3db7 5dbd 0e10 0b3e e476 03bc 9df9 ba3d
00000390: 7227 efbc ada1 24bd 4b2e 333d e2b0 ddbc
000003a0: 7f99 cc3d 18e9 19be 29ff 77bd a313 68bd
000003b0: 5df1 203d 01db dabc c632 72bc 871c 03bc
000003c0: 3d6b 5f3d 4723 59bd 3788 033d c78f a4bb
000003d0: 7393 a33b a1e5 a4bc 17b2 e3bd 533c 6abd
000003e0: 848a 73bc d7e2 efbc 21fe efbc ff24 133e
000003f0: de2d a73d 47cf 3c3c 3eec 7abd d42f a53c
-0.026510693 -0.045037996 -0.0062764874 -0.09057299 -0.017460378 0.009754522 0.0399368 -0.09822393
0.056276977 0.023113165 -0.10878369 0.00046833273 -0.025893813 -0.005103138 -0.0071035097 -0.0851296
0.031406157 0.07868198 -0.04613978 0.033116046 -0.061710533 -0.079282336 0.0034602145 -0.085434906
0.014590743 0.041285016 -0.07874166 0.026846683 0.12166823 0.018020522 0.020456258 -0.05024914
0.088649176 0.11804237 -0.014726336 0.047592185 -0.009089797 -0.014354028 -0.039562296 -0.10824493
-0.039750822 -0.023602711 -0.05690538 0.08929319 0.020608844 -0.032231245 0.06512864 0.032263763
-0.04204052 -0.068718955 -0.03602679 -0.01634385 -0.0025909515 0.038521376 -0.034995697 -0.009400718
0.008333911 0.02739682 0.014396847 -0.039852075 0.0010021889 0.005572018 -0.017415373 -0.015828107
0.045224212 -0.1117829 0.039013375 -0.034715742 0.029961389 0.041797508 -0.09885823 -0.061346594
-0.0061993073 -0.016861057 -0.025151659 0.0596995 0.06990253 -0.03188241 0.024085607 0.03201976
0.039295524 -0.018976036 0.020265631 -0.039907515 0.06646558 0.056618515 0.09126742 -0.046471275
0.05707461 -0.05627927 -0.0840351 0.061136816 -0.014627251 -0.0043652845 -0.015157742 -0.020095833
-0.065280944 0.028177053 0.074957386 -0.08902457 0.04160523 -0.112999156 0.008582424 -0.047856674
-0.08305861 -0.086087726 0.06581543 0.0037856642 -0.0004973201 -0.084668204 -0.027198505 -0.026823321
0.029528793 0.06438209 -0.06637766 -0.014744068 -0.026316727 0.08923933 0.012899766 -0.04876923
0.09778252 0.031636287 -0.0572022 0.023405505 0.0749315 -0.10118406 -0.032278657 0.09757996
-0.0037238407 -0.07015899 0.037913892 0.052020658 0.038783908 -0.05720635 -0.12338089 0.033953775
0.016706862 0.021527736 0.028833853 0.01906521 -0.051863573 -0.08469739 0.043136306 -0.014309483
-0.10715109 -0.009426251 0.08320706 0.001302129 -0.045582272 -0.035215292 -0.030365134 0.13129477
0.010394548 -0.070213206 -0.015787015 0.0071464065 0.013327557 -0.04331559 -0.007863702 0.08706819
0.014830373 0.0584021 -0.011851008 -0.07577645 -0.10924907 -0.0011045017 -0.08274214 0.077625364
-0.013943323 -0.0014110274 -0.051610574 -0.12361345 0.025138635 0.08197628 0.020386409 0.031066425
-0.06252053 0.0026076247 0.05572488 0.07782019 -0.05977031 -0.08761818 -0.059491653 0.013187724
-0.0038177867 -0.009686016 -0.11567549 0.107279465 -0.024880044 -0.029283987 -0.018575748 0.0771789
-0.06935564 -0.01307688 0.005924906 0.058648113 0.037597466 0.0030658112 0.060814545 0.05209139
0.026894556 -0.013432575 -0.097296126 -0.028198551 0.047547106 -0.0054914164 -0.03335222 -0.01841545
-0.07619518 0.027640358 -0.0064802268 -0.013560231 -0.010084903 -0.007159879 0.023727179 0.109594606
-0.04574473 -0.041806918 -0.08040859 0.056961372 0.02390918 0.043108907 -0.06588806 -0.028087053
-0.054129828 0.13580343 -0.008023951 0.09129641 -0.029193614 -0.04019325 0.04374532 -0.027061883
0.099902146 -0.15030324 -0.060546074 -0.056659352 0.039292682 -0.026715757 -0.014782613 -0.008002407
0.05454563 -0.05301216 0.032112326 -0.0050220224 0.0049919426 -0.020129027 -0.11117952 -0.057186436
-0.014864568 -0.02928297 -0.029295983 0.14369582 0.08163045 0.011524028 -0.061260454 0.020164408

bias f4 [256]
00000000: ce44 07bd b622 7bbd 218a abbd b81a 9ebc
00000010: 416e 3c3c f9d0 bcbd 856a bebc e411 123d
00000020: 36c7 0bbc 74d3 b53b e10c 3bbc b336 cdbd
00000030: fea2 e1bd 47c4 18bd e79a 36bc 2b59 2ebb
00000040: b0c7 183c ea42 a4bd 6f61 cbbc f811 39bd
00000050: 20d2 d1bd 8be4 87bc 1304 ecbb 848c b5bd
00000060: e4ad 1ebd 0507 09bc 9922 ecbd 31de 39bc
00000070: 0b0a c9bd c868 babc 6888 33bb 3d01 a3bd
00000080: a83c 193c 7da7 ccbd 5833 c1bc 3782 5ebd
00000090: f439 45bd 0932 cabd 4982 03be 5ed9 3dbd
000000a0: db45 e43c 037f 60bd 3e29 a9bd 6180 8ebd
000000b0: dd15 993c 5e55 06be 5af2 93bb 81be 69bd
000000c0: 5bde 1abd ac8b 41bd 5656 ecbc 5b99 e2bc
000000d0: b4c5 23be 0262 a8bd 6dd0 3ebd 7fad 33bd
000000e0: 183b 22be 6822 8dbd 58bb abbd 8e1a 2bbe
000000f0: 4255 0e3d a27c 1b3c 3942 e6bc 02b6 f53c
00000100: 5f61 dfbd 67d4 b1bc a1b2 29be f825 81bd
00000110: 9889 05bd 7703 123c e5fe 04bd 4f1c 983c
00000120: 4c12 d03c b3bd 03be 1626 c8bd 99fc bb3c
00000130: 5289 c5bd 4101 7abd e486 44be 24dc e7bd
00000140: d55e 68bd b994 11bd dfe2 89bd 835c 803c
00000150: c8c0 58bd d99b 233b 9aa5 83bd ec60 8bbc
00000160: 78ae 0cbe 8515 633c 7f3e 47bd 9c86 28bd
00000170: b640 c4bd 1371 57bd 6cb5 0cbc 2edd eabd
00000180: 57c1 5fbc 3c99 74bd 26ce 7fbc ceb2 cebd
00000190: 0b80 45bb d274 00bd 6083 86bd 3548 3abd
000001a0: 5345 ab3a 2c5b 0cbe 02b5 7cbc 5c23 debc
000001b0: 3ec1 813d 38b3 e93b bfa9 8cbc 3632 a63b
000001c0: c649 fcbc 1710 02be 4d0a 5fbd d4c5 9bbd
000001d0: 5325 6c3c dfd4 78bd 966a 82bd 32f5 553d
000001e0: d381 ffbd 5ced d0ba f1e7 133c 9d0f a6bb
000001f0: dc8f 7d3c db50 073c 64c0 a33b 3b2c 03bc
00000200: e30b 15be e4e7 bdbc bb8c 90bd c60f 8fbd
00000210: dbc2 d23a a91d 93bd 39d6 9abd c27b e93c
00000220: cdca 67bc 2a18 34be 6883 8bbd ab36 4bbe
00000230: 8dab 3bbd cdac 95bd 0929 713a 4b08 a9bd
00000240: 3970 06be 8202 29bd bfdc 85bd 5d41 37bd
00000250: ac3c 48bd 1e97 c1bc 27b3 17bd 1e75 98bd
00000260: 94a1 6abd 439c d63c 2153 183c 2abc 93bd
00000270: 307c b1bb 0e57 bcbd a357 a43c b021 3ebe
00000280: 1624 2e3d ce28 76bd b462 ffbd 5e7b 60bd
00000290: 91d0 aebd 9ecf dabc d93f 9cbd b504 2dbd
000002a0: 8e2b 46be 16ab babc 287d 4bbe aa6b 0abd
000002b0: b15f 24be 1cec 4bbd a6ac d9bc 5d7d b43c
000002c0: b440 b7bd c815 25bd 1cf0 efbc 0a1b bfbd
000002d0: fe55 f13b 2155 8dba a77d 2bbb 8b46 40bc
000002e0: 143b 07bd f154 e9bc 109f e1bd 4ca8 0bbd
000002f0: f74f 40bd a12b 02bd 41b1 8cbd 6a54 7ebc
00000300: 49a7 71bd 3380 b7bd eef5 ce3a 6bf9 8dbd
00000310: 9ab1 2abe e437 37bd 453b 36bd 1cce afbc
00000320: 93c5 37bd 5701 c1bd e641 34bd 0341 713c
00000330: 9df3 743c 5b17 af3b 0673 1bbe aab6 a4bd
00000340: 69c5 113d b2e2 34bc 8557 dbbd 6064 423b
00000350: 7568 23bd 3479 0cbe bf79 17be 2a01 40bd
00000360: ae05 9cbd 2fff 9cbd 78d5 c0bd d9f0 c6bd
00000370: 279a 01bd 9484 e0ba c777 83bd b7d8 06be
00000380: 6be5 8ebd 502a bfbd 1dcb 94bd d447 d4bc
00000390: 43c2 46bd 9295 34bb 2e93 59bd 9586 ce3b
000003a0: f5da 1ebc d2e0 ebbd 36af 78bd 5509 033d
000003b0: b60b f2bd 1076 3abb c621 17be f5e4 b7bd
000003c0: aa9e 04bd 1ef9 78bd ce2a 1dbd 677f aebd
000003d0: 8d47 62bd 8792 9ebd 50d2 8a3c d859 f7bc
000003e0: c8f6 06bd 2b9f 083a 3308 e0bc 8562 24bd
000003f0: 3f05 82be 164c 46bd 7444 eabd 8b99 68bd
-0.0330246 -0.0613124 -0.083759554 -0.01929985 0.011500896 -0.09219546 -0.023244152 0.035661593
-0.008531382 0.005548889 -0.011416645 -0.10020199 -0.110174164 -0.03729656 -0.01114533 -0.0026603441
0.009324953 -0.08020575 -0.024826733 -0.045183152 -0.10245156 -0.01658847 -0.007202634 -0.08864692
-0.038740054 -0.00836349 -0.115300365 -0.011344478 -0.09816369 -0.022755042 -0.0027394537 -0.079592206
0.0093528405 -0.09992883 -0.023584053 -0.0543234 -0.04815097 -0.09872825 -0.12842669 -0.046349876
0.027865341 -0.054808628 -0.082598194 -0.0695808 0.018687183 -0.13118502 -0.0045149745 -0.057066444
-0.03780971 -0.047252342 -0.028849762 -0.027661016 -0.15993387 -0.082218185 -0.04658549 -0.04386663
-0.15842855 -0.06891328 -0.08385342 -0.16709349 0.034749277 0.009490164 -0.02810775 0.029994015
-0.10907244 -0.021707727 -0.16572048 -0.0630607 -0.032601923 0.008911959 -0.03246965 0.018568186
0.02539935 -0.12865333 -0.09772889 0.022947596 -0.096453324 -0.061036352 -0.19192082 -0.11321285
-0.056731064 -0.035542224 -0.06732725 0.015669113 -0.052918226 0.0024964719 -0.0642807 -0.01701399
-0.1373843 0.013860111 -0.048643585 -0.041144 -0.09582655 -0.05259807 -0.008588176 -0.11467968
-0.013656936 -0.05971645 -0.015613114 -0.10092698 -0.0030136134 -0.03136141 -0.065680265 -0.04547902
0.0013066925 -0.13706654 -0.015424015 -0.02711647 0.06335686 0.0071319602 -0.017170785 0.0050719036
-0.030796897 -0.1270145 -0.054453183 -0.07606092 0.014413196 -0.060749885 -0.06367986 0.05223579
-0.12475934 -0.0015939879 0.009027467 -0.005067779 0.015476193 0.008259024 0.0049973 -0.008006151
-0.14555316 -0.023181863 -0.07058092 -0.069854304 0.00160798 -0.071833916 -0.07560391 0.028501395
-0.014147473 -0.17587343 -0.06812173 -0.19845073 -0.0458179 -0.0730835 0.0009199535 -0.08253535
-0.13128747 -0.041262157 -0.065362446 -0.04474007 -0.048885986 -0.023631629 -0.037036087 -0.07444213
-0.057283 0.026197558 0.009297163 -0.07213624 -0.0054164156 -0.09196292 0.02006132 -0.18567538
0.042514883 -0.060097508 -0.12469998 -0.054805152 -0.08535875 -0.026710328 -0.076293655 -0.042240817
-0.19352552 -0.022786658 -0.19871962 -0.033794083 -0.16052128 -0.04978572 -0.026571583 0.022032434
-0.08947888 -0.040303975 -0.029289298 -0.09331329 0.0073649874 -0.0010782817 -0.0026167424 -0.011735569
-0.033015326 -0.028482886 -0.11016667 -0.034096047 -0.04695126 -0.03177989 -0.06869746 -0.015523056
-0.058997426 -0.08959999 0.0015789845 -0.06932338 -0.16669312 -0.044731036 -0.044490118 -0.021460585
-0.044866156 -0.09424084 -0.04400816 0.014724973 0.01495066 0.0053433604 -0.15180597 -0.08042653
0.035588656 -0.0110403765 -0.107100524 0.002966188 -0.03989454 -0.1371811 -0.14792536 -0.04687611
-0.07618271 -0.0766586 -0.09415716 -0.09713907 -0.03164115 -0.0017129355 -0.0641933 -0.13168608
-0.06977352 -0.09334242 -0.07265303 -0.025913157 -0.048525106 -0.0027554971 -0.053118877 0.0063026645
-0.009695758 -0.115174904 -0.06071397 0.03199132 -0.1181864 -0.0028451718 -0.14758977 -0.08979217
-0.032377876 -0.06078445 -0.0383709 -0.08520394 -0.055244017 -0.077427916 0.016945988 -0.030194208
-0.032950193 0.0005211706 -0.02734766 -0.040133018 -0.25394627 -0.048412405 -0.11438838 -0.056787055

weight f4 [128, 256]
00000000: 9924 a3bc 4f94 3c39 29e2 12be f376 eb3b
00000010: b695 8b3c 5ab4 9e3c 5a80 2bbd 6571 f1bc
00000020: a291 2fbd e1e5 62bc 1b82 13bc 6a1d 0b3d
00000030: 766c bbbc b690 6c3d 017b 97bb 3172 c9bc
00000040: 0a26 0ebd 1d8c e4ba ff47 69bd d4af 58bd
00000050: e44b cdbb a550 d2bd be69 e8bd e131 15be
00000060: 9e65 9d3d 29fc 9a3b e38d 0ebe b9c9 66bd
00000070: c956 b13d 3af9 3bbc 1dd2 b53d eac6 a6bd
00000080: f49e c13b d4be 013d f0ad 0abc 050a cc3d
00000090: b7d8 8abc 18c5 fcbc 8b63 9cbd f4d0 1b3d
000000a0: cce7 293d 8c46 84bc 307a 93bc 7fa4 52be
000000b0: e56b 04be 0a8b 1dbe 1135 7fbc a045 54bd
000000c0: ff72 97bc 8277 823d 1db4 0f3d 65a8 a8bd
000000d0: b210 283e c16c 533b f8a0 04bd 5763 e83b
000000e0: 85c9 c43c b559 d8bd dd9a 12bd cd7d fd3d
000000f0: d4c4 4f3d 7235 543b 1277 cabc ea74 4cbc
00000100: 081a 0dbe 58cc 093c d5bf 2abd 767c c8bc
00000110: fc01 cb3c c642 093d 0119 9abd ea10 a2bd
00000120: a3e4 c93b 4342 9ebd 1831 8d3c 375a 98bc
00000130: 38af d3bb 8697 76bd 8926 473d b5a8 5bbe
00000140: 9db9 87be ea0f 9abc 3b97 f63c b9aa 15bd
00000150: 6f46 13bd e3ae 03be 41e6 07be a5a7 31bd
00000160: d254 923d be65 8c3b d814 8b3d 8b49 f3bb
00000170: 0d55 dfbc a356 debc 7cc5 58bd 3ded 00be
00000180: 28dc 2abd 9152 3e3a c57f e93d d2f1 0dbe
00000190: 22ca 4e3c 9fbe 5fbd cf15 73bd 1f1f b03d
000001a0: 33fc d7bd 7b64 b9bd 8e38 f5bd a8ec 96bc
000001b0: 1538 373d ed43 bebd 6448 da3d 6b9e 42bd
000001c0: cb6d 02bd 7daf 91bc b689 ccbd cf00 1c3c
000001d0: ac3a 8d3d 7375 1b3d ba7a cf3b 8bc0 8b3d
000001e0: a4a7 0dbd ede4 ebbb 948b 53bb edb0 abbc
000001f0: 668e 3bbd 1e1f 83be 2938 6dbd 4f2f 283d
00000200: c45d 66bd b3dd 9fbd f31a 0c3d ce64 563d
00000210: ce1b 7bbd adbf 9f3c 687f e7bd e493 92bc
00000220: df90 883c d926 d3bd 156e 6fbd ed41 a23c
00000230: 47fd a6bd 1a7c 89bc 42bc c0bb b0ba 523d
00000240: dcf3 313c c0f6 2dbe 1a51 26bc 1439 e7bb
00000250: 0c1f 673b 6a6c 233d 697e 5c3d d23a 1dbc
00000260: 07c9 02bd 0e8c 9cbd 319a 5fbd a672 f3ba
00000270: 3935 94bc 5648 c13d f755 22bd 81ed fbbd
00000280: 7753 673c cf69 24bd c183 6abd 20a6 a33c
00000290: 42a0 d3bb 015b 8ebd 3332 e13a 0300 c5bd
000002a0: 6d49 b73d 5388 acbe 5903 393e 6195 68bd
000002b0: ba05 1a3e f3fd 8a3c 7d35 9fbc 47db 58bd
000002c0: 428b ea3b 34df 11bc 4cb0 063b 035b 203e
000002d0: f8a1 52bd 5a09 aebd 8c9e 0b3c e24c 49bd
000002e0: fcaa b33c 0e0b 5ebd 03e5 debc 7d6e 93bb
000002f0: 0442 febc a937 2b3c 896d 9d3b f011 2ebd
00000300: 37f6 de3c aa31 86bd 1e17 8bbc 0687 19bd
00000310: 6c36 5ebc 98d8 f63b aaeb c33a 27d3 3ebd
00000320: 43ae 8b3d 8750 3f3d 9aa4 efbd b167 7bbd
00000330: f287 fcbd dae6 abbc 47c3 afba c0eb 26bc
00000340: 4755 3fbd ad07 763d 2ea2 50b9 7688 5dbd
00000350: 745c 06bd 5ce9 273e e8a1 87bd 075b d5bb
00000360: 19ed a43d 58c7 a83d 888b 2c3c 5b5c f2bd
00000370: dedc c1bd 1876 1b3d 8ecb a1bc d1de 3ebd
00000380: 7352 5f3d 0964 37bc acbe edbd dda2 103d
00000390: 08b2 7fbc 5311 d83d 48d7 133d 7266 ad3d
000003a0: 5e33 0dbd ffd9 513d 3143 62bb 47cb 1dbe
000003b0: aad4 173d d7a6 b93c 59b0 953b 913f 0b3d
000003c0: 47aa 843d 1609 a4bb b622 793c 57b1 02bd
000003d0: 6bfa 4e3d dacd aabc c308 57bd c941 4dbc
000003e0: fb2c bebc 5fc8 f23c aec1 be3d 5119 aebc
000003f0: df51 cabd 4362 8fbd af95 99be 1a23 11bd
-0.019914912 0.00017984326 -0.14344086 0.0071858107 0.017039161 0.019373108 -0.041870452 -0.029473016
-0.042863496 -0.013848753 -0.0090031875 0.0339636 -0.022878867 0.057755195 -0.0046228175 -0.024590584
-0.034704246 -0.0017436777 -0.056953426 -0.052902058 -0.0062651504 -0.10269288 -0.11348294 -0.14569809
0.076853976 0.004729767 -0.13921313 -0.05634472 0.08659131 -0.011472994 0.088779666 -0.081434086
0.0059088413 0.03167613 -0.0084643215 0.099628486 -0.01694904 -0.0308557 -0.07636174 0.03804107
0.041480824 -0.01614692 -0.0180026 -0.20570563 -0.12931783 -0.1538507 -0.015576617 -0.051824212
-0.018487452 0.063704506 0.03508388 -0.08235244 0.16412619 0.0032260867 -0.032380074 0.0070919204
0.024021873 -0.10563985 -0.03579222 0.1237751 0.05072482 0.0032380489 -0.02471498 -0.012479046
-0.13779461 0.008410536 -0.04168685 -0.02447341 0.02478122 0.033510946 -0.075243 -0.07913382
0.006161289 -0.07727482 0.017235324 -0.018597705 -0.0064600967 -0.060203098 0.048620734 -0.21451075
-0.265088 -0.018806417 0.03010141 -0.036539767 -0.035955843 -0.12859683 -0.13271429 -0.04337277
0.071450844 0.0042845896 0.06791085 -0.0074245385 -0.027262235 -0.027140921 -0.05292271 -0.12590499
-0.041713864 0.0007260228 0.11401323 -0.13861778 0.012621434 -0.05462515 -0.05934697 0.08599686
-0.1054615 -0.09052368 -0.119736776 -0.018423393 0.04473122 -0.092902996 0.10658339 -0.04751436
-0.031842988 -0.017783875 -0.09987204 0.009521677 0.068959564 0.037953805 0.006331769 0.06823834
-0.034583703 -0.007198921 -0.003227924 -0.020958388 -0.0457901 -0.25609678 -0.057914887 0.041060742
-0.056241766 -0.07805958 0.03420539 0.05234223 -0.061305813 0.019500578 -0.11303598 -0.017892785
0.016670642 -0.10310144 -0.05845459 0.019806826 -0.081537776 -0.016782809 -0.005881817 0.05144757
0.010861363 -0.16988659 -0.010151172 -0.007056365 0.0035266308 0.039898314 0.05383149 -0.009596543
-0.031929996 -0.07643901 -0.054590408 -0.0018573597 -0.018091785 0.09437625 -0.039632764 -0.1230116
0.014119021 -0.04013997 -0.057254557 0.019976676 -0.006458313 -0.06950951 0.0017181098 -0.09619143
0.08949552 -0.33697757 0.18067683 -0.056783084 0.15041247 0.016966796 -0.019434685 -0.052943494
0.007157714 -0.008903313 0.0020551858 0.15659718 -0.051423997 -0.084978774 0.008521687 -0.049145587
0.021932118 -0.05420976 -0.02720881 -0.004499255 -0.031037338 0.010450282 0.0048043174 -0.042497575
0.027217014 -0.065524414 -0.016978797 -0.037482284 -0.01356278 0.007533144 0.0014947553 -0.04658809
0.06820347 0.046707656 -0.11701317 -0.061378185 -0.12330617 -0.020984102 -0.0013409638 -0.010188043
-0.046712186 0.060065914 -0.00019896842 -0.054085217 -0.032803014 0.16397613 -0.06622678 -0.0065110954
0.08053035 0.08241147 0.010531314 -0.11834022 -0.09465955 0.03795442 -0.019750383 -0.046599213
0.05452199 -0.011193284 -0.116086334 0.03531157 -0.015606411 0.10550179 0.03609398 0.084668055
-0.034472816 0.051233288 -0.0034524912 -0.15409575 0.037068047 0.022662563 0.0045681414 0.03399617
0.0647779 -0.005005966 0.01520603 -0.031907406 0.050531786 -0.02085011 -0.05249859 -0.012527891
-0.023214808 0.02963656 0.09314285 -0.021252306 -0.09878897 -0.07001164 -0.29997012 -0.035433866

bias f4 [128]
00000000: 4851 2ebe 30b2 83bc 410d 1d3c 1a30 79bd
00000010: df79 7cbd a05b 0cbd d117 56bd c400 60bc
00000020: 5570 29bd d5b6 2ebe d2b0 153c de66 c33d
00000030: e780 17bd 4e26 ad3c 2a18 8abd e191 5bbe
00000040: 023e 01bc ad13 a8bc 5072 1abd 39da 88bd
00000050: 78e4 c1bc b536 23bd e051 95bc 8960 85bd
00000060: 4010 edbd 3290 8abd b179 9dbb 9e6b be3b
00000070: e65f 38bd e2d0 02bd 36ab 1abd ddb4 9abd
00000080: 7f3c 96bb ee9a a2bd d919 10be d81a c3bc
00000090: eb0a e1bb d286 a9bd 2fbe bd3c 13a5 cdbd
000000a0: e978 57bd c858 d9bd a94e 66bc 6ed8 a2be
000000b0: 2657 bcbc b0a6 ed3c 314e 68bb f3fa 4cbc
000000c0: 80a2 09bd 72a4 e7ba eb7a c43b dcd2 8b3c
000000d0: d8ee d13d 49c0 e3bd ca9c 13be 3fa9 b7bc
000000e0: dcc1 05bc 0fda 99bc 320a 76bd c1c2 76bd
000000f0: f6aa 603b d69c 203e c038 3abd 281c e13c
00000100: 0dbe b13b cd00 b23c 9646 41be a638 30bd
00000110: 4408 853b d7a7 dbbb b683 cb3c 4a64 45bc
00000120: d049 0fbe 9a21 60be aa7d a63d d4ef 33bd
00000130: 56cc e03c adfe 8fbd f6ae 803b 7c72 9ebb
00000140: d2f1 a5be 7a2a 50bd 0572 17bd 4820 59bd
00000150: edb9 033e 8fad a5bd 4dab 88be e330 b33c
00000160: 3427 38bc f582 a3bb aa9b b4ba aa91 523b
00000170: 7c65 44be 0fc7 15be a253 b7bb 7722 a43c
00000180: be47 cebc b73a 743c 34a2 b5be 0fec dfbc
00000190: 455e 6a3d 05ba 5fbc eb20 3e3d 2d83 57be
000001a0: 0c86 6ebd ee45 35be 5d4b f4bb ea6c ec3c
000001b0: b34a 2dbb 6ab5 8ebd 90e7 2fbd 3f9b 25bd
000001c0: fc73 a9bc 80f1 38bd 6b79 0dbc 3373 02bd
000001d0: b6de 9abd be1f 94be c072 5fbc 620f 033d
000001e0: 9257 71be e6d4 90bd 6a54 2bbc 094f 82bd
000001f0: 6617 883c 9a20 f2b8 dd04 bcbc 6ba1 543b
-0.17023194 -0.016076177 0.0095856795 -0.06083689 -0.061639663 -0.034267068 -0.052268807 -0.013672058
-0.041366894 -0.17061932 0.0091363955 0.09541105 -0.036988165 0.02113643 -0.0674289 -0.21442367
-0.007888319 -0.020517195 -0.037706673 -0.06682248 -0.023668513 -0.039847095 -0.018227518 -0.06512553
-0.11575365 -0.06765784 -0.0048057665 0.005811169 -0.04501333 -0.031937487 -0.037760936 -0.07554028
-0.0045848484 -0.07939707 -0.1407236 -0.023816511 -0.0068677566 -0.08277668 0.023161976 -0.10041251
-0.052605543 -0.10612637 -0.01405684 -0.31805748 -0.022990774 0.029010147 -0.0035446996 -0.012511003
-0.033602238 -0.001767291 0.0059960983 0.017068319 0.10250634 -0.1112066 -0.14415279 -0.02241957
-0.008163895 -0.018780736 -0.060068317 -0.060244326 0.0034281588 0.15684828 -0.045464277 0.027479246
0.005424267 0.021728897 -0.18874583 -0.043022774 0.004059823 -0.0067033577 0.024843078 -0.012047837
-0.13993001 -0.21887818 0.08129437 -0.04392989 0.027441185 -0.070309974 0.003927107 -0.004835425
-0.32411057 -0.05082176 -0.036973972 -0.0530093 0.12863894 -0.08089744 -0.26693192 0.021873897
-0.0112398155 -0.0049899765 -0.0013779302 0.003213028 -0.19179338 -0.14626716 -0.0055946866 0.020035965
-0.025180694 0.014906577 -0.35475314 -0.027334241 0.05721881 -0.01365519 0.04641811 -0.21046133
-0.058233306 -0.17702457 -0.007455273 0.028860528 -0.002644223 -0.06968196 -0.042945445 -0.040431257
-0.020685188 -0.045152187 -0.008634905 -0.031848144 -0.0756201 -0.28930467 -0.013638198 0.031997092
-0.23568562 -0.07071857 -0.010457138 -0.06362731 0.01661272 -0.00011545532 -0.022951538 0.0032444845

weight f4 [12, 128]
00000000: 4938 26bd 2eac 033c 8342 a439 ac56 22bd
00000010: 7962 143c 5249 c3bb aaca c23b a2e0 8a3c
00000020: 0b43 0d3b 917a feba 07be ba3a eeba 3bbc
00000030: 9d9d 603b 10e7 7138 c189 4dbd ab37 123d
00000040: c986 703c 5fcc 33bc 9569 8c3b 6ab7 603b
00000050: c72e ad3a 82c3 233a a7d3 5aba 0ae7 9bba
00000060: 62b2 cabb c876 0fbe ce51 d6b9 b4a0 14bb
00000070: 27b2 b939 a0b0 d9bb f4c2 833b b726 19be
00000080: 546b 723b f5c5 873c 2f32 cc3c 74fa 0d3b
00000090: 0270 343b 787d 33bb 637e b4bb 36cf 543d
000000a0: 5193 e03b a88d a13d cd80 d9b8 5b2e 3f3d
000000b0: 1dc3 673b ed76 10bb 62ff dbbb 0c1b 82ba
000000c0: b092 46bc 1a7b c5bb dce2 503c dcea 0a3b
000000d0: 5e16 393d 4f0d a5bc d670 263d 910a 8e3c
000000e0: 53e3 9637 4f3c 923b 130a 353c 7bb4 673c
000000f0: cc9e e0ba b67f b6bc 2ffc b73c 3bf9 8ebc
00000100: 7f51 b53a db99 99bb 6fe5 90bc 6be2 8d3b
00000110: 6c40 4cbb 1672 d73b 62bc c0bc 6a98 b4bc
00000120: 0a77 85bd 7e88 d33c dc1c c53c 071d 9b3b
00000130: 462e 2e3d 8613 25bb f9cd b33a ea13 903b
00000140: b2a8 7c3d 7501 89ba 2bef 4e3b d68e ab3b
00000150: 8fdf 02bc 4fb8 093c b542 9a3d ed95 17ba
00000160: 938c 273b 7e6e 20bc 1924 e139 d427 4cbc
00000170: fb7e f53d 189e 49bd 90b9 b9bb 0002 133c
00000180: 4a23 14bb 2896 7eb8 23d0 183b a64a ca3b
00000190: dc45 d3bb b6b0 55bd c6fd a6bb d3b0 293d
000001a0: b3f9 003b 8fe9 153b 2131 aab9 6b47 1c3d
000001b0: 2903 c5bb 53bf c53b 6267 ce3b d7c5 91bb
000001c0: fe1a db3a 5b7b 84bc 5d2e 05bb 398e 103b
000001d0: caac 783d 12eb 21bd 6790 273a 65b1 98bb
000001e0: 3e83 bfbb 55f5 b33b 6fa6 70ba 1121 dc3b
000001f0: a856 c0bc 19d4 2a3b 2711 7b3c 4ae2 71bb
00000200: 9aa2 d2bd e4de ec3b e099 5abb 37ca 8abb
00000210: ce77 813b 532f 86bd 59f6 723b 0900 a73c
00000220: 8e41 3c3c 1c54 4fbd 0115 a2ba 22b8 833d
00000230: c434 c3bb 7e95 a53b 6020 52bd 50fa 693c
00000240: c5d8 08bd f5c4 5c3c c6ec 11bc b878 b83c
00000250: 8c30 b63b 1916 943b e263 b33a 251d 163c
00000260: ce31 9dbc af42 90bb 0a93 df3a e656 143b
00000270: a20f 01bd a168 91ba c42d d0bb c5a6 a53c
00000280: 917d 933c 71a1 e13c b32a 90bd 81c9 573c
00000290: fd82 c43c 03d3 40bb e39e 72bc b65e cdbc
000002a0: 581c 3c3c 7760 0d3d 7307 4f3b d571 3bbd
000002b0: b83f 6c39 0ece 7d39 aa01 22ba d59b 9b3a
000002c0: 570a 813b dc06 b3bc a9dd d23b 9e93 90bb
000002d0: 4cf5 c23d 2347 0bbc f467 cebc c2f7 d7b9
000002e0: 20b9 8d3b 3b06 523b ce8c 393c 1a7e 9c3d
000002f0: 9b10 81ba d6b8 0d3d da47 0bbd e19a 25bc
00000300: f678 18bb 8048 d939 4179 b33c b42d 4c3b
00000310: d6c1 01bc e9d2 323c 1e0d 333d e276 e8ba
00000320: f782 79bc 0f17 243a ad71 e53d e461 82bc
00000330: 1a74 073e 5aef fa3a 029b 583b dc58 a13b
00000340: effa 67bd 7c95 b63a a3d7 a8bb 2915 77ba
00000350: 0ba5 e23d 9119 48bd b8e8 8fbd da07 393c
00000360: add1 91ba cae1 313d 4da4 c63b e1f3 093d
00000370: 67ed 103e 2c94 34bd c0dd ba3b 0506 1f3a
00000380: 0dd6 bfbc 5f28 e63c 1cb1 86bd caae cebb
00000390: 724a aabb 84cb d33d bee4 84ba 52d9 cbbd
000003a0: 1ab5 7c3c e777 1cbd 05d3 19bb deee 8ebd
000003b0: 3a0f 833b 820d c4ba f587 893b 20b8 1d3c
000003c0: 688b 52bc c46b 813a d1c6 41b8 b843 58bc
000003d0: 0607 753d bead babc b176 4c3c 1b24 263c
000003e0: ea09 56bd 694d 553b 1942 2e3c 34da 8139
000003f0: 1039 573d f7ed 9e3c 8cc0 2c3c e9db d6bb
-0.04058102 0.008036656 0.00031330073 -0.039633438 0.009056681 -0.005959668 0.0059445696 0.016952816
0.0021554853 -0.001941519 0.0014247306 -0.011458142 0.0034273632 5.767407e-05 -0.0501802 0.03569762
0.014680573 -0.010974019 0.0042850473 0.003428901 0.0013212793 0.00062470895 -0.00083475787 -0.0011894417
-0.0061858157 -0.14010155 -0.0004087821 -0.0022678794 0.00035418684 -0.00664337 0.004021043 -0.14956175
0.0036990242 0.016573885 0.024926273 0.0021664174 0.0027532582 -0.0027388018 -0.0055082305 0.051955424
0.006853499 0.07888347 -0.00010371357 0.046675067 0.00353641 -0.0022043542 -0.0067137936 -0.0009926273
-0.012119934 -0.0060266377 0.0127494 0.0021197116 0.045187347 -0.020147948 0.040634952 0.017339023
1.798725e-05 0.0044627558 0.011049765 0.014142151 -0.0017137169 -0.022277694 0.022459118 -0.017452827
0.0013833492 -0.0046875305 -0.017687527 0.0043299696 -0.0031166328 0.0065748794 -0.023527328 -0.022045333
-0.065168455 0.02582192 0.024061613 0.004733685 0.0425246 -0.0025188639 0.0013718001 0.004396905
0.061684318 -0.0010452705 0.003157566 0.005235533 -0.007987871 0.008405759 0.075322546 -0.00057825336
0.0025565966 -0.009791968 0.0004294224 -0.012460668 0.1198711 -0.049223036 -0.0056678727 0.008972645
-0.0022604042 -6.0698163e-05 0.0023317419 0.0061734496 -0.006447537 -0.052170478 -0.00509617 0.0414284
0.0019680082 0.0022874807 -0.0003246153 0.038154047 -0.0060123396 0.0060347705 0.0062989453 -0.004448633
0.0016716418 -0.016172102 -0.0020321824 0.0022057428 0.06071166 -0.03953082 0.0006392062 -0.004659819
-0.0058445027 0.0054918923 -0.0009180074 0.006717809 -0.02347882 0.0026066361 0.015323914 -0.003690856
-0.1028492 0.007228719 -0.0033355877 -0.0042355317 0.0039510494 -0.06551995 0.0037073104 0.020385759
0.011490239 -0.050617322 -0.0012365879 0.06431605 -0.005957218 0.0050532212 -0.051300406 0.014280871
-0.033409853 0.013474693 -0.008906549 0.0225185 0.0055599865 0.004519236 0.0013686384 0.009162222
-0.019188788 -0.0044024806 0.0017057371 0.0022634803 -0.03150905 -0.0011093804 -0.006353112 0.020221123
0.01800421 0.027542802 -0.07039394 0.013170601 0.023988241 -0.0029422648 -0.014808389 -0.025069576
0.011481367 0.034515824 0.0031590133 -0.045762856 0.00022530451 0.00024204722 -0.00061800575 0.0011872003
0.003938 -0.021853857 0.0064351154 -0.0044121286 0.09519443 -0.008500847 -0.025196053 -0.0004119259
0.004325047 0.003204717 0.011325074 0.076412395 -0.0009846868 0.0346001 -0.03400407 -0.010107727
-0.0023265458 0.00041443482 0.021908404 0.003115517 -0.007919749 0.010914543 0.04371368 -0.0017735625
-0.015228978 0.00062595395 0.112033226 -0.015915819 0.13227883 0.0019144819 0.0033051376 0.004923923
-0.056635793 0.0013930048 -0.005152659 -0.00094254554 0.11066636 -0.048852507 -0.070268095 0.011293376
-0.001112511 0.04342822 0.0060620666 0.033679847 0.14153062 -0.04408662 0.005702704 0.00060662656
-0.023417497 0.028095422 -0.0657675 -0.0063074576 -0.005196863 0.10341552 -0.0010138971 -0.0995356
0.015424037 -0.038200285 -0.0023471725 -0.06979154 0.003999618 -0.0014957639 0.0041971155 0.009626418
-0.01285062 0.0009874036 -4.6199948e-05 -0.013199739 0.05982115 -0.022787925 0.01247947 0.010140444
-0.05225555 0.003254736 0.010635876 0.0002476737 0.052544653 0.01940058 0.010543954 -0.006556977

bias f4 [12]
00000000: 8e05 1abe 2c29 233e 633e 81be ecdf 4f3e
00000010: c843 a33e 200f 3abe eaab 51be 3993 613e
00000020: cff8 c83d e523 3f3e eb3c 413e b8a7 de3a
-0.15041181 0.15933675 -0.2524291 0.20300263 0.3188765 -0.18169832 -0.20475736 0.22028817
0.098130815 0.18666036 0.18870895 0.001698724
