logs/go1_IROS/exported/policies/torque_obs42_highFS_noRand.pt (torch, 761749 bytes, 8 tensors)

weight f4 [512, 42]
00000000: 3767 0dbe 5d3a 4bbd 5caa 0c3d 4966 db3c
00000010: 7822 8e3d 42f9 b33d f457 c4bd 29c0 47be
00000020: 396b 4e3e e725 90be 71fc 17bb d786 083e
00000030: c699 963e 044e 0e3e bff1 47bd 7c61 133e
00000040: 9f4c 7f3d 2179 05be f48e d4bd b151 bebd
00000050: d182 ef3d 580f 1cbe 081f 1e3e dd1f 2a3e
00000060: 2830 413e 3d59 db3d fb03 9abd 3c00 d03d
00000070: 7fec 70be a278 72bd c079 023d 60a7 3cbd
00000080: d339 ef3d 2a07 2abe 3e63 90bd 8536 ee3d
00000090: 07b5 24bd f911 033d ef21 4637 40d9 b03d
000000a0: 6ea6 023c 5b22 95bd e3c3 9ebd 6dfe 0bbe
000000b0: 157d c8bd d3b9 3e3d e5e9 45bd 9e6b b4bd
000000c0: aafd 58bd 8962 3bbd 3739 313d e3c6 5ebe
000000d0: 5e86 493e 8d22 37be 7f3f 1f3e 2e0c e8bc
000000e0: 281d b93d ea3b 2bbb 77d6 22be 6730 2abe
000000f0: 3ab0 75bc 17a4 85bd 9288 f8bd de18 c6bc
00000100: 0c3c 85bd 3249 ed3b 7614 51be 9372 13bd
00000110: f336 bc3d 326f 843d d886 1dbe bbcc 3cbe
00000120: 34f7 1a3d ed10 d43d a12a 88bd 29b4 063e
00000130: 568e 97bd 59cf d13d 7e6f 4e3d 3493 a5bd
00000140: faae 013d c76c a0bd a86f 60bd a079 243c
00000150: 8c67 1ebe c8d9 3d3d 72f2 f43d b0be 45bd
00000160: 44b1 5e3d 0a8a 36be 6c7d 8fbd de0b d4bd
00000170: 8860 7abc 0481 47bd 979e eebd 74e4 80bc
00000180: b1a4 8cbe 3f42 c0bd 5ad1 a3bd 478c ca3e
00000190: 1a60 b2bd e96e e4bb 7d8c 57be e217 63be
000001a0: f5fd c53d 2c4f 6dbd 0f69 153e 6cc1 21bd
000001b0: 91ec dc3d 86c4 5e3e 84de 243e f154 773e
000001c0: 4e75 b9bc 5465 01be b00d bdbc 87b7 e8bd
000001d0: 4f34 eb3c 3921 08be 4343 3dba 6382 cd3d
000001e0: ae08 d13c 4d8e c0bb 58aa cc3d 46a2 70bd
000001f0: 3f73 c5bd d202 a63d 851f a33d ab04 e53c
00000200: a66c 9fbd 4c11 31bc bb12 453e 5ad8 9dbc
00000210: 8606 a0bd 32b0 97bd 67e2 0a3e 6a31 a63d
00000220: 1e03 243e e1a8 823e 8444 b33c 3863 9ebe
00000230: cd80 16bd afd5 0dbe abb1 0abc 0d0b bdbd
00000240: 80cf 14be 5f32 8ebd 0ece a3bd a9c1 e83d
00000250: 79c0 02be fb16 fbbc f6c8 bf3d cb91 4cbd
00000260: 6b47 ecbc 5816 193e c9d0 13be 424a 533d
00000270: aa29 6a3d c601 ccbd faf3 a0ba a881 debd
00000280: 5415 1dbc 86cc aebd 8cef 0cbe 5a87 ab3d
00000290: 51dc 753d dd1a 653c ef07 c6bd 4253 083e
000002a0: 33a2 b5bd d036 4cbd 6a75 d0bd 33f5 03b8
000002b0: 0765 debd 940c f4bc 59c4 17be 3484 2dbd
000002c0: 7134 21be 8430 fdbd b3f0 5dbe 3567 91bd
000002d0: c665 823e 2c9b 05bd a2e4 c4bd 270c de3d
000002e0: 1578 183d 782c 29be 2033 3bbd 9a59 2f3a
000002f0: f500 e9bd 5c3d 1e3e 72f1 77be 67be f1bd
00000300: 90ad fa3d 7658 8f3d a066 bc3d 96e2 18bd
00000310: 6b84 09be 61b4 f43d 9cfa c6bc 6a0b af3d
00000320: 486f f7bc 1a7e 05bd 7d70 0dbd 7cb8 a5bd
00000330: 8a6c 5d3b 2503 2f3c bdf2 2cbd 1566 d7bd
00000340: eb08 d93d 91b6 0dbc 5e0a dd3c 4a72 88bd
00000350: 46d6 033e f70b ee3d 786e dd3d 3aad f53d
00000360: af50 ed3d 8e92 593e f4d1 76bd c283 b33b
00000370: 5d64 70bd 6f0a 93bd 0bb2 c0bc 4c70 02be
00000380: bc41 d93d f32e 7f3e 8f7e 4e3d 739e 533e
00000390: d420 03be 9ed2 2d3e 839c 223e 05c4 b7bd
000003a0: 4846 7e3d 98b7 d93d 6934 a8bd 3e39 d0bd
000003b0: 83ae 22be 4af6 f13d a17f 193e 4f73 613d
000003c0: 375e da3c c9aa c9bd e516 913d ec80 50bd
000003d0: 5875 653d 07f0 c7bd 9578 7ebd 3a92 c33d
000003e0: 55de 5d3d ea9d 05bd dc9a 7fbd 886d c9bd
000003f0: faac a73d 5635 dcbc ee0c 393d 04aa a63d
-0.13808905 -0.049616206 0.034342155 0.026782172 0.06940168 0.087877765 -0.09587088 -0.19506897
0.2015809 -0.28153917 -0.0023191238 0.13332687 0.29414195 0.13896948 -0.04881453 0.14392656
0.06232893 -0.13034488 -0.10378829 -0.09292925 0.11694873 -0.15240228 0.15441525 0.16613717
0.18866026 0.1071038 -0.075202905 0.10156295 -0.23527716 -0.059197076 0.03185439 -0.04605806
0.11680951 -0.16604295 -0.07050179 0.116314925 -0.040211704 0.031999562 1.180962e-05 0.08635187
0.00797425 -0.072819434 -0.07752206 -0.13671274 -0.097894825 0.046563935 -0.048318762 -0.08809589
-0.052976288 -0.045748267 0.043267455 -0.21755557 0.19680163 -0.17884274 0.15551566 -0.02832612
0.09038764 -0.002612824 -0.15902124 -0.16620027 -0.014995629 -0.06525438 -0.12135424 -0.02418178
-0.06505594 0.0072413916 -0.20417961 -0.03599794 0.09190168 0.06466521 -0.1538347 -0.18437473
0.037833408 0.10354791 -0.06648756 0.13154663 -0.07400195 0.102446266 0.050399296 -0.080847174
0.03166101 -0.07833248 -0.054793984 0.010038763 -0.15469187 0.04635027 0.11960305 -0.048277557
0.054368272 -0.17826095 -0.07006344 -0.10353826 -0.015281804 -0.048707023 -0.11651342 -0.015733935
-0.274694 -0.093876354 -0.07998915 0.39560148 -0.08709736 -0.0069712293 -0.21049686 -0.2217708
0.09667579 -0.057936832 0.14590858 -0.039491102 0.10787309 0.21754655 0.16100508 0.24153496
-0.022638943 -0.1263631 -0.023077816 -0.1136313 0.028711466 -0.13293923 -0.00072198006 0.10034635
0.025516834 -0.0058763386 0.09993428 -0.058748506 -0.09641122 0.08106007 0.07964996 0.027956327
-0.07784395 -0.010807347 0.19245426 -0.019268204 -0.07813744 -0.074066535 0.13562928 0.08114894
0.16016814 0.2551947 0.021883257 -0.30935073 -0.036743928 -0.13851045 -0.008465211 -0.092306234
-0.1453228 -0.06943201 -0.07998286 0.11365063 -0.12768735 -0.030650606 0.09364502 -0.049943727
-0.028842648 0.1494993 -0.14435114 0.05158449 0.05716864 -0.09961276 -0.0012279742 -0.10864574
-0.009587605 -0.085351035 -0.13763255 0.08375426 0.060024563 0.0139834555 -0.09669482 0.1331301
-0.08868828 -0.04985696 -0.10178645 -3.1461193e-05 -0.10859113 -0.029791154 -0.14820994 -0.042362407
-0.15742661 -0.12362769 -0.2167385 -0.07099763 0.25468272 -0.032618687 -0.09613921 0.108421616
0.037223894 -0.1652087 -0.045703053 0.0006689072 -0.11377136 0.15453094 -0.24213198 -0.118038945
0.12240136 0.069992945 0.09199262 -0.037325464 -0.1342942 0.11948467 -0.024289422 0.08547099
-0.03020443 -0.032590963 -0.034531105 -0.08091828 0.0033786618 0.010681902 -0.04222368 -0.105175175
0.10597404 -0.008649484 0.026982483 -0.06662424 0.12874708 0.11623376 0.10812086 0.11995931
0.11587655 0.21247312 -0.06025882 0.0054783532 -0.058689464 -0.071797244 -0.023522398 -0.1273815
0.10608241 0.24920253 0.050413664 0.20665912 -0.12805492 0.16974875 0.15880017 -0.08972935
0.062078744 0.10630721 -0.082131214 -0.10167168 -0.15886883 0.11814554 0.14990093 0.055041607
0.026656253 -0.09847028 0.07084445 -0.0509042 0.05602011 -0.097625785 -0.062126715 0.09549375
0.05416711 -0.0326213 -0.062403545 -0.098353446 0.081872895 -0.026880901 0.045178346 0.08137897

bias f4 [512]
00000000: da41 cc3d 2ba8 20be f912 28bd 089f 93bc
00000010: cbed d2bd dd9b de3d 2a14 6ebd bc76 053e
00000020: fc6b c83c d313 56ba 8564 cdbc e081 ac3d
00000030: 1055 893c da9c 523d 7c28 033e 6dfb 1ebe
00000040: fc1a 273c f8e7 d73c 1bd0 a3bc 6354 6f3c
00000050: f535 50bd d83d 483d aa99 94bd 41c7 7abd
00000060: 359c ed3d 93af db3d 7725 1cbe f8d8 cdbc
00000070: 01fe e23d ad79 99bd d6d3 b8bd 225d a43d
00000080: e37a 5dbd 0d6a 413d 8444 8b3d 2520 c8bc
00000090: 952d 83bd 351a 60bb 3699 44bd 5048 d53d
000000a0: bf18 a2bd 5398 c63c 5463 0c3e d238 ad3d
000000b0: 1b77 18bd f699 593d 10a6 883c 0e82 aa3d
000000c0: d7a6 1d3d 5710 00bd 973e 88bd 8bed 84bd
000000d0: 2cb7 76bd 5f87 e53c 1ffc 993c 7581 babd
000000e0: 7bf0 173d 1f3e 283d 06eb ba3d 4a59 d43d
000000f0: db8b 143d 415d ea3d 2f5f 80bd 0aba c5bd
00000100: f2d4 9dbd b310 22be dd53 843d 8713 afbc
00000110: 34d6 6e3d e6d4 9d3d 783a efbd 7ce4 e13d
00000120: 51a6 e43d 9eee f0bd 0ab5 5abc 73ad b8bd
00000130: 9d8b 403d 96dc 063d 3a60 683d 1633 453d
00000140: 4a07 07be 2c5a d03d b39b 723d 1d29 50ba
00000150: a796 a53d 83ee 54bd 143b acbd 8b1a 90bd
00000160: e99d d0bb 7ae6 abbd 69ed c1bd d1ec d2bb
00000170: 00e4 223d 3019 8a3b 334e f9bd f7c3 edbd
00000180: 4089 38be 20cf 31bc 4281 e33c bd1c e43d
00000190: a528 63bd 4f22 0dbe da46 323d 5515 e0bd
000001a0: 33d9 903d fda9 0b3e 9757 2dbd db9b 58bd
000001b0: eada 26be 892c c4bd 2c76 d13d 5ae7 98bc
000001c0: 4ff6 543d 2f0f 0e3e f5e9 b8ba 8318 f33c
000001d0: c549 10be bb18 ab3c 5267 9b3d d852 9cbd
000001e0: 940b 003d a19d 84bd f4ee 3c3e e612 1dbd
000001f0: f626 a13d bc46 4bbd c85e 483c d230 70bd
00000200: a0a7 2f3d adbf 04be 6968 913c a141 b5bd
00000210: 7e84 d4bc bf93 20be 7875 0abd 8f82 94bd
00000220: a8cd ba3d db81 84bc da1a 08be 6eb9 a3bc
00000230: ef58 c3bd 98ec 15bd af87 fe3d 0e64 0bbe
00000240: 6787 32bd 4ac8 cabd 7981 6abd 8188 923d
00000250: 0606 06be 29d5 f7bd 3e8f 50bd ba77 93bd
00000260: ead9 463e ad09 b7bc a7d4 a33d 893d 75bc
00000270: 7439 c23d 9fe7 e43d e08a bdbb bcb7 99bd
00000280: 7af7 ad3d c1f1 04be a283 67bd 29a7 c8bd
00000290: ce82 6e3d a1df 2abd 4476 c6bd ba2b 0d3e
000002a0: 49c7 a63c 4462 eabd a106 ad3b 080d 09bd
000002b0: 1f7f e6bd 0e6f 22bb 74d9 7d3d 2dc8 67bb
000002c0: 61fb 6ebc fd23 be3d a825 173d ec02 fa3d
000002d0: 02c5 0e3c 85b2 423d 23c2 97bd 13c0 0c3e
000002e0: 358a 653d 87ae ea3c 5552 8c3d da5f 03be
000002f0: ce18 c6bd 283d 39bd d25e ebbd 3013 573d
00000300: 6569 153d 07bd bebd 1598 b83d 8f99 613d
00000310: 2b5c 573d 4156 e63d ef71 413d fb34 2b3e
00000320: fa57 033d 304f 2b3d ef52 d83d c61a 01bc
00000330: 60b1 14be be29 063e 6952 c53d 5594 ca3d
00000340: 15e4 e93d 5758 1d3d 54a0 64bd 040a 00bb
00000350: 98b1 0bbe 5608 c93d 686e 2b3e 8df1 7e3d
00000360: 1876 ccbd 4220 123e cbe9 aabc 4eb9 433c
00000370: e5a6 d73d d2fb c23d 35b6 f9ba b873 773b
00000380: 16d7 08be 9698 ce3b 1880 a3bc 72ec 4dbd
00000390: 8f2a e23d 47c4 e63d 64ac 813d e338 89bc
000003a0: 480e fcbd 201e 6bbd c458 c5bc 2822 ae3d
000003b0: 96dd bcbc 59df 59bd d26a 383d 1407 8f3b
000003c0: 1a08 963d f256 cb3d c532 0e3e 8021 503d
000003d0: 2d9d 47ba bb31 8c3d af82 c0bc 4e90 b23d
000003e0: 6cb3 d5bd 5284 0f3d d7cd bcbd 6be2 80bd
000003f0: 6d8b 8f3c 219f 13be d1ff d1bd 7952 4ebd
0.09973498 -0.15689151 -0.04103372 -0.018020168 -0.10299262 0.10869572 -0.0581247 0.13033575
0.024465553 -0.0008166406 -0.025072346 0.08423209 0.016764194 0.051419117 0.12808412 -0.15525599
0.010199305 0.026355729 -0.019996693 0.014607522 -0.050832707 0.048887104 -0.072558716 -0.06122518
0.1160206 0.107268475 -0.15248667 -0.025127873 0.11083604 -0.07493911 -0.090247795 0.08025576
-0.054072272 0.04722028 0.06800178 -0.02442939 -0.064051785 -0.0034195308 -0.047997676 0.10414183
-0.07914876 0.024242556 0.13709766 0.08458103 -0.037222963 0.053125344 0.016680747 0.08325587
0.03848919 -0.031265583 -0.06652563 -0.0649062 -0.06023328 0.028018652 0.018796979 -0.09106723
0.037094574 0.04107487 0.091268584 0.10368593 0.03626619 0.11443568 -0.06268155 -0.09654625
-0.07706632 -0.15826683 0.06461308 -0.021371616 0.05830975 0.07706623 -0.11681074 0.11029908
0.11164535 -0.117642626 -0.013348827 -0.09017458 0.047008146 0.03292521 0.056732394 0.048144422
-0.13186374 0.10173449 0.059230518 -0.00079406967 0.08085375 -0.051985275 -0.08409706 -0.07036313
-0.0063664806 -0.08393569 -0.094691105 -0.006436922 0.03976822 0.0042144284 -0.121731184 -0.11609643
-0.18021107 -0.010852605 0.027771596 0.11138294 -0.055458684 -0.13782619 0.0435246 -0.10941569
0.070726775 0.13639064 -0.04231986 -0.05288301 -0.16294447 -0.09578807 0.102276176 -0.018665005
0.05199271 0.1387298 -0.001410781 0.029674774 -0.14090641 0.020885816 0.07588066 -0.07632989
0.03126104 -0.06475378 0.18450528 -0.0383481 0.07868759 -0.049628004 0.012229629 -0.05864031
0.04288447 -0.12963744 0.017749982 -0.08850408 -0.025942083 -0.1568136 -0.033803433 -0.072514646
0.09121257 -0.016175201 -0.13291493 -0.01998588 -0.09538447 -0.036602587 0.12428223 -0.13612387
-0.04358616 -0.09901483 -0.05725238 0.07154942 -0.13088235 -0.12101204 -0.050917856 -0.072005704
0.19419065 -0.022343481 0.079995446 -0.014968284 0.094836146 0.11176991 -0.0057843775 -0.07505748
0.08494468 -0.12982847 -0.05652202 -0.09797508 0.058230214 -0.041717175 -0.09690526 0.13786212
0.020358698 -0.11444524 0.0052803312 -0.033459693 -0.11254715 -0.0024785432 0.061974958 -0.0035367117
-0.014586301 0.09284208 0.036901146 0.122075886 0.0087139625 0.04753353 -0.074100755 0.13745145
0.056040008 0.028647674 0.06851641 -0.12829533 -0.096727 -0.04522434 -0.11492695 0.052508533
0.036477465 -0.09313398 0.09013382 0.055078086 0.052578133 0.112469204 0.047227796 0.16719429
0.032066323 0.041823566 0.10562693 -0.007879918 -0.14520788 0.13101861 0.09634859 0.09891573
0.11420456 0.038414326 -0.055816963 -0.001953722 -0.13641965 0.09816043 0.16741335 0.06224208
-0.09983462 0.14270118 -0.020863434 0.011946036 0.105298795 0.09520687 -0.0019051494 0.0037758183
-0.13363299 0.0063048108 -0.01995854 -0.05027432 0.11043274 0.11267906 0.06331709 -0.016750759
-0.123074114 -0.057401776 -0.024090178 0.085026085 -0.02305488 -0.053191517 0.045023747 0.0043648575
0.07325764 0.09928693 0.13886555 0.050813198 -0.00076146686 0.06845423 -0.023499815 0.0871893
-0.10434613 0.0350383 -0.09218948 -0.06293186 0.017522538 -0.14416172 -0.10253871 -0.05037162

weight f4 [256, 512]
00000000: 083b c5bc 594a 6f3b 6d56 e3bc 11af 12bd
00000010: 6516 1d3d 4706 413c fd32 ff3c 62d9 71bd
00000020: 9a71 73bc 9b56 bc3c 7681 9cbc b170 93bd
00000030: 9b07 18bd d515 08bd 8708 61bd caf7 bc3c
00000040: 02f9 4b3c 7843 38bc df05 5c3d aa5e 33bd
00000050: d29b cd3b a07e f93c db65 883d 2234 013d
00000060: 1830 753c 919c 733d 46bd c93b 9044 b73c
00000070: 20c3 35bd 88c1 993d ffc8 8a3d cb68 083d
00000080: 092c ca3d 4e33 03be fc8e 3b3d f367 c7bd
00000090: b6a7 bbbb 37eb 88bd e6be 91bc b0cb 13bd
000000a0: f4e7 653d 3701 debd 8cec fabc 197a 773c
000000b0: a2fc 2ebc ca19 263d cd10 dcbc b38b 9ebd
000000c0: 31e6 b7bd 18f4 6e3d eba3 d03b ee8a 8b3d
000000d0: 2aff dbbc 60a1 e83c a0d3 b5bc 2721 28ba
000000e0: 2b02 3f3c 1434 473c e56d 9b3d e71b cebc
000000f0: e517 84bc 3903 60bd 8878 26bb 391c 2bbc
00000100: 038d 2a3d c3bc 9d3d 8611 c1bd e869 103d
00000110: 3b14 da3b 39b0 a03c 0bad 46bd 8f63 a23d
00000120: 5413 9a39 bc9c e63d 776e 51bb 459e 5bbc
00000130: 29c3 b0bd 0abb eabc 04dd afbd 8361 04bd
00000140: 78c4 813b 9a15 1c3d 3c8c 253c b927 eabc
00000150: a97f 85bc 380e ce3c 022d 9bbd 2100 4abd
00000160: 3938 683d ccd3 bd3c d718 0ebd 3980 0d3d
00000170: b2e5 1ebe dd08 6fbd 7bed 68bd 0a37 af3d
00000180: 3cfb 003d 67c1 353d 40eb 35bb 7189 673d
00000190: 5dc6 3abd cc70 9cbd deb3 1dbd cc5e 7d3c
000001a0: 9301 983d 233e e03d 9503 a73d 633a 25bd
000001b0: 467e 093d 420c 743c 2c7a 2c3d fde3 c73c
000001c0: 877e 70bc dce3 fe3c 1d57 5a3c 1a15 31bd
000001d0: 3f14 1a3d 58b6 863d 309b 663c a8a8 953c
000001e0: edf3 f0bd 5877 943d 4faa ba3b 3118 c93d
000001f0: 8f0b b8bd 17cb 133d 6c67 28bd 8382 133d
00000200: 2de6 2c3d 2aee 14ba 1446 b63d 401b ac3c
00000210: 98e7 91bc 2f27 bd3c 563d b63c 4ad6 843d
00000220: 0e0f 2d3c abe5 193d d6e5 253d 245d 0bbe
00000230: 3b4b 47bd 8ae2 ec3c 8919 92bd 79f1 f7bd
00000240: b93b 223d b17c 13bd 00cb 3dbd 302a 1ebd
00000250: 8458 17bd 7696 443d 6993 453d 4bfc a43b
00000260: 41c8 19bd b1aa 20bd 1918 b43c ed18 7b3c
00000270: 8ccb 0a3d 0c61 55bd 5614 19bd c73f cfbd
00000280: 18ee 9e3d 9b5f e4bc 3e8c 25bd 10ab 893c
00000290: f9d0 43bd 59ff acbd 8154 03bd af0b 1d3c
000002a0: 1e42 c43b d7a8 b63c 85e7 00bb 0398 9fbd
000002b0: ceab 7b3c 7b7d 71bc f078 a23c ae65 a7bd
000002c0: f8c5 133d 614e 4a3d 01a5 093c 0d16 2cbd
000002d0: f4f4 57bd 7580 0ebd 0e2f 8abd a1cc 95bc
000002e0: 160a d3bc fd36 1fbb 8df0 b6bc 3bb0 113d
000002f0: ea00 733d 7e5a c73c 9cc0 18bd e902 9b3d
00000300: e7b7 63bc acf5 333d bc03 f4bd 5d05 53bd
00000310: 765f e3bb 1156 ac3b 0889 7f3d c023 95bc
00000320: 0099 13bd 4e01 c8bb 38ca 443d 8abd b2bc
00000330: 9d63 ac3d 3a70 85bd c44c dd3c 5979 62bd
00000340: 6f7b 2e3c 869e 92bc d9b7 0c3c ecc6 a13d
00000350: b56e 2a3c bdff 3f3d a159 413e 3b7a 8a3d
00000360: b168 aabd 9a1a f2bd 85d0 02be 527c 67bd
00000370: ce0c aabc a4d5 efbc 90f3 32bd 8394 4f3c
00000380: 464d 8fbd b323 0c3d 9343 903d f393 52bc
00000390: 482d 3cbc c7c2 a0bc 6fa9 9abd f297 103d
000003a0: 0555 153d 147e b4bc 53ab 87bc dfa2 c0bd
000003b0: df0f 113d 285a debc 0f23 db3a b9b6 53ba
000003c0: ad7b 93bc 0552 c93c ea69 7e3d 01b2 303c
000003d0: 0cda 43bd 9a54 9abd fbe7 823d 08a6 d5bc
000003e0: 821a 33bd 3c73 f0bb 368d 8e3c 58db a9bc
000003f0: ad47 39bc 2e70 893d 2fd9 7a3c 5b3e 4dbd
-0.024076 0.003651282 -0.027751172 -0.035811488 0.038351435 0.011781282 0.031152243 -0.059045203
-0.014858628 0.022990515 -0.0191047 -0.071992286 -0.03711663 -0.033223946 -0.054939773 0.023067374
0.012449505 -0.011246555 0.053716537 -0.04379145 0.0062746787 0.030455887 0.066600524 0.03154386
0.01496508 0.059475485 0.0061565964 0.02237156 -0.04437554 0.07507616 0.06776618 0.033303063
0.0987168 -0.1281254 0.045790657 -0.097366236 -0.00572678 -0.06685489 -0.017791223 -0.036082923
0.05612941 -0.108400755 -0.030630372 0.015104794 -0.01068035 0.040551938 -0.02686348 -0.07741489
-0.089794524 0.058338255 0.006367197 0.06813608 -0.02685507 0.028397262 -0.022195637 -0.00064136315
0.011658232 0.0121584125 0.0758932 -0.02515979 -0.016124675 -0.054690573 -0.0025401432 -0.0104437405
0.041638386 0.07702019 -0.094271705 0.03525725 0.0066552437 0.01961528 -0.04850487 0.079291455
0.0002938757 0.112603635 -0.0031956711 -0.013404434 -0.08630974 -0.02865364 -0.08587077 -0.032319557
0.0039601885 0.03810654 0.010104235 -0.028583394 -0.016296225 0.025153264 -0.07576944 -0.04931653
0.056694243 0.023172282 -0.034691658 0.03454611 -0.1551731 -0.058358062 -0.056867104 0.0855542
0.031489596 0.044373896 -0.0027758628 0.05652756 -0.04559933 -0.07638702 -0.038501613 0.015464496
0.07422175 0.10949352 0.0815498 -0.040338885 0.03356769 0.014895501 0.0421087 0.024400705
-0.014678604 0.031114511 0.0133264335 -0.043233015 0.037616964 0.06577748 0.0140750855 0.018268898
-0.11765275 0.072493255 0.005696572 0.09819067 -0.089865796 0.036082353 -0.041114256 0.036013138
0.0422117 -0.0005681241 0.08900085 0.021009088 -0.017810628 0.023089973 0.022246044 0.06486185
0.010562671 0.037572544 0.04050239 -0.13609749 -0.04865573 0.028916616 -0.07133777 -0.12106604
0.039607737 -0.036007587 -0.046336174 -0.038614452 -0.03694965 0.047995053 0.048236284 0.0050349585
-0.037544493 -0.039225284 0.021984147 0.015325767 0.033885524 -0.052094504 -0.03737291 -0.101195864
0.077602565 -0.02787762 -0.04041695 0.016805202 -0.047806714 -0.08447141 -0.03206301 0.009585305
0.005989327 0.022297306 -0.0019669246 -0.07792666 0.015360786 -0.0147393895 0.019833058 -0.08173691
0.03607747 0.049391154 0.008401156 -0.042013217 -0.05272384 -0.034790475 -0.06747256 -0.018286051
-0.025761645 -0.002429425 -0.0223315 0.035568457 0.059327044 0.024335142 -0.03729306 0.075689144
-0.013898826 0.043935463 -0.11914775 -0.051518787 -0.00693887 0.0052592834 0.062386543 -0.018205523
-0.036034584 -0.006103671 0.048044413 -0.021818895 0.08417437 -0.06515546 0.027014144 -0.055291507
0.010649546 -0.017897855 0.008588755 0.078992695 0.010402371 0.04687475 0.18881847 0.06761595
-0.083207496 -0.1182148 -0.12774856 -0.056515045 -0.020758059 -0.029276676 -0.04368931 0.012669685
-0.069971606 0.034213733 0.07044139 -0.012852657 -0.011485405 -0.019624127 -0.07551848 0.035301156
0.036458034 -0.022032775 -0.016561186 -0.09406065 0.035415526 -0.0271426 0.0016718822 -0.0008076239
-0.01800331 0.024575243 0.062112726 0.010784627 -0.047815368 -0.07535668 0.06391903 -0.026080146
-0.04372645 -0.0073379558 0.017401319 -0.020734474 -0.011308593 0.0671085 0.01531057 -0.050108295

bias f4 [256]
00000000: 1655 023c 4036 84bb 1f3a 0fbc 3179 8ebc
00000010: a437 5c3c 17cc 0bbd c944 e43c 8c6c 183d
00000020: 7b62 5abc 5d42 bcbc 11fe d7bc 978d 20bc
00000030: d860 28bc 3e89 11bd 3556 3a3d 720d 003d
00000040: 00c0 873a 00da 523d 3ef4 bebc e230 68bc
00000050: 9617 323d 6754 303b 3ff1 0f3d 6aaa 413c
00000060: b8be e13c 6423 20bd 8760 f1bc 88ba 02bd
00000070: 93a2 cd3c dd47 f8bc 142e 443b fe42 f3bc
00000080: b4c2 a3bd 3548 f83c 307d cfbc 1934 d3bc
00000090: 28d7 c9ba 1db1 f73b abce 44bd 3b7f 3cbd
000000a0: b33a 7abc 2443 8fbd 8705 9ebc 3fcd 9f3b
000000b0: 1237 11bd e677 9a3c 3c8c 30bd d028 61bb
000000c0: 4f71 0fbd 1e4a ccbc 8cdd 06bd 4544 c33c
000000d0: a6b2 4fbd d3c4 0ebd 71ca 2bbd 0b68 eabc
000000e0: 8a10 40bd d965 02bd cdcb c8bc 2f9d a83c
000000f0: 1d9d 54bd de23 0f3c 9137 643c 5621 353d
00000100: 572e c3bc c5a4 39bd 9f15 c6bc 1d42 a5bc
00000110: dbed adbc 6ce7 37bc ed32 dfbc b4f4 5b3c
00000120: 425c 72bd da2d 183c ea18 263c 39ad 94bc
00000130: 46d6 b33c e369 f1bb 47b0 20bd dbda 15bd
00000140: 853d f8bb 516d 17bd 9782 bebb 75e8 c33c
00000150: eab8 8abd 06a5 e7bb 98fc 8abc 8d8a 1039
00000160: 53e1 fabb 64a9 21bd 14ff f7bc fd76 c1bc
00000170: 78df c03c 53cc f6bb d36b 1dbc d283 953b
00000180: fc53 92bc 47a6 e0ba bdc1 fdbc 708e 843c
00000190: b5a7 863a fdda 85bc f81c 2fbc a428 1ebd
000001a0: 1428 5fbd e2fa d13b 0216 173d b357 a2bc
000001b0: b2cc 33bd 802b 58bc 30c4 b0bb e634 5abd
000001c0: eb74 cbbd 637c 4ebd 6315 133d 2044 5a3c
000001d0: f6e5 e7bc 2eec b83c 63c9 3abd 66e0 b13b
000001e0: 56fb 91bc 1e8c 853c 00e4 2e3b 95ef 5dbd
000001f0: 8e69 b0bb 0dfc 793b d0bf c93b 7138 16bb
00000200: 262c f5bc 3c1e 253c aeeb 21bd 0da1 b0bc
00000210: 562e 033b 21f5 a9bc c480 04bd 877b 743c
00000220: 9c76 26bd 90c6 3fbd acfe 89bc 9a27 29bd
00000230: 25da 20bd c7a5 77bc 62a1 e43a de02 853c
00000240: a2dc 4f3c b07f 39bc ccf6 3c3c 59c2 dfbc
00000250: 52ce 913c 8e54 babc b287 953b 508f acbc
00000260: 05e3 e33c 8314 333c b96b 923b 7343 aebc
00000270: a0b2 ebbc 41b4 95bc a03e 82bd 9b7a ee3c
00000280: d108 8ebd 2a7d f6bc 56fe 923c b018 48bd
00000290: 8149 fcbb 7408 16bd 8ca0 da3b b80e 9d3c
000002a0: e9dc ceba ab5b 323b 6f83 61bb 4851 96bc
000002b0: be85 65bd 29ac 92bd 9e28 16bd c5a4 fa3b
000002c0: 807c b0bd e165 cb3c 03d2 75bc 5281 353c
000002d0: dc9b 043c 0774 813c 3779 9f3c 2efb 43bc
000002e0: 83b6 4f3d 09a1 a33c d5b8 9f3c fa00 c7ba
000002f0: 66b5 8c3c 7093 2dbc dbf3 cd3c e0b2 68bd
00000300: efbf 36bd d4c5 163c a2b4 9dbc 2108 3b3a
00000310: 0bbf 88bd a58b 053c 5f1b a7bc 9889 113c
00000320: 4208 3cbd 4bae e9bb 1adc 863c 7614 b1bc
00000330: 67ee d63b eca5 97bd f8f1 a63c 0ee4 15bd
00000340: cad8 3cbc dd22 a7bd 5d23 d8bc 91f8 73bc
00000350: a551 20bd 5970 933c 9f75 963c 5cd5 02bd
00000360: 76f9 4bbc aa2d 69bd 4508 a93a 24df febc
00000370: 9c19 a23c 9a08 9ab9 6361 9abd 4765 c4bc
00000380: a760 353c 9cca 2f3d 1618 2bbd 21f7 e1bc
00000390: f473 b63c 4e16 82bd ad5e 043d 30b8 b0bd
000003a0: 3c10 643b 5a90 1e3d fda6 8cbc 0db6 e7bc
000003b0: ec4e 183d 3492 4d3d f59a 553c 8ad5 8c3c
000003c0: 65ce 4b3d 067d 78bc 7f9f 39bc 479d 84bd
000003d0: 0d02 afbc 665e 493c 8db0 c43a 1543 02bd
000003e0: 8732 463c 7d84 35bd e89a 3fbd 0be7 3c3b
000003f0: d5d6 1abd 2ff6 04bd 29c0 383d 5aff 8b3c
0.007954856 -0.0040347874 -0.0087418845 -0.017391773 0.013441 -0.034130182 0.02786483 0.037212893
-0.013329144 -0.022980863 -0.026366265 -0.009799383 -0.010276996 -0.035531275 0.04549237 0.031262822
0.0010356903 0.051477432 -0.023309823 -0.014171811 0.043479525 0.0026905776 0.03514218 0.011820415
0.027556762 -0.03909625 -0.029464973 -0.03191617 0.025101935 -0.030307705 0.0029934691 -0.02969503
-0.07996121 0.030307868 -0.025328249 -0.025781678 -0.0015399205 0.0075589553 -0.048048656 -0.046019774
-0.015272784 -0.06995228 -0.019289745 0.004876762 -0.03545291 0.018856 -0.043102488 -0.0034356602
-0.03502017 -0.024937686 -0.032926127 0.023836264 -0.05070748 -0.034855675 -0.04194111 -0.028614065
-0.046890773 -0.03183541 -0.024511242 0.020582763 -0.051907647 0.008736579 0.013929264 0.044221245
-0.023825807 -0.045323152 -0.024180232 -0.020173127 -0.021231582 -0.011224609 -0.027245963 0.013425041
-0.059170015 0.009288276 0.010137776 -0.018149005 0.02195276 -0.007367359 -0.03923061 -0.03658567
-0.007575693 -0.036969487 -0.0058139074 0.023914555 -0.06773551 -0.007069233 -0.01696615 0.00013784524
-0.0076562553 -0.039468184 -0.030272998 -0.023616308 0.023544058 -0.0075316816 -0.009608227 0.0045628333
-0.017862312 -0.0017139398 -0.03097617 0.0161812 0.0010273369 -0.016339773 -0.010688059 -0.038612977
-0.05448158 0.0064080814 0.036886223 -0.019817209 -0.043896385 -0.013193965 -0.005394481 -0.053273104
-0.0993441 -0.050411593 0.035909068 0.013321906 -0.028307896 0.022573557 -0.045602214 0.0054283617
-0.017820042 0.016302165 0.0026686192 -0.05418356 -0.005383677 0.0038144619 0.006156899 -0.0022921825
-0.029928278 0.010078009 -0.039531402 -0.02156117 0.0020016632 -0.02074677 -0.032349363 0.014922029
-0.04064046 -0.046820223 -0.01684507 -0.041297533 -0.03927054 -0.015115208 0.0017443115 0.016236719
0.01268688 -0.011321947 0.01153345 -0.027314352 0.017798577 -0.022745397 0.0045632953 -0.02106443
0.027818212 0.010930183 0.004468408 -0.021272397 -0.028771698 -0.018274428 -0.06359601 0.029111197
-0.06935275 -0.03008898 0.017943542 -0.04885167 -0.007699192 -0.036629155 0.0066719707 0.019172058
-0.0015782389 0.0027215283 -0.0034410616 -0.018349305 -0.05603575 -0.07161743 -0.03665983 0.0076490366
-0.086174965 0.024828853 -0.015003684 0.011078196 0.0080938 0.015802396 0.01946698 -0.011961741
0.050711166 0.019974248 0.019497314 -0.0015182786 0.017176341 -0.010594234 0.025140693 -0.056811213
-0.044616636 0.009202439 -0.019251171 0.0007134695 -0.066770636 0.00815097 -0.020398794 0.008882903
-0.045906313 -0.007131373 0.016462374 -0.021616202 0.0065591815 -0.07404694 0.020379052 -0.036594443
-0.011526296 -0.081609465 -0.02638405 -0.014890806 -0.039140362 0.017997907 0.018366633 -0.031941757
-0.012449613 -0.056928314 0.0012896141 -0.031112261 0.019787602 -0.00029379578 -0.07538106 -0.023974074
0.011070407 0.042917833 -0.041771017 -0.02758366 0.022272088 -0.063519105 0.032316852 -0.08628881
0.0034799716 0.038711883 -0.01716947 -0.02828505 0.03718464 0.05018826 0.013037433 0.017191667
0.04975738 -0.015166527 -0.011329531 -0.06475311 -0.021363283 0.012290573 0.001500623 -0.031802256
0.012097008 -0.044315804 -0.04677859 0.0028824236 -0.037802536 -0.03246134 0.045105133 0.017089535

weight f4 [128, 256]
00000000: 3f56 793c 2e56 b43d 96db 54bd 5d03 c5bc
00000010: 9511 aabc 1b8c c9bd 173c 1ebe 9b10 fa3a
00000020: d584 bcbd 4a48 95ba 9e67 af3c e215 95bd
00000030: b2db 49be 1b83 4ebd 047f bbbd a4c8 6c3d
00000040: 38b7 943d 2e2b 033d 1a15 a6bb 04a2 993d
00000050: fe16 50bd a3ea db3d 55af e0bd d4e1 54bd
00000060: 7658 e3bd 421d 47bc 4e12 5d3d e54c d43d
00000070: 56a5 273d f501 e63d aefe 98bd aff3 f4bd
00000080: 6d32 51bd 291d 213c 0f02 0dbd 3372 d3bd
00000090: f5ab d5bd a263 79bb 5c1a 8abb c6a9 5c3c
000000a0: 3d32 06be 645f ec3b 5dca 52bd bb9e a43d
000000b0: 37ca 8bbd 00aa 83bd 753a 98bd 1684 13bd
000000c0: 50cd b03d 0a50 8d3c 0902 943c 1ed5 023d
000000d0: de40 a73d 92f5 683d 1da9 9bbd d7be 9fbd
000000e0: caec adbd 239f 5bbd f82b fb3c 404f c3bb
000000f0: 8bcf 0f3c 7e15 303d 0b6c 6e3d 133d 1f3e
00000100: 3ba5 573d 1365 e83c 1be9 c5bd c052 18bb
00000110: a371 7e3b a5de 1fbd 4aac 15bd 89de adbd
00000120: 439e 373d c5c6 f5bc 9468 53bd c00b eebc
00000130: 3613 b2bd 9873 be3d 879e ce3d 86a1 83bd
00000140: 3b24 97bd c346 efbd b052 43bd 167f a2bd
00000150: 32e6 13bd 4f2e 163c ddc6 0bbe bc96 db3b
00000160: 6a16 88bd 3138 51bd e665 c2bd 5ea9 59bd
00000170: 787c 7c3d d276 06bd b333 123d 6260 38bd
00000180: c467 68bd d7c6 dd3d 0714 98bd ae39 aa3d
00000190: 9d60 eabc f3b7 17be 9c69 a03c 0b21 a0bc
000001a0: 44d0 45bc f987 84bd f259 873d 705d 7c3b
000001b0: d3f1 a9bd 0191 7e3d 727c 993c 5ae2 10bd
000001c0: 8467 15bc 5374 59bc 8bc5 28bd d679 cfbd
000001d0: dd89 9e3c b2f0 cc3d 018d 84bb cf7b 77bd
000001e0: eca1 cdbc a5f5 213d 50ce 0d3d f3f2 dbbd
000001f0: 7cd9 aabd e9a8 5abc e87a 04bc 732b b1bc
00000200: a06e 24bd 9c45 f4bb 810c d83d 160a 86bd
00000210: 8ed2 34bc 8e60 fabc fb3e bfbc 869b 77bd
00000220: 0999 c7bd bd63 833c 270c 7a3d 635b 55bd
00000230: 794c 003e 4df1 893b 16d6 f63c c151 213d
00000240: 4297 07be f124 903c 2feb 48bd 7939 02be
00000250: b39e c8bd eb71 0b3d 0162 6cbc 054f e9bc
00000260: d047 db3d 5626 06bd 1e2c b2bd 2318 863d
00000270: 97f5 38bb 18ea 533d a396 36bd 3362 6e3d
00000280: 54ef 85bd bede 9abc 07cd e43d 012c 52bc
00000290: 0819 c83d af5b 963c ba73 573d 09b2 a73d
000002a0: e1ce 83bc f68b 80bb 780a 28bc 369e 993d
000002b0: 96a9 473c da72 c1bc 4611 5dbd a7fb a8bc
000002c0: ca1a 613d 890c 82bc 382b 14bd e86e 553d
000002d0: 0f6c a83c 7253 32bd e0fc d5bd d244 94bc
000002e0: 112f 663d 79c3 133b ad31 3fbd b170 24be
000002f0: f1fc 9a3d 6e20 11be 6128 70bc b14a e53c
00000300: 2df8 233d 4a33 723d a30c b93d efc2 363d
00000310: 04ef 18bd d14f babc e9f8 9bbd adb3 4ebd
00000320: 695d 3b3d 3b3f 093e 06ca 263d f2d4 1d3d
00000330: 4321 8dbc de0a 253d 47e2 41bd cf72 11bd
00000340: 4a38 843d a485 5b3d afcc 173d 190b c6bd
00000350: cb43 c83c 6a08 1bbd 83cc e8bd 0d63 d0bd
00000360: 93eb 41bd 7d0e d6bb 31ff 913d 3efe cfbb
00000370: 16ca 863b 1eaa 2d3d 13ab 9abc eb12 ccbc
00000380: 5fe1 6f3a 85b4 eebd 26b1 febc 3972 c53b
00000390: 6b57 a1bc 84a5 413c d5e4 a7bd 79db c63c
000003a0: cf36 be3d 5753 ba3d fd29 ebbc 6a5d a5bc
000003b0: c554 853d fb4f 6abd 4fbd 1ebe 06fb 5dbc
000003c0: ba86 993c 9b3d b43d df49 333d 2949 813c
000003d0: bc7b 0e3c 116b 5f3d a18b 37bd 8490 89bd
000003e0: a0f5 363d fe4b bfbd 7fa0 97bb cb37 85bc
000003f0: 6e5f 2e3c 1f22 7d3d f10c b5bd 2be3 98bd
0.015218317 0.088055 -0.051967226 -0.024049455 -0.020760337 -0.09841176 -0.1545261 0.0019078435
-0.09205023 -0.0011389342 0.021411713 -0.072795644 -0.19712713 -0.050418 -0.09155086 0.057808533
0.07261509 0.0320236 -0.0050684335 0.07501605 -0.050803177 0.10738113 -0.10970942 -0.05197318
-0.11100857 -0.012152972 0.053972535 0.10366229 0.04092916 0.11230842 -0.07470451 -0.119605415
-0.05107348 0.0098336125 -0.03442579 -0.10324516 -0.10433189 -0.003805377 -0.004214568 0.0134682115
-0.13105102 0.00721352 -0.05146252 0.08038088 -0.06825679 -0.06428909 -0.07433025 -0.03601464
0.0863291 0.01725008 0.018067377 0.031941526 0.08166669 0.05687482 -0.07600615 -0.07800072
-0.084924296 -0.05361856 0.030660614 -0.005960375 0.008777509 0.042989247 0.058208507 0.15550642
0.05264781 0.028368508 -0.09663602 -0.0023242682 0.0038825057 -0.03903069 -0.03654126 -0.08489711
0.044828665 -0.030002007 -0.051613405 -0.029058337 -0.086950704 0.092993915 0.100888304 -0.064272925
-0.07379957 -0.116834186 -0.04768628 -0.07934396 -0.036108203 0.009166314 -0.13650079 0.0067013185
-0.066449 -0.05107898 -0.09492092 -0.053140037 0.06164214 -0.03282816 0.035693835 -0.045013793
-0.056739584 0.10828941 -0.07425695 0.08311783 -0.028610522 -0.14816265 0.019581608 -0.019547006
-0.01207358 -0.06471247 0.066089526 0.0038507842 -0.082980774 0.062150005 0.018736098 -0.035372116
-0.009118918 -0.013272363 -0.041204017 -0.1013066 0.019352848 0.100068465 -0.0040451293 -0.060420807
-0.025101624 0.039540906 0.034620583 -0.10739698 -0.08342263 -0.013345935 -0.008085944 -0.021627164
-0.040144563 -0.007454587 0.1054926 -0.065448925 -0.011036528 -0.030563619 -0.023345461 -0.060451053
-0.09745986 0.01603877 0.061046746 -0.052089106 0.12529172 0.0042096735 0.030131381 0.039384607
-0.13241294 0.01759574 -0.049052414 -0.12717237 -0.097958945 0.034044188 -0.014427663 -0.028480062
0.107070565 -0.032751404 -0.08699821 0.065475725 -0.0028222555 0.05173692 -0.044577252 0.05819912
-0.06539789 -0.01890504 0.11171918 -0.012827874 0.09770399 0.018354265 0.0526006 0.081882544
-0.016089858 -0.0039229346 -0.010256402 0.075008795 0.0121864285 -0.023614336 -0.05397155 -0.02062781
0.05495719 -0.015875118 -0.03617403 0.05210772 0.020559339 -0.04353661 -0.10448623 -0.018099222
0.05619723 0.002254693 -0.046678234 -0.16058613 0.07567776 -0.14172527 -0.014658065 0.027989717
0.0400316 0.059130944 0.090356134 0.044619497 -0.037337318 -0.022743138 -0.07615835 -0.05046432
0.04574338 0.13403027 0.04072001 0.03853316 -0.017227774 0.040293567 -0.047334936 -0.03550988
0.06456049 0.053594247 0.037060436 -0.096700855 0.024446389 -0.03784982 -0.113671325 -0.101751424
-0.0473438 -0.006532489 0.07128752 -0.0063474467 0.004113446 0.042398565 -0.018880403 -0.024911365
0.00091507094 -0.11655525 -0.03109033 0.0060255793 -0.019695004 0.011819247 -0.08197943 0.024274575
0.09287798 0.09097927 -0.028706545 -0.020186145 0.06510309 -0.05720518 -0.15501903 -0.013548618
0.018741 0.08800813 0.04377162 0.015781956 0.008696493 0.054545466 -0.044810895 -0.06717017
0.04466784 -0.09340666 -0.004627287 -0.016261956 0.010642869 0.06180012 -0.08840359 -0.07465204

bias f4 [128]
00000000: 6cd3 b9bc 44a3 e3bc 1024 c83c 2bda 9f3c
00000010: 58a0 23be 27b9 423d aff6 14bd e05e 343d
00000020: 2894 4b3c 93aa 543b c1e5 493d b529 893d
00000030: d2fe fabc 67f1 623d b6ca 22bc 1b86 b739
00000040: 2574 b2bd 40ed aa3a 7d32 90bd 6e62 f7bc
00000050: fe3d b83c 3053 86bd 7d0f 8ebd 53db adbd
00000060: 09d7 053c 140f 97bd 4f6c 2abc 8e1a 303d
00000070: c2bc 883d d7ef 163c 6a8e 73bd f2f4 2abc
00000080: 48b0 8bbd 5e9f fdbc 5176 cabc 11ef 44bd
00000090: e3ff a83c e6df 39bd 29a1 043d ad52 4abd
000000a0: a02a 743b 2abd fbbc 665d 9f3d 2f67 1a3d
000000b0: a3ea 893b c444 ff3c fada 093d f5f4 9e3d
000000c0: 6269 f63c b637 f83c 880e 813c 5cd4 443c
000000d0: 815c d9bb 95ee c03c a73d 37bd b811 30ba
000000e0: 61d9 97bc 63e1 763d 1ba5 193c ac51 1b3d
000000f0: 2a61 893d e6fd fd3b 46f8 04be 64f5 bf3c
00000100: 271a 72bd ff2b dcbd 3d8b 133d 89c3 68bd
00000110: 3a24 8a3c ecb7 9cbc 4adf 86bd 5815 933c
00000120: 9e3a 22bc b4fb a3bd b49e 363d 4af7 c8bc
00000130: 8104 c7bb aef1 44bd 53c9 30bd 29b6 933b
00000140: 58e2 2ebb 1010 8f3c ca06 f2bc f0cc eeba
00000150: bb11 4bbd 552d 10bd 1e80 163d d93c 4d3b
00000160: 4491 b8bd d9c3 393d 1ddd 82bc a822 60ba
00000170: f1c2 2ebd 5340 fbbb deb6 233c 5fa5 5f3d
00000180: c6ee 34bd 32a4 4f3b d19b 223c bba4 f93c
00000190: c3e9 753b 81f5 5abd f9ae 0a3d c371 2abd
000001a0: 00ac aebd 629c bcbd ffd5 91bd 8ac7 9bba
000001b0: b4da 90bc 909b 2c3d 4842 79bd 49d0 06bd
000001c0: 2bd3 62bd 76e6 37bd 66ea bbbd 932f 043d
000001d0: a8cc 6f3c b406 743d 98d7 053c e116 ac3c
000001e0: 2402 41bc aaf2 673c f1ba 15bc e3f8 05bd
000001f0: 6d3d 9ebd 9803 0a3c b149 f2bc ac8b d9bd
-0.022683822 -0.027787812 0.024431258 0.01951321 -0.15979135 0.047539856 -0.03636807 0.044035792
0.01242546 0.0032450303 0.049291376 0.06697408 -0.030639086 0.055406 -0.009936025 0.00035004396
-0.08713559 0.0013040677 -0.0704088 -0.030198302 0.022490498 -0.065588355 -0.06936548 -0.084890984
0.008168944 -0.07375923 -0.010401799 0.042994075 0.06676628 0.009212456 -0.05946199 -0.010434376
-0.06820732 -0.030959781 -0.02471462 -0.048079554 0.020629829 -0.04537954 0.032380257 -0.049395252
0.0037256852 -0.030729849 0.07781486 0.03769606 0.004208879 0.03116072 0.033656098 0.077615656
0.030079547 0.030300003 0.015754 0.012013521 -0.006633342 0.023551265 -0.04473653 -0.00067165075
-0.018536272 0.06027354 0.009377743 0.037919685 0.06707986 0.0077512143 -0.12985334 0.023432441
-0.059106972 -0.10750579 0.03602146 -0.0568271 0.016862977 -0.01913067 -0.06585558 0.017954513
-0.009901671 -0.08006993 0.044584945 -0.02453198 -0.006073535 -0.048082046 -0.043160748 0.004507799
-0.0026685204 0.017463714 -0.029544253 -0.0018219035 -0.049577456 -0.035199482 0.036743276 0.0031316786
-0.09012082 0.04535279 -0.015974576 -0.0008550086 -0.04266638 -0.00766758 0.009992329 0.05460107
-0.044173025 0.0031683561 0.009924845 0.030474057 0.0037523366 -0.053456787 0.033858273 -0.041612398
-0.085289 -0.09209515 -0.07120895 -0.0011885029 -0.01768241 0.042140543 -0.060854226 -0.03291348
-0.055377167 -0.04489752 -0.09175567 0.032271933 0.014636196 0.059576705 0.008169077 0.021007003
-0.0117802955 0.014156977 -0.009138809 -0.03270806 -0.0772656 0.008423708 -0.029576154 -0.106223434

weight f4 [12, 128]
00000000: 2cd6 253d 520a ddbb b215 14bd 60ab d93c
00000010: af33 7a3c 742b 673d 8124 1b3c 7671 3bbc
00000020: 788f 7e3c 7d21 f8bb cd84 9cbc dfa1 833c
00000030: 095d 1cbc 6e87 9ebc 0765 08bd 0a47 9dbd
00000040: 2dd2 bf3c 84d0 323d f1ce bb3c 3996 8ebc
00000050: 3526 2fbc dbcd bd3d 3ca9 24bb 111a 8e3d
00000060: 16af 893d 345d 7d3d b1d2 643d 10e1 0a3d
00000070: 8f60 52bd 815f c8bc 07e0 9d3d acd4 36bc
00000080: c724 1cbb cebd 453d df82 7abd af87 e4bc
00000090: b3a9 813c 2b86 593d 9ad6 143c 964f 343d
000000a0: 3d6d 86bd ce6d 323c c13a 463d 47a7 86bd
000000b0: 371d 1fbd 006d 2c3c ac6c e1bc 729a 8d3c
000000c0: 12df 24bc 407f 1cbb 3ea2 4bbd fe6b 09bd
000000d0: d3d5 183c 2d8b 31bd ac72 cabb f7c4 4e3d
000000e0: bbe1 9f3c 3172 c1bd 78d9 3dbd ed73 51bc
000000f0: f21b 6b3c 6802 9fbd eda8 90bb c85b 293c
00000100: c69e 34bb 33fb 913d 0302 d43b c389 80bc
00000110: f1b5 54bd 5fe2 163b f7de 673d 163d a03c
00000120: cdaf 25bd 096f 33bc 197b 92bc 7a48 8d3d
00000130: aa46 fbbc 2d28 3dbd 0288 e83a ca69 a2bd
00000140: 208e a2bc 4f52 d13c 6833 bfba f25e 7e3c
00000150: 0019 4c3c 8be0 7f3b 0f09 ebbb 739d da3c
00000160: a56b 14bd 2f3f 113d 6a74 10bd 2799 8cbc
00000170: 060f 2b3c 569c a4ba c59d 893d 0ff8 293d
00000180: 2aa7 903c 4dfd 173d 9f02 45bd 2f7d 233d
00000190: 029f d13c 0311 aabb 49a0 153c bf75 7cbd
000001a0: 6d98 04bd 7c38 453c 78e5 4d3a e916 07bd
000001b0: 4dc0 913d 6293 f23c 8841 ae3a 3e7d 763d
000001c0: 8aa1 d1bc 726e 96bc e107 90bd 0f5b 05bd
000001d0: 0ae8 46bd d124 98bd d615 2c3d 681d 3cbd
000001e0: 75af d53b 8d2a b23b 3af5 053c 0149 38bd
000001f0: 9060 0abc 2962 a43c c8f2 633d 863a a23c
00000200: eb44 dd3b f7b9 87bd 6318 0e3c 18f0 5fbd
00000210: 60c5 0e3d 6866 4dbc 312b e43b 4df5 0fbd
00000220: e190 a93c ec0a 75bd 2050 16bd bd0f c6bd
00000230: 085e 45bd f56c bcbc b00d c9bd 53ea 50bc
00000240: 5060 c33d e971 263d 444e 493d faca 1fbd
00000250: 7632 b8bd a7b2 6c3d 6809 073d fbaa 0e3d
00000260: 1bad 98bd 3842 7b3d 3818 433d 6713 103c
00000270: 4092 f3bb 32d3 08bd aaa9 1b3c e35e f3b9
00000280: 4aae 8a3d 7991 da3d c22c 333d 1978 443b
00000290: 9cad 17bd de6c 663b f665 5abc 4bc0 bbbd
000002a0: c065 8dbd 7985 733d 3549 3fbd 6368 d2bc
000002b0: 8f6a 72bd 0a46 3f3c 78d4 48bd c9fe febc
000002c0: 6a0d 5ebc f2ae 3bbd 3c1e 8dbd 1da1 8e3b
000002d0: 2840 20bd a4fb 45bd ea0f e23d 1080 0ebd
000002e0: 8d0d 4abd 84cc fcb9 e8ba 34bd 2dc4 9ebb
000002f0: 9d7f 253c 16c8 56bd a3ba dc3d 5bb0 fbbc
00000300: 2303 b13d 9448 3b3d 6891 9dbd b95e a93d
00000310: b58b 9e3c 6072 193d c225 4c3d f2ec 6e3d
00000320: 1900 9ebd 0047 be3d 63c0 acbd f2e3 6bbd
00000330: 1065 0d3d edda 783d 8e41 6bbd 195a b8bb
00000340: 87ca bdbc bb03 063d 3b52 d0bc 0f8c a93d
00000350: 6934 a23d f7b3 c9bc 926e 70bd a0b1 c53d
00000360: 0c25 fd3c 669b 93bd 4111 203d f0fa 99bc
00000370: 759e 7ebc e55f 5b3c 12d2 9dbd 0fe1 62bd
00000380: dcd6 5bbb c691 1bbd 119f b1bd 1e0a 7cbd
00000390: 8c09 8cbc 6c57 203e b0f3 97bd 18a1 37bc
000003a0: 7c18 5b3d 6a48 67bc ba45 333d fed5 c73c
000003b0: 7f44 833d 441e 1cbd d7a0 4ebc 591b c8bc
000003c0: 26a9 dfbb c832 a23d 61ee e13d 7515 95bd
000003d0: 9286 c6bd 01f6 3dbd dddd 6f3d 9293 62bd
000003e0: 39c1 aa3d 4a9e 3fbd 0713 983d 756c 6dbd
000003f0: e059 bfbd 1d2e 55bd 16ff 0bbd b537 b8ba
0.040487453 -0.006745615 -0.036153503 0.026570976 0.015271111 0.056437925 0.009469152 -0.011440625
0.015537135 -0.0075723515 -0.019106293 0.016068397 -0.009543666 -0.019351687 -0.033299472 -0.07679565
0.02341565 0.043655887 0.022925826 -0.017405616 -0.010690262 0.092677794 -0.0025125286 0.069385655
0.06722848 0.061856464 0.055864993 0.033906043 -0.051361617 -0.024459602 0.077087454 -0.011159103
-0.0023825632 0.048276715 -0.061159965 -0.02789673 0.01582799 0.05310647 0.009084368 0.04402121
-0.06563804 0.010890437 0.048395876 -0.06574874 -0.03884622 0.0105240345 -0.02751764 0.01728556
-0.01006295 -0.0023879558 -0.049715273 -0.033550255 0.009328323 -0.04334562 -0.0061782207 0.05048081
0.019516816 -0.094456084 -0.046349972 -0.0127839865 0.014349924 -0.07764131 -0.004414669 0.010336824
-0.0027560457 0.071279906 0.0064699664 -0.01569069 -0.051931325 0.0023023111 0.05660912 0.019560378
-0.04045086 -0.010951766 -0.017880963 0.068985894 -0.030673344 -0.046180893 0.0017740729 -0.07930334
-0.019843161 0.025551943 -0.0014587464 0.015525566 0.012457132 0.003904375 -0.0071727107 0.026686406
-0.03623547 0.035460647 -0.03526727 -0.017162872 0.010440594 -0.0012558799 0.06719545 0.041496333
0.017657835 0.0371068 -0.048098203 0.039914306 0.025588516 -0.0051900162 0.009132453 -0.06163573
-0.032371927 0.012037393 0.0007854323 -0.032980833 0.071167566 0.029611293 0.0013294676 0.060178034
-0.025589723 -0.018363211 -0.07032753 -0.032557543 -0.048561133 -0.07428897 0.042013012 -0.04592648
0.0065211602 0.0054372014 0.008176142 -0.044991497 -0.008445874 0.020066338 0.055651456 0.019803297
0.0067526004 -0.06627267 0.008672806 -0.05467233 0.0348562 -0.012536623 0.0069631566 -0.035146046
0.020698966 -0.05982487 -0.036697507 -0.096709706 -0.04818538 -0.023001174 -0.09817064 -0.01275118
0.095398545 0.040635977 0.049146906 -0.039011933 -0.08994 0.057787564 0.032967955 0.03483103
-0.07454892 0.061342448 0.04763052 0.008793688 -0.007433206 -0.033404537 0.0095009 -0.00046419268
0.06771524 0.10672278 0.043743856 0.002997881 -0.0370308 0.0035160105 -0.013329973 -0.09167536
-0.06904173 0.05945346 -0.046700675 -0.025684541 -0.059183653 0.011674413 -0.04903075 -0.03112735
-0.013553003 -0.045821138 -0.068905324 0.0043527023 -0.039123684 -0.048335686 0.110381916 -0.0347901
-0.04932933 -0.00048217562 -0.04412356 -0.0048451633 0.010101226 -0.05243691 0.10777786 -0.030723741
0.086431764 0.045723513 -0.0769375 0.0827002 0.019353727 0.037462592 0.049840696 0.058331437
-0.077148624 0.09290886 -0.08435132 -0.057590432 0.03452021 0.06075566 -0.057435565 -0.005625975
-0.023167862 0.0327184 -0.025429836 0.08278667 0.07920153 -0.024621947 -0.058699198 0.0965302
0.030901454 -0.07207374 0.039078955 -0.018796414 -0.015540709 0.013389562 -0.07706083 -0.055390414
-0.0033544814 -0.037980817 -0.08672918 -0.061533086 -0.017094396 0.15658349 -0.074195266 -0.011207841
0.053490147 -0.014116386 0.04376767 0.024394032 0.06409549 -0.0381148 -0.012611589 -0.024427103
-0.006825584 0.07919842 0.11031795 -0.07279483 -0.09693636 -0.046377186 0.058561195 -0.055316515
0.083376355 -0.046781816 0.07425504 -0.05796476 -0.09343314 -0.05204593 -0.034178816 -0.0014054688

bias f4 [12]
00000000: 7df2 debd 4d5f d63c bf73 083e 8aab ae3d
00000010: 0358 42bd eb7b 3f3d 88a3 28bd c2f6 c63c
00000020: ac74 873c da92 913d 8c5d 153b 8e54 403d
-0.10886095 0.02616849 0.13325404 0.08528812 -0.047447216 0.046749037 -0.04117158 0.024287585
0.016535126 0.07108088 0.0022791354 0.046955638
