logs/go1_IROS/exported/policies/torque_obs45.pt (torch, 767893 bytes, 8 tensors)

weight f4 [512, 45]
000000 65 d1 c1 bd 53 0f cd bc 8d ab ca 3c 1d 43 1f 3e
       -0.09463767 -0.025031721 0.024740005 0.15552945
000010 23 b4 61 3e 21 6f fe 3c 35 45 e1 bd 6c 61 d0 bd
       0.22041373 0.03105885 -0.10999528 -0.10174832
000020 4d 1e f0 3c fe 52 9f be bc 4a 90 bd 80 61 08 3e
       0.029311324 -0.31118006 -0.070455045 0.13318443
000030 72 53 3f 3d 07 81 9a 3e 5e 07 fb bd c7 8a bb 3c
       0.04671044 0.30176565 -0.122572646 0.022893323
000040 ec f2 09 3e 28 e4 01 be 33 26 18 bc 28 5d 2b bc
       0.13471574 -0.12684691 -0.009286451 -0.010459222
000050 26 ab 33 3e a0 7c fd bc d7 6d 72 3e 20 5a 0c 3e
       0.17545757 -0.030943215 0.23674713 0.13706255
000060 41 08 05 3e 1b 46 95 3c 32 9b a8 bd b5 13 01 3d
       0.1299143 0.018221905 -0.08232726 0.031512935
000070 32 2e 4b be 9a 6b af 3b ed 9d 1f bd ee 35 99 3d
       -0.19841841 0.0053534033 -0.03896897 0.074809894
000080 8f 53 2e 3e 1f f7 13 be 01 a2 9e bd bc b8 f5 3d
       0.17024063 -0.14449738 -0.077457435 0.11998126
000090 17 d1 a3 bd 60 8a 30 3d 5a 84 17 bc e9 c0 79 3d
       -0.07998865 0.043100715 -0.009247864 0.06097499
0000a0 e9 1e d0 bb e2 33 dc bc 1a 15 8b bd da 0d 03 bd
       -0.006351341 -0.026880208 -0.06791134 -0.03199563
0000b0 b5 e8 a4 bd 85 e7 41 3d ab 85 24 bd 4a 68 be b8
       -0.08052198 0.047339935 -0.04016654 -9.079331e-05
0000c0 d2 a7 b1 bd 0b a5 89 bd 6f ff 02 3d 35 e3 b2 bd
       -0.08674587 -0.067209326 0.03198188 -0.087347426
0000d0 31 f0 10 3e 11 5a c4 bd d4 bb 50 3e 69 78 a9 3d
       0.14154126 -0.09587491 0.2038415 0.082749195
0000e0 91 61 8a 3d a0 0b 4e 3d 76 fb 54 be 59 70 79 be
       0.067568906 0.050304055 -0.2079905 -0.24359263
0000f0 1b 72 f8 3d 39 ce e9 3c a5 0c f4 bd cf 5e 62 bd
       0.12131139 0.028540717 -0.11916474 -0.055266198
000100 48 36 fc bd 7f 02 08 3d a0 ba 2d be 2c 70 a5 bd
       -0.12315041 0.033205505 -0.16965723 -0.08078036
000110 a2 be 83 3d c5 ce 87 3d 54 0c d4 bd 85 f0 2e be
       0.06432845 0.06631235 -0.10353914 -0.17083938
000120 e9 6b 48 3e 0c 4a 20 3e fc 59 02 be 95 43 4b 3e
       0.19572414 0.15653247 -0.12729639 0.19849999
000130 b6 16 0c be c6 01 be 3d f0 cc 2b 3d 77 d3 d8 bd
       -0.13680539 0.09277682 0.04194349 -0.10587209
000140 27 5a 29 3d a3 32 79 bd 0a 1c e6 bc 77 4a 64 bb
       0.04134574 -0.060839307 -0.028089542 -0.0034834424
000150 6e 47 90 bd d1 17 d5 3c 13 9d d2 3d 3e fa a5 bb
       -0.07044874 0.026012333 0.10283866 -0.0050652316
000160 e7 f5 97 3d 36 f2 c4 bd 96 19 17 3b 36 eb fe bd
       0.07419949 -0.096165106 0.0023056022 -0.12447207
000170 d5 3d ab 3c 24 3d 4c be 4d e6 65 be 34 1c 42 bd
       0.020903507 -0.19945198 -0.22451134 -0.047390178
000180 fe 8c fa bd 9e 26 f4 bd f2 6c 0e 3a 86 a3 87 3e
       -0.122339234 -0.11921428 0.0005433104 0.26491946
000190 d1 4f 92 bd 24 89 03 3b b4 b4 2d be d1 87 87 be
       -0.0714413 0.0020070756 -0.16963464 -0.26470807
0001a0 bb a3 b4 3b fb de 1c be 60 3c e1 3d 06 f9 0f be
       0.0055126823 -0.15319435 0.10997844 -0.14059839
0001b0 1b 04 05 3e 7b a9 ec 3d e5 67 9c 3d 98 0e 91 3e
       0.12989847 0.11555763 0.07637004 0.28331447
0001c0 6e bb bc 3c 8d 61 12 be 13 bb 2d bd 7c 58 65 be
       0.023038592 -0.14295025 -0.042414736 -0.22397035
0001d0 1d 4e 4c 3d 93 2a 2a be 3a 34 15 bd cf 98 cf 3d
       0.049879182 -0.16617803 -0.03642676 0.10136568
0001e0 bb 6c c2 3d f7 72 76 3d 03 81 ae 3d 69 80 5b bd
       0.09493395 0.060168233 0.08520701 -0.05358926
0001f0 75 4b e2 bd a6 63 8c 3d 02 8c 85 3d cb 0b a3 3c
       -0.110495485 0.06854944 0.06520845 0.019903084
000200 a2 da 06 be 66 00 ed 3c 2c 9c 1f 3d 78 c2 b4 bd
       -0.1316934 0.028930854 0.038967296 -0.088261545
000210 5d a5 87 bd b3 d1 11 bb 52 c6 7f 3d 4a 41 6f bd
       -0.066233374 -0.0022250235 0.062444992 -0.058411874
000220 c9 a5 2c 3e f2 9b 68 3e 4b cf 8a 3d a5 9d d5 bb
       0.16860117 0.22715738 0.06777819 -0.006519037
000230 f0 f8 b8 bd cf b3 c4 bc 3e 83 c9 3c 2e 16 c6 bd
       -0.09031856 -0.02401152 0.024598714 -0.09672199
000240 bd 4a 46 be 68 30 fa bd 5c 5b ee bd 25 31 8c 3d
       -0.19364448 -0.12216264 -0.11638519 0.06845311
000250 52 21 86 bd f5 33 ee bd 96 c3 89 3d 3c 34 20 3e
       -0.06549324 -0.11631004 0.06726758 0.15644926
000260 37 fd fc bc 20 5b 4a 3e 90 fc 24 be 62 a1 82 3d
       -0.030882461 0.19761324 -0.1611197 0.063784376
000270 92 e4 15 3d 54 cd 02 be 7d 7b 1d 3d 99 77 23 be
       0.036594935 -0.12773639 0.038447846 -0.15963592
000280 cc 88 12 be 90 47 09 be b6 60 f6 bd 7b 63 37 3e
       -0.14309996 -0.13406205 -0.12030165 0.17909043
000290 d4 c1 8d 3d a3 2b 26 3e 94 b2 56 bd a2 3e 0b 3e
       0.069217354 0.16227584 -0.0524164 0.13598111
0002a0 2b 50 cb bd f3 c9 89 bd 62 fc 8c bd 6a a2 04 3d
       -0.099274 -0.06727972 -0.06884076 0.032381453
0002b0 be 68 b5 bd 61 95 41 bc 3f aa 1a be c4 c9 db bc
       -0.088578686 -0.0118154 -0.15104006 -0.026829608
0002c0 aa 19 d8 bd 21 25 77 bd b1 83 6f bd 52 a3 8f bd
       -0.1055177 -0.060338143 -0.0584752 -0.07013573
0002d0 71 ed f3 3d 73 ad 9b bc 21 24 3d be 50 b0 24 3e
       0.11910523 -0.019003605 -0.18470813 0.16082883
0002e0 84 18 22 be 0d fc 09 be c4 58 e0 bd 20 b9 d7 3c
       -0.15829664 -0.13475056 -0.10954431 0.026333392
0002f0 d0 cf ab bd 66 6d 07 3e ee cb 07 be 2d 10 5a be
       -0.083892465 0.13225326 -0.13261387 -0.21295233
000300 66 37 7f 3e 17 c9 54 bb a6 5a d3 3d c9 30 e1 bd
       0.24923477 -0.0032468492 0.10320024 -0.10995633
000310 a9 bd 02 be 07 13 38 3e 8a bc bb bc ad b7 42 3e
       -0.12767662 0.17976008 -0.02291705 0.19015379
000320 b6 96 33 bd ee 61 7e bc 41 bb 96 bc 78 9f 38 be
       -0.0438449 -0.015526278 -0.018399836 -0.18029583
000330 2f 90 bd 3d 2e a0 35 3d ef 6b 40 bd 35 cc e2 bc
       0.092560165 0.044342212 -0.046977933 -0.027685264
000340 ac 96 02 3e b9 f2 12 3c d9 99 af bc 9f 69 68 bd
       0.1275279 0.008969002 -0.021435665 -0.056741353
000350 15 d5 aa 3d 7e ae f5 3d b5 cc 36 3d 41 5e f8 3d
       0.083414234 0.11996172 0.044628818 0.121273525
000360 7e 58 e8 3d e3 84 97 3d a6 d3 20 bd 5b 47 36 bd
       0.113450035 0.07398393 -0.039264344 -0.044501644
000370 74 4e 08 bd 5d f3 6c bd 3b 2a 76 3d 15 1a a7 bd
       -0.033277944 -0.057849277 0.060098868 -0.08159272
000380 75 cb 64 3d 9e 73 1e 3d b2 57 a5 bd cb bd 1e 3e
       0.055858094 0.03868448 -0.08073367 0.15502088
000390 1f 3f e1 bd 38 7e 51 3e 19 e2 d8 3d d7 0c b9 bd
       -0.109983675 0.20458305 0.1059 -0.09035652
0003a0 f6 1e 8b 3c 2c d3 a6 3d d1 a9 7a be 11 e8 be bd
       0.016982537 0.081457466 -0.24478842 -0.09321607
0003b0 f9 fd 17 be f9 ad f0 bb 7c 93 05 3e 4f 0a c0 3b
       -0.14842977 -0.007344958 0.13044542 0.005860604
0003c0 c6 3e 34 3d f2 21 5b be 6e 08 a2 3d fc ed 23 bd
       0.044005178 -0.21399668 0.07911764 -0.04002188
0003d0 b5 e5 c0 3d fc e0 c0 bd 2e d7 3c be 51 af c6 3d
       0.09418813 -0.09417912 -0.1844146 0.09701408
0003e0 65 40 94 3b 00 b1 7c bd 39 75 1e be 0f 8b f3 bd
       0.004524278 -0.061692238 -0.15474404 -0.11891758
0003f0 72 e8 e4 3d e6 7b 1b bd 63 5e 2d 3d 65 94 33 3e
       0.11177148 -0.037959956 0.042326342 0.17537077

bias f4 [512]
000000 5d 8f 75 3d 70 84 e9 bc 86 43 14 bd ad 48 7a bd
       0.059951175 -0.028505534 -0.036197208 -0.061104465
000010 52 ed b9 bd a7 a4 58 bc 9e a2 26 bd 46 a7 a3 3d
       -0.090784684 -0.01322285 -0.040682428 0.07990889
000020 16 93 cf bd 66 a5 d7 bd 65 0a ca 3d 29 c0 79 bd
       -0.10135476 -0.10529594 0.09865264 -0.060974274
000030 c7 a9 b8 3d 17 60 94 3d 17 ce 8c bb 92 11 e6 3d
       0.090167575 0.0724489 -0.0042970288 0.1123382
000040 0b 81 64 3c bf 0f 90 bd 3e 19 bb 3c e0 88 ad 3d
       0.013946782 -0.07034253 0.022839185 0.084733725
000050 33 4d b3 3d d4 05 8f b9 4b 19 4d 3d 48 9f 81 3d
       0.08754959 -0.00027279428 0.05007295 0.063292086
000060 3c ea 00 bd b4 9a 84 bd 1e 42 d3 bd 79 99 f6 3d
       -0.031473383 -0.0647482 -0.10315345 0.12040991
000070 33 b8 6a bd 81 23 b2 3b 36 cd 7d 3d a1 d4 0b 3d
       -0.057304572 0.0054363613 0.061963283 0.034138326
000080 6e 7b e7 bd 7e 12 89 3d ef 49 df bd 6b 5b 80 3d
       -0.11302839 0.0669298 -0.109027736 0.062674366
000090 22 09 91 3d bd 5e 15 3e b1 25 4d 3c 56 a5 09 bd
       0.0708182 0.14586921 0.012521193 -0.033604942
0000a0 9b c6 56 bd 5d b3 76 bd 39 ac cd bd 49 82 3c bd
       -0.0524355 -0.060229648 -0.100426145 -0.046022687
0000b0 28 73 0e 3e 06 ef 55 3d a4 f4 5e 3d dd 95 fd 3b
       0.13911116 0.052229904 0.054432526 0.0077388124
0000c0 99 fd a0 bd a9 ae 55 3d 4e 80 01 3c 6e ca 7e 3d
       -0.0786087 0.052168522 0.007904125 0.06220477
0000d0 74 99 cc bd 7b b0 9d 3c 22 d3 d0 3d 5b a8 cd 3b
       -0.09990206 0.019249192 0.101965204 0.006276173
0000e0 29 34 72 3d 7d 5b 18 bd 95 2b 1e be 29 2c 84 bd
       0.059131775 -0.037196625 -0.15446313 -0.064537354
0000f0 91 65 26 bd 4f 2e b9 3d b7 cd 17 3e 45 c2 86 3c
       -0.040624205 0.09042036 0.14824568 0.016450057
000100 78 a7 9d 3c 54 3a 89 3c 54 c7 c3 bd ed 7b 53 bb
       0.019244894 0.016751446 -0.09559503 -0.003226991
000110 a8 e5 4f 3d 49 c3 c9 bd 46 bd 9b 3d 2c 55 bc 3c
       0.050756127 -0.09851701 0.076044604 0.022989832
000120 4b 4b 93 bd 43 63 0e be 13 a9 ab bc a7 e6 29 be
       -0.07192095 -0.13905053 -0.020954644 -0.16591893
000130 f4 5a 08 3d 36 05 b6 bd 66 53 c8 bd 8b 54 08 3e
       0.033289865 -0.08887713 -0.09781532 0.133135
000140 9e d8 8b 3d e9 f3 a1 bd 70 0b da 3d aa 73 32 bd
       0.06828426 -0.0790785 0.10646713 -0.043567337
000150 20 39 83 bc be 02 e0 bd 21 cb b2 3d c7 fc a4 bd
       -0.01601845 -0.10938023 0.0873015 -0.08056026
000160 93 5f df 3c f3 47 1a bd 83 cf 49 3c 0a 43 57 bb
       0.027267253 -0.037666272 0.012317541 -0.0032846355
000170 3f 22 ec 3d 69 9d 29 bd cb 93 8b 3d b3 dd 08 bd
       0.115299694 -0.041409884 0.06815299 -0.033414554
000180 b0 c4 94 bd d9 40 91 bd 64 fb 91 bd 25 3e e5 bd
       -0.07264078 -0.07092447 -0.07128027 -0.11193494
000190 72 fa b8 3d 7d d1 4c 3d 97 3e ab 3c 7c fe bf 3d
       0.09032144 0.05000447 0.020903869 0.09374711
0001a0 e7 09 11 3d 65 12 43 bd ba f7 d7 3d 9d 76 e7 3d
       0.035409834 -0.047624964 0.10545297 0.113019206
0001b0 58 ed 00 3e 5e 91 d3 3d 58 ae b0 bd 64 73 f5 bd
       0.1259054 0.10330461 -0.086270034 -0.119849
0001c0 97 d9 ea 3c 8e a5 00 3e 2b b8 c1 bd 35 23 4e 3d
       0.028668208 0.12563154 -0.094589554 0.050326545
0001d0 43 38 ef 3d d3 0e 87 3d 9c 39 bb bd 78 ac 8a 3d
       0.11680653 0.06594624 -0.091418475 0.06771177
0001e0 05 09 fc 3c e1 23 e4 3d 7c 3d b7 3d 8c e0 88 3d
       0.03076602 0.11139656 0.08947274 0.06683454
0001f0 d4 31 00 3e ca da b0 3c 96 46 90 3d 78 d8 d3 bd
       0.12519008 0.021588702 0.07044713 -0.103440225
000200 f0 aa bd 3d ce 16 04 be f7 d5 f6 bc ab 42 a4 3b
       0.09261119 -0.12899324 -0.030131323 0.0050128303
000210 2f 96 b4 bc aa 41 fa bd 15 f4 ba 3d f8 09 d4 3d
       -0.02204427 -0.12219556 0.09128586 0.10353464
000220 d9 60 e6 bb 54 5f f6 bc cc a6 98 bd b5 7b de bd
       -0.007030588 -0.030074753 -0.07453689 -0.10863439
000230 c2 b3 fb bd 3a 8b a1 bd 2e b6 e0 bb 8a 1c d9 3c
       -0.122901455 -0.078878835 -0.006857655 0.026502866
000240 cc 90 08 3e ff 34 9b 3c 59 8f d2 bd 89 d7 d5 bd
       0.13336486 0.018946169 -0.10281248 -0.10441501
000250 26 3a e7 3d 2e 10 0e bd 11 6c ee 3a 60 5d f6 bc
       0.11290388 -0.0346834 0.0018190165 -0.030073822
000260 8d ca ef bd 17 ba 1c 3c 0d 5a db 3c 14 d1 7c 3a
       -0.11708555 0.009565852 0.026776338 0.0009644192
000270 39 d7 f6 bd 39 5b fa bd b6 01 a4 3c 1b 8a ee bc
       -0.12052769 -0.122244306 0.020020347 -0.029118588
000280 79 82 06 be 3d 50 2b bd 99 e4 f5 bc 4d ac 7b 3d
       -0.13135709 -0.041824568 -0.03001623 0.061443616
000290 82 a7 bd bd 02 4f 9a 3d ee 4b cf bd 12 67 42 3d
       -0.09260465 0.07534601 -0.10121904 0.047461577
0002a0 af 51 5c 3d aa f8 01 3d db b6 03 be ee ba ab bd
       0.053788837 0.031731285 -0.12862723 -0.083852634
0002b0 28 40 ae bd 18 26 54 bc 52 26 b1 3d ff ea f6 3c
       -0.085083306 -0.012948535 0.08649887 0.030141352
0002c0 31 7a fe 3c e3 8e bd 3d 2f 3f fb 3d 91 fa ae 3d
       0.031064125 0.09255769 0.12267911 0.085438855
0002d0 c1 54 29 3d 4b 47 10 bd dd a9 45 3d 54 f8 c9 bd
       0.041340593 -0.03522424 0.048257697 -0.09861818
0002e0 eb c6 50 bd ac b8 df bd 09 51 c1 3d c9 35 f8 bc
       -0.050970953 -0.10923895 0.09439284 -0.030299084
0002f0 5a 6d ce 3d 6b f9 66 bd 5b d3 1a be 8c 8c bc bc
       0.10079451 -0.056390207 -0.15119688 -0.023016237
000300 73 1f 19 3e bb fd d7 3d 02 35 c8 bd 89 a1 1c be
       0.14953403 0.10546442 -0.097757354 -0.15295996
000310 82 b1 a6 3d 3b 3e 30 3d e1 3b 0a bc 5d 3f f1 bd
       0.08139326 0.043028098 -0.008437128 -0.11779664
000320 d6 20 d0 3c 5d 92 6b bd 8e 3e 84 3d d3 c2 b5 3d
       0.025406282 -0.05751263 0.06457244 0.088750504
000330 de bd ba bb 9c f4 1b 3c 2e fe 7d 3d 3a 39 eb bb
       -0.0056989035 0.009518769 0.062009983 -0.007178453
000340 6c ed 4b 3d a8 33 a1 bd 6e aa 38 bd 9d 6d 88 3d
       0.04978697 -0.07871181 -0.04508441 0.06661532
000350 a5 19 af 3d 0b e3 1a 3e 6e b1 ad bd 23 6f d1 bd
       0.08549813 0.15125673 -0.08481108 -0.10226276
000360 ad b6 c5 3d 4c 1e c0 bc 9c 23 8f 3d 64 c2 35 bd
       0.09653983 -0.023451947 0.06989214 -0.04437484
000370 54 74 98 3d e3 b8 e3 3d 65 8f ed bd a8 ee bc 3d
       0.07444063 0.11119249 -0.11599616 0.092252076
000380 c3 cd fa 3d fa 10 a7 bd 83 97 ce 3b bf a5 e4 3d
       0.12246277 -0.08157535 0.0063046827 0.11164426
000390 c5 b5 19 be 19 b7 a0 bd ac 57 8f bb 44 5e e3 3d
       -0.15010746 -0.07847423 -0.004374465 0.11101964
0003a0 d3 0d 08 be e5 58 b3 bd 4b e2 c7 3d 6b 70 08 be
       -0.13286524 -0.0875719 0.09759959 -0.13324134
0003b0 b5 36 e5 3d 50 54 89 bd e2 7e 0e bc ba 19 48 bd
       0.11192075 -0.067055345 -0.008697243 -0.04885266
0003c0 6e 42 65 3d 5f d9 43 bd db 30 20 bc 70 a1 9c 3c
       0.055971555 -0.047814723 -0.009777273 0.019119948
0003d0 12 b4 e0 3c d6 ee c1 bd 01 10 04 be 5d a4 dc bd
       0.027429614 -0.094693825 -0.1289673 -0.10773537
0003e0 21 a7 ce 3d 3c 5f 54 bd cf 98 d3 bd 2f d8 da 3d
       0.10090471 -0.051848635 -0.1033188 0.10685765
0003f0 8d 88 c2 3d 61 b4 17 3c 90 0c 80 3c 09 b9 b7 bc
       0.09498701 0.009259314 0.01563099 -0.022427099

weight f4 [256, 512]
000000 9d a2 b4 bd 6a 70 d5 bc 2d 2b 08 3b 93 b5 94 bb
       -0.088200785 -0.02605458 0.0020777688 -0.004538247
000010 10 ba 09 3e e8 74 4c bd d5 f2 f8 bc ae bc b3 bc
       0.13449883 -0.049916178 -0.030389229 -0.021940555
000020 aa 06 7f bb 9a 1c a7 3b d9 e7 6e bc a1 a9 c6 bc
       -0.0038913884 0.005099845 -0.014581644 -0.024250807
000030 1d 89 9c ba 56 42 a3 bd 91 f1 3c bb 67 75 2f bc
       -0.0011942718 -0.07971637 -0.0028830508 -0.010709143
000040 17 2c d7 bb e3 89 13 3d 56 ef a4 bb 16 49 3e bc
       -0.006566535 0.03602017 -0.005033414 -0.011614105
000050 1a d7 d7 bd 75 87 0f bd 86 35 40 bd 02 cb 6c 3c
       -0.10539074 -0.03504129 -0.046926044 0.014452698
000060 7c 8e 56 bd 5c 87 fb 3c 8c c4 5e 3d ea cc 7b 3d
       -0.052381977 0.030704193 0.05438666 0.06147472
000070 12 ad 27 bb 36 d6 38 3a 93 30 67 bd b4 fa 18 bd
       -0.0025585336 0.0007050963 -0.05644281 -0.037348464
000080 d3 95 50 3c 08 16 b2 3c fb 42 69 bd f6 79 b5 3d
       0.012731033 0.021739021 -0.056948643 0.08861153
000090 1a 86 94 bb 1a e6 8d bd 94 cc ef bb 05 fd 9d bd
       -0.0045325877 -0.06928654 -0.007318089 -0.07714275
0000a0 11 66 ce bd 02 6c 6a bc 70 b8 04 3d 22 b3 4b 3b
       -0.10078061 -0.014307978 0.032402456 0.0031082113
0000b0 0f f7 0e 3c b6 db e3 bc 43 d3 62 3d 85 07 bd bd
       0.008725896 -0.027814727 0.055377256 -0.0922995
0000c0 98 5a b6 3c 4d 66 0a bc 4e a0 51 3d 06 9e a6 bb
       0.022259995 -0.008447242 0.05117827 -0.005084756
0000d0 da c5 32 bd d0 ed 41 bd 24 03 8f bd 4a ed 99 bb
       -0.043645717 -0.047345936 -0.06983021 -0.0046974765
0000e0 41 0f 39 bd c5 62 ed bd e8 2e db 3b 59 99 e7 3c
       -0.045180563 -0.115911044 0.0066889413 0.028271364
0000f0 b0 f4 f7 bc 4b 37 0c bd a0 6b 16 bd 29 53 1c 39
       -0.030268043 -0.03423242 -0.036723733 0.00014908299
000100 b7 72 08 3c e2 8e eb bc 95 ab 0b bb 79 32 31 3d
       0.008328131 -0.028754655 -0.0021311988 0.043261025
000110 05 06 5a bb 6a 56 a0 3d b8 0c 24 bd 28 97 0b 3c
       -0.0033267748 0.07828982 -0.040051192 0.008519925
000120 8c f4 4a bd 95 ad 89 3c db 1a 54 bd a4 5c 8a 3c
       -0.049549624 0.016806403 -0.051783424 0.016889878
000130 31 5d 9a bd 44 9a 96 bc b1 cd 1e bd 0e e0 81 bc
       -0.07537306 -0.018384106 -0.03877038 -0.015853908
000140 a9 a4 b5 bd 59 39 a4 bc 91 57 91 ba be 3e 6a bd
       -0.08869297 -0.020046877 -0.0011088719 -0.057188742
000150 45 b9 2b 3c 65 f9 c9 3c c0 22 27 3d 77 be a6 bc
       0.010481183 0.024655053 0.040804625 -0.020354493
000160 9d bc ab 3c f4 b6 ac 3c 1e 55 62 bc 9b 1f 22 3d
       0.020963961 0.021083333 -0.013814239 0.039580923
000170 61 34 04 3d ca d8 bb bd 7b 5b 83 3c d3 a7 a2 bb
       0.032276515 -0.091722086 0.016034832 -0.004963854
000180 88 a1 1f 3d 98 78 cc ba 5e 72 6f 3d 31 35 76 3b
       0.038972408 -0.0015599905 0.05845868 0.0037568326
000190 29 e3 cf 3d 88 10 9e 3b a2 79 be 3b c5 83 c9 3c
       0.10150749 0.004823748 0.0058128396 0.024598965
0001a0 2e 95 94 3a c7 82 70 bc 26 49 20 bc 61 9f 96 bd
       0.0011335963 -0.014679617 -0.009783065 -0.07354618
0001b0 86 79 6c bd d0 05 34 3c b3 08 03 bd f5 39 2b bc
       -0.05773308 0.010987714 -0.031990718 -0.01045083
0001c0 91 ed 3d 3c 1a 6e dc bc 06 ac 1e 3b 2e 60 56 bd
       0.011592285 -0.02690797 0.002421142 -0.052337818
0001d0 bb b2 b4 3c d9 78 ca 3c 4c d5 0b bd dc 7a dc bc
       0.022057882 0.024715828 -0.034138963 -0.026914053
0001e0 da 28 a6 3d b6 d8 a1 bc e0 2c 23 3c 85 ad 8d 3d
       0.081132606 -0.019756656 0.0099594295 0.06917862
0001f0 07 fd 3b bd 66 c7 91 bc 54 a3 38 3c bc 70 49 bd
       -0.045895603 -0.017795276 0.011269409 -0.049179778
000200 79 07 25 bd a2 40 8e bd 3c 7c e2 bc 9c 66 5f 3d
       -0.04029033 -0.069459215 -0.02764713 0.054541215
000210 38 c4 1b bd 3a 6c 87 3d c0 0a 15 3c e4 ad 86 bb
       -0.038028926 0.066124395 0.009096801 -0.004110085
000220 7f c3 6b 3d 69 81 06 3d b2 1b 59 bc 1c 0f 8f bd
       0.057559486 0.03283826 -0.013251232 -0.06985304
000230 37 10 55 3c 7d d2 a3 3c 1e b4 40 3d 29 64 5b bd
       0.013004354 0.01999783 0.047046773 -0.053562317
000240 c0 a1 7e bd ab 90 df ba 0d 34 93 3d 95 c8 36 bd
       -0.062165976 -0.0017056664 0.07187662 -0.044624884
000250 21 f1 a5 bc ef 38 d1 3d 6d bc c7 3d de 1f d4 3c
       -0.02025658 0.10215937 0.09752736 0.025894102
000260 bb 03 8c bc 8a 41 e4 bc 84 a6 ac bd 27 89 88 bc
       -0.017091623 -0.027863283 -0.08430198 -0.016666962
000270 5c 5d 66 3c 52 89 1f 3d cb 74 8a bb 6d 11 52 bc
       0.014060345 0.03894932 -0.0042253486 -0.012821537
000280 59 7e e3 bc c1 c2 cd bc d5 92 4b bc 95 44 be ba
       -0.027770208 -0.02511728 -0.012425144 -0.0014516289
000290 27 b3 8e 3d bd 65 bf bd 2b 19 5a bd bf 62 83 3d
       0.06967764 -0.09345577 -0.05324666 0.06415319
0002a0 bd 44 91 ba 2c a7 99 3c a8 4d b9 bc 2f 5d 32 bd
       -0.0011083108 0.018756472 -0.022620037 -0.043545898
0002b0 f1 fd 3f bd ab b5 a5 3d 2b 27 ca 3c e4 26 3b 3d
       -0.046873037 0.08091291 0.02467688 0.045691386
0002c0 48 a0 37 bd 9b ba 0a 3d 29 ed 54 3d f0 40 4f bc
       -0.04483059 0.033869367 0.051983986 -0.01264976
0002d0 32 a1 b9 3b 61 1c 46 bd c3 f1 8f bd 0f 13 0d 3d
       0.005664968 -0.048366908 -0.07028534 0.034442004
0002e0 dd 4e a4 3c 0e 35 3c 3d bc a4 87 3c 40 59 2c bd
       0.020057136 0.045949034 0.016558044 -0.042077303
0002f0 3a be f8 3c 60 75 8c 3c 78 49 60 bc 53 b9 04 3d
       0.030364145 0.017145813 -0.013689391 0.0324033
000300 c7 e1 37 bc ee e0 2e 3d 74 74 e9 bb e7 ac c7 bd
       -0.011223263 0.04269498 -0.007124478 -0.097497754
000310 f7 83 22 3d 3f 0d 3a bd f9 90 21 3b da 29 e6 3c
       0.039676633 -0.04542279 0.002465306 0.028096128
000320 55 d9 f3 3c ce 49 aa 3d ac f0 58 bd 9d b4 b1 bd
       0.029766718 0.083148584 -0.052963898 -0.086770274
000330 b5 34 25 3c 05 74 2d bd d3 29 bc 3c c2 2a 84 bd
       0.010083367 -0.042346973 0.022969162 -0.06453468
000340 2f b8 05 3d 06 29 08 bd be ff 1c bc 08 6f 12 bd
       0.032646354 -0.033242248 -0.009582458 -0.03575042
000350 36 a3 92 bc 2b ef 93 bd 49 c3 41 ba 6c bd 2d bc
       -0.01790009 -0.07223352 -0.00073914655 -0.010604244
000360 ac 0a da bc b2 66 8e bd 77 ce d7 bc b1 fa 2d 3d
       -0.026616417 -0.06953181 -0.026343567 0.042475406
000370 9a 0e bd bb 22 3c 3b bd 94 1e 15 3d 8e 61 0d 3d
       -0.005769563 -0.045711644 0.036406115 0.034516864
000380 79 05 14 bd 87 22 1d 3d 72 e6 aa bc a6 5d 29 3d
       -0.03613803 0.038363006 -0.020861838 0.041349076
000390 9f 40 40 bb bd e9 94 3c d6 06 1d bd d7 47 ad 3d
       -0.0029335392 0.018177861 -0.038336597 0.08460968
0003a0 44 e1 5c bd 62 32 80 bd 43 93 92 3d 4b b2 09 3d
       -0.053925768 -0.0625961 0.07156994 0.0336173
0003b0 a5 fc 41 bd 61 cc 5d 3d 9a 85 86 bc af 1f 75 bc
       -0.04736008 0.05414999 -0.016421128 -0.014961167
0003c0 8a 4c 50 bd 7b 73 ae bc 65 99 ff 3c ec 3e ca 3a
       -0.050854243 -0.0212953 0.031201074 0.0015430129
0003d0 89 77 09 bd a3 6a 2b 3d 97 ca 8b 3c 74 fe 3e bd
       -0.033561263 0.041849744 0.017064376 -0.046629384
0003e0 8a 14 3f 3d 88 bf 1c 3d 6f cb a3 bc c6 db 7d bb
       0.046650447 0.038268596 -0.019994466 -0.0038735732
0003f0 d6 16 9d 3c 64 c0 33 3c c4 bb 68 bc 3e cd ce bb
       0.019175928 0.0109711625 -0.014204923 -0.006311088

bias f4 [256]
000000 15 72 3f 3d b3 52 85 3c 98 4e 5e 3b 99 44 a1 3b
       0.046739656 0.016274786 0.0033921357 0.0049215076
000010 14 69 4b 3d 88 6a 9d 3c 73 cc d4 3b d8 ba a3 3c
       0.049660757 0.019215837 0.006494099 0.019986555
000020 c9 9f 09 3c 42 e4 8d bd 15 58 3c bc 17 f4 a7 bb
       0.008399912 -0.06928302 -0.01149561 -0.0051255333
000030 ec 21 97 bc 3e 1a bf bc 9c 6c 04 3d 4f 25 32 3d
       -0.018448792 -0.023327943 0.03233014 0.04349261
000040 58 d6 a1 bc ca 78 a9 bc e7 a2 ff 3c 77 6e cc bc
       -0.019755527 -0.02068748 0.031205608 -0.024955017
000050 2c 78 bf bd 48 23 a2 bc 12 23 7c 3c c5 6b b5 bc
       -0.09349093 -0.019792214 0.015389221 -0.022146115
000060 a4 d1 bf 3c 66 e9 3f 3d 58 b0 da bc 01 5f 10 bc
       0.023415394 0.046853445 -0.026695415 -0.008811713
000070 0e 51 9a 3c ea af 77 bc 4e 30 2e 3d 8d c1 a2 bc
       0.018837478 -0.015117625 0.042526536 -0.019867683
000080 fa 30 47 3d ce 75 a4 bc e4 cd fa bc ce 6b 0c 3d
       0.048630692 -0.020075705 -0.030615754 0.034282498
000090 cb 2f ad bc bb 4d 56 3c 1e ca 06 bd 82 21 ab bc
       -0.021140954 0.013080056 -0.032907598 -0.020890001
0000a0 b9 49 b3 bc b1 58 1a bd fc 12 36 bd 14 20 23 bd
       -0.02188574 -0.03768224 -0.0444517 -0.039825514
0000b0 e8 0d d0 3c 49 5a e4 3c 5f 09 b6 3c 93 8e f8 bc
       0.025397256 0.027875083 0.022221265 -0.030341422
0000c0 b0 a1 4d bc 9a 00 d4 3c 8b 81 9d bb fa 00 8e bc
       -0.012550756 0.025879193 -0.0048067025 -0.01733445
0000d0 87 9a 47 bd fb 5b 06 bd f1 d2 3d 3c e8 25 59 bc
       -0.048731353 -0.032802563 0.011585937 -0.013253666
0000e0 8f 09 2d bd cc e9 41 bc 5a 6c 41 bd 46 dc 5a bd
       -0.042245444 -0.011835527 -0.047222473 -0.053432725
0000f0 f0 7b ca 3b d2 28 2e 3c 08 87 2e bb a8 25 be 3c
       0.0061793253 0.0106298495 -0.0026630778 0.023211315
000100 68 ec 8c bd 72 91 13 bd 41 a4 8c bd 8e 77 ad bc
       -0.068810284 -0.03602738 -0.068672664 -0.021175172
000110 6c 92 a3 bb 77 68 3c 3c 98 83 7e 3c 7d 1a ce 3c
       -0.00499182 0.011499516 0.015534304 0.025159115
000120 a5 00 4e 3d e7 f0 bd bc a9 b3 df bb 78 fe 06 bc
       0.050293583 -0.02318616 -0.006826837 -0.008239381
000130 7d 15 d2 bc 6a 56 26 bd 60 d6 26 bd 08 18 71 bd
       -0.025645012 -0.040609755 -0.040731788 -0.05886081
000140 9f ce 9b bc 07 a3 86 3b f2 81 a7 bc 5b 77 25 3d
       -0.019019423 0.00410879 -0.020447705 0.04039703
000150 2b 86 52 bc ab 78 f8 3b f5 34 5d bc d3 88 37 3c
       -0.012849371 0.007582744 -0.0135013955 0.011202055
000160 2a 33 0e bd c5 b0 34 3d da db 12 bd 47 00 58 3c
       -0.034716763 0.044113893 -0.035854198 0.01318366
000170 ce 73 91 bb 36 80 a8 3c fb 99 76 3c 85 21 db 3c
       -0.004438854 0.020568948 0.01505136 0.026749382
000180 c8 84 a9 3b 98 e0 a6 3c 8f d4 4e bc 39 56 fe 3c
       0.0051732995 0.020370767 -0.01262392 0.031046974
000190 0d 67 33 bb f6 b5 fb 3b a7 aa ed 3c ff 08 60 3c
       -0.0027374655 0.0076816035 0.029012037 0.01367402
0001a0 63 8c 11 bd b9 92 45 3c cb 21 31 3c d2 ca bc bc
       -0.035534274 0.012058907 0.0108112795 -0.023045931
0001b0 a0 10 f6 3b 83 6f 29 3d 69 1b f0 bc 7d 10 b2 3c
       0.007509306 0.04136611 -0.029309945 0.021736378
0001c0 97 68 61 3c f4 55 80 b8 8f d7 38 bb 43 a0 ce bc
       0.013757846 -6.119526e-05 -0.0028204655 -0.025222903
0001d0 11 a8 5c bb 41 b6 3b bd f0 f4 85 bc ef 4f 07 3c
       -0.0033669511 -0.045828108 -0.016352147 0.008258804
0001e0 bd 59 8d bc 55 3e 9d 3c e2 76 7c 3c 72 8e 97 bb
       -0.017254705 0.019194761 0.015409203 -0.004625135
0001f0 c4 07 15 3d d7 9b 39 3d 7a f1 8c bc c4 14 57 bc
       0.03638436 0.045314636 -0.017204989 -0.0131275095
000200 7b 77 f4 bc 05 45 b7 3b 9c 4a 12 3d 1e 2b 15 bd
       -0.029842129 0.0055929446 0.035715684 -0.036418073
000210 b2 94 10 b8 ee 3b 60 bd c9 cc 1b 3c a3 53 f9 3b
       -3.447076e-05 -0.054744653 0.009509274 0.007608847
000220 e4 dd 86 bc c1 a6 ee bc 67 18 4d bd f3 61 56 bd
       -0.016463228 -0.029132249 -0.0500721 -0.052339505
000230 88 7e 0a 3c dc 7c 56 bc 62 a5 26 bc ae 1d 9b bc
       0.008453019 -0.013091292 -0.010171266 -0.01893505
000240 b9 b1 2b bd 44 32 84 3c 99 3b 30 bd a0 b0 b3 3c
       -0.041917536 0.01613725 -0.043025587 0.021934807
000250 be 68 48 bd 21 9c 60 bd 4a c1 3c bd 91 dd 16 3d
       -0.048928015 -0.054836396 -0.046082772 0.036832396
000260 e6 ec de bc 57 69 96 bc e5 03 1c 3d 3c bc 87 ba
       -0.027212571 -0.018360777 0.03808965 -0.0010355781
000270 db 79 32 bd bf 6a b0 bc 16 05 51 bc 90 3d 9e bb
       -0.04357324 -0.021535276 -0.01275756 -0.004829116
000280 9e dc e8 3b 16 01 5a bc 5b 76 0e bd c1 f9 0c bd
       0.0071063777 -0.013305923 -0.03478084 -0.03441787
000290 bd ea d8 ba 9f 14 b9 3a 79 aa 02 bd 1d 56 f5 bc
       -0.001654945 0.0014120525 -0.031900857 -0.029948289
0002a0 50 e7 1b bc 1c 76 68 bc b8 63 22 3c 21 20 b3 3c
       -0.009515598 -0.014188316 0.00991147 0.021865906
0002b0 a6 22 af bc c6 a9 3c bc f7 2c d4 bc 17 c6 07 3d
       -0.021378826 -0.0115150865 -0.025900347 0.033147898
0002c0 f0 fa 68 bc 79 a7 77 bd 14 c4 c4 3c 98 a4 2e bd
       -0.014219984 -0.06046245 0.024019279 -0.042637438
0002d0 1a c2 8e 3c d8 04 96 bd 7a 3b 01 3d b6 c7 d8 3c
       0.01742654 -0.073251426 0.031550862 0.026462417
0002e0 e2 e9 fa bb 7b f4 39 3d 1f 56 12 bd 78 1e 14 bd
       -0.0076572755 0.04539917 -0.035726663 -0.03616187
0002f0 79 20 ac b9 8c a9 c3 3c e9 01 a9 3c ce 9b 99 b9
       -0.0003283059 0.023884557 0.020630794 -0.00029298518
000300 59 c4 be 3b c5 15 9a bb b1 cf a5 3c 3b 8e 98 bc
       0.0058217463 -0.004702302 0.020240637 -0.018622508
000310 b7 3a 80 bc d7 7a a0 bb 6e 38 b8 bc f1 63 cd bc
       -0.015652997 -0.004897456 -0.022487845 -0.02507207
000320 87 ca 90 bb 52 c6 c9 3b a2 57 37 bd 6d b7 63 3c
       -0.0044186744 0.006157675 -0.044761308 0.013898713
000330 41 d1 d4 bc 30 84 33 3d a9 87 ee bc 2e 7d 51 bd
       -0.025978686 0.043827236 -0.029117422 -0.05114477
000340 50 3e a6 3c d1 7e bc 3c 71 28 3e bd d9 58 9c bc
       0.020293385 0.02300969 -0.046425287 -0.019085335
000350 3d e9 d7 3c f4 68 7a 3c eb 27 c4 bc d2 52 62 3d
       0.026356334 0.015283812 -0.023944816 0.055254765
000360 b9 db d3 bc aa f5 aa bc 11 bb d5 bc 40 b7 b1 bc
       -0.025861608 -0.020869095 -0.026090177 -0.021693826
000370 a0 8d 07 bd 64 19 46 bd ef 4f 18 bd 42 08 1c 3c
       -0.03309405 -0.048364058 -0.037185606 0.009523453
000380 1b 16 53 bd c3 97 04 bd 0d c4 2f b8 6b 9c 03 bd
       -0.051534753 -0.032371294 -4.1905838e-05 -0.032131594
000390 6a bb 36 3c 1e df d3 bb 2e 13 12 bd c7 3a 9c bc
       0.011153081 -0.0064658066 -0.035662822 -0.019070996
0003a0 81 fe 51 bc 6c ad 61 bd 75 1d 50 bd e0 43 ed 3c
       -0.012817026 -0.05509703 -0.050809342 0.02896303
0003b0 fe 8f 1d bc 54 79 16 3c 2d b7 5e bd a4 49 4a bd
       -0.00961685 0.0091842 -0.05437391 -0.049386635
0003c0 3c 62 88 bc 18 6b 88 bb 88 ac 60 bd 6c c8 75 bd
       -0.016648404 -0.004163157 -0.05485204 -0.06000559
0003d0 3d b5 56 3c c9 05 bc bc ed d8 8d bc 9f f9 e3 bc
       0.013104734 -0.022951977 -0.017315352 -0.02782899
0003e0 c6 51 e6 bc 13 6c 5b 3d 85 12 06 bc 5b 0c 72 3c
       -0.028115164 0.053569864 -0.008183126 0.014773454
0003f0 83 82 91 bd 58 be 13 bd 00 19 f5 bc 3b 1f ae bc
       -0.07104971 -0.036070198 -0.029919147 -0.021255126

weight f4 [128, 256]
000000 a3 03 44 3d 41 ac 01 3d 36 71 61 bd 7c 24 f2 3b
       0.04785503 0.031658415 -0.055039607 0.007389603
000010 77 08 96 bc 49 38 5c 3d de 54 1f 3d da 3d c4 3c
       -0.018314583 0.053764615 0.038899295 0.023955274
000020 d3 e7 4d bd 30 c7 83 bd 7c f6 2c 3d 2c 63 a6 3c
       -0.050269913 -0.064344764 0.042227253 0.02031096
000030 9b 08 e3 bd b9 7d 5e bd c1 3e bb 3d 00 3c 8b bc
       -0.11085626 -0.054319117 0.09142829 -0.016996384
000040 73 49 26 bc 86 1d 82 3d 09 1d 64 bd de e7 d9 3c
       -0.010149348 0.063532874 -0.055691753 0.02659982
000050 90 0f 00 bd 63 75 d5 bc 23 68 8c bd 7c cb d5 bc
       -0.03126484 -0.02605695 -0.068558 -0.026098005
000060 ef a5 57 bd 25 e0 1d 3d a3 4c a1 bc 43 a1 f2 3c
       -0.05264848 0.03854384 -0.019689864 0.029617911
000070 78 f3 1b bc 5f d5 95 bc d4 70 f6 3b 3a 68 50 bd
       -0.009518497 -0.01829022 0.0075207744 -0.05088065
000080 79 3a 9e bb fe fc 4f 3d 83 b3 a3 bd cf 64 0b 3d
       -0.004828748 0.05077838 -0.079932235 0.034031685
000090 67 0b 86 3d a3 66 99 bc 8a ac 3a 3c 4d 0d c6 3b
       0.065451436 -0.018725699 0.011393676 0.006044066
0000a0 e2 22 44 b9 bf d4 1e 3d c5 69 c2 3c 21 b8 ae bc
       -0.00018705011 0.03877711 0.023732075 -0.021328034
0000b0 11 6c bd bc 95 0a a0 bb b0 3c 76 bd fd 1d 00 bd
       -0.02312282 -0.004884074 -0.06011647 -0.0312786
0000c0 dc 6e 52 bd 93 22 ca 3d c3 6c 41 3d 1f a7 52 bd
       -0.051375255 0.09869876 0.047222864 -0.05142891
0000d0 42 6b a8 3d 04 43 85 3c ce 59 eb 3c 25 e1 04 3e
       0.08223583 0.016267307 0.028729346 0.12976511
0000e0 5e cd 85 3c 00 fa 50 3c 85 be 8b bd 31 d5 80 3d
       0.016333278 0.012754917 -0.06823448 0.06290663
0000f0 7f 73 84 3b 0b 6e 59 3d 3e 61 6a 3d ad fc 83 3d
       0.0040420885 0.05308346 0.057221644 0.064446785
000100 f0 19 e9 bc a8 59 64 3d eb 41 81 bc 8e f0 75 bd
       -0.02845475 0.055749565 -0.015778502 -0.060043864
000110 7e ee bf 3c 30 12 60 bd cd 99 81 3c a4 e2 13 bc
       0.023429152 -0.054704845 0.015820408 -0.009026203
000120 3f 88 31 3d f8 a6 0c bc 24 1b 84 3b 97 8d b9 3d
       0.043342825 -0.00858473 0.0040315557 0.09060209
000130 85 e8 8e 3c 18 3c 2a 3c 02 bf ad 3c 97 49 85 3c
       0.017444858 0.010390304 0.021209244 0.016270442
000140 0b 9e 29 bd 38 88 11 3d 5b 63 3b 3d 40 2d 69 bc
       -0.041410487 0.0355303 0.04574905 -0.01423198
000150 67 a8 d8 bb 19 42 b4 bd 4c df 4b bd 7c 03 ea 3c
       -0.006611872 -0.088016696 -0.0497735 0.028566115
000160 fe e3 8e 3c 24 e5 e5 3c 81 0f 57 bc 3d b3 cb 3c
       0.0174427 0.028063364 -0.013126255 0.02486574
000170 3b 06 85 bd 80 87 37 3b aa 05 3f bd 08 4b 87 bc
       -0.06495329 0.0028004348 -0.04663626 -0.01651527
000180 37 ea 33 bd 09 76 4e 3d f2 48 bc 3d 5f 35 8f bd
       -0.043924537 0.050405536 0.09193601 -0.069926016
000190 65 ca e4 3c 67 9d 90 bd e6 7f 70 bd 91 eb 87 3d
       0.02792854 -0.07061272 -0.058715723 0.066367276
0001a0 05 d9 0f bd dd 8f cc bc b1 7f ba 39 ca f5 da bb
       -0.035119075 -0.024970943 0.00035571822 -0.0066821324
0001b0 f6 5a 7b bc 18 d0 27 bc ec 8c 90 bc aa 03 58 3d
       -0.015341511 -0.0102424845 -0.017645322 0.05273787
0001c0 59 9e 8d bc e5 1a 0e bd f4 17 dd bc fb c2 a6 bb
       -0.01728742 -0.034693617 -0.02698896 -0.0050891615
0001d0 10 18 d6 3d 51 78 d1 bc 5f df a4 3d 41 b3 c9 bd
       0.10453808 -0.025570067 0.08050417 -0.09848643
0001e0 33 70 a1 3c c3 5d 5e bd 0d 44 c5 3c 96 f8 e8 bc
       0.019706821 -0.054288637 0.0240803 -0.028438848
0001f0 df bf 87 bd 20 58 2b bd e4 db f3 bb cc 78 b3 3d
       -0.066283934 -0.04183209 -0.0074419845 0.087632746
000200 99 ea 87 3d ef 62 34 bd 9f e9 0d 3d 5e 6d 12 39
       0.06636543 -0.044039663 0.034646627 0.00013964387
000210 34 98 32 3d 09 41 3b 3d eb a9 b8 bd a6 73 ed bc
       0.043602183 0.04571632 -0.09016784 -0.02898581
000220 a6 52 85 bd 00 54 0b 3d d8 90 37 3d 7d ea 52 3d
       -0.065099046 0.034015656 0.04481587 0.051493157
000230 a4 11 a2 bd 38 50 bb bb 2e 09 0d bd b3 9d a0 3b
       -0.07913521 -0.00571635 -0.034432583 0.0049016117
000240 38 56 eb bc 7f d7 67 bd 39 06 a2 3a 44 de 1b bd
       -0.028727636 -0.056601997 0.0012361474 -0.038053766
000250 02 20 a8 bc 40 a6 1a 3d fb 01 1f 3c f7 a1 72 bd
       -0.020523075 0.037756205 0.009705062 -0.059236493
000260 d5 2a f8 bc 18 5d b9 bc 0f 98 f0 bc 1f a4 c3 3d
       -0.030293861 -0.022627398 -0.029369382 0.09552788
000270 46 29 1d bd 85 e2 78 3c 16 e4 4b bc 08 b8 31 bd
       -0.03836944 0.015190725 -0.012444517 -0.043388397
000280 04 9b 66 3d 04 89 81 bd 42 02 c1 bc d1 25 97 3c
       0.05630018 -0.06324962 -0.023560647 0.01845065
000290 0f f0 47 3b 43 3c 32 3d ef cc f8 bc 00 f8 e8 3c
       0.0030508076 0.0435145 -0.030371157 0.028438568
0002a0 d4 dc 32 3d a9 48 a0 bc 9a 09 b7 3d 04 ff 36 bc
       0.04366763 -0.019565897 0.08937378 -0.011169199
0002b0 13 74 14 3c 90 a2 58 3d 22 51 d4 3c 6d 30 36 bd
       0.009060877 0.052889407 0.025917593 -0.044479776
0002c0 4b 79 65 3c d5 3c b4 3b 6e 2a 3a 3d a0 27 66 3d
       0.014005969 0.005500416 0.04545062 0.056190133
0002d0 48 94 3d bd 54 8e 45 bd fa 82 8a bd 99 9e dd bc
       -0.04628399 -0.048231438 -0.06763263 -0.027053164
0002e0 cf 16 c3 3c 32 80 20 3d 0f 50 f8 3b 96 d8 a3 bd
       0.023814587 0.039184757 0.007577903 -0.08000295
0002f0 b8 e8 d9 3d f9 73 1a bd 44 f3 c5 3d 31 6c 2d 3b
       0.10640091 -0.037708256 0.0966554 0.0026462192
000300 30 c6 89 3d ae 7b b6 bc d1 8f 16 3b 5e 2d 4d bd
       0.067272544 -0.022275772 0.0022973905 -0.050092094
000310 9f b5 65 bd 44 0f 13 bd e5 10 b8 bc 2f 03 6a bd
       -0.05608141 -0.03590323 -0.022468993 -0.057131942
000320 a8 ae 1f 3d cc cd 47 3d 31 8d 65 bd 5c 38 96 bd
       0.038984925 0.048780248 -0.056042854 -0.073349684
000330 10 ae 0c 3c 7d 41 12 3d 26 d9 b1 3c 9a 42 69 3d
       0.008586422 0.035706986 0.02170999 0.05694828
000340 90 98 19 bd 2b c6 ef 3d df 49 86 3c 8e 00 0b 39
       -0.03749901 0.117077194 0.016392646 0.0001325628
000350 d6 fb 1e 3d cf b3 e0 3d d7 d3 19 3d 1b 68 be 3b
       0.03881439 0.10971796 0.03755554 0.00581075
000360 8e d1 92 3d a1 4b 21 3d b4 bd 98 3b fd 55 90 bd
       0.07168876 0.039378766 0.0046612862 -0.07047651
000370 0b e4 81 bd 96 0f a7 3d d9 51 00 bd de de b0 3c
       -0.06342324 0.0815727 -0.031328056 0.021590646
000380 8a 29 01 3d 44 d3 85 3d 43 b1 33 3b 5d 33 aa bb
       0.031533755 0.06534436 0.0027418889 -0.0051941113
000390 c6 1d 31 3d ff 48 11 3c ec 95 69 3c 92 cd 85 3d
       0.043241285 0.008867501 0.014256936 0.0653335
0003a0 57 12 31 bd 9e 90 7a 3c d2 20 c1 bc 43 35 a6 bd
       -0.04323038 0.0152932685 -0.02357522 -0.081156276
0003b0 78 9c a5 3c fe 6d 9f 3d 16 e5 a7 3d 06 a0 65 3d
       0.020216212 0.07784651 0.081979915 0.056060813
0003c0 a9 8a 55 3d c6 39 3c 3b a6 e1 68 bd 91 a5 73 3c
       0.05213419 0.002872096 -0.05685582 0.014871017
0003d0 17 4b 80 bc b9 e7 c8 bc fa ad cb bc a4 b1 a2 3d
       -0.015660806 -0.024524556 -0.024863232 0.079440385
0003e0 4b 76 0d 3d 14 1d c9 bc 3b a5 8d 3d dc dc 27 3d
       0.03453664 -0.024549998 0.06916281 0.040982112
0003f0 3f 6a e4 3b 9e 00 66 bd f1 eb cf bb 5d 40 2a bd
       0.0069706733 -0.056152932 -0.006345265 -0.041565288

bias f4 [128]
000000 31 b9 6f bd 0e ac 27 bd 0e a1 80 3c 81 db e8 bc
       -0.05852622 -0.04093557 0.015701797 -0.02842498
000010 55 57 6b bd 29 c3 6a bc 3b 3d 4b bd bb 24 74 3c
       -0.057456333 -0.014328756 -0.04961894 0.014901335
000020 c0 de ab bc 28 8e 1f bd e9 9d 88 3d 9d 4a 04 3d
       -0.020980239 -0.03895393 0.06670744 0.03229772
000030 0a 97 ab bd ef 12 72 ba ac 15 8f bd 2e 72 bd bd
       -0.08378418 -0.00092343887 -0.069865555 -0.09250294
000040 f4 db 94 3c 9e 9b a8 bb eb dc cc bc 8c a7 ba bd
       0.018171288 -0.005145504 -0.025007686 -0.09113988
000050 f0 68 93 bc 20 15 59 3c 8c 91 c7 bd 4f 85 a0 3c
       -0.017994374 0.0132496655 -0.09744558 0.019594816
000060 ef 79 fb bc 16 d6 11 bd af 2b 61 3c 2d a1 40 3d
       -0.03069779 -0.03560456 0.013743325 0.04702871
000070 f5 52 53 bc 52 16 4c 3d 34 90 97 bd c3 42 8e 3c
       -0.0128981965 0.049825974 -0.074005514 0.017365819
000080 61 f2 22 bc 99 b8 6f 3c 48 dc 8b bd 95 31 e8 bc
       -0.009945483 0.014631414 -0.06829125 -0.028343955
000090 8c 59 c9 bc e3 5f 4d bd d8 13 67 bd 23 37 23 bd
       -0.024578832 -0.050140273 -0.05641541 -0.039847504
0000a0 84 77 28 bd dd 42 d6 3c fd c9 26 3d 70 2e 46 bd
       -0.041129604 0.02615493 0.040719975 -0.04838413
0000b0 9c 7f 81 3b 37 58 0c bc 8d ab 6d 3c 66 4a 16 bc
       0.00395198 -0.008565954 0.014506233 -0.009173011
0000c0 39 d3 36 bd 0f 4c 88 bd e8 af 8c 3c a6 80 8d 3d
       -0.04463503 -0.06655132 0.017173722 0.06909303
0000d0 44 57 7b 3d ca a7 1e bd ad da a5 bd f1 f0 4c bd
       0.06136252 -0.038734235 -0.0809835 -0.050034467
0000e0 3d 1c 16 bd 72 36 d7 3c cd 9f 39 bd 45 da e6 bc
       -0.036648024 0.026271079 -0.045318414 -0.02818025
0000f0 23 db 52 3c bf 13 78 3d 68 ca d3 bc 1d c2 d5 bc
       0.012869629 0.060565706 -0.02585335 -0.026093537
000100 3b e3 a8 bd 7d e7 46 3d 69 ee 03 bd 9b 78 ad bd
       -0.08246466 0.04856061 -0.032209788 -0.08470269
000110 60 5c d8 3c a1 33 51 3d af 03 45 3d e2 18 02 bd
       0.026411235 0.051074628 0.048099216 -0.03176201
000120 d6 58 dd bb 60 d5 6e bd f9 91 ec bc e9 62 86 3d
       -0.006754975 -0.05830896 -0.028878199 0.06561834
000130 dd a5 29 3d bd 4d c6 bd 1e 67 2c 3c 8a 27 38 bd
       0.041417945 -0.09682796 0.010522632 -0.044959582
000140 a1 3f 93 bd 63 09 6d 3c 9f e6 91 bd 0f 1b 89 3d
       -0.071898706 0.01446757 -0.071240656 0.06694614
000150 ce d0 39 3d 08 23 bb bd 52 3d a9 bc 6c 14 c0 3c
       0.045365147 -0.09137541 -0.020659123 0.023447238
000160 a2 47 14 3d 50 04 09 bb 9c bf 48 3d 63 14 16 3d
       0.036201127 -0.0020907111 0.049010858 0.036640536
000170 a5 28 01 bd bf 76 8c bd 5e 83 6a bd c1 99 77 3c
       -0.031532902 -0.068585865 -0.057254188 0.015112341
000180 77 aa 0c bc 05 fa 69 3c 57 76 b6 bd 5d 55 d7 bc
       -0.008585564 0.014280801 -0.0890929 -0.026285822
000190 be fa 92 3d 06 e1 58 3d 64 df a3 3c 63 aa 4b 3d
       0.071767315 0.052948974 0.020003982 0.04972304
0001a0 09 f5 1e bc be 38 95 bd f3 19 9d 3c 53 25 6b 3d
       -0.009701976 -0.07286213 0.019177413 0.057408642
0001b0 76 29 f0 bc 52 55 24 bd 72 0c 53 bc c9 9e 8d bd
       -0.029316645 -0.04012043 -0.012881385 -0.069150515
0001c0 5d bb ae bd d3 06 e6 3c f6 58 57 3b 63 04 98 bd
       -0.085318305 0.028079426 0.0032859421 -0.07422712
0001d0 83 92 a7 bd 26 91 e6 3b 59 56 d9 3c ac 7d 4c 3c
       -0.08182242 0.007036346 0.026530432 0.012481134
0001e0 6b 19 f6 bc 58 5b 06 bd 2b 8f 65 3d 6d 3e 95 bd
       -0.030041417 -0.032801956 0.05604474 -0.072872974
0001f0 9a 31 14 bd 2b 94 e9 bc be df 5f bb 44 53 45 3c
       -0.036180116 -0.028513035 -0.003416046 0.012043778

weight f4 [12, 128]
000000 84 fc 12 bd 65 dd fb 3c 33 f4 82 3d 8f a5 b3 3d
       -0.03588535 0.030745218 0.063942336 0.08771812
000010 fd 90 9b 3c 36 54 94 bb 6c 6c 56 bc f0 b5 b9 bc
       0.018990034 -0.0045266403 -0.013087373 -0.022669762
000020 f2 cf 81 3c 0a bd 14 3d 3c 4c ce ba 0b 3d 8f 3c
       0.015846226 0.036313094 -0.0015739272 0.017485162
000030 63 01 11 bc 1d 7a 47 3d 2d 16 e2 bc 04 b7 43 3d
       -0.008850428 0.04870044 -0.027598465 0.04778196
000040 f4 ea 73 3d 64 1b 6f bc 41 83 39 3d 1b 8c da 3c
       0.05955024 -0.014593933 0.04529119 0.026678136
000050 67 fc b9 3c 8d 61 f7 3c 39 e8 96 3d 26 d8 0c bc
       0.022703363 0.030197883 0.07368512 -0.008596456
000060 1e fe 5e bb 55 ad b8 bd 63 9d 59 b9 dc 9d 19 3d
       -0.0034025977 -0.090174355 -0.00020753364 0.037504062
000070 d3 61 8d bd 68 48 e9 bc 07 21 f9 bc a2 7f 91 bd
       -0.06903424 -0.028476909 -0.030411256 -0.07104422
000080 16 15 1c 3d aa f3 15 3d 5a 84 12 3d fc 01 b6 bb
       0.038106047 0.03660933 0.03577075 -0.005554436
000090 9a bf ab ba 62 5d ae bd 5b bf 01 bd 69 02 84 3d
       -0.0013103366 -0.08513905 -0.03167663 0.06445772
0000a0 a2 2c 44 3d e8 d4 7f 3d 61 2b 43 bd 5e 51 01 3b
       0.047894128 0.062458903 -0.04764879 0.0019732337
0000b0 9a ad 18 3d 23 75 87 3d 40 de 32 3d 7f 5d 0b bd
       0.037274934 0.06614139 0.043668985 -0.03402471
0000c0 69 9c 14 3d 67 fd 95 3c f7 b8 13 3d 58 4c 4b 3c
       0.036281977 0.018309308 0.036065068 0.0124083385
0000d0 78 ed 2c bd bb c1 60 bc ea 8c d7 3c 98 b4 a5 bc
       -0.042218655 -0.013718064 0.02631231 -0.020227715
0000e0 2b 0b 78 3d b3 36 4c 3d 22 f2 8f bb 49 bd 95 3d
       0.060557526 0.049856853 -0.004392878 0.07311494
0000f0 1f 13 0e 3d 55 71 ff bc 8b 17 52 bc 5e 38 21 bd
       0.034686204 -0.03118197 -0.012822996 -0.039360397
000100 a4 53 a6 3c 87 cf fa 3b 6a f4 08 3d 33 92 00 3d
       0.020303555 0.0076541337 0.033436216 0.031389426
000110 29 d1 94 3d 05 19 db bb f7 d6 92 3c ae 8e 71 3d
       0.07266457 -0.006686332 0.017924769 0.05897396
000120 22 fc ed 3b 0a 68 5c 3d 87 18 a2 3d 38 68 2e 3d
       0.0072627226 0.053810157 0.079148345 0.04257986
000130 bd 62 75 bd c3 59 69 3d 1a b2 ac 3c 5c d4 01 bc
       -0.059908617 0.05697037 0.02108102 -0.007924166
000140 17 2b f7 3c e7 af 16 bd 4a 0a 96 bc 6f 6d c4 bc
       0.030171914 -0.036788847 -0.018315453 -0.023977963
000150 af be 51 bd 5d fc 4b bc b9 89 a3 3b f2 04 d7 bc
       -0.05120724 -0.012450305 0.004990783 -0.026247475
000160 04 77 3d bc 1c 9d c6 3b df 40 45 bb 1a fa 56 3c
       -0.01156402 0.0060612094 -0.003009848 0.013121152
000170 1f 3f cc 3c 51 37 63 bd a4 64 7e bd 37 d2 72 bd
       0.024932442 -0.055472676 -0.062107697 -0.059282508
000180 03 3a 82 3c b3 ed 0b bd 49 74 96 3a b4 1a d1 bc
       0.015896803 -0.034162235 0.0011478747 -0.025525428
000190 ae 75 d5 bc a9 73 0f bd 11 03 84 bc 2f 06 31 3c
       -0.02605709 -0.03502241 -0.016114743 0.010804697
0001a0 9b e5 82 3c 76 6c 82 3b ec 05 69 bd 09 b5 8a 3c
       0.015978625 0.0039802147 -0.056890413 0.016932027
0001b0 45 86 32 bd 29 14 4d 3d 6e 63 69 3b 93 09 47 bc
       -0.04358508 0.050068054 0.0035612243 -0.012148279
0001c0 64 30 23 bd 96 f4 05 bc 5e 26 60 bd 6b 9b 1d 3d
       -0.03984107 -0.00817599 -0.05472409 0.038478296
0001d0 6d dd ed bc 95 fe 72 bd 64 0f 8f bd d2 db bd 3c
       -0.029036248 -0.05932482 -0.069853574 0.023176108
0001e0 77 b0 bc 3c 92 e7 ed bc ea 3c 82 3c dd be 4b 3d
       0.023033364 -0.029041085 0.015898187 0.04974257
0001f0 85 2c d9 bb 96 90 80 bc 1e 1a d4 bc e4 26 61 bc
       -0.0066276216 -0.015693944 -0.02589136 -0.013742182
000200 04 02 c2 3d 05 59 fd bc 47 e0 b8 3d 23 b1 81 bd
       0.09473041 -0.030926237 0.090271525 -0.06332614
000210 3d 52 92 3d 4b 42 16 bd e6 57 87 3d 79 17 a8 bc
       0.07144592 -0.036684316 0.06608562 -0.020519005
000220 e5 ef 6b bb 55 65 20 3d 77 58 8a bd 31 44 51 3c
       -0.0036001143 0.039159138 -0.067551546 0.012772606
000230 dd 0e ca 3d 83 06 ef 3c 6d a2 80 3d ea db 69 bd
       0.09866116 0.02917791 0.0628098 -0.057094492
000240 e2 2f 38 bc c2 4f b3 3d e5 d8 5c 3d fc a4 11 bc
       -0.011241885 0.08755447 0.053917784 -0.008889433
000250 2b ef bf 3c 28 14 db bd 49 e4 88 3d 4c 2f 20 bd
       0.023429474 -0.10697204 0.06684167 -0.039107606
000260 dd f1 21 bd 78 69 b1 3c 5b 39 57 bc 3a bc ff bb
       -0.0395373 0.021656737 -0.013136233 -0.007804421
000270 3b 7e 16 3d 7a 47 33 3c 06 19 e8 bc 34 d8 2f 3d
       0.036741477 0.010942334 -0.028332245 0.042930797
000280 8e dc bd bd 5f bd d2 3d e3 99 1d 3d 47 df fe bd
       -0.09270583 0.10290026 0.038476836 -0.124449305
000290 53 24 1b bd d6 ab 32 bd 4a c9 9d bd cf 28 9e 3c
       -0.03787644 -0.043620907 -0.077044085 0.019306568
0002a0 49 77 ce bd c0 8a 33 3d 14 0c d2 39 59 e8 4f 3d
       -0.100813456 0.043833494 0.0004006332 0.050758693
0002b0 69 de 55 bd df c9 b3 bc e4 2a 12 3d e0 3d 6e 3d
       -0.05221406 -0.021946846 0.035685435 0.058164477
0002c0 ff 8b ab 3c 82 b8 ef 3c 66 f7 30 3d 47 6a 7c 3d
       0.020940779 0.029262785 0.043204688 0.06162479
0002d0 8e 28 b3 bd 9e 35 07 3d 2f 70 ac bc 58 34 24 3c
       -0.087479696 0.033010118 -0.021049587 0.010022245
0002e0 c0 38 9e bc 70 c1 bf bd 83 84 6a bd bf e2 8c bc
       -0.01931417 -0.09363067 -0.05725528 -0.017197965
0002f0 0a e1 b8 3c 5a ca 14 bd b7 fb 14 bd 08 98 8e bc
       0.022568244 -0.03632579 -0.036372866 -0.017406479
000300 44 5c 0c 3d 82 0b 9d 3d 63 e3 83 bd 04 d2 71 3d
       0.03426768 0.076682106 -0.06439855 0.059038177
000310 3c 2a 34 3d 1f f5 13 3d f1 6d 6c bd 4b a3 b4 3d
       0.04398559 0.036122438 -0.057722036 0.08820208
000320 4f 6e 7f bd 90 43 24 3d 0f 52 0e bd 58 eb 3c 3c
       -0.062361058 0.040103495 -0.034746226 0.01153072
000330 59 27 10 bd b1 c1 1a bd 8d 3c d3 3d 44 12 97 3d
       -0.035193775 -0.037782375 0.103142835 0.07376531
000340 bc dc d6 3d 3a ea c4 bb 06 94 2f 3d df 02 80 3d
       0.104913205 -0.0060093673 0.042865776 0.062505476
000350 d1 e2 f6 3c 1c 3c 76 bc 89 42 aa 3d 42 e6 d3 bd
       0.030137451 -0.01502898 0.08313472 -0.103466526
000360 0a 13 4d 3d cb 5c 55 bd 29 0a 57 3d 61 e4 bf 3b
       0.050066985 -0.052090447 0.052499924 0.0058560823
000370 bb b8 6e 3d aa 6c 99 3d 1a 15 55 bc 51 ae cd 3d
       0.05828164 0.07491429 -0.013005519 0.10043014
000380 92 77 54 3d 69 d8 20 bd a3 f5 77 bd cc a0 26 bd
       0.051871844 -0.039268885 -0.06053699 -0.04068069
000390 28 b1 e0 bc 1e 72 59 bd 80 e8 f9 3c af 6a b4 bd
       -0.027428225 -0.053087346 0.030506372 -0.08809411
0003a0 61 62 fd bc e1 6d 85 bd 1f f3 34 bd 9f 38 46 3d
       -0.0309307 -0.06515098 -0.04417717 0.04839384
0003b0 7f f9 9a 3a 16 b5 13 bd d0 aa a9 3c d7 01 79 3d
       0.0011823623 -0.03606137 0.020711333 0.06079277
0003c0 8f 25 fd bc b1 90 9d bd 82 25 c4 3d f6 da 35 bd
       -0.030901698 -0.07693613 0.095774665 -0.04439827
0003d0 e0 f4 2c bd e8 b7 c6 b9 44 23 10 bd 99 a2 af 3c
       -0.04222572 -0.00037902524 -0.035189882 0.021439837
0003e0 7d 66 96 bd b1 0d 7e bc 5b eb a1 3c ce b1 0e bd
       -0.07343767 -0.015506194 0.019765547 -0.034837537
0003f0 ec 6b f1 3c 73 43 85 3c 71 f9 0b bd c4 ef 25 bd
       0.029470406 0.016267514 -0.034173433 -0.04051186

bias f4 [12]
000000 38 0e 26 3c 69 4f 2b bd 62 ea a9 3d 8b d0 97 3d
       0.010135226 -0.04182378 0.08296658 0.07412823
000010 63 25 34 3d 96 19 98 3c 16 10 81 3d 50 9c 8c bd
       0.043980967 0.018566888 0.06301896 -0.06865752
000020 f6 57 b0 3d 53 ea 8a bd 86 f9 5b 3d e3 fa eb 3d
       0.08610527 -0.06782975 0.05370476 0.11522462
