logs/go1_IROS/exported/policies/torque_obs42.pt (torch, 761749 bytes, 8 tensors)

weight f4 [512, 42]
000000 0d 39 a5 bd 3f 7d b5 bd 91 02 09 3d 3b 76 12 3d
       -0.08067522 -0.088617794 0.033449713 0.035757285
000010 1a 86 34 3b d7 3f c3 3d a9 aa 6f be d6 30 09 be
       0.002754575 0.09533661 -0.23404945 -0.13397536
000020 e6 55 73 3e 59 6d 66 be 97 af 84 bb cb 13 ea 3d
       0.23763236 -0.2250265 -0.0040492523 0.114295565
000030 a0 69 23 3e e0 27 60 3e 2f 30 2a bd b5 67 58 3e
       0.15958261 0.21890211 -0.041549858 0.21133311
000040 a8 13 d3 3d f1 ed f3 bd 72 60 2a be 86 b4 18 3d
       0.103064835 -0.11910618 -0.16638353 0.037281536
000050 85 46 6f 3e 67 2b 2a be 4f aa c0 3d f9 31 e5 3d
       0.23366745 -0.16618119 0.09407484 0.11191172
000060 20 c3 1f 3e 6a f2 63 3d d6 82 63 bd 80 c9 bc 3d
       0.15601778 0.055651106 -0.055544697 0.092181206
000070 fc a0 60 be a3 70 c2 bc 04 37 12 3d 12 cc c6 bc
       -0.2193641 -0.02373535 0.035697 -0.02426723
000080 a5 64 cb 3d a9 fb 19 be 95 d6 a3 bd 77 5a c4 3d
       0.09931306 -0.15037407 -0.07999913 0.09587567
000090 18 5e 73 bd 68 85 1f 3d 01 52 63 bc 1d 59 de 3d
       -0.059415907 0.038945585 -0.013874532 0.10856841
0000a0 bf 9e ab 3c cf eb 74 bd 91 d1 d3 bc 8c 74 66 bb
       0.02094972 -0.059795197 -0.025856765 -0.0035164682
0000b0 3d 12 b6 bd de b1 01 3d 94 b2 0d 3d 24 3f d1 bd
       -0.088901974 0.031663768 0.034594133 -0.10217121
0000c0 63 1c 0a be 52 81 0b be 0e d4 ea 3d d8 54 84 be
       -0.13487391 -0.1362355 0.114662275 -0.2584598
0000d0 fb 2a 6f 3e 67 c1 1f be 40 eb 5d 3e 2b 80 f2 b8
       0.2335624 -0.15601121 0.21671772 -0.000115633324
0000e0 56 95 9d 3d 6d b6 b2 3d 87 16 69 be 1e a5 21 be
       0.07694499 0.08726201 -0.227625 -0.15785643
0000f0 b6 fb e2 bc 6e 92 ce bd 0e 3a b3 bd 55 3f ce bd
       -0.027707916 -0.10086523 -0.087513074 -0.100706734
000100 a3 0e 7d bd 22 f0 1c 3d b9 79 00 be 49 32 c7 bd
       -0.061781537 0.038314946 -0.12546434 -0.09726388
000110 90 3f 9c 3d 4c 09 2d 3d 9b 8f 1d be 15 cf 20 be
       0.07629311 0.042245194 -0.15386812 -0.15703996
000120 16 fd 75 3d 17 b2 ed 3d dc aa 72 bd 41 62 f6 3d
       0.060055815 0.116062336 -0.059244975 0.12030459
000130 70 40 98 bd e6 cc dc 3d 56 0d 5f 3d 9b 01 db bd
       -0.074341655 0.10781269 0.054456078 -0.106936656
000140 a7 39 c9 3c 3d e7 9a bd d8 f5 51 bd 53 46 88 3c
       0.024563624 -0.075636365 -0.051259845 0.016635096
000150 ab 58 33 be 24 76 85 3b 9c 24 f4 3d b5 b4 59 bd
       -0.17514293 0.0040729214 0.11921045 -0.05315085
000160 e9 76 a3 3c 15 7c e6 bd 41 64 32 bd 98 12 a8 bd
       0.019954162 -0.112541355 -0.04355264 -0.082066715
000170 74 cb 11 bb ef ec a9 bd f4 78 0d be 2a 7e 26 bd
       -0.0022246512 -0.082971446 -0.13815671 -0.040647663
000180 87 98 81 be 58 23 2b be a2 44 8d bd 5d a5 42 3e
       -0.25311682 -0.16712701 -0.06897856 0.19008394
000190 ef b8 13 be 87 0c e4 bc 3b a9 1d be b9 39 1c be
       -0.14426015 -0.027838005 -0.15396588 -0.15256394
0001a0 ad a8 8f 3c e0 22 7d be d6 bd 0d 3e 4a 04 7c bd
       0.017536486 -0.24720335 0.13841948 -0.061527528
0001b0 79 76 1c 3e 9e 39 97 3d 37 b9 be 3d 84 b0 3f 3e
       0.15279569 0.073840365 0.09312671 0.18719679
0001c0 3a 8a 8f bd ab 23 53 be ef d8 b1 bc c5 52 c1 bd
       -0.070087865 -0.20619075 -0.021709887 -0.09439615
0001d0 ce 91 c7 3b 75 ad 0b be 9e bc ce bb de 68 c2 3d
       0.0060903793 -0.13640387 -0.006309106 0.09492658
0001e0 83 34 01 3d 28 fb bc bb cf 9d bc 3d 53 2b 91 bd
       0.03154422 -0.005767245 0.09209787 -0.070883416
0001f0 89 4a 95 bd d5 40 59 3d 3c 38 d5 3d 52 6d 21 bb
       -0.07289607 0.053040344 0.104111165 -0.002463181
000200 30 74 96 bd 7b d3 d3 bb df 5d 18 bd e9 3f 53 bd
       -0.0734638 -0.0064644194 -0.037198897 -0.05157462
000210 8f 43 10 be ce d4 2e bd ae 72 25 3e e1 be e6 3c
       -0.14088272 -0.042683415 0.16157028 0.02816719
000220 36 06 3e 3e 77 da 6e 3e 03 2a a1 3d bc 6b 12 be
       0.18557057 0.23325525 0.07869341 -0.1429891
000230 1e fa 08 bd eb f1 05 be d6 dc 60 bc c5 a1 85 bd
       -0.033441655 -0.13080566 -0.013724526 -0.06524996
000240 2e 69 73 be 65 9b 67 bd 74 c6 16 bc 00 aa db 3d
       -0.23770592 -0.05654468 -0.009202588 0.10725784
000250 f8 52 3f bd 77 75 f4 3c ed 02 00 3e c3 ec b4 bc
       -0.046709985 0.029841168 0.12501116 -0.022085553
000260 4e 8a 5d bb bb 22 d1 3d 34 e1 2c be 15 b4 a7 3d
       -0.003380436 0.102117024 -0.16882783 0.08188645
000270 11 25 4f 3d 24 ff a3 bd 18 3b b3 ba 74 97 df bd
       0.05057246 -0.080076486 -0.0013674228 -0.10917559
000280 2b e5 0c 3c 7d f8 b8 bd a4 0d e2 bd 72 51 c7 3d
       0.00859956 -0.090317704 -0.11037758 0.09732331
000290 3f d5 22 3d c9 c3 1e 3d 83 a2 7b bd ec 5c e5 3d
       0.03975415 0.038760934 -0.06143428 0.11199364
0002a0 f4 c3 01 bd 0c 0c 00 be 5c e1 a4 bd a1 ea 20 bc
       -0.031681016 -0.12504596 -0.080507964 -0.009821565
0002b0 12 47 95 bd 02 af bf bd f8 9e 9f be 83 02 b5 bd
       -0.07288946 -0.09359552 -0.3117597 -0.0883837
0002c0 6e cd 0e be e0 ae 82 bd 14 d8 3b be 55 5a af bd
       -0.13945553 -0.06381011 -0.18344146 -0.08562151
0002d0 94 58 cd 3d d4 1f 44 bd 73 2a e0 bd 3c 11 0b 3e
       0.100266606 -0.047881916 -0.109455965 0.13580793
0002e0 28 04 fd bc c4 6c 11 be d2 31 b0 bd 3d 47 e2 b9
       -0.03088577 -0.14201647 -0.086032525 -0.00043159156
0002f0 15 a4 12 be 85 95 05 3e 6a e4 31 be 4b 5e 1c be
       -0.14320405 0.13045318 -0.1737229 -0.15270345
000300 4e e9 48 3d bf c3 c4 3c 4b b9 88 3d a4 12 06 3c
       0.04905062 0.02401912 0.06675967 0.008183155
000310 72 75 0b be e4 1d cc 3d 2c 5f 97 bc 41 49 a8 3d
       -0.1361902 0.09966639 -0.018477999 0.08217097
000320 61 8c 09 bd 06 74 29 bd a4 47 63 bc 23 0b 9f bd
       -0.03358114 -0.041370414 -0.013872061 -0.07765796
000330 7a c0 84 3c bf 4b 7a 3b a4 84 c8 bc 1d ad bb bd
       0.016205061 0.003819212 -0.02447731 -0.09163878
000340 be f3 c1 3d 4f dd 52 bc 83 e3 1b bd 13 e8 0c be
       0.09470318 -0.012870147 -0.03805877 -0.13760404
000350 5f 90 e9 3d bd d6 f1 3d 77 95 8e 3d 3d 10 c3 3d
       0.1140449 0.11808536 0.06962102 0.095245816
000360 db 57 f6 3d f2 05 37 3e 22 21 83 bd 0c 8e aa 3d
       0.12028476 0.17873362 -0.06402804 0.083278745
000370 9b 64 b5 bd 6c ad be bd 70 b5 0f 3d 49 42 29 be
       -0.088570796 -0.09310421 0.03508514 -0.16529192
000380 7d 58 b8 3d a0 ae 54 3e a6 1b 02 3c 6e 6d 34 3e
       0.09001253 0.20769739 0.007941162 0.17619869
000390 fd 68 bc bd a5 15 d1 bb 15 48 20 3e 62 4f 0d be
       -0.091997124 -0.006380754 0.15652497 -0.13799813
0003a0 19 f8 19 3d 84 53 09 3e 90 0e d4 bd 05 24 55 be
       0.03759012 0.13410765 -0.1035434 -0.20814522
0003b0 b3 4e e7 bd 6d b3 70 3e 46 e4 ef 3d a8 58 7f 3d
       -0.112943076 0.23505946 0.117134616 0.06234041
0003c0 6e 7b 72 3b 56 42 08 be de 7b 9f 3d f9 ee 4a bd
       0.003699984 -0.13306555 0.07787298 -0.04954431
0003d0 49 d0 a0 3d 48 3a de bd 41 f4 b7 bd 18 a1 92 3d
       0.07852227 -0.1085096 -0.089821346 0.071596324
0003e0 42 df 5f 3d 07 4d db bc 68 c3 80 bd 4e 65 f1 bd
       0.054656275 -0.026770128 -0.06287271 -0.117869005
0003f0 a5 b7 3a 3d 62 40 dc bd 72 6b 3b 3d aa 06 96 3d
       0.045585293 -0.107544675 0.045756765 0.0732549

bias f4 [512]
000000 21 34 da 3d 28 49 32 be 84 a1 40 bd 8e 84 3f bc
       0.10654474 -0.1741072 -0.047029033 -0.011689318
000010 8d 4b eb bd 88 00 ec 3d b4 7e 81 bd 44 37 04 3e
       -0.114890195 0.11523539 -0.06322995 0.12911707
000020 9b 38 0e 3d 57 fb 18 3a 4a 50 c6 bc 44 db 93 3d
       0.034721952 0.00058357924 -0.024208207 0.07219556
000030 5e 9c b9 3c e6 97 63 3d fd 32 ff 3d 1d b5 12 be
       0.02265757 0.055564784 0.12460897 -0.14326902
000040 08 1f 17 bc 6b 65 e9 3c e0 57 1a bd e4 1a ef bb
       -0.009223707 0.028490743 -0.03768146 -0.007296907
000050 9d be 71 bd d4 40 5e 3d 9b 80 9a bd 6d 0c 34 bd
       -0.059019674 0.054261044 -0.07544061 -0.043957163
000060 2c 62 04 3e 6e 70 d5 3d 04 ed 21 be 55 64 d6 bc
       0.12928075 0.10421835 -0.1581307 -0.026170889
000070 21 5d db 3d d2 65 b7 bd 23 05 ab bd df 59 a6 3d
       0.10711122 -0.089549676 -0.08350589 0.0812261
000080 bb 8a 83 bd 1f b3 22 3d 13 42 a4 3d cc eb e7 bc
       -0.06422945 0.039721604 0.08020415 -0.028310679
000090 28 16 75 bd a8 56 03 bc ae 49 22 bd f1 da f5 3d
       -0.059835583 -0.008016266 -0.039621048 0.120046504
0000a0 c9 d3 ac bd a4 b7 97 3c e4 b1 0b 3e fd 51 95 3d
       -0.08438832 0.018520184 0.13642079 0.07291029
0000b0 05 1a e3 bc 4f a3 84 3d 3b 35 4f 3c 4d 9d a8 3d
       -0.027722368 0.06476461 0.0126469685 0.08233128
0000c0 e5 56 41 3d ae 0b 02 bd 65 92 21 bd 4d 89 8b bd
       0.04720201 -0.03174942 -0.039446253 -0.068132974
0000d0 cd 15 60 bd fe 7a 9f 3c ac e1 b2 3c 5d 43 d2 bd
       -0.05470829 0.019467827 0.021836124 -0.10266755
0000e0 04 ba 1c 3d 29 a2 36 3d 32 dc b8 3d 0b 1d 00 3e
       0.038263336 0.04458824 0.09026374 0.12511079
0000f0 83 7a 74 3d 60 76 e1 3d c9 48 50 bd b4 9c ca bd
       0.05968715 0.11008906 -0.050850663 -0.0989317
000100 45 73 ae bd 5d 04 1e be 8f f2 72 3d 04 37 8c bc
       -0.0851808 -0.15431352 0.059313353 -0.017116077
000110 c7 aa 96 3d bd bd 92 3d f5 44 ec bd fa 09 d5 3d
       0.07356792 0.07165096 -0.1153659 0.104022935
000120 3c 59 df 3d 52 1d 05 be 62 bc 42 bc 65 09 e3 bd
       0.10905692 -0.12999466 -0.011885734 -0.11085776
000130 85 30 70 3d ab e3 25 3d bf bc 77 3d 91 98 70 3d
       0.05864002 0.040500324 0.060482737 0.05873925
000140 3c 62 06 be 7d fe c2 3d 1a 77 84 3d 00 e2 2c 3b
       -0.13123411 0.09521196 0.06468029 0.0026379824
000150 2d 5d b8 3d e7 7c 11 bd fe 52 b0 bd 10 c8 8b bd
       0.09002147 -0.035519507 -0.086095795 -0.06825268
000160 f4 dd a6 bc 4c 87 b4 bd ed 1d dd bd e4 2e cb bb
       -0.020369507 -0.08814868 -0.107967235 -0.006200658
000170 55 a7 37 3d 2c 12 6e bc 80 e7 e4 bd 49 ec 06 be
       0.044837315 -0.0145307 -0.111769676 -0.13176073
000180 00 3d 2a be 1d bc b5 bb 03 59 06 3d b5 d3 e0 3d
       -0.16624832 -0.0055461065 0.032799732 0.1097788
000190 d5 ee 6f bd 1a b7 17 be 5e c5 34 3d 85 67 cf bd
       -0.058577377 -0.14815941 0.044133537 -0.10127167
0001a0 c6 66 89 3d 3a 9b 0c 3e 0c 2c 5a bd 09 2f 72 bd
       0.067090556 0.13731089 -0.053264663 -0.059126887
0001b0 a4 ea 04 be 77 17 cc bd 58 96 ca 3d 97 5a 91 bc
       -0.12980133 -0.09965413 0.09891957 -0.017743392
0001c0 2d e1 b1 3d 4d af 2b 3e 49 0b 1f bc 3d 66 0b 3d
       0.08685527 0.1676609 -0.00970728 0.03403305
0001d0 6d 27 07 be ed ea ea 3c 01 7a c6 3d e1 1f a5 bd
       -0.13198633 0.028676474 0.09691239 -0.08062721
0001e0 40 6c b2 3c 7f b0 af bc 1f b4 33 3e 7c 89 0c bd
       0.021780133 -0.021446465 0.1754918 -0.034310803
0001f0 68 64 a6 3d 0e 96 3d bd 49 dc c7 3c 78 8d 88 bd
       0.0812462 -0.04628568 0.024397032 -0.06667608
000200 96 64 2f 3d 52 04 03 be e3 5f 12 3d d8 a7 a3 bd
       0.042820536 -0.12794617 0.035735976 -0.07990998
000210 d1 db 8d bc 08 f7 19 be e1 f0 d5 bc 9a 38 9c bd
       -0.01731673 -0.15035641 -0.026115837 -0.076279834
000220 e4 29 d6 3d 13 23 a0 bb 29 b2 0e be b4 bc 06 bd
       0.10457209 -0.0048869937 -0.1393515 -0.032894805
000230 3f 55 cd bd 92 cd 1d bd 7f 67 11 3e 65 ae 00 be
       -0.10026025 -0.038526125 0.14199637 -0.12566526
000240 db fe 3f bd 74 f0 e3 bd ef 81 8d bd 58 15 ad 3d
       -0.04687391 -0.11129847 -0.069095485 0.084513366
000250 b4 4b 0e be 5e 65 02 be a7 e8 45 bd 6b ca 81 bd
       -0.13896066 -0.12733981 -0.048317578 -0.06337436
000260 5b ff 4a 3e ed ce 3c bc aa f0 a0 3d 3d b9 53 bc
       0.19823973 -0.011523944 0.07858403 -0.012922582
000270 b0 d5 c7 3d a4 b4 f4 3d c6 bd 3f bc 60 36 98 bd
       0.097575545 0.11948517 -0.01170296 -0.07432246
000280 fd 1e a6 3d 44 f3 13 be e1 9d 89 bd f2 83 bf bd
       0.08111379 -0.14448267 -0.06719566 -0.093513384
000290 01 7f 56 3d f7 93 c2 bc 13 9c c5 bd e2 31 01 3e
       0.052367214 -0.023752196 -0.096489094 0.12616685
0002a0 6a fa 90 3c 4f 60 c4 bd 3c 44 00 3b 64 f1 6a bc
       0.017697532 -0.09588682 0.001957192 -0.014339779
0002b0 d7 87 d0 bd 19 55 50 b9 9a 5b 76 3d ea 04 15 bc
       -0.101821594 -0.00019868127 0.06014595 -0.00909541
0002c0 eb 8a 12 bd ad 08 d0 3d b7 5f 5a 3d 01 84 15 3e
       -0.035777014 0.10157905 0.053313937 0.14601137
0002d0 a0 4e 8a bb 01 9d 69 3d dc ff aa bd a1 77 0c 3e
       -0.0042207986 0.057034496 -0.083495826 0.1371751
0002e0 d3 4f 60 3d b2 b2 b2 3c 19 27 7f 3d 4d 1f c2 bd
       0.054763626 0.021813724 0.062293146 -0.094786264
0002f0 b1 fa f1 bd f2 33 91 bd 31 29 f3 bd bb d1 78 3d
       -0.11815394 -0.07089986 -0.11873091 0.06074689
000300 9e 11 1d 3d 9c 5a c5 bd 4e 49 b2 3d 8d 6d 7e 3d
       0.03834688 -0.09636423 0.08705388 0.062116195
000310 ac d8 31 3d fd c4 fa 3d e7 ce 26 3d 00 ea 2c 3e
       0.043419525 0.12244604 0.04072466 0.16886139
000320 57 f8 2c 3d e7 2a 1d 3d 8a 60 b1 3d 6a 3f 0e bb
       0.042229023 0.038370993 0.086609915 -0.0021705278
000330 54 10 1d be 17 ad 00 3e a3 bf d4 3d 61 7f f3 3d
       -0.1533826 0.12566029 0.10388114 0.1188953
000340 f5 da ce 3d 13 fd 2f 3d 0b 9f 8c bd 28 6e 48 3c
       0.101003565 0.04296596 -0.068662725 0.012233295
000350 37 c2 04 be dc 04 c8 3d 78 2e 22 3e 2a 94 89 3d
       -0.12964712 0.09766552 0.15838039 0.06717713
000360 76 94 c1 bd 7c 16 09 3e 09 54 12 bd f1 bc ae 3a
       -0.09452145 0.13387483 -0.035724673 0.0013331455
000370 5a a3 c1 3d 14 0b c9 3d af e7 c7 bb 47 0e 17 3c
       0.09454985 0.09816566 -0.006100617 0.009219713
000380 4c 4d 10 be 1c 4d 5c bb ea 0c 02 bc 7e 8c 21 bd
       -0.14091986 -0.0033615297 -0.007937649 -0.039440624
000390 fb 2b cd 3d c8 ac e8 3d 0b c3 71 3d ff 3d 0b bd
       0.10018154 0.113610804 0.059023898 -0.03399467
0003a0 ff 4e f2 bd 77 5e 88 bd b9 3e a6 bc 66 8d 8e 3d
       -0.118314736 -0.06658643 -0.02029358 0.06960563
0003b0 2a 15 9e bc 7e 69 12 bd 7e 4e 54 3d 26 6c 1f bc
       -0.019297201 -0.035745136 0.05183267 -0.009730374
0003c0 3e 12 94 3d 3b 01 ac 3d 54 1c 1e 3e 4b 2b 52 3d
       0.07230042 0.08398672 0.15440494 0.05131082
0003d0 c5 49 ad bb bf 54 a2 3d a2 90 4e bc b1 56 a6 3d
       -0.005288335 0.0792632 -0.012607725 0.08122004
0003e0 b9 ca b8 bd 3e 7d 2a 3d 12 2c c3 bd fd 87 71 bd
       -0.09023041 0.041623347 -0.0952989 -0.05896758
0003f0 94 c3 ef 3a b4 ad 08 be 95 b5 f7 bd 4d 2d 6c bd
       0.001829254 -0.13347512 -0.12095181 -0.05766039

weight f4 [256, 512]
000000 04 d8 e6 bc b2 9d 6e 3d 92 7d 03 bd 12 49 31 bc
       -0.028179176 0.05825586 -0.032102175 -0.010820644
000010 78 e1 ab 3d cc 29 85 bb bc b4 ad 3d 74 9f 83 bd
       0.08392614 -0.0040638205 0.08481738 -0.06426898
000020 a4 f1 5b 3b 32 9e db 3d fa fe b2 3c 6a a4 89 bd
       0.0033560777 0.10723533 0.021850098 -0.067208126
000030 01 94 df bc 4d 41 7e bc 57 00 29 bd f1 0f 42 3d
       -0.027292253 -0.015518499 -0.04126009 0.047378484
000040 2b 35 e1 bb ab 96 34 3c 04 5b a5 3d 8d 64 1b bd
       -0.006872793 0.01102225 0.080740005 -0.03793769
000050 7a 32 25 bd b4 06 18 bd 44 70 38 3d 4d 0c af 3c
       -0.04033134 -0.037115768 0.04502894 0.02136817
000060 6b 10 78 bc 3f ed 15 3c d3 0e b5 3c cc 43 a2 3b
       -0.015140633 0.009150802 0.022101795 0.0049519297
000070 2e 93 b8 3c 84 ce 3e 3d 16 0c 5c 3d 50 9e 84 bb
       0.022531118 0.046583667 0.053722464 -0.0040471926
000080 4d 9c ca 3d 1d 51 8f bd f4 52 c9 3c be 7b 18 bb
       0.09893093 -0.06997893 0.024575688 -0.0023267115
000090 59 7a 40 3c ef dc 21 3d f3 78 c2 bc a6 11 8b 3c
       0.01174792 0.03951734 -0.023739314 0.016976189
0000a0 ab 81 f2 bb f1 4a 98 bd 09 a3 ec 3b 12 ac 1c 3d
       -0.0074007115 -0.07436169 0.0072215837 0.038250037
0000b0 0c bd 35 bd dd 59 fd bc 1e 84 f2 3b 13 7a 09 bc
       -0.044369742 -0.03092664 0.0074010035 -0.008390921
0000c0 0e 32 35 bd eb d2 bf 3d 6e d5 d9 3c 7e 86 3e 3c
       -0.04423719 0.09366401 0.026591029 0.011628745
0000d0 cd 9a 42 bc 3e dc 5a 3d 0f f9 19 3d 8e e5 da bc
       -0.011877728 0.053432696 0.037591036 -0.026720788
0000e0 09 9c fb bc c4 e9 0d 3c d8 58 e9 bc d0 de 2d bc
       -0.030714052 0.008661691 -0.028484747 -0.010612205
0000f0 4a 40 b3 bc 99 42 e2 bc 97 ce 69 bd d7 ef 48 3d
       -0.021881241 -0.027619647 -0.057081785 0.049056854
000100 6c 88 3e 3d 4c 44 f5 3c cd f8 31 bd 62 71 cc bb
       0.04651682 0.029939793 -0.043450166 -0.006239102
000110 9a 02 10 3d 28 b6 07 3d 5d a2 8d bb 8a 86 93 3c
       0.03515873 0.033132702 -0.0043223337 0.01800849
000120 d2 6f ae bc c6 a3 fc 3c 7c 36 c7 bd 28 d7 43 3d
       -0.021293554 0.030839812 -0.09727189 0.04781261
000130 11 61 03 bd b3 2b 87 bb 33 bb a5 bb cd 5f 76 bd
       -0.03207499 -0.0041250824 -0.0050577163 -0.060149956
000140 21 11 be bc 77 e4 59 3c 92 5c 56 bd 79 ae c8 bc
       -0.023201527 0.013299099 -0.052334376 -0.024497258
000150 2f 93 3d bd b4 13 bc bc e7 29 88 bd c7 37 27 3c
       -0.046282943 -0.022958614 -0.06648617 0.010206169
000160 76 28 22 bc 28 fb e6 3c c9 db 40 bc e4 ef c2 3d
       -0.009897342 0.028195933 -0.011771151 0.09518412
000170 c8 77 7f bd 02 85 6f 3c 7c 0e 01 bd 53 90 0f bc
       -0.06237009 0.014619114 -0.031507954 -0.008762437
000180 22 aa 85 3c 5c bc 9b 3d fc 24 f1 bc 34 0b a8 3a
       0.016316477 0.07604286 -0.02943658 0.0012820722
000190 ab 3d 13 bd de 83 a7 bb b9 ca 1e 3a 60 10 62 3c
       -0.035947483 -0.0051121553 0.000605743 0.013797849
0001a0 31 a4 84 bc 12 0f cf 3d 44 48 09 3d e9 61 83 3b
       -0.016191574 0.10110296 0.033516183 0.0040094745
0001b0 f7 1c 8f 3d 18 6d b5 3c 56 3c 9a 3d 28 e6 89 3d
       0.069879465 0.022146747 0.075310394 0.06733352
0001c0 19 3f 7c 3c 96 b8 b9 bc 5e 95 3e 3d 0d b8 4e bc
       0.015395903 -0.022671025 0.046529166 -0.012617123
0001d0 37 d5 6b 3d d6 0c b8 3d 74 99 73 ba c5 3a b3 3d
       0.057576384 0.08986823 -0.00092925807 0.08751444
0001e0 45 59 70 bd 05 63 21 3d c3 df 70 bd 0f bf 68 3d
       -0.058678884 0.039401073 -0.058807146 0.056822833
0001f0 b6 0c d4 3c 56 99 b1 3c d6 7c f8 3c c5 9f 35 bc
       0.025884967 0.021679562 0.030332964 -0.011085455
000200 24 ef 90 3c 3f 4d 26 bd dd 9c f6 3d 16 f9 68 3c
       0.017692156 -0.04060101 0.12041638 0.014219543
000210 ff ac 5e 3d 45 d2 02 3d 77 fc 80 3c 19 fc 77 bd
       0.0543642 0.03193881 0.015745385 -0.060543153
000220 7a e9 24 3d b3 22 50 3a dd 92 ae bc 89 91 c5 bd
       0.040261723 0.0007939741 -0.021310264 -0.09646899
000230 f9 27 e2 3b 62 76 56 3d 49 a8 f3 bc aa de bc bc
       0.006901738 0.052358992 -0.02974333 -0.023055393
000240 46 8c 80 3c c1 10 1e 3b 63 f2 d0 ba b4 f7 dd bb
       0.015691888 0.0024118873 -0.0015941377 -0.0067739133
000250 a9 b5 00 bd 90 8b 98 3c b7 d8 5d 3c d5 1f 42 3d
       -0.031423245 0.018621236 0.013540438 0.04739364
000260 12 fc 19 bd c6 8f cf bc de e1 17 bd 73 ea 75 3d
       -0.03759391 -0.025337111 -0.037080638 0.06003804
000270 ed 40 13 3d b0 e3 08 bd b8 63 f3 bc 83 c5 a6 bd
       0.03595059 -0.033420265 -0.029710636 -0.08143141
000280 9c a7 a5 bb 2e e9 b3 bc bc 6d 5d 3d c7 11 f6 3b
       -0.005055381 -0.021961775 0.05405973 0.0075094434
000290 2e 43 f0 3b 0f e8 c8 3c 4c 98 71 bc 10 40 9c 3c
       0.007332227 0.024524717 -0.014745783 0.019073516
0002a0 3a e3 cf 3a ba df 4e 3b 69 21 d9 3c 8b d3 97 bd
       0.0015860565 0.0031566457 0.026505189 -0.074133955
0002b0 cb 58 36 3d 8e 64 ab bb 52 4a 55 3b 98 f2 6d bd
       0.044518273 -0.005230493 0.003254552 -0.058092684
0002c0 a2 55 59 3d 2a 4c 9b 3b 47 e9 9e 3d a1 11 47 3c
       0.05306018 0.004739304 0.07759338 0.012150199
0002d0 04 e2 03 be cd c2 b6 bd 00 a4 1c bd 9f a7 39 bd
       -0.12879187 -0.08923874 -0.03824234 -0.04532587
0002e0 36 91 9a 3c 64 16 bc bc 22 75 c1 ba 24 48 67 3c
       0.01886807 -0.022959895 -0.001475964 0.014116321
0002f0 4d f7 27 3d a8 2b bb 3b ac 76 46 bd a7 27 3c 3d
       0.04100733 0.0057119913 -0.048453018 0.045936253
000300 57 ad 07 bd 79 e3 91 3c aa c9 af bd d1 b0 d2 bc
       -0.033124294 0.017808663 -0.08583386 -0.025719078
000310 e4 42 9b 3c db d8 3c 3c 21 02 f5 37 b4 d1 31 bd
       0.018952794 0.011526312 2.9207267e-05 -0.04341288
000320 da 65 ef bc ec e9 0e 3d d0 02 4e bc 35 17 80 bd
       -0.029223371 0.034891054 -0.012573913 -0.062544264
000330 4e 94 4b 3d e5 d5 b7 bd be 6f f7 3b 30 f5 99 bd
       0.04970198 -0.08976344 0.0075511625 -0.07517469
000340 ae d1 2f 3d a7 1a 26 3c 6f 3e 3e 3d 32 7b 8a 3d
       0.042924576 0.01013819 0.04644626 0.06761779
000350 b0 d1 81 3d 6a bc 72 3d 93 fa 92 3d 8c 4a f9 3c
       0.06338823 0.059261717 0.071766995 0.030431055
000360 88 4c 11 bd 8a a5 d5 bc 17 05 60 bd 66 fa 20 bd
       -0.035473377 -0.026079912 -0.054692354 -0.0393013
000370 95 34 5f 3b 85 c0 c7 bb 75 fd 23 bc e1 79 ae 3c
       0.003405844 -0.006095948 -0.010009159 0.02129835
000380 93 e7 6f bd 0d 25 90 3c 66 e8 4e ba 21 fa c5 3c
       -0.058570456 0.017595792 -0.00078929064 0.024167122
000390 7f ca c8 3a d5 e7 79 3c f8 c3 3a bd 9e ca 1c 3c
       0.0015319138 0.015253027 -0.045597047 0.009569792
0003a0 95 22 b7 bc 61 12 85 3d 15 11 d8 3c 75 d6 1a bd
       -0.022355357 0.06497646 0.026375333 -0.03780218
0003b0 e1 0a 84 3c 50 9b c8 3c bb e2 a7 3d 78 9e 2c bc
       0.016118469 0.024488121 0.08197542 -0.010535829
0003c0 f2 aa 9a bd 75 00 07 3d fb 4a 44 3d ec 97 77 3d
       -0.075521365 0.03295942 0.04792307 0.06044762
0003d0 fb 45 a4 3c 91 ae 62 bd e0 56 8b 3d a3 07 8b bd
       0.0200529 -0.05534226 0.068036795 -0.06788566
0003e0 66 5c 0d 3d f5 2e fa 3c d1 54 ef bc 92 e0 98 3c
       0.034511946 0.030539969 -0.029215248 0.018661771
0003f0 5d d8 ae 3b 0a 7c ba bb d8 3c 9f 3c f7 89 23 bd
       0.005335851 -0.005691056 0.019438192 -0.039926495

bias f4 [256]
000000 73 fb ab b9 bb 41 0f ba 42 8a 25 bc 02 41 0d bd
       -0.00032803006 -0.00054648117 -0.010103764 -0.034485824
000010 ea 2c 9b 3c c6 de 97 bc 9c b0 14 3c 45 a5 25 3d
       0.018942315 -0.018538844 0.00907531 0.040440816
000020 e6 59 c0 bc 4d 78 e2 bb 0e 3a 28 bc 51 a2 dc 3c
       -0.023480367 -0.0069113136 -0.010267748 0.026932867
000030 6c 28 43 bd 4e 68 2e bd be 60 26 3d 58 49 11 bc
       -0.04764597 -0.04257994 0.040619604 -0.008867584
000040 9a 08 03 3d d4 0d b8 3c 2a 93 09 bb 25 7a 69 bc
       0.031990625 0.022467531 -0.0020992258 -0.014250313
000050 05 e1 f1 3c f8 f8 bf bb ce 53 06 3d b0 da 1c 3c
       0.029526243 -0.005858537 0.032794766 0.009573624
000060 97 bb e5 3c 61 4d 88 bd 04 fa 33 bd a8 cb 17 bd
       0.028043551 -0.06655384 -0.043939605 -0.037059456
000070 6b d0 76 3b 6b ce b3 bc 74 6c ec 3c e2 48 0c bd
       0.0037660848 -0.021949014 0.028860308 -0.034249194
000080 95 aa 58 bd da b4 0a 3d 59 72 27 bd f1 d1 02 bd
       -0.052897055 0.03386388 -0.040880535 -0.031938497
000090 00 51 1c bc b6 dd 69 3c b6 8a 81 bd a4 20 07 bd
       -0.009540796 0.014274051 -0.06325285 -0.032990113
0000a0 f5 8b c2 bc 98 4b 28 bd c5 e4 16 bc a4 50 19 bb
       -0.023748377 -0.041087717 -0.009209816 -0.0023394013
0000b0 16 d4 a4 bc e5 ef 9b 3b a3 5a f3 bc a6 f7 71 3c
       -0.020120662 0.0047588223 -0.029706305 0.014768517
0000c0 47 25 e8 bc 42 fb 03 bc 29 53 01 bd 6b cb df 3c
       -0.028338088 -0.00805551 -0.03157345 0.027318677
0000d0 8e 66 20 bd 16 32 05 bd 74 65 88 bd 1a 72 25 bd
       -0.039160304 -0.03251847 -0.06659976 -0.04039202
0000e0 b9 38 73 bd 49 09 02 bd 96 33 25 bd e5 90 a6 bc
       -0.059380267 -0.031747136 -0.0403324 -0.020332763
0000f0 44 dc 41 bd 0d 20 6b 3c 43 41 e9 3c b2 c3 13 3d
       -0.047329202 0.014350903 0.028473502 0.0360753
000100 31 84 ef 3b 08 cb 32 bd de 8b 45 bd 47 d8 f7 bb
       0.0073094596 -0.043650657 -0.04822909 -0.007563624
000110 c8 a1 4b bc 27 0f 2f bd f7 3f 11 bd 8d 82 e4 3c
       -0.012428708 -0.04273906 -0.035461392 0.027894283
000120 fb cb 59 bd 82 36 c8 3b 3c 37 9e bc e5 5d c8 bc
       -0.053173047 0.0061100135 -0.019313447 -0.024458835
000130 02 51 cc 3c c9 62 a5 bc 5d 79 76 bc 3c 7c 2e bd
       0.024940971 -0.020188706 -0.015043584 -0.042598948
000140 30 e5 fc ba 69 8f 00 bd 9c db de ba 60 e3 ea 3c
       -0.0019294377 -0.031386767 -0.0017002705 0.028672874
000150 11 8c 5a bd b8 86 aa 3b 09 32 3d bb ed f0 c3 ba
       -0.053356234 0.005204048 -0.0028868935 -0.0014949121
000160 b0 76 a1 bc 78 ec 28 bd f0 26 0a bd a0 53 6e bc
       -0.019709915 -0.04124114 -0.03372854 -0.014546305
000170 04 36 f7 3c 59 60 d5 3b bb 60 a5 bc a5 65 ab 3c
       0.030177124 0.0065117297 -0.020187726 0.020922491
000180 45 f1 2f bc 4b d7 bb 3c cb a7 c1 bc f8 f3 8a 3c
       -0.0107386755 0.022929808 -0.02363958 0.016962036
000190 dd 08 32 bc 36 0c 8f bc d9 92 52 bc e5 77 d4 bc
       -0.010866371 -0.017461877 -0.012852394 -0.025936076
0001a0 cd 75 29 bd 00 77 ee 3b a2 80 4e 3d de 0f 2b bc
       -0.04137211 0.0072773695 0.050415643 -0.010440795
0001b0 8f 8a 41 bd 27 33 23 bb bc b1 1f bc ac fd 26 bd
       -0.04725128 -0.0024902315 -0.009746965 -0.040769264
0001c0 54 70 b2 bd 75 ed 34 bd 4a b1 50 3d 4e 52 5e 3d
       -0.08712831 -0.04417177 0.050950326 0.05427771
0001d0 c5 18 3f bd 7b 01 e6 3c 5f fd cd bc 0e 71 15 bb
       -0.04665448 0.028076878 -0.02514523 -0.0022802982
0001e0 74 e1 cd bc 38 8d b0 3c 92 97 05 3b 4b 0e ee bc
       -0.025131918 0.021551713 0.0020384532 -0.02905955
0001f0 bb 38 72 bc b6 43 ee 3a a4 16 77 bc a1 86 98 3b
       -0.014784033 0.0018178138 -0.015081082 0.004654721
000200 73 6d 54 bd c8 fe 4b 3b 43 b6 19 bd 6b 27 37 bc
       -0.05186219 0.0031127203 -0.037527334 -0.011178832
000210 04 c6 cb 3b 91 de b7 bc 0a 55 65 bc 30 3f f1 3c
       0.0062186737 -0.022444995 -0.013997326 0.029449075
000220 68 66 5a bc aa e4 73 bd 69 fc ac bb c6 a4 3a bd
       -0.01333008 -0.059544243 -0.005279113 -0.045567296
000230 5c 4d 09 bd 9c 9a 1e bc 78 ba 97 3c 83 69 a1 3c
       -0.03352104 -0.009680416 0.018521532 0.019703632
000240 7e b1 14 3c bc 18 ad bc 2d 32 27 3d 90 e1 e3 bc
       0.009075521 -0.021129958 0.040819336 -0.027817518
000250 94 3b a6 3c 28 fd 2b bd 30 40 90 3b 2d a4 fc bb
       0.020292081 -0.041989475 0.004402183 -0.007710001
000260 64 96 a9 3c c3 08 f6 bb c7 d4 3d 3c 6b 74 d1 bc
       0.020701595 -0.0075083687 0.011586375 -0.025568208
000270 03 88 b3 bc 47 a3 2f bc f0 ec 66 bd 31 cd a0 3a
       -0.021915441 -0.010720081 -0.056378305 0.0012268183
000280 76 ce 0e bd 25 eb b6 bc 52 e6 b6 3c d4 19 c8 bc
       -0.034864865 -0.022328923 0.022326622 -0.024426378
000290 fa 8a 81 bc ce 64 a9 bb 24 8a e7 3c 3f fc 4f 3c
       -0.01581334 -0.0051694876 0.028264113 0.0126944175
0002a0 74 c1 f9 bc fa c4 01 bc 3f c2 0b bd 10 ba 9e bc
       -0.030487753 -0.007920498 -0.034120794 -0.01937583
0002b0 d9 3c 4b bd 97 ec 93 bd 63 4c b0 bc ad 85 64 bb
       -0.049618576 -0.0722286 -0.021520799 -0.0034869716
0002c0 ed 38 6f bd 4c 73 18 3c 8d 01 90 3b 1b 0a ed 3c
       -0.058403898 0.009304833 0.004394716 0.028935483
0002d0 02 70 90 3c d6 32 81 3c bf d1 c9 3c e6 9d 20 3c
       0.017631534 0.01577131 0.024636148 0.009803271
0002e0 68 62 a2 3c cd da 1c 3b 79 ba d5 3c 6c 48 6d bc
       0.019822314 0.0023934126 0.026089894 -0.014482599
0002f0 74 64 40 bb 80 1a 91 bc 63 af eb 3c 34 5d 3a bd
       -0.002935675 -0.017712831 0.028770154 -0.04549904
000300 5c b5 25 bd 31 a2 0f 3d 67 6c 56 bc 25 e5 d3 bc
       -0.04045616 0.035066787 -0.013087369 -0.0258661
000310 1d 8e 69 bd c8 67 9f 3b 7c 8c e2 bc 42 16 be 3c
       -0.057020295 0.0048646666 -0.027654879 0.023203973
000320 ee fe 5b bd 91 e1 ca bc 29 f1 91 bb b5 40 1b bd
       -0.053709917 -0.024765762 -0.0044537974 -0.037903506
000330 3e ec 1d 3d db 2d 92 bd 65 07 9c 3b 2d d5 cd bc
       0.038555376 -0.071376525 0.0047616237 -0.025126064
000340 0f 78 41 bc 30 b2 92 bd c1 4e 0b bd 54 e9 c6 bc
       -0.011808409 -0.07162893 -0.034010652 -0.024281181
000350 35 39 3e bd c7 b4 1d 3b 87 00 fa 3b 16 3d 2c bd
       -0.046441276 0.002406405 0.0076294574 -0.042050444
000360 29 99 0c bb 14 39 7c bd bd 61 06 3c d0 e0 07 bd
       -0.0021453595 -0.06157787 0.008202014 -0.033173382
000370 cf 66 7f bc cd a2 9d bc fb ca 34 bd c9 cb 8b bc
       -0.015588476 -0.019242669 -0.04413889 -0.017064946
000380 03 6b 7d 3c ae 0e 1a 3d e1 a7 4e bd d1 be a7 bb
       0.015467408 0.037611656 -0.05045307 -0.0051191826
000390 a2 5c e8 3c 93 d7 a4 bd fd 6e 0b 3d 81 90 c1 bd
       0.028364483 -0.0804893 0.034041394 -0.0945139
0003a0 41 79 a4 3b 6f a6 49 3d 2f 97 a0 bc e0 35 59 bc
       0.0050193374 0.04923099 -0.01960334 -0.013257474
0003b0 10 2a 3b 3c 91 75 46 3d 1b d8 74 ba 15 b4 e8 3a
       0.011423603 0.048451964 -0.00093400636 0.0017753864
0003c0 a6 5c 00 3d 38 c3 a2 3c 26 d5 23 bc 9d 4c 33 bd
       0.031338356 0.019868478 -0.009999549 -0.043774236
0003d0 51 bd 2d bc 6e 43 b5 3c 33 3b 5c 3c d2 ae b9 bc
       -0.010604219 0.02212688 0.013441849 -0.022666369
0003e0 02 c4 b3 3c 91 8e d5 bc ce 46 e6 bc f8 a1 3d 3c
       0.02194405 -0.026068958 -0.028109934 0.011574261
0003f0 2e b0 86 bd a5 6d 4b bd d1 12 b6 3c 20 dc 46 3d
       -0.06576572 -0.049665112 0.02222577 0.04854977

weight f4 [128, 256]
000000 2e 41 9c 3d d1 43 e4 3b 61 34 d1 3d ac 52 99 bb
       0.076296195 0.006966092 0.102150686 -0.0046790447
000010 13 8c 9c 3d 88 80 73 ba eb 75 b1 3c 20 09 4b bd
       0.076439045 -0.0009288867 0.021662673 -0.04956925
000020 3d 21 c5 bd c7 4c 7b 3d 73 d4 e4 3d fb 83 b5 bb
       -0.0962548 0.061352517 0.11173334 -0.005539415
000030 cd b8 9b bd 02 f5 a9 bd 80 c6 bc bd 44 75 54 3d
       -0.07603607 -0.08298685 -0.09217548 0.051869646
000040 b4 46 ac 3b 95 92 22 bd 1a 3d c4 bc 38 95 bf 3d
       0.005257452 -0.039690573 -0.023954917 0.09354633
000050 7f 12 30 3d 35 f2 7f 3d b6 ba c8 bb 50 67 2b bd
       0.04298639 0.062486846 -0.0061257733 -0.041846573
000060 00 fb 32 3d 95 09 fb 3d 19 2b 4c 3d 5f e8 01 3d
       0.043696404 0.12257687 0.04984579 0.031715747
000070 49 f7 05 3d 09 e4 1d 3d e9 f8 13 be 9b a7 74 bc
       0.032706533 0.03854755 -0.1445042 -0.014932538
000080 19 7b 80 bd c3 e8 0e 3e 13 e9 a6 bb fa 3b 56 bd
       -0.06273479 0.13955979 -0.0050937026 -0.05230329
000090 18 30 b3 bc 37 e5 44 3d 20 1d 9a 3d 59 17 ef bc
       -0.021873519 0.04807016 0.075250864 -0.029185938
0000a0 63 bb 60 bd ce f9 2a bd 1c 04 97 3d 08 17 93 3d
       -0.054866206 -0.04174214 0.07373831 0.07182127
0000b0 41 9c cb bd 71 e5 80 bd 28 df 49 bd c0 43 da 3c
       -0.099419124 -0.062937625 -0.049285084 0.026643634
0000c0 3e ca 97 3d ef 18 64 bd 1a d3 a5 3c 09 96 b2 3d
       0.074116215 -0.05568784 0.020242263 0.08720023
0000d0 7f 5b ae 3c a6 f4 df 3c 1e 6b 34 3c 43 e6 89 3d
       0.021283863 0.027338337 0.011011867 0.06733372
0000e0 9a bc e2 bc 9f 41 77 3d 20 ac c4 3c 85 9e 8c 3d
       -0.027677823 0.060365316 0.024007857 0.06866173
0000f0 51 3c 28 3d 44 4c 0c bd cc 97 46 3d ae 00 67 3d
       0.041073147 -0.03425242 0.04848461 0.056397133
000100 5a 78 09 3d e3 c2 72 3d b2 19 e6 39 4e 5f 9a 3d
       0.03356204 0.05926789 0.00043888163 0.07537709
000110 ff 10 d6 3d f8 29 5c 3d 4b e3 a4 bb 40 2b c9 bd
       0.104524605 0.053750962 -0.0050319782 -0.098227024
000120 3a e8 c0 3d fa 36 75 bd b0 88 26 bc 95 94 2c 3e
       0.09419294 -0.059866883 -0.010164425 0.16853555
000130 db 55 0a 3d 8c 87 57 3d ea 86 6f bc 94 8d 99 bd
       0.033773284 0.052619502 -0.014619568 -0.07497707
000140 cd f9 77 bc 4d 8b 97 bd 03 27 83 3d 7c 10 93 bc
       -0.015135241 -0.073996164 0.06403925 -0.017952196
000150 b2 42 bc 3d e7 31 b4 bc 95 23 16 bd 77 28 66 bd
       0.091924086 -0.021996452 -0.036655027 -0.056190934
000160 77 4c 09 3d bf 64 04 be a6 8a 4b bd 4e 59 ed bc
       0.03352019 -0.12929057 -0.049692772 -0.028973248
000170 66 b9 81 3d 36 f5 ca 3d 1f d2 0f 3d c9 8b 3a 3d
       0.0633419 0.099100515 0.035112496 0.045543466
000180 37 dd eb 3c c7 bb 2c 3b b5 26 2e 3e 81 c9 7b 3d
       0.028792007 0.0026357041 0.17006953 0.061471466
000190 85 04 95 bd 4c d5 c4 3b c5 15 cb 3a 28 fd 3b bd
       -0.07276253 0.0060068723 0.0015494159 -0.045895725
0001a0 99 03 97 bc 4b ea c9 bc 09 bd 51 3b 31 e1 c6 bc
       -0.018434333 -0.024647852 0.0032003543 -0.024277302
0001b0 14 09 c1 bb 12 01 0c bc 07 e1 b1 3d 0b 47 0c 3c
       -0.005890975 -0.008545177 0.08685499 0.00856186
0001c0 fd 94 2a 3d 72 e8 7c 3d 73 c7 06 3d e9 9d 8c bd
       0.041645993 0.061745115 0.032905053 -0.068660565
0001d0 6f 75 93 3c 9b 7a 7c 3d 68 c4 06 be 6d 11 8c 3d
       0.018000333 0.061640363 -0.1316086 0.06839261
0001e0 dc 6d ad 3b f6 0c 2e 3d b3 08 ad 3d 39 af fc bd
       0.0052926373 0.04249283 0.08448925 -0.123381086
0001f0 a3 47 14 3e 0c a1 e6 3c 42 b3 01 3c 1b c4 9e 3c
       0.14480452 0.028152965 0.007916274 0.01938062
000200 2c 05 aa 3c 72 d3 bc bc 6a fc a7 bc 02 3b aa bc
       0.02075442 -0.023050044 -0.020506103 -0.02078009
000210 32 67 96 bd 27 f0 42 bc 4e 5f c7 3d e9 e7 25 bd
       -0.07343902 -0.011898077 0.09734975 -0.04050437
000220 fd 5b 9e bb 2c 57 89 3d 46 e4 a8 3d 56 4c 2f bd
       -0.004832743 0.0670608 0.08246665 -0.04279741
000230 2c e5 55 3e 74 ca 93 3d a2 9c 87 3d 47 81 a1 3c
       0.20888203 0.07216349 0.06621672 0.019714965
000240 29 40 1e bc a6 57 42 3b 4d 52 08 bd 16 b4 0b bd
       -0.009658852 0.0029654293 -0.033281613 -0.03410729
000250 fe 5e b0 bd aa e5 ab bd c2 08 0a bd 18 77 e1 bc
       -0.08611868 -0.08393414 -0.03369976 -0.027522609
000260 b5 fc e5 3c c3 7a 9e bd 15 f0 c1 3c 58 c5 a8 bd
       0.028074602 -0.07738259 0.02367405 -0.08240765
000270 ff 40 2e bd ae f4 25 3e 6d 74 b3 3c be 47 ee 3c
       -0.042542454 0.16206619 0.021906102 0.029086944
000280 40 22 bf 3d 9f 27 42 bd 8f 3f 6a 3d 3a 59 16 3b
       0.093327045 -0.047401067 0.05718952 0.0022941367
000290 3e da 40 3d 38 53 fc 3c 1f c9 66 3c 7c 9a a5 3c
       0.047083132 0.0308014 0.014086037 0.020215265
0002a0 b0 f7 44 bd 72 77 e8 3b 07 05 c0 bc b2 59 bb 3d
       -0.048087776 0.007094317 -0.023439897 0.091479674
0002b0 e8 08 b5 3c f2 32 5d bc da 53 da 3c 53 f7 e3 3c
       0.022098973 -0.013500916 0.026651312 0.027827894
0002c0 b8 33 85 3d d2 49 ed 3d 1b df 1e 3d ce 72 61 3c
       0.06504005 0.11586346 0.03878699 0.013760282
0002d0 51 90 ad bd df 24 35 bd 74 ed b4 bb d6 55 d4 bd
       -0.08474792 -0.044224616 -0.0055214707 -0.103679344
0002e0 4e 7b 3e 3d c6 ae b5 3c 79 87 90 3d d2 43 00 bd
       0.04650431 0.022178065 0.07057089 -0.03131468
0002f0 21 13 1e 3d a9 1f 27 bd 53 2d 20 bd 38 6d d0 ba
       0.03859246 -0.040801678 -0.039105725 -0.001590169
000300 02 49 33 bb 4c dd 2c bd a7 79 a3 3c cb ce 90 3d
       -0.0027356748 -0.042203233 0.01995547 0.07070693
000310 c1 29 33 3c 51 0b 40 bc 46 a0 12 bc a9 3c ae bd
       0.010935248 -0.011721448 -0.008949345 -0.08507664
000320 39 cd db 3d c5 43 8b 3d 26 7c 4b 3d 83 f5 27 3d
       0.107325025 0.068000354 0.049678944 0.041005623
000330 16 6f f9 3d f9 41 63 39 11 e1 e8 3c f2 f3 76 bd
       0.12179391 0.00021672984 0.028427633 -0.060291238
000340 a6 61 89 b9 a7 d8 30 3d dd c4 7d bc 1c 35 ea 3c
       -0.0002620343 0.043175366 -0.01548883 0.028589778
000350 68 64 80 bd 0d b9 19 3e 3c 21 1e bd 47 17 a0 3d
       -0.06269151 0.15011998 -0.038605914 0.0781694
000360 e9 52 06 3d 1a bc d5 3d f9 80 85 3c a7 5e 2a 3d
       0.032793913 0.10436268 0.01629685 0.041594174
000370 4a 90 4b b9 6b 24 e0 3d b2 1b 22 3d 30 1a 93 bd
       -0.0001941334 0.10944446 0.039577194 -0.07182729
000380 5f b1 6a 3d 54 30 89 bd 35 38 cc 3d ed e6 f8 3d
       0.05729806 -0.06698671 0.09971658 0.121534206
000390 87 7d 07 bd 89 e3 21 bd 32 64 68 3c 2b 9e f5 3d
       -0.033078697 -0.039523635 0.014184045 0.11993059
0003a0 b8 f5 a8 3d 8f fb b5 3c bb db 1a bd 7c 74 9b 3b
       0.08249992 0.022214679 -0.037807208 0.0047441106
0003b0 a8 54 33 3e 19 08 5d bd c4 98 9c bd 7b dc 08 3d
       0.17512763 -0.0539628 -0.07646325 0.03341339
0003c0 ac 2a ae bc a9 dc a0 3d 8d 9a 15 bd 13 c5 14 3d
       -0.021260582 0.078545876 -0.036524344 0.036320757
0003d0 b3 ef e5 3b 69 1b 05 3d c3 e1 ce bd 66 48 0b 3d
       0.0070170998 0.032496843 -0.101016544 0.03400459
0003e0 37 50 a1 3d 14 f3 04 be 80 1c b2 bc 02 a1 63 bd
       0.07876628 -0.12983352 -0.021742105 -0.05557347
0003f0 db df 51 3c eb 2a 5a 3d 1b a7 82 bd 63 6f 95 bd
       0.012809719 0.053263586 -0.06379529 -0.07296636

bias f4 [128]
000000 da 3e 2a bd f3 ea f4 bc 29 8d 47 3c 91 aa 89 3c
       -0.041563846 -0.029897189 0.012179651 0.016804965
000010 6a 77 e8 bd b0 76 5a 3d 18 02 37 bd b0 85 dc 3c
       -0.113509014 0.053335845 -0.04467973 0.026919216
000020 5e a7 cc 3c 29 51 3d bd 1d 4a 05 3d 57 a4 2a 3d
       0.02498215 -0.04621998 0.032541383 0.041660633
000030 0e bc 7c bd 4c af 80 3d 5b 47 19 bd 07 6a 8c bc
       -0.06170278 0.06283435 -0.037421566 -0.017140402
000040 c6 01 5c bd 9f f3 d0 3c c1 ef 4c bd 95 39 43 bd
       -0.05371263 0.025506793 -0.050033335 -0.047662336
000050 cf 87 17 3d ec 02 64 bd 17 fe ad bd 81 1d 82 bd
       0.03699475 -0.05566685 -0.084957294 -0.06353284
000060 f7 c7 e1 b9 7f 80 6a bd ce b6 0c bc 82 7a 2d 3d
       -0.0004306433 -0.05725145 -0.008588506 0.04235316
000070 76 43 87 3d 73 4a ba 3c 01 ee 7b bd 64 28 b5 3b
       0.06604664 0.022740578 -0.061506275 0.0055284966
000080 b7 16 4a bd 7b b2 e3 bc 66 3e f7 bc a6 ee 6a bd
       -0.04933807 -0.027795067 -0.030181121 -0.0573565
000090 7c 34 40 3c 87 1b 0f bd 48 cf 4f 3d 26 7b 45 bd
       0.011731263 -0.03493836 0.05073479 -0.048213147
0000a0 63 e8 8b bc 36 63 1c bc 2b fd 82 3d 99 e6 b5 3c
       -0.017078584 -0.009545138 0.06395944 0.022204684
0000b0 1a 62 b2 ba 83 51 24 3d c2 cb c4 3c 55 48 9d 3d
       -0.0013609559 0.040116798 0.02402294 0.07679812
0000c0 32 a5 e9 3c 49 6f 1b 3d 48 41 41 3b 19 34 f9 3c
       0.028521154 0.037947927 0.0029488374 0.03042035
0000d0 af 44 a0 3c 5d 68 88 3c 1f 8e 54 bd af 6c 5b 3c
       0.019564 0.016651327 -0.05189335 0.013392611
0000e0 e3 62 b1 bc 07 7d 84 3d f8 2a 93 3c 64 1a c7 3c
       -0.021653598 0.064691596 0.017964825 0.024304576
0000f0 2a b0 8f 3d 93 16 49 3c 8a c4 9b bd 40 9c e2 bb
       0.070160225 0.0122734485 -0.07605846 -0.006915599
000100 0d 42 39 bd d3 ec c8 bd c2 89 6a 3c ed 7d 30 bd
       -0.045229007 -0.09810796 0.014315071 -0.043088842
000110 41 f1 0d 3c 00 5d 21 bc f3 b6 69 bd 1a 8e 77 3c
       0.008663476 -0.009848833 -0.05705924 0.015109563
000120 9f 4d 1d bd 23 5c aa bd 3f 47 1f 3d e4 86 c1 bc
       -0.038404103 -0.08318355 0.038886305 -0.023623891
000130 be 0d 96 bc 39 72 cc bc 78 9e 11 bd 7c 89 83 bb
       -0.0183171 -0.02495681 -0.03555152 -0.004014192
000140 1f 0a f8 bb f3 02 3f bb 95 33 ec bc f0 ac 87 3c
       -0.007569566 -0.0029146045 -0.02883319 0.016561955
000150 47 83 45 bd ce 0a 2f bd 65 a7 1d 3d 88 df 09 3c
       -0.0482209 -0.042734914 0.038489718 0.00841511
000160 99 da 6d bd 8d 83 87 3d e8 fb 01 3b b6 33 bd 3a
       -0.0580698 0.06616888 0.0019833986 0.0014434967
000170 9f 52 0e bd 4c 9e d5 bc a1 a5 bb bb c0 8d 62 3d
       -0.034746762 -0.026076458 -0.0057265316 0.055310965
000180 01 bf 3e bd f9 90 e7 3c 69 7c 8c bb 7b f0 ee 3c
       -0.046568874 0.02826737 -0.004287292 0.029167404
000190 4d ed 53 3a a1 1f 9b bc 3d 4a 7d 3c 29 f6 4d bd
       0.0008084372 -0.01893598 0.015459594 -0.050283585
0001a0 99 e9 a2 bd 55 d6 a9 bd ec 0f 3c bd 9b e5 93 bc
       -0.079547115 -0.08292834 -0.04591362 -0.01805382
0001b0 ac b2 2a 39 ee 20 51 3d 31 40 73 bd 26 f0 66 bc
       0.00016279024 0.051056795 -0.05938739 -0.014095342
0001c0 fb 72 51 bd 4b 61 66 bd 94 e7 73 bd 5a f1 45 bb
       -0.051135045 -0.05624513 -0.059547022 -0.0030203671
0001d0 16 8e 5f 3b f3 64 81 3d 48 a1 b0 3c d2 b2 2f 3d
       0.003411179 0.06318083 0.02156128 0.042895146
0001e0 84 f2 4b bc d5 c1 a3 bc 6f f9 85 3b 0f a4 81 bd
       -0.012447957 -0.019989887 0.0040885727 -0.0633012
0001f0 e3 f2 c3 bd c9 34 53 3b 76 28 ec bc 66 b2 9f bd
       -0.09567811 0.0032227507 -0.028827887 -0.07797699

weight f4 [12, 128]
000000 7b e5 e6 3b 55 af fc bb 96 0e 87 bd 13 8f 33 3d
       0.007046399 -0.007711331 -0.06594579 0.043837618
000010 ee 42 5a bb 3f 0e 29 3d 33 1f ab 3c 42 5e dc bc
       -0.0033304053 0.04127335 0.0208889 -0.026900414
000020 8b 31 8d 3c aa 74 36 bc 59 fe 3c bd 20 20 7f 3c
       0.017235538 -0.011136213 -0.046141002 0.015571624
000030 3f c6 97 bb 28 0b 3b 3b d6 b2 38 bd 7b 58 30 bd
       -0.004631787 0.0028540585 -0.045092426 -0.04305313
000040 13 17 1a 3d 7e ef 26 3d 85 11 c8 3c 6a b1 b7 bb
       0.03761966 0.04075574 0.024422416 -0.005605866
000050 6f 86 44 3c 63 2d 4e 3d 74 0d 23 3d 3b ae 8d 3d
       0.011994942 0.050336253 0.03980775 0.069179974
000060 80 d9 0d 3d 74 69 42 3d f5 cb 85 3d 85 79 0c 3d
       0.034631252 0.04746385 0.06533042 0.034295578
000070 18 fd 49 bd 0d 1c ed bb 3f c0 a0 3d a6 af 29 bd
       -0.049313635 -0.00723601 0.07849168 -0.041427277
000080 4e 34 53 3b 89 7c 5a 3c c1 01 74 bd bb bc 36 bd
       0.003222722 0.013335356 -0.059571985 -0.04461358
000090 c3 13 0c 3d 74 32 87 3d e2 5e c5 3c 76 3c 4d 3d
       0.034198534 0.0660142 0.024093095 0.05010649
0000a0 d8 93 ad bc 72 5d 0a 3d 0b c8 40 3d 24 4c 9f bd
       -0.021188661 0.033780523 0.047065776 -0.077781945
0000b0 31 8f 1d 3b 41 0b 83 3b 6f 69 9d bb 06 12 98 3c
       0.0024041648 0.0039991443 -0.0048038284 0.018563282
0000c0 87 a6 b7 3c 0a 2f 5a bc 62 8d 07 bd f0 67 26 bc
       0.022418274 -0.013316879 -0.033093818 -0.010156617
0000d0 b0 76 af 3c 34 02 da bc c2 fe e3 3b f1 69 2c 3d
       0.0214189 -0.026612379 0.0069578597 0.04209322
0000e0 71 2b d7 bc 94 b5 be bd 11 81 87 ba 3a cb 8c bc
       -0.026265832 -0.09311977 -0.0010338147 -0.01718675
0000f0 97 b8 b9 3c f2 c5 a6 bd 3e 44 70 3c b9 d1 ab bc
       0.022671027 -0.08143224 0.014664708 -0.020974027
000100 3a e6 ec bc cb 44 7d 3d 4f cc 21 bc 42 f3 8d bd
       -0.028918374 0.061833184 -0.009875371 -0.06931163
000110 f7 fe 28 bd 38 98 cf 3b 01 6c ad 3c 57 57 f4 bc
       -0.04125878 0.0063352846 0.021169664 -0.029826803
000120 65 3c d2 bc 8e d1 c5 bb 81 12 1e bd 7d 02 4f 3d
       -0.025663564 -0.0060369438 -0.038591865 0.050539482
000130 ce 82 5d bd 84 2c 7e bd 2b 7c a1 bc 83 e5 3b bd
       -0.054079823 -0.062054172 -0.019712528 -0.045873176
000140 5c 47 1f bd 17 c1 4f 3c f2 ec 10 bc f4 8e 76 bb
       -0.038886413 0.012680314 -0.008845555 -0.0037621828
000150 e0 8d 3e 3d 01 7f 4e bc d1 99 45 bc 17 e9 23 3d
       0.04652202 -0.012603522 -0.0120605985 0.040017214
000160 00 2a 1f bd 9f 0b 2d 3d af 22 41 bd cb ae 0b bc
       -0.038858414 0.04224741 -0.047152217 -0.008525561
000170 72 1d 03 3d ef c8 a0 bc 53 2e 5a 3d e7 ab c4 3c
       0.032010503 -0.019627063 0.053266834 0.02400775
000180 e7 3f 06 3d 7d f7 20 3d c1 f8 3d bc 0d 4d 15 3d
       0.032775786 0.039298523 -0.011594952 0.036450434
000190 28 66 56 38 f4 3a 03 ba 84 65 11 3d 2a 87 5d bd
       5.1116716e-05 -0.0005006038 0.035497203 -0.05408398
0001a0 c9 6e 94 bc 95 c2 00 3d f2 f7 ec 3c 1e 10 16 bd
       -0.018119233 0.031435568 0.028926823 -0.036636464
0001b0 69 f0 7c 3d 67 6c 79 3d 3e 8f 49 bc c2 38 30 3d
       0.06175271 0.060894396 -0.012302218 0.04302288
0001c0 fc 45 e7 bc c2 83 40 bc ef 0a 7c bd b1 7c 0e bd
       -0.028231613 -0.0117501635 -0.061533865 -0.034786884
0001d0 48 99 33 bd 8f a3 47 bd 18 8a 9c 3c 7e 38 13 bd
       -0.043847352 -0.048739966 0.019108817 -0.035942547
0001e0 f2 e1 bd bc af 7c 78 bc 58 1c 21 bb 7e 77 13 bd
       -0.023179028 -0.015166446 -0.0024583545 -0.03600263
0001f0 f6 09 38 bd e8 c5 df 3c 1a aa 74 3d 29 e4 b6 bc
       -0.044931374 0.027316049 0.059732534 -0.022325592
000200 34 0f 94 3d 9d c7 47 bd 08 d3 86 3b 6a 08 3b bd
       0.07229462 -0.04877435 0.0041145124 -0.04566232
000210 80 d7 33 3d 18 96 8b bc c1 7c ef 3c 65 3d 1f bd
       0.04390669 -0.017039344 0.029234292 -0.03887691
000220 ae 88 3d 3c 1e fe 2e bd b9 9c d9 bd f9 51 ca bd
       0.0115682315 -0.042722814 -0.106255956 -0.09878916
000230 fa 96 89 bd 95 04 0e bd a6 c3 46 bd fd 2c 24 bb
       -0.067182496 -0.03467234 -0.04852643 -0.002505123
000240 0a 40 2f 3d ce 68 96 3d 2d a6 3f 3c c6 fc ea bb
       0.04278568 0.07344209 0.011697334 -0.007171246
000250 78 78 6d bd a3 b8 63 3d 0d 76 a2 3c bd 51 f1 3c
       -0.057976216 0.055596005 0.019831682 0.029457921
000260 52 27 92 bd ba c7 83 3d 20 44 29 3d 51 9f d4 3c
       -0.07136406 0.06434579 0.041324735 0.025954874
000270 f8 98 1f bc 6d 54 b5 b9 92 16 a1 3c c0 0d 3d 3d
       -0.00974106 -0.00034585912 0.019664083 0.04615569
000280 b0 8b ad 3d 9b f1 a1 3d f2 6f 0d 3c b6 91 97 ba
       0.08473909 0.07907411 0.008632647 -0.0011563811
000290 b7 54 b2 3c 2e 53 5f bb ce aa 1a bc d3 5a 8a bd
       0.02176891 -0.0034076679 -0.009440137 -0.067556046
0002a0 ad c2 84 bd 7a 05 9a 3d fc 81 8c bd a1 cc 1d bd
       -0.06482444 0.07520576 -0.0686073 -0.038525227
0002b0 81 ae 97 bd 83 0c 45 bc 01 ae 6f bd 70 ff 95 3c
       -0.07406331 -0.012026909 -0.058515552 0.018310279
0002c0 89 28 0a bd c3 8d db bc cb e2 c0 bd ac de e8 bc
       -0.033730064 -0.026800996 -0.09418257 -0.02842649
0002d0 1e 7e 38 bd f3 df 54 bd 7c 5b 43 3d ea 55 2f ba
       -0.04504215 -0.051971387 0.04769467 -0.00066885224
0002e0 99 8d 5f bc 1f c2 24 3d f3 0d 1c bd 87 cd cd 3c
       -0.013644599 0.04022419 -0.03809924 0.025122417
0002f0 eb f3 83 bc 47 e4 4e bd f7 60 a6 3d 2a 2f 38 3a
       -0.01610752 -0.05051067 0.08123963 0.0007026071
000300 51 80 cb 3d 4e 2c ad 3d c0 e2 84 bd 13 19 bb 3d
       0.09936584 0.08455716 -0.06488562 0.09135642
000310 ce 95 26 3d e1 00 49 3c 3e 70 88 3d 96 32 6c 3d
       0.04067021 0.012268276 0.066620335 0.05766543
000320 95 2e cc bd c1 2e 90 3d 30 50 eb bc c8 27 5c bd
       -0.09969822 0.070401676 -0.02872476 -0.053748876
000330 61 ac a8 3b f8 74 2f 3c 4e 03 65 bd 25 fb a0 3c
       0.0051475023 0.01070904 -0.055911355 0.019651005
000340 9a 22 1e bd d5 f9 d5 3c 26 6d 3b bd 9c 70 3f 3d
       -0.038607217 0.026120106 -0.04575839 0.046738252
000350 2a 06 99 3c 44 1d 87 bd fa 10 05 3c 30 fc 64 3d
       0.018679697 -0.06597379 0.008121723 0.055904567
000360 f7 83 4b 3d 2e d4 10 bd 16 bb 01 3d 24 87 85 bc
       0.0496864 -0.0353586 0.03167256 -0.016299792
000370 b1 0d 28 bd a1 ea 63 bd 30 b3 4d bd 96 a2 b7 3c
       -0.041028682 -0.05564368 -0.050219715 0.022416394
000380 49 54 6a 3b 17 98 36 bc 6e 1d bb bd ed 94 c3 bd
       0.0035755804 -0.0111446595 -0.09136473 -0.0954989
000390 3b 23 ab bb bb e9 89 3d 79 24 d2 bd 20 56 f3 bc
       -0.0052227057 0.06734034 -0.10260863 -0.029704154
0003a0 25 b0 ae 3d 6e 87 ea bc 7c b2 31 bd e3 13 46 3d
       0.08529691 -0.028629031 -0.043383107 0.04835881
0003b0 de 62 14 3d e8 fe 0f 3c 35 44 ed bc 68 ee 86 bc
       0.0362271 0.008788802 -0.028963188 -0.016471103
0003c0 f0 5d 01 bc 41 c9 ca 3d 46 08 08 3e ff ce b2 bc
       -0.007895932 0.099016674 0.13284406 -0.021827219
0003d0 32 6d dc bd f9 5b b5 bd 6b c0 73 3d 6e 30 86 bd
       -0.10763015 -0.08855433 0.059509676 -0.06552206
0003e0 48 9a f1 3d 13 af 48 bd a3 1d 07 3d 81 da c1 bc
       0.11797005 -0.04899509 0.03298725 -0.023663761
0003f0 51 0f c5 bd 8a a2 25 bd 0c 21 45 bd 73 da 39 3d
       -0.09622062 -0.040438212 -0.04812722 0.045374345

bias f4 [12]
000000 4e 7d c3 bd 49 f9 3c 3d a7 20 f6 3d 76 c7 c1 3d
       -0.09545384 0.046136174 0.12017947 0.09461872
000010 40 8d 59 bd cf 22 49 3d 99 d2 4e bd d4 46 cd bb
       -0.053113222 0.04910546 -0.05049381 -0.006264547
000020 70 9b 04 3d ac d6 96 3d ae 3b 8a bc 29 8c 56 3d
       0.0323748 0.07365164 -0.01687416 0.05237976
