logs/go1_IROS/exported/policies/torque_obs42_rand_mass6.pt (torch, 761749 bytes, 8 tensors)

weight f4 [512, 42]
-0.19642432 0.01661775 0.039634377 0.025627196 0.17795585 0.15164953 -0.24037245 -0.2197111
0.18723582 -0.25359344 0.06727966 0.14044058 0.23083806 0.17262584 -0.10490372 0.11856952
-0.0032350384 -0.07673686 -0.14506404 -0.009779948 0.14598955 -0.05446196 0.09247709 0.13676555
0.18126221 0.084164694 -0.1071657 0.124851115 -0.24359126 -0.050385077 0.032597385 -0.018208697
0.1072585 -0.09674747 -0.04696195 0.08885728 -0.03230999 0.032570478 -0.020798538 0.087839045
-0.0025859938 -0.07531216 -0.10725842 -0.0635339 -0.09178316 0.024714788 -0.008926702 -0.13029422
0.01385631 -0.14255297 0.096899495 -0.24744688 0.21627322 -0.1392522 0.11035019 0.07298777
0.0791982 0.112439014 -0.2779484 -0.17472424 0.09869087 -0.10325533 -0.09315314 -0.08020077
-0.0733131 0.050344016 -0.1281616 0.030495033 0.12263162 0.14924575 -0.13901848 -0.1773306
0.036106173 0.092039734 -0.072561696 0.07884894 -0.04136581 0.057016756 0.05392734 -0.06534995
0.009399044 -0.0634671 -0.024287213 0.012976208 -0.13166714 0.075779125 0.12245655 -0.044499703
0.020670757 -0.11271447 -0.12912974 -0.1630947 0.024277655 -0.11554859 -0.15369664 -0.04552951
-0.12955935 0.060607523 -0.086110756 0.28839976 -0.19000316 0.011066963 -0.16064982 -0.3100476
0.03569472 -0.10506004 0.0926825 -0.084356084 0.065580584 0.21169388 0.049355157 0.2543061
-0.064678 -0.17757754 -0.026138086 -0.092486076 0.031094281 -0.09256202 -0.042343676 0.08845116
0.0040211277 -0.023425182 0.094023705 -0.043920286 -0.10585771 0.082562536 0.08068432 0.0038560054
-0.09035823 -0.0008075522 0.05855887 -0.075742595 -0.1277905 -0.12938364 0.11576647 0.00051078753
0.18841623 0.23215461 0.124900036 -0.20119688 -0.09122596 -0.15881753 -0.13467486 -0.06971813
-0.19290355 -0.112957925 -0.18804367 0.08591877 -0.038297795 -0.08106823 0.109836526 -0.019032735
-0.059128966 0.113640815 -0.11102565 0.04668912 0.023786308 -0.09847427 -0.007768649 -0.07486821
-0.028414927 -0.082922064 -0.11785617 0.042092353 0.059520397 0.03135206 -0.08199266 0.11770609
-0.10915105 -0.12011154 -0.086065754 -0.0071040266 -0.11801272 0.019210676 -0.21837401 -0.07199728
-0.1394187 -0.21343593 -0.28547117 -0.11068812 0.13786258 -0.034076024 -0.040489376 0.12607357
0.054318003 -0.13780786 -0.22645883 -0.054777693 -0.14604071 0.083213955 -0.2560901 -0.16959698
0.06571431 0.03385739 0.07254243 0.00810218 -0.07618932 0.0831496 -0.012866098 0.09440106
-0.024054427 -0.021593675 -0.01799269 -0.07001926 0.01769414 0.03371275 -0.06014762 -0.0754941
0.101105295 -0.03059041 -0.03033341 -0.093329 0.116410814 0.124512404 0.025316987 0.17602888
0.12767185 0.25885883 -0.030045504 -0.10873891 -0.12348545 -0.09053315 0.02928811 -0.17465469
0.07910358 0.21723227 0.006760763 0.19604483 -0.11231324 0.14313376 0.11231745 -0.123727374
0.04363019 0.20532332 -0.11037565 -0.11887023 -0.12455809 0.1487118 0.10973303 0.062374312
0.035458483 -0.10792098 0.05407809 -0.041582298 0.06965052 -0.08694157 -0.06403646 0.08447661
0.04073181 -0.027577024 -0.07946792 -0.09283209 0.00092847936 -0.017104166 0.055373445 0.060408555
00000000: 7523 49be f321 883c a857 223d 20f0 d13c
00000010: 0f3a 363e 044a 1b3e 3224 76be f2fb 60be
00000020: bfba 3f3e 00d7 81be ebc9 893d a8cf 0f3e
00000030: d060 6c3e d4c4 303e c3d7 d6bd 94d4 f23d
00000040: f002 54bb 3728 9dbd ab8b 14be 133c 20bc
00000050: 497e 153e 8113 5fbd a164 bd3d 450c 0c3e
00000060: cd9c 393e 8a5e ac3d b179 dbbd f1b1 ff3d
00000070: fd6f 79be 9560 4ebd d684 053d 682a 95bc
00000080: 58aa db3d 8a23 c6bd 2c5b 40bd cefa b53d
00000090: 7b57 04bd 9f68 053d b261 aabc f5e4 b33d
000000a0: c779 29bb 433d 9abd 4daa dbbd 101e 82bd
000000b0: cff8 bbbd ab76 ca3c 4d41 12bc d96b 05be
000000c0: 9405 633c 68f9 11be 3e73 c63d b762 7dbe
000000d0: ba76 5d3e 2198 0ebe 48ff e13d 9d7a 953d
000000e0: aa32 a23d 6d46 e63d 414f 8ebe e9ea 32be
000000f0: 701e ca3d 8877 d3bd 13c7 bebd 4d40 a4bd
00000100: 2e25 96bd 8735 4e3d cb3c 03be b8d0 f93c
00000110: 4926 fb3d e1d3 183e dc5a 0ebe 2796 35be
00000120: 11e4 133d 547f bc3d 3a9b 94bd 8e7b a13d
00000130: 326f 29bd 678a 693d eae2 5c3d 32d6 85bd
00000140: 73fe 193c 0afb 81bd faf5 c6bc 299a 543c
00000150: c0d3 06be 1632 9b3d 80ca fa3d 5245 36bd
00000160: b855 a93c d8d6 e6bd 963a 04be 4c02 27be
00000170: efe1 c63c bda4 ecbd a762 1dbe 277d 3abd
00000180: 35ab 04be 983f 783d d65a b0bd 22a9 933e
00000190: 3090 42be 3552 353c 6381 24be 8fbe 9ebe
000001a0: a034 123d b829 d7bd 53d0 bd3d e2c2 acbd
000001b0: 1d4f 863d 48c6 583e a228 4a3d 6934 823e
000001c0: e675 84bd e3d6 35be 8a1f d6bc 5769 bdbd
000001d0: 6fb9 fe3c 2891 bdbd 9070 2dbd e225 b53d
000001e0: aac3 833b 2be6 bfbc 808f c03d c2e5 33bd
000001f0: edcb d8bd 8c16 a93d d23d a53d 09b5 7c3b
00000200: bc0d b9bd e9b1 53ba 6ddb 6f3d ef1e 9bbd
00000210: 83db 02be 257d 04be f916 ed3d 5fe6 053a
00000220: 2ff0 403e f0b9 6d3e 97cb ff3d 8e06 4ebe
00000230: add4 babd 10a1 22be 35e8 09be 61c8 8ebd
00000240: 8288 45be 7c56 e7bd 858e 40be 2ef6 af3d
00000250: 26de 1cbd 1a07 a6bd f9f1 e03d 8aea 9bbc
00000260: 3731 72bd 84bc e83d 6a61 e3bd 173d 3f3d
00000270: 81db c23c e1ac c9bd 2790 febb 8154 99bd
00000280: 6cc6 e8bc 0bd3 a9bd 935e f1bd 0869 2c3d
00000290: a9cb 733d 056b 003d c5eb a7bd e40f f13d
000002a0: 968a dfbd 0afd f5bd 3e43 b0bd e5c8 e8bb
000002b0: a7b0 f1bd b55f 9d3c 709d 5fbe 4f73 93bd
000002c0: c7c3 0ebe f38e 5abe 4729 92be 74b0 e2bd
000002d0: d92b 0d3e 4d93 0bbd 30d8 25bd 6e19 013e
000002e0: 8e7c 5e3d 811d 0dbe d3e4 67be 935e 60bd
000002f0: b28b 15be 146c aa3d 3e1e 83be d5aa 2dbe
00000300: 3995 863d 0cae 0a3d 2091 943d 02bf 043c
00000310: 2509 9cbd 564a aa3d 54cc 52bc 5855 c13d
00000320: ca0d c5bc 38e5 b0bc 6865 93bc 4266 8fbd
00000330: 4df3 903c 6116 0a3d 5a5d 76bd a79c 9abd
00000340: 4b10 cf3d bd98 fabc c57d f8bc 4623 bfbd
00000350: cb68 ee3d 5c00 ff3d 9265 cf3c ea40 343e
00000360: 69bc 023e 2589 843e fd21 f6bc 81b2 debd
00000370: f1e5 fcbd 7269 b9bd 9eed ef3c aed8 32be
00000380: 0f01 a23d 2372 5e3e 6489 dd3b fabf 483e
00000390: 7c04 e6bd a891 123e b106 e63d c764 fdbd
000003a0: 92b5 323d 4740 523e a10c e2bd 3c72 f3bd
000003b0: 5018 ffbd e847 183e b6bb e03d 357c 7f3d
000003c0: ea3c 113d ad05 ddbd fd80 5d3d 3352 2abd
000003d0: efa4 8e3d 6c0e b2bd 8c25 83bd 1302 ad3d
000003e0: 66d6 263d 36e9 e1bc 14c0 a2bd c01e bebd
000003f0: 3265 733a 091e 8cbc 44cf 623d f66e 773d

bias f4 [512]
0.10179608 -0.17816046 -0.03304921 -0.008965484 -0.113166824 0.12171882 -0.0744043 0.1174392
0.04703035 -0.0100684455 -0.005054422 0.056269843 -0.0070082853 0.04418825 0.12532705 -0.13382381
-0.0010235743 0.03973266 -0.031519424 -0.010511171 -0.03991284 0.053299557 -0.0816174 -0.058311485
0.123405844 0.09685275 -0.15890855 -0.017481819 0.09570279 -0.07537715 -0.07365115 0.10437527
-0.05240934 0.027831387 0.074572586 -0.03551102 -0.043428995 -0.0140094645 -0.070653364 0.09948167
-0.08766285 0.018095503 0.121509485 0.058713015 -0.015999537 0.06539574 0.015908418 0.065026216
0.028532583 0.00043721788 -0.050309118 -0.0681094 -0.04301572 0.039295487 0.022864671 -0.09068936
0.027376292 0.03278902 0.11890771 0.1259247 0.029461358 0.08728487 -0.037018932 -0.07999448
-0.055436097 -0.14373837 0.07188315 -0.0058831456 0.05466128 0.05884326 -0.107624695 0.11558783
0.10083567 -0.12891465 -0.014600413 -0.10458606 0.03986634 0.0498188 0.03600376 0.025059098
-0.1368284 0.106972784 0.0404332 0.010511497 0.08245592 -0.04495997 -0.090195775 -0.06649102
0.007346397 -0.08071725 -0.12905504 -0.013354762 0.017899381 -0.008055958 -0.13453098 -0.110556096
-0.15819877 -0.0027911065 0.028829532 0.1161031 -0.05835335 -0.1196164 0.05290399 -0.12438072
0.06987624 0.14166784 -0.053436294 -0.06007698 -0.15191236 -0.092148215 0.11391581 -0.014800824
0.053901993 0.14164728 -0.011140025 0.030577168 -0.12857367 0.034750573 0.092913024 -0.062398158
0.034932476 -0.005234323 0.18911842 -0.031796996 0.08450693 -0.0565427 -0.00086885045 -0.065610625
0.025524486 -0.10556637 0.046942364 -0.06536027 -0.015796386 -0.16303097 -0.027079297 -0.063454926
0.10564256 -0.012367759 -0.111847885 -0.03035405 -0.106509924 -0.041854203 0.13313337 -0.13218163
-0.04559533 -0.09459001 -0.06395915 0.076344416 -0.12231766 -0.13108313 -0.055733893 -0.07512632
0.17053312 -0.024560584 0.08107097 -0.022823123 0.09126284 0.13928305 -0.024781676 -0.08883671
0.08705066 -0.14946572 -0.04286003 -0.08929201 0.05430671 -0.0569899 -0.11401714 0.11676559
0.024831537 -0.10175944 0.023207007 -0.028451024 -0.11312482 -0.016600417 0.06404298 -0.008420349
-0.015065875 0.09317571 0.03522081 0.15234114 -0.012667452 0.04288852 -0.08759876 0.14406113
0.06131815 0.035489246 0.07005521 -0.08588113 -0.09269492 -0.07196063 -0.13847037 0.07033811
0.06384906 -0.073615424 0.08270599 0.061989814 0.049687363 0.10445605 0.053961996 0.16538014
0.05912112 0.05246653 0.10410208 0.008116339 -0.14708897 0.11926845 0.107006796 0.1030034
0.13681124 0.057025693 -0.070953 0.017762827 -0.11356391 0.100483306 0.17145766 0.06914219
-0.109089844 0.13683772 -0.024855282 0.012476538 0.09927644 0.101292975 -0.001321666 0.00424608
-0.12826917 0.00061393273 -0.0019974052 -0.042545523 0.11878241 0.09987619 0.035723668 -0.02659561
-0.10227318 -0.049001485 -0.018806525 0.077076845 -0.037076272 -0.0648362 0.040194094 0.0018138133
0.06320971 0.09162141 0.13523863 0.07097709 -0.023966935 0.0748237 0.00035172695 0.0745805
-0.11065776 0.026597785 -0.07398695 -0.057731133 0.011979201 -0.14105798 -0.07530284 -0.05453095
00000000: 777a d03d b26f 36be 9c5e 07bd f7e3 12bc
00000010: 02c4 e7bd b747 f93d 4861 98bd f783 f03d
00000020: e5a2 403d 1ff6 24bc 919f a5bb 357b 663d
00000030: c2a5 e5bb bdfe 343d bc55 003e 1c09 09be
00000040: 7429 86ba b7be 223d 831a 01bd 0c37 2cbc
00000050: a57b 23bd a350 5a3d 0627 a7bd 06d8 6ebd
00000060: 34bc fc3d bc5a c63d ecb8 22be 0836 8fbc
00000070: d3ff c33d 565f 9abd 6ad6 96bd b4c2 d53d
00000080: 2dab 56bd a6fe e33c 83b9 983d 0174 11bd
00000090: 9ae2 31bd f487 65bc b6b2 90bd 0cbd cb3d
000000a0: 9588 b3bd 053d 943c f7d9 f83d 0f7d 703d
000000b0: 7611 83bc 34ee 853d 5f52 823c 772c 853d
000000c0: 2abd e93c 643a e539 ef10 4ebd f17c 8bbd
000000d0: 4031 30bd 4ef4 203d b14e bb3c 58bb b9bd
000000e0: 3f44 e03c c84d 063d e385 f33d 68f2 003e
000000f0: f258 f13c 69c2 b23d 2aa1 17bd 25d4 a3bd
00000100: f610 63bd 2730 13be 7937 933d 67c7 c0bb
00000110: 82e4 5f3d a105 713d 566a dcbd 50b9 ec3d
00000120: ef82 ce3d 3402 04be 9236 6fbc 3731 d6bd
00000130: e34a 233d cc0e 4c3d ae78 133d bd48 cd3c
00000140: be1c 0cbe 8c14 db3d 489d 253d 6a38 2c3c
00000150: a6de a83d f227 38bd 90b8 b8bd 722c 88bd
00000160: 0bba f03b 164f a5bd 0127 04be efcd 5abc
00000170: b9a1 923c 23fd 03bc 7dc2 09be 3c6b e2bd
00000180: dcfe 21be ffea 36bb e92b ec3c 76c7 ed3d
00000190: ec03 6fbd 71f9 f4bd dbb1 583d 52bb febd
000001a0: 461b 8f3d 6011 113e 04e0 5abd 4813 76bd
000001b0: ea8e 1bbe 34b8 bcbd b14c e93d 287f 72bc
000001c0: 56c8 5c3d fc0b 113e a784 36bc f87c fa3c
000001d0: d1a8 03be 9e56 0e3d 2f49 be3d 3695 7fbd
000001e0: 5b15 0f3d af84 abbb 42a8 413e 913d 02bd
000001f0: f811 ad3d 5199 67bd 91c3 63ba dd5e 86bd
00000200: ba18 d13c 2e33 d8bd a346 403d 9bdb 85bd
00000210: 6c67 81bc 97f1 26be 67d5 ddbc a8f4 81bd
00000220: 205b d83d 24a2 4abc 8110 e5bd 0fa9 f8bc
00000230: e021 dabd 506f 2bbd 1d54 083e 9f5a 07be
00000240: 2bc2 3abd 68b8 c1bd 04fd 82bd 765a 9c3d
00000250: ae81 fabd a83a 06be 3949 64bd d4db 99bd
00000260: 3ca0 2e3e 4733 c9bc 8908 a63d 8ff7 babc
00000270: 03e8 ba3d 37a0 0e3e f102 cbbc 05f0 b5bd
00000280: 9e47 b23d 8b0d 19be 008e 2fbd bbde b6bd
00000290: b670 5e3d 3e6e 69bd d181 e9bd cc22 ef3d
000002a0: 826b cb3c 4167 d0bd 9f1c be3c 1f12 e9bc
000002b0: fcad e7bd 99fd 87bc f728 833d 81f5 09bc
000002c0: dcd6 76bc e8d2 be3d b243 103d 51ff 1b3e
000002d0: 258b 4fbc dfab 2f3d fb66 b3bd c384 133e
000002e0: be28 7b3d 2c5d 113d 1b79 8f3d 72e2 afbd
000002f0: d6d6 bdbd 1860 93bd 2dcb 0dbe 6d0d 903d
00000300: 4cc3 823d afc3 96bd c261 a93d 08e9 7d3d
00000310: fa84 4b3d 0eed d53d 4107 5d3d 6959 293e
00000320: fd28 723d 25e7 563d 7933 d53d 65fa 043c
00000330: 7e9e 16be 0443 f43d 6126 db3d 72f3 d23d
00000340: 3f18 0c3e c693 693d ce4f 91bd 5983 913c
00000350: 3294 e8bd 31ca cd3d 9992 2f3e 6c9a 8d3d
00000360: 7f6a dfbd 301f 0c3e 4e9d cbbc 656a 4c3c
00000370: 7251 cb3d b172 cf3d c03b adba b322 8b3b
00000380: fe58 03be 54f0 203a e6e6 02bb 3744 2ebd
00000390: 3144 f33d e38b cc3d fb52 123d 09df d9bc
000003a0: 9a74 d1bd c8b5 48bd 2410 9abc 77da 9d3d
000003b0: 4add 17bd d7c8 84bd 90a2 243d 7abd ed3a
000003c0: 1874 813d 01a4 bb3d ff7b 0a3e 705c 913d
000003d0: 4e56 c4bc 2b3d 993d fe67 b839 a9bd 983d
000003e0: 89a0 e2bd 99e3 d93c 7886 97bd 7b77 6cbd
000003f0: 6944 443c 8171 10be 6038 9abd d85b 5fbd

weight f4 [256, 512]
-0.085099645 0.038370505 -0.026454614 -0.09121681 0.07295185 -0.06732687 -0.07046768 -0.030204538
-0.011449407 0.0026641798 0.012050752 -0.07547101 -0.023663282 -0.07562176 -0.056830283 0.03648311
0.07801342 0.024925197 -0.022500526 -0.10937164 -0.11834551 -0.10537074 0.018974947 -0.09168733
0.0063351085 0.046205427 -0.033848714 -0.010295597 -0.011921564 0.10522472 0.02006094 0.0082029
0.037271906 -0.038272996 -0.021009358 0.024703206 0.028020823 0.021652788 -0.06114202 -0.031047152
0.019875336 -0.07013783 0.038022917 0.06855017 -0.01777433 -0.0016257559 -0.0037251262 -0.07597327
-0.09532112 0.016249083 -0.04694922 0.055355787 -0.0037666229 -0.032239787 -0.08691555 0.092451304
0.0020006108 0.053101573 0.062319826 0.008554068 -0.03938652 -0.03619764 -0.048250098 0.080618195
0.015770994 0.09029662 -0.15083502 -0.036067694 0.055667628 0.026927812 -0.05368075 -0.046664942
0.013033894 0.023272015 -0.0045583337 0.024748601 -0.023698283 -0.059024964 -0.06526862 0.10582237
0.041502904 -0.09733671 0.042114906 -0.05228868 0.0060372935 0.01044972 0.0039309505 0.14189814
-0.01627682 0.027468972 0.009411298 0.0117303785 -0.05878354 0.06608744 0.022164883 0.10000528
0.03099085 0.029550336 -0.08681077 0.079340115 0.020225493 -0.008001949 0.05591578 0.07672101
-0.031657144 0.051197194 0.023591371 0.04229114 -0.027284287 0.07621842 0.01935301 0.016679497
-0.03425283 -0.0036444734 0.059258565 -0.04638684 0.04741901 0.039021283 0.04995469 0.050343845
-0.04936976 0.05707296 -0.15717493 0.06384042 -0.049408138 0.001212965 0.0067814407 0.018892499
-0.015043609 -0.04174405 0.025363857 0.08066551 0.020836137 0.10949382 -0.0029057274 0.022261905
0.0073091527 -0.010153585 -0.009270027 -0.04264624 0.08569053 0.06816586 -0.051975828 0.07950099
0.03947302 0.03830045 -0.003367503 0.014630998 0.03608823 0.0041796085 0.0023143014 0.00781291
-0.047278643 -0.05872193 0.04096069 0.0069676153 -0.09573588 0.014991542 -0.029137429 0.04359126
-0.08593535 0.057209708 -0.04199105 0.0014222272 0.026571484 -0.03568164 0.014989302 0.02066898
0.010122845 -0.04093271 -0.027050294 0.037442286 -0.011938374 -0.024127088 -0.023140626 -0.008470243
0.040061094 -0.025559595 0.015305162 -0.03608595 -0.009894525 -0.031497307 -0.044041585 -0.06872859
-0.08254716 -0.025820136 -0.02693595 -0.010096657 0.011402195 -0.021446202 -0.023056244 0.05248387
-0.010833009 0.017171796 -0.034727763 -0.023084646 -0.045508847 0.07702207 -0.015718913 0.0024879766
-0.0022028587 0.07934713 0.019958248 -0.023666533 0.04005561 0.005738215 0.00071769406 -0.06807221
0.0856289 -0.009393271 0.07230601 0.004480014 0.058746856 0.06514029 0.019843673 -0.0114951
0.00087790727 -0.081574515 -0.004146807 0.011241545 -0.037455402 -0.065059505 -0.034265246 -0.046938322
-0.00401972 0.075292155 0.0016940932 0.03672106 -0.08618174 0.0077230716 0.030043948 0.043959137
-0.020135188 0.041576482 0.104764074 -0.078909345 0.114949994 0.0054747555 -0.056422055 0.031074967
-0.048977528 0.111506246 0.018895283 -0.03449837 0.04832695 0.053612154 0.07719131 0.020411188
0.068024755 0.0450334 0.03913211 0.04277894 -0.04640058 0.07787679 -0.0055706585 -0.030678216
00000000: b948 aebd 642a 1d3d 59b7 d8bc e1cf babd
00000010: c867 953d ace2 89bd 5c51 90bd 826f f7bc
00000020: 4b96 3bbc 8599 2e3b 8470 453c 8b90 9abd
00000030: 80d9 c1bc 95df 9abd dfc6 68bd 506f 153d
00000040: 80c5 9f3d ed2f cc3c 0653 b8bc 3dfe dfbd
00000050: 215f f2bd 9dcc d7bd 5971 9b3c 91c6 bbbd
00000060: be96 cf3b e741 3d3d f3a4 0abd ddae 28bc
00000070: aa52 43bc 0f80 d73d d756 a43c 7565 063c
00000080: 6daa 183d 25c4 1cbd d11b acbc 615e ca3c
00000090: ed8b e53c 3061 b13c 0e70 7abd 9956 febc
000000a0: 9ad1 a23c 6ca4 8fbd ebbd 1b3d 0864 8c3d
000000b0: 799b 91bc 5117 d5ba 3f21 74bb e097 9bbd
000000c0: b837 c3bd cc1c 853c d34d 40bd c0bc 623d
000000d0: 72d9 76bb de0d 04bd c800 b2bd 1c57 bd3d
000000e0: ae1c 033b 0981 593d 1343 7f3d 5d26 0c3c
000000f0: c253 21bd fa43 14bd e5a1 45bd 271b a53d
00000100: 2c32 813c 6fed b83d 7f74 1abe b8bb 13bd
00000110: bd03 643d b797 dc3c 59e0 5bbd bd23 3fbd
00000120: 1d8c 553c f4a4 be3c 135e 95bb 94bd ca3c
00000130: e722 c2bc 29c4 71bd 8eab 85bd 66b9 d83d
00000140: f3fe 293d 7858 c7bd ae80 2c3d a82c 56bd
00000150: 7dd4 c53b 4d35 2b3c 34cf 803b bf4d 113e
00000160: f756 85bc 9c06 e13c d831 1a3c c630 403c
00000170: 02c7 70bd da58 873d 2193 b53c 91cf cc3d
00000180: 86e0 fd3c 8c13 f23c d8c9 b1bd 127d a23d
00000190: efaf a53c 9b1a 03bc f207 653d e81f 9d3d
000001a0: ecaa 01bd 26b4 513d b142 c13c 7939 2d3d
000001b0: 4c83 dfbc 6718 9c3d 348a 9e3c 71a3 883c
000001c0: b24c 0cbd 1ed8 6ebb 1cb9 723d 2100 3ebd
000001d0: 703a 423d c8d4 1f3d 4a9d 4c3d 5935 4e3d
000001e0: f237 4abd 56c5 693d 77f2 20be c4be 823d
000001f0: 3060 4abd 5afc 9e3a d936 de3b 71c4 9a3c
00000200: 7879 76bc cffb 2abd ddc7 cf3c f533 a53d
00000210: 8cb0 aa3c 4c3e e03d 046e 3ebb 995e b63c
00000220: 9e81 ef3b 395b 26bc 50e1 17bc d3ad 2ebd
00000230: 847e af3d 8b9a 8b3d 9be4 54bd 6ad1 a23d
00000240: 76ae 213d efe0 1c3d 53b1 5cbb dab6 6f3c
00000250: 40d1 133d 19f5 883b 89ab 173b b801 003c
00000260: 40a7 41bd 6886 70bd 65c6 273d 9850 e43b
00000270: 2c11 c4bd 169f 753c 9eb1 eebc c08c 323d
00000280: dffe afbd ba54 6a3d cffe 2bbd 076a ba3a
00000290: 71ac d93c e926 12bd b095 753c fe51 a93c
000002a0: 4ada 253c 0fa9 27bd 9498 ddbc 155d 193d
000002b0: 2b99 43bc 2ca6 c5bc 6991 bdbc c6c6 0abc
000002c0: 1a17 243d 5b62 d1bc 81c2 7a3c dcce 13bd
000002d0: a51c 22bc 5203 01bd f364 34bd 93c1 8cbd
000002e0: 7c0e a9bd c084 d3bc c8a8 dcbc 736c 25bc
000002f0: 46d0 3a3c f2af afbc 73e0 bcbc 54f9 563d
00000300: ef7c 31bc deab 8c3c b33e 0ebd 031c bdbc
00000310: 7c67 3abd bfbd 9d3d f3c4 80bc 520d 233b
00000320: d65d 10bb c080 a23d 7b7f a33c 51e0 c1bc
00000330: 5a11 243d a307 bc3b a223 3c3a 7169 8bbd
00000340: 345e af3d 3ce6 19bc 2c15 943d 15cd 923b
00000350: 8ba0 703d 4668 853d 338f a23c f255 3cbc
00000360: 5c23 663a 8a10 a7bd f0e1 87bb 752e 383c
00000370: d66a 19bd eb3d 85bd b759 0cbd 6642 40bd
00000380: dbb7 83bb c632 9a3d 560c de3a d268 163d
00000390: 0d80 b0bd d211 fd3b ba1e f63c 7f0e 343d
000003a0: 8df2 a4bc 1a4c 2a3d 8c8e d63d 399b a1bd
000003b0: e76a eb3d 9465 b33b d01a 67bd ee90 fe3c
000003c0: a99c 48bd 635d e43d 48ca 9a3c 2a4e 0dbd
000003d0: 7bf2 453d 6b98 5b3d 7a16 9e3d 5d35 a73c
000003e0: 9050 8b3d f174 383d fe48 203d f838 2f3d
000003f0: 890e 3ebd de7d 9f3d 128a b6bb e250 fbbc

bias f4 [256]
-0.00795069 -0.0079920115 0.008139989 -0.02569564 -0.008298152 -0.0139122205 0.006436586 0.046537153
-0.01926618 -0.019471362 -0.0106713 0.013198964 -0.00057520356 -0.0139764 0.039617985 0.0044878055
0.04781229 0.043881916 -0.02956463 -0.0036273082 0.002317444 0.00839866 0.06583596 0.02481573
0.030158903 -0.09025935 -0.055924874 -0.032909464 -0.029293574 -0.027250357 0.0274148 -0.06461835
-0.04225665 0.034122534 -0.00905978 -0.045319293 0.004912668 0.002534569 -0.0465344 -0.06265664
-0.021902347 -0.07760443 -0.039119404 -0.037868097 -0.03131788 0.020833615 0.009760277 0.016537342
-0.024024861 -0.023529675 -0.05147141 0.017732432 -0.038113594 -0.042216737 -0.05921932 -0.023332868
-0.037981987 0.012304678 -0.010418947 -0.0063627157 -0.05205272 0.001110621 -0.003564994 0.028855624
-0.0464761 -0.053368364 -0.04650878 -0.011084676 -0.007400221 -0.053804178 -0.01208315 0.029191114
-0.11766463 0.019345796 0.0105003435 -0.023216337 0.019932168 -0.03278918 0.008370214 -0.06043176
0.0028014048 -0.038366288 -0.027667187 0.05660113 -0.035786968 -0.0128294295 -0.01806521 0.0011522092
0.03099222 -0.045184467 -0.0029845077 -0.013270594 0.011369705 0.00044382008 -0.007815141 0.015370804
-0.024660071 0.0329585 -0.02652912 0.017565986 0.0026135088 0.02168731 -0.032517813 -0.068453625
-0.08040262 -0.023056291 0.0015593468 -0.031907715 -0.031633012 -0.009000199 0.018684503 -0.053457897
-0.099547535 -0.037608992 0.030290246 0.040926136 -0.028276656 0.010252639 -0.019067857 0.0007694374
0.010469334 0.03207276 -0.00617085 -0.031276267 0.029099481 -0.027098643 -0.028372819 -0.004511932
-0.03089918 0.0050705583 -0.044645213 0.0029512367 -0.020179607 -0.065190725 -0.025971863 0.053544063
-0.026331386 -0.034455907 0.009745357 0.010716893 -0.005621059 0.011568867 -0.0066099446 -0.0013159355
0.017663447 -0.018455558 0.012146671 -0.050407317 -0.028230075 -0.03954637 0.029209204 0.010482229
-0.002496483 -0.006350749 -0.0030936098 -0.00904076 -0.04651951 -0.0101946695 -0.05339974 -0.001982718
-0.0038554154 -0.018731209 0.0042826757 -0.06067474 -0.03516173 -0.033032503 0.01581466 -0.0010127841
-0.011466705 0.011943721 0.015956031 -0.035170995 -0.05571981 -0.06886489 -0.027005278 -0.0059228456
-0.03886693 -0.0036815382 -0.003979468 0.00245715 -0.008307253 -0.010990899 0.061252348 -0.00024804377
0.018719433 -0.0053581046 -0.008501078 -0.025004314 -0.0118402755 -0.019514618 0.046169866 -0.049548812
-0.06421516 -0.008219107 -0.017792074 -0.017830476 -0.057789233 0.0046996437 -0.016148381 0.016663551
-0.049276207 -0.0079354355 0.010392408 0.012748486 0.064716354 -0.051262602 -0.022486312 -0.007973503
-0.009033867 -0.059851177 -0.025895035 -0.003535943 -0.04496171 -0.03016973 0.029975729 -0.023671078
0.0001616746 -0.062147662 -0.015003772 -0.039662264 0.068617865 -0.023621531 -0.057574484 -0.038860828
-0.03710414 0.03920549 -0.033560995 -0.018237745 -0.005779665 -0.049169682 0.029336112 -0.1036656
-0.0014526538 0.050249565 -0.009360017 -0.02056386 0.05938098 0.040143345 -0.008952083 -0.0026326948
0.048725538 0.04779419 -0.00426026 -0.058042224 -0.020992966 0.00044980913 -0.018790651 -0.014582943
0.018139664 -0.04196437 0.008918725 0.008063696 -0.044975866 -0.031187499 0.06306139 0.040039863
00000000: 9c43 02bc edf0 02bc 975d 053c aa7f d2bc
00000010: f9f4 07bc 15f0 63bc ffe9 d23b be9d 3e3d
00000020: 1cd4 9dbc 6882 9fbc add6 2ebc 7840 583c
00000030: 42c9 16ba 45fd 64bc 7846 223d 710e 933b
00000040: d2d6 433d 86bd 333d 8631 f2bc 22b8 6dbb
00000050: 42e0 173b 899a 093c 01d5 863d 5c4a cb3c
00000060: ce0f f73c e5d9 b8bd 7b11 65bd 13cc 06bd
00000070: 14f9 efbc 243c dfbc 0195 e03c a056 84bd
00000080: 4f15 2dbd 12c4 0b3d 796f 14bc b9a0 39bd
00000090: 72fa a03b 031b 263b db9a 3ebd 2052 80bd
000000a0: 8d6c b3bc 12ef 9ebd ab3b 20bd 941b 1bbd
000000b0: 2d47 00bd 42ab aa3c 92e9 1f3c 5279 873c
000000c0: c9cf c4bc 4ec1 c0bc afd3 52bd 9b43 913c
000000d0: 001d 1cbd 75eb 2cbd f58f 72bd 9224 bfbc
000000e0: 0093 1bbd 8f99 493c 3bb4 2abc 547e d0bb
000000f0: 3c35 55bd 4292 913a ada2 69bb a162 ec3c
00000100: b95d 3ebd c998 5abd fe7f 3ebd 809c 35bc
00000110: 8e7d f2bb c561 5cbd 68f8 45bc 3422 ef3c
00000120: 27fa f0bd 137b 9e3c a209 2c3c 3030 bebc
00000130: c948 a33c f24d 06bd 3923 093c 4b87 77bd
00000140: c697 373b f825 1dbd 4ca6 e2bc 96d6 673d
00000150: 5b95 12bd 8732 52bc 7efd 93bc ba05 973a
00000160: 65e3 fd3c 5913 39bd bb97 43bb e86c 59bc
00000170: 0048 3a3c 86b0 e839 140b 00bc d3d5 7b3c
00000180: eb03 cabc 7eff 063d 9953 d9bc 8be6 8f3c
00000190: 6747 2b3b 96a9 b13c 6631 05bd 6a31 8cbd
000001a0: 21aa a4bd 8ce0 bcbc ff62 cc3a aab1 02bd
000001b0: 9e91 01bd 9275 13bc 3e10 993c abf6 5abd
000001c0: 94df cbbd e30b 1abd 4023 f83c 2aa2 273d
000001d0: 72a4 e7bc affa 273c 3234 9cbc 12b4 493a
000001e0: 9287 2b3c ba5e 033d d734 cabb 8b1b 00bd
000001f0: 0962 ee3c f9fd ddbc 1d6e e8bc d4d8 93bb
00000200: 4720 fdbc ed26 a63b e6dd 36bd 8969 413b
00000210: b44f a5bc b782 85bd f2c2 d4bc 0551 5b3d
00000220: ebb4 d7bc a321 0dbd fdaa 1f3c e895 2f3c
00000230: dc30 b8bb 588b 3d3c 3c98 d8bb 787b acba
00000240: efb2 903c 1c30 97bc d502 473c e777 4ebd
00000250: c242 e7bc 60fb 21bd 2448 ef3c a8bd 2b3c
00000260: 099c 23bb f219 d0bb 29be 4abb b21f 14bc
00000270: 3e8b 3ebd 8b07 27bc b0b9 5abd 7df0 01bb
00000280: 23ab 7cbb 3172 99bc b055 8c3b 1386 78bd
00000290: bf05 10bd 174d 07bd bf8d 813c 65bf 84ba
000002a0: d9de 3bbc 99af 433c 39b6 823c 760f 10bd
000002b0: 753a 64bd 0909 8dbd 2c3a ddbc 6e14 c2bb
000002c0: ee32 1fbd f645 71bb 3266 82bb 2308 213b
000002d0: 251b 08bc 2c13 34bc bee3 7a3d df0b 82b9
000002e0: 7f59 993c 0a93 afbb 1b48 0bbc d9d5 ccbc
000002f0: b7fd 41bc 1fdd 9fbc 9d1c 3d3d b2f3 4abd
00000300: 3d83 83bd 6fa9 06bc afc0 91bc 3811 92bc
00000310: 67b4 6cbd 78ff 993b 9c49 84bc 0082 883c
00000320: d9d5 49bd a103 02bc eb44 2a3c 07df 503c
00000330: 028a 843d bcf8 51bd 3735 b8bc 4ca3 02bc
00000340: c902 14bc 8226 75bd d321 d4bc 48bb 67bb
00000350: c529 38bd 8226 f7bc a98f f53c d9e9 c1bc
00000360: 3287 2939 8c8e 7ebd 62d2 75bc e674 22bd
00000370: 8687 8c3d f181 c1bc 39d3 6bbd 882c 1fbd
00000380: 83fa 17bd f095 203d 4177 09bd 5367 95bc
00000390: 5863 bdbb 2666 49bd 4952 f03c a14e d4bd
000003a0: f966 beba 7dd2 4d3d c25a 19bc 8a75 a8bc
000003b0: 7839 733d 596d 243d c2ab 12bc 4a89 2cbb
000003c0: 6e94 473d d7c3 433d a799 8bbb afbd 6dbd
000003d0: 71f9 abbc 5cd4 eb39 daee 99bc 4ced 6ebc
000003e0: a299 943c d5e2 2bbd d81f 123c 981d 043c
000003f0: 9d38 38bd ed7c ffbc 5426 813d d700 243d

weight f4 [128, 256]
-0.051513623 0.013433913 -0.088176124 0.12885803 -0.038529694 0.120474316 -0.08254927 -0.045207854
-0.15178381 0.06816646 0.14351024 0.048193622 -0.11288561 -0.010835972 -0.1491281 0.07665591
0.06975331 -0.06821336 -0.06320353 0.14008029 0.056836553 0.0469337 0.08534352 0.049116917
-0.040083554 0.16027549 0.035618868 0.10988643 0.09692762 0.07054118 -0.13479981 -0.0062484057
-0.024753733 0.14347386 -0.07449038 -0.038382713 -0.11829848 0.13198729 -0.04891698 0.022073146
-0.022160223 0.06499399 0.054529797 0.0030762702 -0.08880875 -0.07770063 0.07250761 0.100192495
0.11325793 -0.049800485 -0.084573664 0.1559585 0.0529574 0.06261523 0.08871417 0.073000066
-0.0004054263 0.06358569 -0.073338166 -0.0269062 -0.03585238 0.10179981 0.03529308 0.10593421
0.25725198 0.15882933 -0.09521069 0.06419678 0.10094061 0.14377847 0.051146004 -0.120058365
0.18207449 0.08718374 0.010662479 0.06769599 0.017455095 -0.064807065 -0.011367018 -0.08940761
0.016840693 -0.066941604 0.083014704 -0.068425 0.108509034 0.010791933 -0.048759237 -0.13632756
-0.055935636 0.0035125907 -0.10353681 -0.049626496 0.13711998 0.0635175 0.06245794 -0.09230359
-0.05523487 0.041865986 0.061152287 0.08161946 -0.041692115 0.03224375 0.008428921 0.0307876
0.06142403 -0.077170655 0.033729993 0.09291107 0.046420537 0.004329849 0.009028764 0.07580125
0.08335563 -0.044952787 -0.016038336 -0.08702546 -0.012534646 0.01914159 -0.017338688 -0.0069381995
-0.11848316 0.09876724 0.1446588 -0.06303543 0.026503729 0.00436832 0.07628192 -0.0102565065
0.12039577 -0.018795636 0.0005214363 0.02865013 -0.13389273 0.12912162 0.011913364 -0.09789471
-0.038725477 0.040116116 0.077459745 -0.094502784 0.17149936 -0.008910317 0.08067817 0.057659928
-0.08437104 0.048449483 -0.008052065 0.018978061 -0.07679028 -0.07257922 -0.043441694 -0.022425381
0.083472334 -0.1010067 0.0014213962 -0.023934694 -0.06058031 0.19101281 -0.02342608 0.047048107
0.09106854 -0.018392298 0.00032420957 0.04072782 0.083894186 0.06460592 0.029350273 0.063042305
-0.11500739 0.017411888 0.061033938 0.14671625 -0.030624935 -0.0025635674 0.020351512 0.077354014
0.032815177 0.06607786 0.05114358 -0.020524703 0.11269571 0.014035537 -0.05309151 -0.057808284
0.036895663 0.09684691 0.06380549 0.032262363 -0.05154999 -0.09293578 -0.11072718 -0.05102091
0.101746224 0.11063322 0.013058789 -0.0109405825 -0.0075630313 -0.0053722654 0.03627751 -0.06965437
0.10481484 0.026332825 0.0066240774 0.07116168 0.09681027 0.035382498 0.025711348 -0.06808224
-0.017239505 0.09036802 -0.031214716 0.029514018 0.0858594 0.052889466 -0.059987985 0.12402774
0.1066231 0.047451895 0.03411283 -0.034227278 -0.013759757 0.20669475 0.09135069 0.057916626
0.20835103 -0.14314258 0.07593282 0.10545677 0.011344685 0.079764836 0.07335187 0.07503848
0.09599779 0.14895655 -0.094694674 -0.049810976 0.10761385 -0.05096277 -0.08085966 0.026685487
0.13185085 0.06545699 4.5985533e-05 0.09104288 -0.081775725 0.010930285 -0.06559164 0.007965376
0.05027908 -0.02361793 0.021141328 0.06277178 0.061011374 -0.02421523 -0.1301667 -0.080647744
00000000: f3ff 52bd ea19 5c3c af95 b4bd 5cf3 033e
00000010: 50d1 1dbd 3dbb f63d 970f a9bd df2b 39bd
00000020: 376d 1bbe db9a 8b3d 59f4 123e ad66 453d
00000030: 9230 e7bd 5c89 31bc 09b5 18be c6fd 9c3d
00000040: d3da 8e3d 72b3 8bbd da70 81bd 3571 0f3e
00000050: 72cd 683d 8d3d 403d 95c8 ae3d d22e 493d
00000060: a72e 24bd 421f 243e 17e5 113d 230c e13d
00000070: fd81 c63d e577 903d f608 0abe 6dbf ccbb
00000080: 57c8 cabc d0ea 123e 6a8e 98bd 3137 1dbd
00000090: 7946 f2bd ad27 073e 2c5d 48bd bed2 b43c
000000a0: 5b89 b5bc 921b 853d a35a 5f3d 409b 493b
000000b0: 5de1 b5bd 8221 9fbd df7e 943d b931 cd3d
000000c0: c6f3 e73d 98fb 4bbd f534 adbd 96b3 1f3e
000000d0: dce9 583d 6a3c 803d c6af b53d 0f81 953d
000000e0: 668f d4b9 3739 823d 5232 96bd 646a dcbc
000000f0: f2d9 12bd 6b7c d03d 7a8f 103d 09f4 d83d
00000100: 88b6 833e 28a4 223e d2fd c2bd 9a79 833d
00000110: f3b9 ce3d aa3a 133e 797e 513d 29e1 f5bd
00000120: bc71 3a3e 648d b23d aeb1 2e3c 32a4 8a3d
00000130: fdfd 8e3c 91b9 84bd bb3c 3abc 561b b7bd
00000140: 7ef5 893c ae18 89bd 9d03 aa3d 6822 8cbd
00000150: fc39 de3d a6d0 303c c4b7 47bd 7499 0bbe
00000160: c41c 65bd 7e33 663b 1b0b d4bd 2745 4bbd
00000170: 2e69 0c3e 7715 823d e6d3 7f3d aa09 bdbd
00000180: f63d 62bd ab7b 2b3d d27a 7a3d 1a28 a73d
00000190: 5ac5 2abd 0612 043d 7519 0a3c 4736 fc3c
000001a0: c497 7b3d a60b 9ebd 7628 0a3d 2948 be3d
000001b0: 7623 3e3d 68e1 8d3b 62ed 133c b03d 9b3d
000001c0: 5bb6 aa3d 6a20 38bd d462 83bc 683a b2bd
000001d0: 1e5e 4dbc d3ce 9c3c dd09 8ebc d659 e3bb
000001e0: 4da7 f2bd 7b46 ca3d 7021 143e b818 81bd
000001f0: 591e d93c 2024 8f3b b239 9c3d e80a 28bc
00000200: 0f92 f63d 4ef9 99bc ffb0 083a adb3 ea3c
00000210: 2d1b 09be 7538 043e 4530 433c 067d c8bd
00000220: 9b9e 1ebd cc50 243d 37a3 9e3d ad8a c1bd
00000230: 879d 2f3e 94fc 11bc 993a a53d d12c 6c3d
00000240: b9ca acbd f772 463d cfec 03bc e177 9b3c
00000250: 3944 9dbd 6aa4 94bd ebef 31bd 6fb5 b7bc
00000260: 8bf3 aa3d 9adc cebd 244e ba3a b112 c4bc
00000270: 0f23 78bd dd98 433e 0de8 bfbc 84b5 403d
00000280: 2582 ba3d 72ab 96bc acfa a939 37d2 263d
00000290: b7d0 ab3d 1c50 843d fc6f f03c 531c 813d
000002a0: ff88 ebbd 60a3 8e3c b9fe 793d c93c 163e
000002b0: 25e1 fabc 8601 28bb 37b8 a63c c86b 9e3d
000002c0: 3569 063d d453 873d ee7b 513d 6c23 a8bc
000002d0: 02cd e63d 4ff5 653c 7c76 59bd 61c8 6cbd
000002e0: e81f 173d ac57 c63d 74ac 823d 8a25 043d
000002f0: 1526 53bd 1d55 bebd efc4 e2bd 4dfb 50bd
00000300: 5360 d03d ab93 e23d 88f4 553c 2140 33bc
00000310: 4ed3 f7bb d409 b0bb ba97 143d f3a6 8ebd
00000320: 2aa9 d63d f0b7 d73c ca0e d93b 37bd 913d
00000330: 7644 c63d 3ded 103d 9ba0 d23c b46e 8bbd
00000340: dd39 8dbc de12 b93d 01b6 ffbc 62c7 f13c
00000350: 0ed7 af3d a0a2 583d f6b5 75bd 4102 fe3d
00000360: 365d da3d eb5c 423d e5b9 0b3d e731 0cbd
00000370: 9b70 61bc caa7 533e 1216 bb3d fc39 6d3d
00000380: f959 553e f893 12be ab82 9b3d b8f9 d73d
00000390: 0fdf 393c bf5b a33d 8139 963d c6ad 993d
000003a0: 7d9a c43d 1188 183e 48ef c1bd 9806 4cbd
000003b0: a664 dc3d 56be 50bd c099 a5bd 869b da3c
000003c0: e903 073e 500e 863d 97e0 4038 b174 ba3d
000003d0: 087a a7bd f014 333c e954 86bd 3581 023c
000003e0: 70f1 4d3d 647a c1bc 9430 ad3c 7e8e 803d
000003f0: 10e7 793d 055f c6bc 6b4a 05be a52a a5bd

bias f4 [128]
-0.07274448 -0.03819708 0.0040079704 0.0067686057 -0.21938705 0.060010444 -0.040190324 0.07958556
0.0067923237 -0.034823924 0.084660836 0.05670024 -0.10431712 0.025063867 -0.068538465 0.0066624116
-0.10863502 -0.0055862824 -0.06681624 -0.12152126 0.062326062 -0.02614973 -0.05773315 -0.097675055
0.02073835 -0.047997285 -0.003230392 0.007992748 0.07041264 0.04553798 -0.07220156 -0.02068394
-0.07498418 -0.013868921 -0.029711703 -0.066313766 0.04852392 -0.06320219 0.034117658 -0.059801865
-0.02727475 0.01030428 0.079229504 0.047570948 -0.048009425 0.042773195 0.07866341 0.06762551
0.039884694 0.038959183 0.022544205 0.005037401 -0.016078897 -0.012479371 -0.054002266 -0.031544786
-0.035980567 0.06348456 0.0022171934 0.030495105 0.06710579 0.023883471 -0.1141966 0.009607282
-0.05199725 -0.13532613 0.0064860536 -0.067770824 0.033364378 0.013376986 -0.05376848 0.043251906
-0.0150925815 -0.110844456 0.054874305 -0.008052347 -0.029474605 -0.04263297 -0.026024504 -0.03581773
0.031498518 0.0045440267 -0.057178903 0.05381325 -0.040802468 -0.06232344 0.040654276 0.043197725
-0.03710364 0.03255737 -0.015130373 0.017086143 -0.049202017 -0.012556298 0.0011374844 0.086096
-0.071303196 -0.0046157464 -0.017445149 0.025429357 0.0051340126 -0.05373745 -0.040728126 -0.033717286
-0.09819355 -0.073664375 -0.10438519 0.02451074 -0.032883003 0.022634422 -0.09818103 -0.006528664
-0.057181925 -0.05501052 -0.09776794 -0.00397103 -0.030942732 0.037798207 0.07387066 0.037620477
0.010371766 -0.0049985377 -0.023425758 -0.09993774 -0.06629024 0.05861154 0.0023913519 -0.07250132
00000000: 0ffb 94bd 8b74 1cbd 4b55 833b 2ecb dd3b
00000010: 00a7 60be 83cd 753d 9c9e 24bd c1fd a23d
00000020: 2492 de3b 88a3 0ebd a962 ad3d 833e 683d
00000030: 37a4 d5bd bd52 cd3c e55d 8cbd 5c50 da3b
00000040: 0a7c debd 220d b7bb f4d6 88bd 23e0 f8bd
00000050: 9d49 7f3d f537 d6bc 9879 6cbd dc09 c8bd
00000060: 79e3 a93c cd98 44bd fcb4 53bb 04f4 023c
00000070: 8134 903d 0886 3a3d 69de 93bd 5e71 a9bc
00000080: 4e91 99bd 793a 63bc f565 f3bc 83cf 87bd
00000090: 05c1 463d 2670 81bd f5be 0b3d cdf2 74bd
000000a0: 4c6f dfbc 48d3 283c 1443 a23d c1d9 423d
000000b0: 88a5 44bd f232 2f3d 481a a13d 3e7f 8a3d
000000c0: 225e 233d aa93 1f3d a0ae b83c c810 a53b
000000d0: e4b7 83bc 4776 4cbc 7b31 5dbd 1b35 01bd
000000e0: 5c60 13bd 3104 823d 554e 113b dfd0 f93c
000000f0: c36e 893d 45a7 c33c e8df e9bd dc67 1d3c
00000100: 12fb 54bd ef92 0abe f688 d43b 6ecb 8abd
00000110: 16a9 083d 252b 5b3c 563c 5cbd e928 313d
00000120: e046 77bc 6b02 e3bd e1c3 603d feed 03bc
00000130: ba74 f1bc e99f 2ebd 5731 d5bc 9db5 12bd
00000140: 9704 013d 0fe6 943b 6d34 6abd 486b 5c3d
00000150: 7d20 27bd dd46 7fbd 1985 263d 19f0 303d
00000160: fdf9 17bd e05a 053d 62e5 77bc 3df8 8b3c
00000170: 0e88 49bd eeb8 4dbc a517 953a 1a53 b03d
00000180: 6907 92bd b03f 97bb 21e9 8ebc 3a51 d03c
00000190: 383b a83b cd1b 5cbd 89d2 26bd 231b 0abd
000001a0: b319 c9bd 59dd 96bd e7c7 d5bd bfca c83c
000001b0: 54b0 06bd d36b b93c 2313 c9bd 67ee d5bb
000001c0: 9837 6abd b652 61bd 8f3a c8bd 6a1f 82bb
000001d0: 9d7b fdbc 4bd2 1a3d 8049 973d ee17 1a3d
000001e0: 57ee 293c c6ca a3bb 60e7 bfbc 28ac ccbd
000001f0: 2dc3 87bd a712 703d 3ab8 1c3b 927b 94bd

weight f4 [12, 128]
0.022199476 0.0003724736 -0.08838501 0.02690995 0.008079541 0.045293365 0.04524642 -0.052750442
0.022315163 0.015307214 -0.07202014 0.0038061808 -0.006909981 -0.011735354 -0.025566563 -0.04598461
0.023117125 0.033127196 0.036856454 0.005336169 0.008386313 0.03926501 0.021895826 0.06991778
0.07166657 0.035658687 -0.005572363 0.022151431 -0.04122741 -0.014460478 0.072165154 -0.031412147
-0.033448443 0.0434104 -0.031455413 -0.011429214 0.018234536 0.029236086 -0.013984605 0.028071772
-0.002218491 0.00027961493 0.049887717 -0.058067743 -0.009468562 0.054186296 0.019769223 0.028078146
0.051823903 -0.012895384 -0.052588273 0.022312159 0.008906559 -0.016379347 0.038390655 0.030191317
-0.00504728 -0.060275067 -0.034028817 -0.01951793 0.014874845 -0.038178544 0.029828534 0.007173347
-0.039691277 0.05239584 -0.0029421917 -0.015565874 -0.033531826 -0.0025425656 0.0025029315 -0.03245219
-0.0033547967 -0.017819805 -0.001327787 0.03497418 -0.048020728 -0.023946289 0.023137527 -0.039998073
0.015570167 0.039089866 -0.07460211 0.03720486 0.008658489 0.04084782 -0.034026332 0.026863746
0.024844265 -0.012649246 -0.0116279945 -0.027319446 0.026731146 -0.029140538 0.03202222 0.01007203
0.057387903 -0.0015456381 0.0249961 0.013640842 -0.01308034 -0.023537189 0.011160866 -0.034802165
-0.039427876 -0.021160383 0.012123784 -0.0568745 0.042919528 0.05801122 -0.028597092 0.0067373696
-0.0488955 -0.04507803 -0.07207926 -0.020248868 -0.017032923 -0.013744286 0.01609183 -0.010667419
-0.010156913 0.014390553 0.005530278 -0.01727587 -0.034329746 0.017028818 0.007806433 0.007177209
0.022434682 -0.04637549 -0.025249392 -0.066013716 0.044870775 0.019621627 0.03060317 -0.028699517
-0.06635251 -0.09006709 0.0018311611 -0.037504844 -0.12659918 0.02873317 -0.04847569 0.02716336
0.061523184 0.0076399287 0.04904314 -0.04769308 -0.03209161 0.085530706 0.0014229066 0.011810191
-0.07473989 0.028808769 0.034097526 -0.009954354 0.025457436 0.018171843 0.03831291 -0.058186077
0.07700618 0.058597084 0.012513462 0.080898695 -0.016442725 0.006592965 0.0036815887 -0.06906889
-0.040939473 0.056907102 -0.044621598 -0.009235717 -0.058138154 -0.038769294 -0.05132278 -0.00023346586
0.051178247 -0.035482872 -0.054644924 0.017490959 -0.03733801 -0.041963484 0.0884892 -0.012983413
-0.014960514 0.018881282 0.004671865 0.02796421 -0.018366832 -0.023007413 0.037552588 -0.03333373
0.09956826 0.05987223 -0.029042663 0.030677909 0.0022045223 0.025184616 0.08822967 0.027056789
0.0041232584 0.025691085 -0.029611738 -0.040628497 -0.018576521 -0.029478278 -0.0021725278 -0.043723498
-0.021453079 -0.023843931 -0.06514619 0.030491183 0.0067780972 -0.08356351 0.0124105485 0.029070565
-0.024987094 -0.02145686 0.050617836 0.03379268 -0.05957246 -0.08005624 -0.032392107 0.039313816
-0.00724512 0.00798727 -0.0543926 -0.071336254 0.067044675 0.05495549 -0.016078457 -0.03824123
0.034684718 0.0046395683 0.0383588 0.0629399 0.07644689 -0.011957739 -0.047531366 0.06902541
0.015302494 0.10185679 0.122525565 -0.033434343 -0.088947594 -0.055505816 0.09446404 -0.059683233
0.09635691 -0.023124889 0.02133712 -0.05149524 -0.0734987 0.07816378 -0.07496882 0.009925908
00000000: addb b53c 8f48 c339 3303 b5bd 4172 dc3c
00000010: 0d60 043c 8985 393d 4f54 393d d910 58bd
00000020: 4ace b63c 1ccb 7a3c 4c7f 93bd 1e71 793b
00000030: 1f6d e2bb a445 40bc f870 d1bc 5c5a 3cbd
00000040: 2060 bd3c 62b0 073d cbf6 163d 08db ae3b
00000050: bf66 093c 59d4 203d e05e b33c 0e31 8f3d
00000060: ecc5 923d d80e 123d 5e98 b6bb eb76 b53c
00000070: 13de 28bd a4eb 6cbc 53cb 933d 06aa 00bd
00000080: 3c01 09bd 1bcf 313d 64d7 00bd 9941 3bbc
00000090: 9860 953c 8480 ef3c af1f 65bc c6f6 e53c
000000a0: 1a64 11bb 4899 9239 1057 4c3d 71d8 6dbd
000000b0: 0722 1bbc 73f2 5d3d 11f3 a13c 2404 e63c
000000c0: 4d45 543d 2947 53bc cd66 57bd fdc7 b63c
000000d0: d1ec 113c fb2d 86bc 853f 1d3d c853 f73c
000000e0: a763 a5bb fde2 76bd cd61 0bbd 11e4 9fbc
000000f0: 9fb5 733c 1b61 1cbd f85a f43c 650e eb3b
00000100: 5293 22bd 059d 563d c9d1 40bb 0208 7fbc
00000110: ab58 09bd 2ca1 26bb 3908 243b 96ec 04bd
00000120: 26dc 5bbb d7fa 91bc 2309 aeba 1641 0f3d
00000130: 62b1 44bd 022b c4bc e98a bd3c 05d5 23bd
00000140: 041a 7f3c b21c 203d fec8 98bd 2064 183d
00000150: 56dc 0d3c 0b50 273d 325f 0bbd 5c11 dc3c
00000160: 3386 cb3c c83e 4fbc 5883 3ebc 08cd dfbc
00000170: 47fb da3c 23b8 eebc bb29 033d 2805 253c
00000180: 940f 6b3d 0297 caba 9fc4 cc3c d77d 5f3c
00000190: ec4e 56bc 10d1 c0bc 11dc 363c b78c 0ebd
000001a0: 207f 21bd 8a58 adbc d6a2 463c 3cf5 68bd
000001b0: 63cc 2f3d 2c9d 6d3d 7344 eabc 27c5 dc3b
000001c0: a646 48bd bea3 38bd 4b9e 93bd f4e0 a5bc
000001d0: a188 8bbc b72f 61bc 03d3 833c 66c6 2ebc
000001e0: 2e69 26bc 5bc6 6b3c 5637 b53b 2086 8dbc
000001f0: 599d 0cbd 0580 8b3c 1bcd ff3b cb2e eb3b
00000200: f0c8 b73c 3af4 3dbd d0d7 cebc 3332 87bd
00000210: 6bca 373d 89bd a03c 80b3 fa3c 401b ebbc
00000220: d3e3 87bd 1875 b8bd 9203 f03a ae9e 19bd
00000230: 37a3 01be d361 eb3c 728e 46bd b285 de3c
00000240: bcff 7b3d 5e58 fa3b 76e1 483d d259 43bd
00000250: 7e72 03bd b92a af3d d380 ba3a 887f 413c
00000260: 3a11 99bd 5e00 ec3c d9a9 0b3d 9617 23bc
00000270: 1d8c d03c 1edd 943c ffed 1c3d 8654 6ebd
00000280: 6bb5 9d3d 7f03 703d 4405 4d3c 37ae a53d
00000290: e5b2 86bc cd09 d83b cf46 713b fd73 8dbd
000002a0: 26b0 27bd 6c17 693d 23c5 36bd 6851 17bc
000002b0: 4622 6ebd 8dcc 1ebd d637 52bd 84ce 74b9
000002c0: 48a0 513d 7d56 11bd 5bd3 5fbd 3349 8f3c
000002d0: beef 18bd e7e1 2bbd d339 b53d 62b8 54bc
000002e0: f21c 75bc ebac 9a3c 7216 993b 3315 e53c
000002f0: 0a76 96bc 0b7a bcbc bed0 193d f388 08bd
00000300: 72ea cb3d 953c 753d e1ea edbc 3d50 fb3c
00000310: bf79 103b f84f ce3c c2b1 b43d 33a6 dd3c
00000320: 661c 873b 1c76 d23c 5194 f2bc 116a 26bd
00000330: ca2d 98bc 6e7c f1bc f860 0ebb 6917 33bd
00000340: 5ebe afbc 5954 c3bc 5e6b 85bd a5c8 f93c
00000350: cd1a de3b 5823 abbd 9d55 4b3c 6525 ee3c
00000360: bcb1 ccbc 4cc6 afbc a654 4f3d 316a 0a3d
00000370: 4002 74bd 87f4 a3bd 96ad 04bd 8607 213d
00000380: 7968 edbb 0add 023c c6ca 5ebd be18 92bd
00000390: b84e 893d 0219 613d f8b6 83bc d6a2 1cbd
000003a0: 9011 0e3d 8507 983b 1e1e 1d3d a2e6 803d
000003b0: 3090 9c3d 64ea 43bc 40b0 42bd 325d 8d3d
000003c0: 50b7 7a3c 4b9a d03d afee fa3d 73f2 08bd
000003d0: 282a b6bd 115a 63bd 5d76 c13d 6876 74bd
000003e0: c656 c53d 6870 bdbc 2fcb ae3c acec 52bd
000003f0: 7d86 96bd 5514 a03d 4189 99bd 47a0 223c

bias f4 [12]
-0.090226375 0.079175524 0.13269085 0.06233963 0.0012760641 0.0763576 -0.07335931 0.027934976
0.08791405 0.09030566 0.023038626 0.078541934
00000000: 9bc8 b8bd c726 a23d 1ce0 073e d757 7f3d
00000010: 9b41 a73a 6061 9c3d 683d 96bd e4d7 e43c
00000020: 480c b43d 2df2 b83d 80bb bc3c 98da a03d
