logs/cassie_IROS/exported/policies/policy_1.pt (torch, 774728 bytes, 8 tensors)

weight f4 [512, 48]
00000000: 76cf f8bd 12e0 9e3a 79f8 03be 6b1b 513e
00000010: 3d66 3a3d 39b1 5abe af45 a5be dbe5 31bc
00000020: 43fd 833d f384 fdbd 09d8 2fbd de31 ae3d
00000030: bfd0 aa3e 8446 693d 6c65 14be d962 463e
00000040: 0eb9 8c3d 8957 70be abf4 8bbe 03ca 14bd
00000050: 0026 8ebd d1b6 41be 1226 5dbe 3307 9d3e
00000060: 7dc2 963e 9eea ce3d 856f 87be 8477 bb3e
00000070: fe96 acbe d440 c3bc 310c 253d d285 093d
00000080: e1fa 463f 47d0 9f3e 1c06 07be 1aac 033f
00000090: 59ff 14bc a6be a6bc e2ce 9cbd 8a5c 6fbc
000000a0: 736d 9b3c 7b25 12bd 3cf0 9fbd 770a 1fbc
000000b0: ee34 5ebd c22d 4cbc e536 45bc 48e7 703c
000000c0: cfa0 d1bd b7ab 23bd 2bfd 5f3d c228 29be
000000d0: 9a20 82bc c9ad f2be bc87 ec3c ce43 b93e
000000e0: 1f1d e7bd b617 4f3d c081 fdbd abdc 04be
000000f0: 7f55 013d 2e35 eabd 1f12 08bf 5ba5 19bd
00000100: a2bd 0c3d 229c 863e b97f 57be 88b4 51be
00000110: a486 0e3e 0c36 5b3e 2e23 9bbe faa4 acbe
00000120: 6e4d c6bd ed5c fb3e 7532 8fbe 3a8d 403f
00000130: c3ad a3bc 8f2d 2a3e 8733 013f fb01 e43d
00000140: 7fc7 703d 8ff8 abbd 6346 db3c 4c1a c53d
00000150: 6d00 0bbc fd3f 9bbc e1fc dcbc 9575 a1bc
00000160: 7d14 513d 5052 8f3a af8e 07bd e764 5ebd
00000170: 1c17 3dbc f877 afbc 3bba 943c 1257 dbbc
00000180: abd8 98bd 6fb8 023e 9e2a 29bc 8ebd 033e
00000190: 47c1 6cbd 16ab 343e 0505 8f3d d84d 32be
000001a0: 2792 2e3c 2970 06be ca05 613d 87e2 6fbd
000001b0: 06d6 543c 26e5 a53d 5168 673e 0559 423e
000001c0: fb6d e2be ff93 2bbf 245f 7f3d cf7e 5fbe
000001d0: b74e a73e af35 a23e e9b9 413e 9366 8e3e
000001e0: 79ec ab3e 324d ffbd 9f43 c63e 80a6 513e
000001f0: 3dfa 1bbf 9544 c5bc fc45 8fbe f11d 0e3e
00000200: 6fba d4bd 793c 03be e484 c03b 9d2c 69bb
00000210: 93f6 413a 5815 923c 2518 583d b5dd 12bd
00000220: 3a8d d1bc f4b9 e63d 8e12 31bd d0a2 fe3b
00000230: a907 263d 45cb ac3b 5fe2 44bc bcab 1ebc
00000240: 5277 b3bd 8cce 243d 6356 4bbe 2b76 c43e
00000250: bcd4 f5bd 49aa 66be 289d ddbd 08f9 19bf
00000260: 47fe 8e3c 6bde 64bd 56c9 d1bd 9486 1a3d
00000270: 0b0f 3d3f 5ce3 2dbd 2bf1 9f3e cb5c 0fbf
00000280: 241f 983d 3825 a6bd 0977 56bf 9d5d 583e
00000290: 8a17 823e 9902 60bd 0c16 bdbe 3a76 103c
000002a0: f040 383e 41e9 49bd 3517 7dbe 6609 28be
000002b0: f553 a6bb 4304 1dbd 349b a0be cfb8 543d
000002c0: d7ad 9d3d abe3 413e 51c6 02bf b335 15be
000002d0: 9633 423e 346d 633c ae2c aabd 7282 8fbc
000002e0: 5c74 e4bb f1da 89bd dc17 14bd aa6d 22bd
000002f0: 076c c2bc 94b2 99bc 65c3 d23b 6c00 233c
00000300: 784c b5bb 4de3 32bd f83b ae3d bc3f 833d
00000310: b48c 0fbc 8eeb 463e d4c2 61be e4f0 c13e
00000320: 9bda 063e 74b8 c0bc e4c5 06bd 7abe a9bd
00000330: f149 8a3e 06f0 7c3e 92ce f43d 6aac 63bd
00000340: 75d7 383e e408 02be 17a1 cabe 8607 2f3e
00000350: 956d 023f e3c9 b83e 8707 76be 62b9 8b3e
00000360: e6ef 553c 761d 5ebe 5f85 7dbd 9c8e 6e3d
00000370: 58de 783d cde8 bdbe 0c47 a1be e304 abbe
00000380: da41 393e b685 c6be f20a 853c eed3 0b3f
00000390: 554e 96bd b988 d93d a3ff 3d3e e35a c4bd
000003a0: d0e9 2d3d 5070 be3d 6645 3bbd 4d4b 363e
000003b0: 1d7b 2ebe 1af1 9bbb d7f2 5b3d 0d1d 543e
000003c0: 66de 3a3d 73d9 27be 6ae0 a43d 0a10 acbe
000003d0: 0276 693c 6b51 0dbd 5cab 92be 6629 b83e
000003e0: b4a3 22bd 3cbb e5bc 7c04 bfbd 2885 01be
000003f0: 620c ca3e e691 29bd 71f5 af3d 86fb 923e
-0.12148945 0.0012121222 -0.12887754 0.20420615 0.04550766 -0.21356668 -0.32279727 -0.0108580245
0.0644479 -0.12378874 -0.042930637 0.08505605 0.33362386 0.056952015 -0.14491814 0.19373645
0.06871234 -0.23470892 -0.27335104 -0.036325466 -0.06940842 -0.18917395 -0.21596554 0.30669555
0.29445258 0.101033434 -0.2645227 0.3661462 -0.33708948 -0.023834623 0.04029483 0.033574887
0.7772656 0.3121359 -0.13185924 0.5143448 -0.009094083 -0.02035458 -0.07656647 -0.014609465
0.018973088 -0.035680275 -0.07809493 -0.009707085 -0.054249696 -0.012462081 -0.012037014 0.014703579
-0.1023575 -0.039958682 0.0546848 -0.16519454 -0.015884686 -0.47398213 0.028873317 0.36184543
-0.11284851 0.050559722 -0.123782635 -0.12974803 0.031575676 -0.114359245 -0.5315265 -0.03751121
0.034360535 0.26290995 -0.21044816 -0.20479023 0.13918549 0.21407336 -0.30300277 -0.33719617
-0.09682737 0.49094334 -0.27968183 0.75215495 -0.019980317 0.16618942 0.5046925 0.1113319
0.058784004 -0.08397018 0.026766961 0.09624156 -0.008483988 -0.01895141 -0.02697605 -0.019709388
0.05104493 0.0010934565 -0.033095058 -0.054295447 -0.011541154 -0.02141951 0.018155208 -0.026774917
-0.07463201 0.12765668 -0.010325102 0.12865278 -0.05780151 0.17643389 0.06983379 -0.17412508
0.010654963 -0.13128723 0.05493716 -0.058565643 0.01299048 0.08100347 0.22598387 0.18979271
-0.44224533 -0.670227 0.062346593 -0.21825717 0.32677242 0.31681582 0.18918575 0.27812633
0.33578852 -0.12465896 0.38723466 0.20473671 -0.6092871 -0.024080554 -0.2798308 0.13878609
-0.10387122 -0.12816037 0.005875217 -0.003557957 0.0007399108 0.017832443 0.0527574 -0.035855968
-0.025580037 0.112659365 -0.043230586 0.0077708736 0.04053465 0.005273255 -0.012016862 -0.009684499
-0.08762993 0.04023604 -0.19857173 0.38371405 -0.120034665 -0.22525896 -0.10820991 -0.60145617
0.017455233 -0.055876177 -0.1024348 0.037726 0.7385108 -0.042453155 0.31238684 -0.56000966
0.074278146 -0.08112568 -0.83775383 0.2112946 0.25408584 -0.054689977 -0.36930883 0.00881725
0.17993522 -0.049294714 -0.24715884 -0.16409835 -0.0050759264 -0.038334142 -0.3136841 0.05193406
0.07699173 0.18934505 -0.51083857 -0.14571266 0.18964991 0.0138810165 -0.08309303 -0.017518256
-0.006971879 -0.06731213 -0.036155567 -0.039655365 -0.023733152 -0.01876191 0.0064319842 0.009948831
-0.0055327974 -0.043673802 0.08507532 0.06408641 -0.008761574 0.19425794 -0.22046977 0.37879097
0.13169329 -0.023525454 -0.032903567 -0.08288284 0.27009538 0.24700937 0.11953463 -0.05558435
0.1805094 -0.12698704 -0.39576027 0.17092714 0.5094846 0.36091527 -0.24026309 0.27289873
0.0130576845 -0.21690926 -0.06189477 0.05824147 0.06075892 -0.37091675 -0.31499517 -0.33402166
0.18091527 -0.38773888 0.01624057 0.54620254 -0.073391594 0.10621781 0.18554549 -0.09587648
0.04245931 0.09298766 -0.04572048 0.17802162 -0.17039151 -0.004758966 0.053698387 0.20714207
0.045622252 -0.16391544 0.08050616 -0.33605987 0.014249327 -0.034501474 -0.28646362 0.35969085
-0.0397069 -0.028043382 -0.09327027 -0.12648451 0.39462572 -0.041398905 0.08591736 0.28707522

bias f4 [512]
00000000: bd54 e4bd b1fd 11be 732b b53d 07da 16be
00000010: 2ef3 013e 6462 dabd 9e2c aebd cf43 6dbe
00000020: 4454 e7ba fa56 b03d ba9e e4bc 9a96 473e
00000030: 0c6d 433e 11fd 083c 3033 16bd 730f a8be
00000040: 7b46 97bd ce8a 9dbd a164 fabd 7579 1f3e
00000050: 8cc1 11be 1d72 b1bd 419e afbe 48e7 3bbd
00000060: 7c34 0abe 8647 023e d2e7 05be 062f dc3d
00000070: 4c43 3d3d 353f 1f3e b113 143d 51de 62be
00000080: b798 1bbe 5cf2 39bd e5c2 24be 6b74 f33d
00000090: a0ca 1d3d 18f7 b93d ea35 d43d 7952 d2bd
000000a0: a86c 063e 744d 0ebe 721d 08bd 4ac2 193d
000000b0: 4fe0 a53c c924 f1bc 2361 a3be cb7a fabd
000000c0: 5b9e ce3c 473a 913b f1af c4bd a6c5 8d3d
000000d0: 7be2 1a3e 63e9 6dbe 97b7 0dbd a3ec 483e
000000e0: 6651 153e 42df cdbd 4584 2d3e 5580 0abe
000000f0: bc81 013e ce40 41bd 45cf b43d 5661 153e
00000100: 2b4e 34be 3b24 fb3d 6a7b 1d3e 78ae a43d
00000110: dd35 0d3e 02c8 163d 3db3 26be d12c 8dbd
00000120: e66c a9bd d09b 74bd 8498 06be d1d3 24bd
00000130: f039 13bd dd23 23be a47a 313e d76e 59be
00000140: bd9f 2b3c 63d3 863d 89b6 45bd 9db0 65bd
00000150: fe18 37be 1c06 d0bc 8257 e5bd 4d3f 26bd
00000160: f367 1fbd f412 2e3d c6a1 8a3d 08e5 423e
00000170: 9ff8 193d 5813 2cbe 2b25 553c ea6d 3bbc
00000180: 8c6c 67bb e2c3 483d 56c1 31be dbc6 9abd
00000190: 6546 4bbd bcb6 adbc f33c 113d 1f27 2bbe
000001a0: 55e1 2b3d 209c d0bd a8bb 57be f8ea cebc
000001b0: cd7a 48bd f81a 24bb ef5a 9fbb 8b12 d0bd
000001c0: a249 40bd c714 1fbe 17c3 c73d 0c94 d7bd
000001d0: b996 103e 48c1 333e 9b68 c13d 669d 30bd
000001e0: a3ab 81be 6cf6 8dbd 9e68 1e3d 0033 b7bb
000001f0: 5828 4bbd e005 64bd 8bde 243d a4e8 babd
00000200: 0589 8cbe 0ccf 3abe a196 efbc dcb9 473e
00000210: 5c70 e73d c8cd 25be 2f4f 463d fb0b 5abd
00000220: 1b5c 0ebe a741 8a3d 2467 8a3e 5350 283e
00000230: 01d8 14be 1934 093e 5fee 5dbd bbd6 35bd
00000240: c005 48bd 4a10 de3d bbf8 463e ebf4 bfbd
00000250: 3ba1 f6bd 96f4 c93c 4ebb 95bd 308d 37bd
00000260: 4e56 23bc efc2 46be 7545 a2bb 41e3 7bbd
00000270: 5893 b43d acee bbbd 83cb e63d bbbe 99bd
00000280: 43b5 42bd 4786 093e 5aea b7bc c8a2 1ebd
00000290: dc71 42be 0181 83bd 021a 89be d2ba 54bd
000002a0: 269b 97bd afea 2abd 328d 21be 0f60 f9bd
000002b0: 6680 e7bd 918e 173e 174e 283c d431 4bbe
000002c0: 414a 18be 5425 4fbe ac31 25be 8a9b 85be
000002d0: dfe1 29bd 716f af3d 37f5 593e d954 97be
000002e0: d547 50be d65c c03d 660b dfbd c1d3 8a3d
000002f0: 1be5 233d b440 82bd 3575 9fbd fb94 85bd
00000300: fcc6 1d3e 9bbd 0dbc ca63 1cbe fd61 423c
00000310: 0ab7 c53c 5ab5 b83d 9589 ea3d 45ea a4bd
00000320: 68a2 5c3d d4d7 963d a2df a13d fb4d 97be
00000330: a838 e0bd 1b10 adbe 1a3c e13c 7c31 c63c
00000340: e2cc 68be ac3d 9dbd b14b d6bb 2b95 33bd
00000350: 8426 8b3b 185c d1bd 31a4 39be 6b03 07be
00000360: 0b27 8fbd d70a 6dbe 91a4 edbc 0c42 bebd
00000370: 5117 023e 1cc9 b7bc f20e 24bd 6345 c4bc
00000380: 0c4b 8c3d 9ce2 44be 558b 883c 8b4d f93d
00000390: dea3 05be 87c5 96be affa 2e3d bf45 e4bd
000003a0: cc77 a0be 00f5 63be fe70 02be 2740 debd
000003b0: f548 1f3e b0a4 50be 85c3 b8bd d1cb 4e3e
000003c0: ab74 0b3d 1917 df3d 0c3b 06be 3f79 a7bc
000003d0: a254 b3bd 4a6e 58bb 0d7e a2bd a949 b7bd
000003e0: 2b7c 39be 2de5 353d 88a3 fc3d 706b d4bd
000003f0: b7b6 7dbd 2656 a93d a9b2 0b3d 828c 853e
-0.11148975 -0.14256932 0.08846178 -0.14731608 0.12690422 -0.10663298 -0.08504604 -0.23170398
-0.0017649014 0.086103395 -0.027907718 0.19491044 0.19084567 0.008361117 -0.03666991 -0.32824287
-0.0738649 -0.076924905 -0.12226225 0.15573676 -0.14233989 -0.086643435 -0.34300426 -0.045874864
-0.13496584 0.12722597 -0.13076714 0.107511565 0.046206757 0.15551455 0.03615159 -0.2215512
-0.15194975 -0.045397148 -0.16089971 0.11887439 0.038523316 0.090803325 0.10361846 -0.10269637
0.13127387 -0.13896734 -0.033231206 0.037538804 0.02024856 -0.029436486 -0.31910047 -0.12230452
0.025221994 0.004431996 -0.09603871 0.06922464 0.15125458 -0.23233561 -0.034598913 0.1962152
0.14581832 -0.10052349 0.16944988 -0.13525517 0.12647146 -0.047180943 0.08828596 0.14587912
-0.17607944 0.1226277 0.1537911 0.0804109 0.13790078 0.036811836 -0.16279311 -0.06893314
-0.08272724 -0.059718907 -0.13144118 -0.040241066 -0.035943925 -0.1593165 0.1733194 -0.21233688
0.010475096 0.065832876 -0.048269782 -0.056076635 -0.17880628 -0.025393538 -0.111983314 -0.040587712
-0.038917493 0.042498544 0.06769137 0.19032681 0.03759062 -0.16804254 0.01300935 -0.01143978
-0.0035312502 0.049014933 -0.17358908 -0.0755746 -0.04962768 -0.021205299 0.035458516 -0.16714142
0.04196294 -0.101860285 -0.21067679 -0.025258526 -0.048945237 -0.0025040489 -0.004863135 -0.10159787
-0.04694522 -0.1553527 0.09754007 -0.105262846 0.14119996 0.175542 0.0944378 -0.043118857
-0.2532626 -0.06931767 0.03867399 -0.0055907965 -0.04959902 -0.055669665 0.040251296 -0.09126404
-0.27448288 -0.18243045 -0.02924663 0.19504493 0.11300728 -0.1619178 0.04841536 -0.05323408
-0.13902323 0.067508034 0.27031815 0.16436891 -0.14535524 0.1339878 -0.054182407 -0.044394236
-0.04883361 0.10842951 0.1943082 -0.09372886 -0.12042471 0.02465276 -0.07311116 -0.04481238
-0.009969307 -0.19410299 -0.0049521276 -0.061496023 0.08817166 -0.091763824 0.112692855 -0.07507082
-0.047536146 0.13430129 -0.022450615 -0.03872946 -0.18988746 -0.0642109 -0.26777655 -0.05193598
-0.07402639 -0.041727718 -0.15776518 -0.12176525 -0.11303787 0.14800479 0.010272524 -0.19843227
-0.14872076 -0.20229083 -0.1613223 -0.2609523 -0.041475173 0.08566178 0.21284948 -0.2955692
-0.20339902 0.09392707 -0.10890846 0.0677867 0.040013414 -0.063599974 -0.07786027 -0.065225564
0.15407938 -0.0086511625 -0.15272442 0.011864183 0.024135131 0.09018965 0.11452023 -0.08052496
0.05386582 0.07365385 0.07903983 -0.29551682 -0.10948306 -0.3380135 0.027494479 0.024193518
-0.22734407 -0.076777786 -0.006539785 -0.04384343 0.004246535 -0.102226436 -0.1812904 -0.13184898
-0.06989869 -0.23148666 -0.029009135 -0.09289941 0.12704207 -0.022434764 -0.040053315 -0.023958867
0.068502516 -0.1922707 0.016668001 0.12172993 -0.13050792 -0.29447576 0.04271954 -0.111461155
-0.31341398 -0.22261429 -0.12738416 -0.1085208 0.15555175 -0.20375323 -0.090216674 0.20194937
0.03404681 0.108930774 -0.13108462 -0.020443557 -0.08756377 -0.0033024722 -0.079341985 -0.089495964
-0.18113773 0.044408012 0.123358786 -0.103720546 -0.06194183 0.08268385 0.03410593 0.2608376

weight f4 [256, 512]
00000000: b923 db3d d3a9 d23d f06b 7f3d 7d3c b4bc
00000010: 8fbd ae3d 1685 2abd c56e 073e c5f1 61bd
00000020: 736a e3bc d124 d83d a7c4 a83d e51a a1bd
00000030: 5f36 0cbe 1612 2b3d 2f2c 1bbd 08d3 fc3d
00000040: b017 fd3b 2e2a 5bbc 928d 8dbd 19e5 a3bd
00000050: 6efc 903c a66a 5bbc 7e6a bcbc e91c 23bd
00000060: d731 a2bd ab7d 0a3e 5d79 043d 091f ffbd
00000070: fa87 f83c 42c3 54bd 7d07 e93d 7e70 22bb
00000080: 07b3 fc3b f277 87bd a87e 063d 1941 1dbd
00000090: 9199 563d d445 263e e476 a6bb bbf6 7dbd
000000a0: 5d7c 0fbd 6003 33bc 1b36 1fbd 143d 143e
000000b0: 434c 9cbc 1ef8 01be c723 adbb 1f64 17bd
000000c0: 2a78 1abd c1a1 5a3d 8ea1 d3bc 6598 acbb
000000d0: e0ac 41bd a103 933d 26bb 47bd 62d1 083d
000000e0: eaa6 8f39 de5b f3bd 739c 083e e024 4c3d
000000f0: 09e1 9e3d 4b51 cd3d a0f7 1d3d 4210 2b3d
00000100: 3754 03bd 9f87 93bd a64e 6cbe b7ff 9f3d
00000110: 5ba3 05bd 0e75 db3c 657b 503d d489 983d
00000120: 3f78 f4bd 5394 ac3d 58bd 143c 4aa9 2dbd
00000130: 3642 ac3d cb86 823d aa4f 9dbd f377 c73c
00000140: 3986 23be 39b5 e0bd 3c55 973d 1e65 643d
00000150: eda1 ba3d d7b1 b73c 40fd f0bc d8ae e03b
00000160: da09 67bd 28f0 013c f23c 53bd 8251 193e
00000170: 4b38 4c3c 0e53 a3bd f654 e33d 9f50 33bd
00000180: f432 863d 775f 35be 640f f4bd a81c bebd
00000190: ea77 95bd cf0e f3bc 74cf 8cbd 139f a03c
000001a0: 0efd 4a3d 4b81 d13d a012 b439 96ee aabd
000001b0: 99a5 c63c 29a4 f0bd 18b8 79bc afd3 053d
000001c0: 9b23 23bd 0bd2 aabd 8b1f c63b 83fd 413d
000001d0: ab8f 51bc 5af2 9e3c 888c 863d b2ba 55bc
000001e0: 9593 01bc 61ce 923c b55b b6bd bea4 02bd
000001f0: a561 793d daac 97bc 259b 413d 59bf bf3d
00000200: 56a7 0b3e 3124 60bc ebdd 833d 325f 36bd
00000210: 6250 74bd f02b b3bd afe0 a03c 5762 903c
00000220: d06d 693d 6333 bcbd 7d04 cfbd b989 afbc
00000230: 3d17 693d 7de0 21bd a5f4 34be 39b7 14bd
00000240: 838f 0b3d 2cf9 a23d 18e0 49bd b1e8 afbc
00000250: 8ee1 803c 9ac2 233a 6ecc 433d 0fde d1bb
00000260: 6f3c 8b3c 3fd1 ebbd 8b4e 8c3d 24b7 153d
00000270: 0fe2 f53d b65f 8a3d fe19 823d 05b9 08bd
00000280: 7925 013d 5208 32bd 222c 6d3e c29b 2f3e
00000290: 2e8c 1cbe b0c2 b6bd 0264 6ebb c0db a33c
000002a0: a782 503d e3ff 75bd 8731 ff3d 0d27 5b3d
000002b0: ac0c 3ebd 5592 cb3d 0dac d13b 2579 803c
000002c0: 5783 a83d 86a4 19bc 5ee5 5e3c fd6e 98bc
000002d0: 1ad0 8d3d 2a8e 463c 3261 bcbd 26d2 b03d
000002e0: 9427 e43d f726 8e3d 688a ffbd c7b8 babd
000002f0: 1673 003e 8652 b03c 70d2 4b3c 0ca6 03be
00000300: e604 b5bb 9c1f 623d 0552 c6bd af30 74bd
00000310: 2255 ba3b f9fb 523c 17c5 c0bc 4ca9 b43d
00000320: b432 b6bd be96 083e 396f 0dbd 65d4 61bc
00000330: e3ef 863d 9957 cc3c 0803 ec3d 6bea cebd
00000340: 0638 1fbd 9814 523c b5b5 94bd 1783 3bbd
00000350: 869a 86bd e5d0 b2bd 12f2 f5bc 4e70 9d3d
00000360: de47 213e 32e1 79bc 4ea2 403d 1d10 c13b
00000370: b500 803d 576f acbc 4f32 1c3e c5fb 1c3e
00000380: 8fb9 153c c12d 213d 7772 e93d 9569 303d
00000390: b82c 73bd e385 ddbc f9ca 05be 34dd 613d
000003a0: 285f 983c fa8f 8c3d 97a8 5abd 5107 993c
000003b0: 5fb9 063e aee7 06be b0cf bb3c 3754 08bc
000003c0: 3269 b4bd 6259 963d 6d9d ad3c 25c3 d13d
000003d0: 64d4 393d 5456 85b9 d31e aa3d caad 54bd
000003e0: 30d4 c53d 5085 a9bd c600 123c 4552 953d
000003f0: a35a 05bd dfb7 8d3d 91c1 c6bb 5091 af3c
0.10700173 0.10286298 0.062358797 -0.0220015 0.08532249 -0.041630827 0.13225849 -0.05516221
-0.02776072 0.10553897 0.082406335 -0.07866458 -0.13692616 0.041765295 -0.037883934 0.123449385
0.007723771 -0.013376756 -0.06911768 -0.08002681 0.017698493 -0.013392126 -0.022999998 -0.039822493
-0.079196624 0.13524501 0.032342304 -0.12457091 0.030338276 -0.051944025 0.113783814 -0.002478629
0.0077117714 -0.06614675 0.032835633 -0.03839216 0.052392546 0.16237575 -0.005080091 -0.06200288
-0.03503071 -0.010926098 -0.03886996 0.14476424 -0.019079333 -0.12692305 -0.005283806 -0.036960717
-0.037712254 0.053376917 -0.025833871 -0.0052671903 -0.047284007 0.071784265 -0.048762463 0.033402808
0.00027399446 -0.11882757 0.1334093 0.049839854 0.07757766 0.10025271 0.03856623 0.04176355
-0.032062735 -0.07203602 -0.23076877 0.078124456 -0.03262649 0.026789214 0.05089893 0.07448164
-0.119369976 0.08426728 0.009078346 -0.042397775 0.08411066 0.06373366 -0.0768121 0.024349188
-0.1596917 -0.109720655 0.07389304 0.055760495 0.09112916 0.022423668 -0.029417634 0.0068567805
-0.05640588 0.007930793 -0.051571794 0.14972499 0.012464593 -0.07974826 0.111001894 -0.04377806
0.06552687 -0.17712198 -0.11916998 -0.092828095 -0.072982624 -0.029670147 -0.06875506 0.019607102
0.049557738 0.10229739 0.00034346152 -0.08346288 0.024248885 -0.11750061 -0.015241645 0.03267258
-0.039828878 -0.08340844 0.0060462407 0.04736091 -0.012790601 0.019402672 0.06569773 -0.013045
-0.007908721 0.017920675 -0.089042105 -0.03189539 0.060884137 -0.01851504 0.047267098 0.093626685
0.13638052 -0.013680504 0.06438812 -0.04452438 -0.05964697 -0.08748615 0.019638387 0.017625017
0.05698949 -0.09189489 -0.10108278 -0.021427976 0.056906927 -0.03952073 -0.1767145 -0.036307547
0.03407241 0.07957682 -0.049285978 -0.02147326 0.015732553 0.00062469544 0.04780238 -0.0064046453
0.01699659 -0.1151452 0.068509184 0.03655161 0.12006008 0.06756537 0.06352614 -0.033379573
0.031529877 -0.043464966 0.23161367 0.1714926 -0.1528785 -0.089238524 -0.0036375527 0.020002246
0.05090585 -0.060058486 0.124606185 0.05350404 -0.046398804 0.0994002 0.006398684 0.015682766
0.08228176 -0.009377604 0.01360449 -0.01860761 0.06924458 0.0121188555 -0.09198226 0.08633833
0.111403614 0.06941026 -0.12477571 -0.09117275 0.12543902 0.021523725 0.012440309 -0.1285631
-0.0055242656 0.055205926 -0.09683613 -0.05961674 0.005686418 0.012877458 -0.02353148 0.08821353
-0.088963896 0.13338754 -0.0345299 -0.013783549 0.065887235 0.024944114 0.11524016 -0.101033054
-0.038871787 0.012822293 -0.0726122 -0.045779314 -0.06572442 -0.0873125 -0.030022655 0.07687436
0.15750071 -0.015251445 0.047029786 0.0058918134 0.06250135 -0.021049185 0.15253566 0.15330417
0.009138479 0.039350275 0.113987856 0.04306944 -0.05936882 -0.027041381 -0.13065709 0.055142596
0.018600062 0.06863399 -0.053383436 0.018680247 0.13156651 -0.13174316 0.022926182 -0.00832086
-0.08809127 0.07341267 0.02119323 0.10242299 0.045368567 -0.00025432056 0.083066605 -0.05192355
0.09659612 -0.082773805 0.008911317 0.07291082 -0.03255714 0.06919836 -0.0060655554 0.021431595

bias f4 [256]
00000000: 53ce 78bd 4fa4 9fbd d52d 4abd 634a fabd
00000010: 7811 8dbe bb77 b53b b168 5dbc e0f4 58be
00000020: 36ab c6bd b415 9bbd f370 debd 335c 7bba
00000030: 4947 ff3c 684c e8bd 14a9 17be b466 36bd
00000040: 8744 a5bd de6f 063d 2f7d 68be 5e41 cebd
00000050: 4774 93bd e3f6 18bd 6301 4abe 9114 77bd
00000060: 5f39 05be 5fcb 75bd 212a 0cbe 9b63 6abd
00000070: 1c5d 333c 680d a4bd 2caa dcbd 42c5 3ebd
00000080: 0bb9 e43c fb0c 86bc dc1d 6dbe a158 dfbc
00000090: b64c 3dbe 7fa6 1dbe 85b8 ecbd f0f3 98bc
000000a0: fdae debd 4b15 41be 58c5 d7bd e3aa 6dbe
000000b0: 94f4 7bbd a519 0ebe e6ac 0dbd e15b 8cbd
000000c0: 0c74 11bd a202 37be f630 34be 9f6a bbbd
000000d0: 2ac1 44bc 6a18 24bd 16d9 73bd 517a 2abe
000000e0: 15bf 69bd 40a9 09be c2ee b4bd 7b70 46bc
000000f0: fd84 153c ad43 143d 4194 d2bc 1afc 10bd
00000100: 7f34 5ebe 1a2f d2bd 16d4 45be abc7 04be
00000110: f4fe 32bd 5cee a8bc 9eba 80bc aff7 31bd
00000120: 8101 0ebe e0de 41bd 0c7f d9bc 8d67 73be
00000130: 8210 81be bd43 94bd e565 b8bd aa29 1ebe
00000140: 0191 c0bd c519 ddbd 8236 c8bc 4bc7 7ebd
00000150: ef50 00be dcdb 683c 297b 32be 425c b6bc
00000160: 205e 27bd b49f 203d 86e2 8dbd 0e31 60bd
00000170: be8b d7bc c76f c1bc c2a1 a1bd 21f4 fdbd
00000180: cfe4 27be 5aca 3fbc 1e92 7fbd 4155 03bd
00000190: 5e71 c5bd 2792 5abd f737 c3bd 65a6 b0bd
000001a0: d60d 153d fb41 afbd ea6b 0abe 8f56 2dbd
000001b0: 0365 efbd 3586 5abe 7af2 92bb 776b e0bd
000001c0: 76be f43b 6100 d6bd b301 7fbd 6f64 dfbd
000001d0: cc92 f3bd 3ad3 3ebc a0dd 79bd 4008 01bd
000001e0: 22c6 72bd d85d 4bbd a10a c2bc 5b55 9fbe
000001f0: dc45 bbbd dd4e 0ebd 293d 8bbd 915d 44be
00000200: 50a0 0abd cdf8 ef3b a0f3 acbd 9c09 48bd
00000210: e40e 12be 431b 87bc e87b fcbd 84eb 93bc
00000220: 451d 67be db63 38be d2c0 eebd 931f 12be
00000230: 0929 94bd 8334 0cbe 3c38 69bd 1612 eabd
00000240: 9c26 a9bd 4c7c bdbd b08b 30be 0190 29bd
00000250: 540b efbd 494e a0bd dabd 2bbe eb92 28bd
00000260: b2d2 2cbe 1981 1abd f184 edbc 6810 fdbc
00000270: f5cb 563a 58a6 1ebe 444f c6bd 9488 163b
00000280: e71a a5bd 32ab 893b 6740 84bd 5ddd 81be
00000290: 90ff 52bd bb63 38be 4ebd a7bd 3f24 943c
000002a0: 8e22 8b3c 9bad 67bd 92bc fa3c 9476 273d
000002b0: 556a da3c e9a6 80bd f814 04be b3aa 14be
000002c0: bea9 63bd a037 b3bd f577 ddbd b1e4 7dbd
000002d0: 334c 34be c0d3 14bd 58d5 ecbd 7724 43bd
000002e0: affd ad3c ba72 b2bd 6c02 c3bd 2485 56be
000002f0: 6ac0 8dbe 3347 0ebd 8923 8fbd 7e76 63be
00000300: 20ed b5bc 53f8 3ebd 9b91 c0bc 49a5 4fbe
00000310: 7fb0 32be 06d8 24be f8a8 a7bd 4955 ebbd
00000320: 62ff f1bd fe85 133c 6cdf 7fbd afc7 fdbd
00000330: 683e 0bbe f775 5cba 4f5f 8bbd ab4d e3bd
00000340: 4ee4 14be 053d cfbd b700 15be 9f17 8dbb
00000350: f038 1bbe fb3c d6bc 4843 d0bd e1a6 02be
00000360: 0f71 84bd 8f3b 6fbe b59f 393c d323 5fbe
00000370: 86e5 cfbd eb7d 6bbe fd87 42be 34bd ae3c
00000380: 4af6 96bd 2303 12be dbcc 44bd 0121 9fbd
00000390: 8a19 10bc 38ac c0bd 72bf 20bc 02d0 2abe
000003a0: def8 d4bd a556 cdbd 3ce5 6bbd 14ad 64be
000003b0: f18e d8bd 0d13 f0bd 5b8f eb3c 2d89 a6bd
000003c0: dacd 6cbe b9df 5cbc 5310 36be 203f d2bd
000003d0: d7d6 d5bd acc0 02bc 41ff 0abd 161e 61bd
000003e0: 3904 73bd f8e7 613c b8e2 8bbd 8465 ccbc
000003f0: e9d8 2ebd 0324 a4bd 4138 a2bc 4a9d 6ebd
-0.06074364 -0.07795011 -0.049360115 -0.122212194 -0.2755239 0.0055379546 -0.01351373 -0.21187162
-0.09700625 -0.07572499 -0.10861387 -0.0009588629 0.031161921 -0.11342698 -0.14810592 -0.04453154
-0.08069711 0.03282153 -0.22704004 -0.100710616 -0.071999125 -0.037344825 -0.19727091 -0.060322348
-0.13010167 -0.060008403 -0.13687946 -0.057223897 0.010947492 -0.080103695 -0.10774645 -0.04657484
0.027920267 -0.016363611 -0.23155922 -0.027263941 -0.18486294 -0.15395544 -0.11558632 -0.018671006
-0.1087322 -0.18855779 -0.10535687 -0.2320972 -0.061512545 -0.1387697 -0.034588717 -0.06853462
-0.03551106 -0.17872098 -0.17596802 -0.09151196 -0.0120089445 -0.040062346 -0.0595332 -0.16648223
-0.057066996 -0.1344347 -0.08834602 -0.012111778 0.009125945 0.036197353 -0.025705459 -0.035396673
-0.21699713 -0.1026289 -0.19319186 -0.12966792 -0.043700173 -0.020621471 -0.015713986 -0.0434491
-0.13867761 -0.04733169 -0.026549838 -0.2376997 -0.25207907 -0.072394826 -0.0900381 -0.15445581
-0.09402657 -0.10795931 -0.024440054 -0.06220178 -0.12530874 0.014212575 -0.17429794 -0.022260789
-0.04086125 0.039214805 -0.069279715 -0.054734282 -0.026311751 -0.02361287 -0.07892181 -0.124000795
-0.16395877 -0.011705959 -0.062395208 -0.032063726 -0.09640764 -0.053362038 -0.09532159 -0.08625487
0.036390148 -0.08557507 -0.13517728 -0.042318877 -0.11689188 -0.21340258 -0.004484472 -0.10957997
0.007468994 -0.10449291 -0.06225748 -0.10907828 -0.11893234 -0.01164704 -0.061002374 -0.03150201
-0.059270985 -0.049650043 -0.023686709 -0.3111981 -0.09144184 -0.03474318 -0.06798775 -0.19176318
-0.033844292 0.0073233605 -0.08444905 -0.04883729 -0.14263493 -0.016492492 -0.12328321 -0.018056639
-0.22569759 -0.18006842 -0.11657871 -0.14269857 -0.07234389 -0.13691907 -0.056938395 -0.11429231
-0.08259317 -0.09252223 -0.17240787 -0.0413971 -0.116720825 -0.07827432 -0.16771641 -0.041155737
-0.16877249 -0.037720773 -0.028994055 -0.030891612 0.0008193844 -0.15493143 -0.096830875 0.002296959
-0.08061772 0.0042013163 -0.06457596 -0.253642 -0.051513255 -0.18006794 -0.08190404 0.01808369
0.01698425 -0.056562047 0.030607495 0.04088457 0.026662031 -0.062818356 -0.12898624 -0.14518242
-0.0555818 -0.08750844 -0.108138956 -0.061985675 -0.17607193 -0.036334753 -0.115641296 -0.047642197
0.02123913 -0.087132886 -0.09521946 -0.20949227 -0.27685863 -0.03473587 -0.069892 -0.2221317
-0.022207797 -0.04662354 -0.02350693 -0.20277895 -0.1745014 -0.16098031 -0.08186525 -0.11490876
-0.118162885 0.009004114 -0.06246893 -0.12391602 -0.13598025 -0.0008409912 -0.06805288 -0.11098798
-0.14540216 -0.101190604 -0.14551054 -0.0043057944 -0.15158439 -0.026152125 -0.10169083 -0.12758972
-0.06466877 -0.23362564 0.011329581 -0.2179101 -0.101512 -0.22997253 -0.18997188 0.021330453
-0.07371195 -0.14259009 -0.048046928 -0.07769967 -0.0087951515 -0.09407848 -0.009811269 -0.16680911
-0.1039903 -0.10026292 -0.05759166 -0.22331649 -0.10574139 -0.11722384 0.02875488 -0.08131633
-0.23125401 -0.013481074 -0.17779665 -0.102659464 -0.10441368 -0.007980507 -0.033934835 -0.054960333
-0.0593302 0.013788216 -0.068303525 -0.02495075 -0.04268733 -0.08014681 -0.019802215 -0.05825547

weight f4 [128, 256]
00000000: afaa 41bd 1078 e13c 7546 cbbb 1004 d43d
00000010: f771 9b3c 3f48 8bbd 7db5 2f3c ba05 7cbb
00000020: 5814 c93d c4ff b8bd 3060 ca3c c0cb abbd
00000030: 7ff6 963c 9cf4 a2bd 4e6f 2bbd 6238 223d
00000040: 987d d0bc 7bc3 123d 7880 e5bd 2641 563d
00000050: 1b19 21bd b62b 603c 713a 75ba 8543 9cbb
00000060: db7f 11bd 03eb bb3d 7061 9b3d 546a cabd
00000070: cbdb 89bd dac5 1c3d 6316 20bb ba85 a63d
00000080: c995 3dbd ff15 f0bb 4560 85bd bf4a debc
00000090: 91eb cebc d631 2b3c 313f 8dbc 0e75 b3ba
000000a0: 8ef1 08bd 62a8 d33c bedf 87bd 9797 81bd
000000b0: 642e 813d 01be 513d 80d7 8fbd f6c3 57bd
000000c0: ae4b 9a3d fbf1 d53d 6d22 89bd 1cad 993d
000000d0: aa13 b43d bb60 25bd 72d7 733c 13fe bc3c
000000e0: 21c4 a13d 3d9a d33b c006 7d3c 34d5 a13d
000000f0: e22d cbbd b9e1 10bd 48e0 d9bd 9e2e 3c3b
00000100: 3088 983c 38ac b63d 918f d4bc 1258 ef3d
00000110: 6720 48bd 3141 f73d 7cbd 303c 6747 ffbc
00000120: 4cf2 01bd fa5a 6bbd 5f5f a7bd 8503 b9bd
00000130: 99a1 efbc 5094 923d 81ad e23c 01b8 62bd
00000140: cbc7 f7bc 8592 3cbd d768 2c3e ca3f 1a3e
00000150: 65bc 8abd 2f82 e63c d54c 7abd cdee b03c
00000160: 9228 343c a22d dbbc ddda 5abd 2c39 64bd
00000170: 3c4c 3dbd c845 1dbd 72b6 d73d 28f1 d53d
00000180: a47c 81bd d1dc 08bd 3863 c4bc 3fdf ca3b
00000190: 8ad0 623d 9311 53bd 9aa6 523d 939d 8a3d
000001a0: cf8e 373d b946 dd3c fbc7 113d 9e84 04bd
000001b0: 67a8 683d 9785 ae3d e9b7 ad3b 1c44 c63d
000001c0: 67f1 1fbe 0a37 033d 5100 ad3c 8f69 c23c
000001d0: 30dc 8dbd 9c5d 0d3d 108a 89bd 4c74 d83a
000001e0: 8f01 fabd a7c5 98bd 1239 63bc a232 ddbd
000001f0: 5207 e4bd 9101 6dbd b81f 873d 6539 44bd
00000200: 5b08 423d 09c0 20bd bf0a b2bd 4cbc bf3d
00000210: 1635 d33d e858 473e fe3b b03d a1b6 5a3d
00000220: eb4a 29be 1a40 febd d819 14bd eac2 90bd
00000230: dd25 d53c 3af8 963c 933a 463d 60d1 893d
00000240: 0ec6 83bd 8544 23bd bab3 0c3d 45f6 373e
00000250: 64f8 97bd 59f6 2a3d f0e7 b1bc b262 a6bd
00000260: c75b b6bd 37ba 20bd 5dab 133e 393e 903c
00000270: 08cc cebd 42ed 3e3d 4ca1 8bbd 81a5 42bd
00000280: 2f95 893d 3414 69bd 1f1c 0e3e 18a2 a13d
00000290: 4ed3 bdbd ef62 c9bd fb76 b8bc aa70 e93d
000002a0: 3bfb 963d 4e2d 8e3d 9aad 1c3e ee5e f93d
000002b0: 43a7 cb3c 6f64 2b3d 3522 313d d4c6 fa3c
000002c0: f6bd 87bd 3e5e 4e3d 8c68 af3d 7eb7 433e
000002d0: a993 cd3d 7cb5 39be 25f4 96bd 8f05 d43b
000002e0: 0dec 363c 270d 283d 9da5 34bd 5800 b4bc
000002f0: e867 6e3d 1d9d f93d ca04 95bd b103 87bd
00000300: 9a57 72bb 8b80 7bbd 1220 ff3b d99e 2a3d
00000310: f6cc 3abb 01f0 99bb b9c3 c5bd ead6 073e
00000320: 897f 273d c306 b43d e84e 4abd 69b4 17bd
00000330: 24af 21bd 1941 debc 9a4f 573d 5833 b4bc
00000340: 5c71 a1bd 6d30 ab3c a8be a63b 3802 09bd
00000350: 5700 243c 4b16 1cbe ac9b 193d 9d48 243d
00000360: 25da b63c 557e 3ebd b02f 1dbc 1104 48bd
00000370: 95f3 dabd 968a 9fbd 59bf 34bd 30e0 60bd
00000380: c6a0 1c3d 8f11 b7bd 38d2 81bd a39a 953d
00000390: 34ae 673b 16a1 17bd aea6 403c ecca 073d
000003a0: fb70 ebbd 83d8 8ebd dd0b b93d 17be acbb
000003b0: 8aae 28bd f654 9bbd 1ed7 bfbd 4c71 483a
000003c0: fcfd 873c 0c2a ab3d 6700 b5bc ae8d 113d
000003d0: 8ce3 e5bd b6d7 953d 3714 a0bd 2308 973d
000003e0: 2748 b53d dadb 3f3d afc0 02bd a9c8 4d3c
000003f0: eca3 003c 78d9 93bd a2ce ddbb c8a4 adbc
-0.047281917 0.02752307 -0.0062034675 0.10352337 0.018975241 -0.06800889 0.0107244225 -0.0038455562
0.098183334 -0.090331584 0.024704069 -0.083884716 0.018428085 -0.07956812 -0.041854195 0.039604552
-0.025450513 0.035830956 -0.11206144 0.052308224 -0.039330583 0.0136822965 -0.0009354717 -0.004768791
-0.035522323 0.09175684 0.07586944 -0.09883562 -0.06731375 0.038274623 -0.0024427406 0.08130975
-0.046285424 -0.007326841 -0.065125026 -0.027135251 -0.025258811 0.0104488935 -0.017242046 -0.0013691501
-0.03343349 0.025837127 -0.06634472 -0.063277416 0.063076764 0.051206592 -0.07023525 -0.052677117
0.07533966 0.10446545 -0.06696019 0.07503721 0.08792813 -0.040375452 0.014882909 0.02307037
0.07898737 0.0064575956 0.015443504 0.079019934 -0.09920861 -0.035371516 -0.106384814 0.002871431
0.018619627 0.08919567 -0.025947364 0.1168672 -0.048859026 0.12072981 0.010787364 -0.031161977
-0.031725213 -0.05745981 -0.081724875 -0.090338744 -0.02925186 0.071571946 0.027670624 -0.05535126
-0.030246636 -0.04603817 0.16836868 0.15063396 -0.06774215 0.028138248 -0.06110843 0.021598244
0.010996001 -0.026755158 -0.05343138 -0.055718586 -0.04621528 -0.038396627 0.105328456 0.104463875
-0.063226014 -0.033413712 -0.023973092 0.006191164 0.05537466 -0.051530432 0.051428415 0.06768336
0.044813927 0.027011262 0.035591107 -0.032353036 0.056801226 0.08521574 0.005301465 0.096809596
-0.15619431 0.03203491 0.021118315 0.023731975 -0.06926763 0.0345131 -0.067157865 0.0016514151
-0.122073285 -0.07459574 -0.013868587 -0.10800673 -0.11134209 -0.057862822 0.06597847 -0.0479063
0.04737125 -0.03924564 -0.08693456 0.09362087 0.1031286 0.19467509 0.086051926 0.053396825
-0.16532485 -0.1241457 -0.03615746 -0.07068427 0.026019031 0.01842891 0.048395704 0.06729388
-0.0643426 -0.039860267 0.034351088 0.17965038 -0.074204236 0.04173884 -0.021717042 -0.081242934
-0.08904224 -0.03924009 0.14420839 0.017607795 -0.100975096 0.046612985 -0.06817874 -0.047521118
0.06717908 -0.056904033 0.13877915 0.07892245 -0.09268819 -0.09833323 -0.022517672 0.11398442
0.07372137 0.06942235 0.15300599 0.121763095 0.02486003 0.041843828 0.043245513 0.030612387
-0.06628029 0.050382845 0.085648626 0.19112965 0.100379296 -0.18135637 -0.073707856 0.006470389
0.011164677 0.041028168 -0.044103254 -0.02197282 0.05820456 0.1218817 -0.07276304 -0.06592501
-0.0036978484 -0.061401885 0.0077858055 0.041655395 -0.0028503514 -0.0046978 -0.09656472 0.13265577
0.04089311 0.08790352 -0.049391657 -0.037037287 -0.039473668 -0.02713065 0.05256615 -0.021997139
-0.0788295 0.020897115 0.005088646 -0.03344938 0.010009847 -0.15242879 0.037501976 0.040108312
0.022320816 -0.0465072 -0.009593889 -0.048832003 -0.10690991 -0.07790105 -0.044127796 -0.0549013
0.038239263 -0.08938896 -0.06338924 0.07304885 0.0035351636 -0.037018858 0.0117584895 0.033152506
-0.11496159 -0.0697489 0.09035466 -0.005271684 -0.04118208 -0.075845644 -0.09367202 0.0007646277
0.016600601 0.08357629 -0.022094918 0.035535507 -0.11225042 0.07316534 -0.07816356 0.07374599
0.088516526 0.046840526 -0.03192204 0.012560048 0.007851582 -0.07219213 -0.0067690173 -0.021196738

bias f4 [128]
00000000: 0f11 1bbd dc2e 17be 3f0a cebd d7d4 f1bd
00000010: 1e81 93bd ecb0 b1bd 25a5 9a3a d76d 76bb
00000020: bc1e d2bd 14c3 f63a 0459 9bbd 04d9 acbd
00000030: 7cec 17bd 0a52 d6bd 0141 a5bc d461 fcbd
00000040: 6b6d b1bc 6df0 133c 63e1 99bd 5300 033b
00000050: 7a88 393d e32b fbbd fd13 f5bc 40b6 cdbd
00000060: bc64 16bc e946 52bd 7b2e 9ebd 9293 ea3b
00000070: af6c 16be cb71 dfbc dda1 9fbc 7f7b 19be
00000080: ca25 50be 1af8 92be e88f afba cbcf 19bd
00000090: d620 83bd 3f6c 65bd 5302 15bd ccb3 59be
000000a0: 60a1 debc 6a11 83be 49c7 e0bc 473b 9dbd
000000b0: 2897 98bd 2db9 7d3c 77ad 29be 8262 21be
000000c0: 3042 44be 78e1 17be 6476 c6bd 1218 4bbd
000000d0: 11ea 2ebe 3faa 7dbd 810e 06be 731c b8bd
000000e0: 37e5 12bc 53e6 52bd 6889 bbbd ef0d c7bd
000000f0: 934e 96bd 1e89 8dbd caa0 8fbd 5823 15be
00000100: a00b ddbd 3f21 8cbd 262b cbbb 98d3 873c
00000110: e41b 1cbd caf6 1ebd 6a92 873d dc63 d4bd
00000120: 21ff 09be 6811 a0bc 40da 5ebd 2b6c 2bbd
00000130: 90b9 72bc 6788 62bd e760 80be 5d45 28be
00000140: 609a b6bd 0d7c 7e3b b754 10be 748f 51bd
00000150: 3782 bbbd f958 a3bd d369 3dbe 4c7a 50bd
00000160: fb1a 21bd 74cb 04bd bfe4 a0bd 7871 c1bd
00000170: a3da 99bd 955b 83bd ab0b 33be 472b af3c
00000180: 83b1 30bb 3516 8abd 5d10 d0bc f50f 1fbe
00000190: b17a 4abd ebde 4d3d 1bca b6bd b6ce 8e3c
000001a0: 9374 a5bd 3c00 2dbe 30ed 81bd c69c f2bc
000001b0: 4115 4bbc 9907 1a3c 4562 71bd 00a2 153a
000001c0: 80a4 9fbd 01ea 81bd 514f 2dbd b080 51bd
000001d0: 1b40 e6bd f1a6 a2bd 3bb1 0fbe 28f4 3abd
000001e0: e694 ee3c 7913 0ebe 917a 113d f08c 59ba
000001f0: ed27 1bbe f6b6 4ebd f60e adbd e0a0 35bd
-0.037858065 -0.14763969 -0.10060548 -0.11808174 -0.072023615 -0.08676323 0.0011798484 -0.003760209
-0.10259768 0.0018826448 -0.07585338 -0.0843983 -0.037090763 -0.104648665 -0.020172598 -0.12323347
-0.02165862 0.00902949 -0.07513692 0.0019989207 0.04529617 -0.1226423 -0.029916758 -0.10044527
-0.00917929 -0.051337156 -0.07723709 0.007158705 -0.14689897 -0.02727594 -0.019486362 -0.14988516
-0.20326915 -0.2870491 -0.0013394328 -0.037551682 -0.06402747 -0.056011435 -0.03637917 -0.21259993
-0.027176559 -0.25599223 -0.027438777 -0.07677322 -0.07450706 0.015486044 -0.16570078 -0.15760234
-0.19165874 -0.14832103 -0.0969055 -0.049583502 -0.17081477 -0.061929937 -0.1309147 -0.08989801
-0.008965782 -0.051489186 -0.091570675 -0.097194545 -0.073392056 -0.06910919 -0.0701309 -0.14564264
-0.10793233 -0.06842279 -0.006200212 0.016580388 -0.038112536 -0.038809575 0.06619723 -0.10370609
-0.1347623 -0.01953955 -0.05440736 -0.041851204 -0.014814749 -0.055305865 -0.2507393 -0.1643271
-0.089161634 0.0038831264 -0.14094816 -0.0511622 -0.09155696 -0.079759546 -0.184974 -0.05089788
-0.03933237 -0.03242059 -0.0785613 -0.094454706 -0.07512405 -0.06413952 -0.1748492 0.021382941
-0.0026961274 -0.06742517 -0.025398428 -0.15533431 -0.049433414 0.05026142 -0.08925267 0.017432552
-0.080788754 -0.1689462 -0.06344068 -0.029615771 -0.012395204 0.0094012255 -0.058931608 0.0005708039
-0.07795048 -0.06343461 -0.04231197 -0.051148117 -0.11242696 -0.07941998 -0.14032452 -0.045643
0.029123735 -0.13874616 0.03551728 -0.00082988944 -0.15151949 -0.050467454 -0.08450119 -0.044342875

weight f4 [12, 128]
00000000: a9f5 8fbd 5341 a1bb 1127 b33c 0533 4f3d
00000010: 0e60 813d 10bb e2bd 1c33 b3bc 6a57 543e
00000020: 123d e33c 1135 423e b45a 36be e114 53bb
00000030: 16bc 253d 3af9 453d 3e19 2bbd 013e 823d
00000040: 7eaf 23be d3c7 f23d 82c3 85bd 8b5c 3cbd
00000050: e2ac ac3d 3eb9 55bd dec0 52bd fd74 903d
00000060: da17 8dbb 1f6b a1bd ef74 dcbb a312 bbbc
00000070: 3037 553d ffcc 633d b8ff 7ebb 5815 acbd
00000080: 7041 1e3d e819 20bd 84e7 d7bc b30e 0f3e
00000090: a91d 45bc 7dc1 d53d b7ee 6bbc 5909 edbd
000000a0: c442 ed3a 16a3 0fbb bdbf 983d 0d07 e8bb
000000b0: 69fb 23bd 8252 273d 4b9a 96bd 2bd6 11bd
000000c0: e280 fcbd 4811 6c3c 56a3 c03c 88b4 c03c
000000d0: 6688 a83d cd07 ff3c 524f 30be df47 763d
000000e0: 1014 203d 3864 463c 44fb ae3c 58bb 763d
000000f0: 37f6 bcbd 772d 853c 59f5 343d 0dfa d6bd
00000100: 8403 68bd 47c6 49bd e6c0 bbbd 05bf c63d
00000110: fe16 d0bc 6505 a23c bfb5 ce3c b38e 3cbc
00000120: a151 f9bd 0740 8dbd 7948 f4bd 706b 543e
00000130: a25a 9a3d b052 a53d a643 d73b d020 dfba
00000140: 735d 00bc 4fd3 9f3c 0c2f 9d3d 0e12 b9bd
00000150: 2c9b b93c b550 d3bc d6e3 373d af90 923d
00000160: e986 32be fa91 83bc b450 44bc 5864 9bbd
00000170: 8e13 2c3d 25ff a8bd 0dc5 febc 2f1a 433d
00000180: a45d cfbc 6ef8 173e 703f 2fbc 3ab2 cebd
00000190: aee8 8abd 439a 053d e8d7 873c ea06 ab3d
000001a0: 3b0a e03d 27cb 17be 1212 483e 9670 35bc
000001b0: 4fa8 01be bec7 1c3d bcb5 c93c 4ec3 f03c
000001c0: ffd6 abbd f007 6fbd 7081 483e 9c1b 07bd
000001d0: ac71 4fbd b1bf 0d3b 0c75 84bd dcdf 1a3e
000001e0: 60a0 053e fd9d 4e3c 46d5 9a3b 4313 09be
000001f0: 0f2c 823c 9880 cebd 3c9a 57be f281 e23d
00000200: 920a 713c 8448 183d 42e2 8cbd 7e66 e43c
00000210: b694 a63c 9119 8d3d 9dda bfb8 79ec 4abc
00000220: 0a4f 823d 7110 03bc 1d31 37bd 1c09 123d
00000230: 4143 c3bd 6fc6 703d 0532 a53c e4c8 c2bd
00000240: a956 91bd 8338 ae3d dc11 aabd c8b6 9cbd
00000250: 4aff 01bc a9e8 c4bd 9d9b 123b 4149 7dbd
00000260: 1619 953d 38ee 4f3d aa20 9d3d 4121 17bd
00000270: a837 313e 57c3 a53d 284e 26bc d5f3 8b3d
00000280: 2f5a d63a c617 52bd 00aa f2bc 67af 7c3c
00000290: 763a 2cbd 5a1d 66bd 5456 ed3c f5ba 803d
000002a0: 594e 9f3d ca43 8cbd c6e6 d4bc 06f7 b83d
000002b0: f118 74bd eba5 8e3d 1631 38bd 28dc 473c
000002c0: f985 233c 5294 5cbc ed3a 13bb 6259 1ebc
000002d0: 66ef 0ebd 3b62 8d3d f70a aa3c 8535 23bd
000002e0: cf62 c3bd 1723 bd3a c9c0 22bd 544f b1bd
000002f0: fabb 023d 3f36 c7bb a0e7 753c 1bfd 2d3d
00000300: 9103 013e e799 a2bd 075b 1fbd 6c85 19bc
00000310: 6f56 2cbd 4fbe c2bc 0614 a1bd 6c4d eb3c
00000320: 4319 cbbc c71c 6ebc 4d56 333d c98f d5bb
00000330: ee82 43bd 23c3 7b3c b916 ad3d c0a3 c53d
00000340: a43b 933d 31f6 ea3c 72ad a53d ac26 3cbb
00000350: 197c 663d 6ba7 f23c 1d3b 703d cef3 a8bb
00000360: 9ebc f9bb a063 d0bc 9113 4d3d 7ce1 973d
00000370: c1e6 9e3d 3b27 9abd 6d0a 923d f6b1 c8bd
00000380: 94bb 143d cc1a e33d da0d 753d b8a9 4fbd
00000390: 2539 ec3c 85b7 69bd 813d 5ebd 6bd3 7dbd
000003a0: ea0b 043d ebb2 3d3d bedc 953d 6ce4 133e
000003b0: 40d9 81bc 47eb f3bd dfbc 89bc a55e 0dbd
000003c0: 577e 54bd 12f6 b93d 0cd4 cbbc dfe8 963d
000003d0: db00 023d be28 213e 8a7e 563d 3b7d 503d
000003e0: 9815 e53c ce66 4dbd 4cee 68bd 8d7b 9bbd
000003f0: 35b2 123d 0a9c 27bd 481c e73c 0441 dcbc
-0.07029278 -0.0049211173 0.021869214 0.050585765 0.06317149 -0.110708356 -0.021874957 0.20736471
0.027739082 0.18965556 -0.17808038 -0.003220849 0.040462576 0.048333384 -0.04177212 0.063594826
-0.15984914 0.1185452 -0.06531431 -0.045986693 0.08431412 -0.052178614 -0.051453464 0.07053564
-0.004305822 -0.0788176 -0.0067278068 -0.022836035 0.052054584 0.05561542 -0.0038909744 -0.084025085
0.038636625 -0.039087206 -0.026355512 0.13970451 -0.012030997 0.104372956 -0.014400176 -0.115740485
0.0018101563 -0.0021917275 0.07458446 -0.0070809186 -0.040034685 0.04085017 -0.07353648 -0.035604637
-0.1232927 0.014408417 0.023515385 0.023523584 0.08229141 0.03113165 -0.17217758 0.060127135
0.039081633 0.012108855 0.021360047 0.06023726 -0.09226649 0.01625703 0.044179294 -0.10496912
-0.056643978 -0.049261358 -0.09167652 0.09704403 -0.025401589 0.019777963 0.025233148 -0.0115086315
-0.121737726 -0.06896978 -0.119278856 0.20744109 0.07536818 0.08072412 0.0065693436 -0.0017023329
-0.00783478 0.01950994 0.07674989 -0.09036647 0.022657 -0.02579532 0.044895016 0.071565025
-0.17434277 -0.016060818 -0.011982132 -0.075874984 0.042010836 -0.0825179 -0.03109982 0.047632392
-0.025313206 0.14840862 -0.010696277 -0.10092588 -0.067826614 0.03261782 0.016582444 0.08350928
0.10939451 -0.1482359 0.19538143 -0.011074206 -0.12661861 0.038276426 0.02462279 0.029390004
-0.083906166 -0.05835718 0.19580626 -0.032985315 -0.050645515 0.002162915 -0.064676374 0.15124458
0.1304946 0.0126109095 0.004725131 -0.13386254 0.01589015 -0.10083121 -0.2105493 0.11059941
0.014711993 0.03717853 -0.06879093 0.027880903 0.020334583 0.06889642 -9.1483096e-05 -0.012385481
0.06362732 -0.007999525 -0.044724572 0.03565322 -0.09534312 0.05878299 0.020165453 -0.09510973
-0.07096607 0.085068725 -0.08304188 -0.0765205 -0.007934401 -0.09614689 0.0022370585 -0.06183744
0.072801754 0.050764292 0.07672246 -0.036896948 0.17306387 0.08093899 -0.01015047 0.06833617
0.0016353781 -0.051292203 -0.029622078 0.015422679 -0.04204794 -0.056180336 0.028971829 0.06285659
0.077786155 -0.06848867 -0.025988948 0.09031491 -0.0595941 0.0696524 -0.044968687 0.012198485
0.009980672 -0.013463097 -0.0022465542 -0.009664865 -0.034896277 0.069035016 0.020757182 -0.039845962
-0.095403306 0.0014430013 -0.039734636 -0.08657709 0.03191755 -0.0060794647 0.015008837 0.04247771
0.12599017 -0.07939511 -0.03890517 -0.009370189 -0.042074617 -0.023772387 -0.07865147 0.028723441
-0.02479232 -0.014533228 0.043783475 -0.0065173847 -0.047732286 0.015366348 0.084516 0.096503735
0.0718911 0.028681846 0.08089723 -0.0028709574 0.056270692 0.029620847 0.058650125 -0.005156017
-0.007621362 -0.02543813 0.050067488 0.074160546 0.077588566 -0.07527014 0.07130895 -0.09799568
0.0363117 0.110890955 0.059827663 -0.050698966 0.028835842 -0.057059783 -0.054257873 -0.061969202
0.032237925 0.046313208 0.07317494 0.14442605 -0.015850663 -0.1191011 -0.016813694 -0.03451409
-0.0518783 0.09080137 -0.024881385 0.073686354 0.031739097 0.15738198 0.05236677 0.05090068
0.027964398 -0.05014687 -0.056867883 -0.07591925 0.035814483 -0.040920295 0.028211728 -0.02688647

bias f4 [12]
00000000: 680e 873e 0a46 a7bd f87b 56be b257 02be
00000010: 9ab2 9abe 5a52 9d3d a0eb 6fbe 5ad5 48bc
00000020: 5666 c5bd 4490 693c 2fb6 213d 154d 3abb
0.2637818 -0.08167656 -0.20945728 -0.12728766 -0.30214387 0.07681723 -0.23429728 -0.012257898
-0.0963866 0.014255587 0.039480384 -0.0028427292
