logs/h1/exported/policies/policy_lstm_1.pt (torch, 139217 bytes, 10 tensors)

hidden_state f4 [1, 1, 64]
000000 00 00 00 00 00 00 00 00 00 00 00 00 00 00 00 00
       0.0 0.0 0.0 0.0
000010 00 00 00 00 00 00 00 00 00 00 00 00 00 00 00 00
       0.0 0.0 0.0 0.0
000020 00 00 00 00 00 00 00 00 00 00 00 00 00 00 00 00
       0.0 0.0 0.0 0.0
000030 00 00 00 00 00 00 00 00 00 00 00 00 00 00 00 00
       0.0 0.0 0.0 0.0
000040 00 00 00 00 00 00 00 00 00 00 00 00 00 00 00 00
       0.0 0.0 0.0 0.0
000050 00 00 00 00 00 00 00 00 00 00 00 00 00 00 00 00
       0.0 0.0 0.0 0.0
000060 00 00 00 00 00 00 00 00 00 00 00 00 00 00 00 00
       0.0 0.0 0.0 0.0
000070 00 00 00 00 00 00 00 00 00 00 00 00 00 00 00 00
       0.0 0.0 0.0 0.0
000080 00 00 00 00 00 00 00 00 00 00 00 00 00 00 00 00
       0.0 0.0 0.0 0.0
000090 00 00 00 00 00 00 00 00 00 00 00 00 00 00 00 00
       0.0 0.0 0.0 0.0
0000a0 00 00 00 00 00 00 00 00 00 00 00 00 00 00 00 00
       0.0 0.0 0.0 0.0
0000b0 00 00 00 00 00 00 00 00 00 00 00 00 00 00 00 00
       0.0 0.0 0.0 0.0
0000c0 00 00 00 00 00 00 00 00 00 00 00 00 00 00 00 00
       0.0 0.0 0.0 0.0
0000d0 00 00 00 00 00 00 00 00 00 00 00 00 00 00 00 00
       0.0 0.0 0.0 0.0
0000e0 00 00 00 00 00 00 00 00 00 00 00 00 00 00 00 00
       0.0 0.0 0.0 0.0
0000f0 00 00 00 00 00 00 00 00 00 00 00 00 00 00 00 00
       0.0 0.0 0.0 0.0

cell_state f4 [1, 1, 64]
000000 00 00 00 00 00 00 00 00 00 00 00 00 00 00 00 00
       0.0 0.0 0.0 0.0
000010 00 00 00 00 00 00 00 00 00 00 00 00 00 00 00 00
       0.0 0.0 0.0 0.0
000020 00 00 00 00 00 00 00 00 00 00 00 00 00 00 00 00
       0.0 0.0 0.0 0.0
000030 00 00 00 00 00 00 00 00 00 00 00 00 00 00 00 00
       0.0 0.0 0.0 0.0
000040 00 00 00 00 00 00 00 00 00 00 00 00 00 00 00 00
       0.0 0.0 0.0 0.0
000050 00 00 00 00 00 00 00 00 00 00 00 00 00 00 00 00
       0.0 0.0 0.0 0.0
000060 00 00 00 00 00 00 00 00 00 00 00 00 00 00 00 00
       0.0 0.0 0.0 0.0
000070 00 00 00 00 00 00 00 00 00 00 00 00 00 00 00 00
       0.0 0.0 0.0 0.0
000080 00 00 00 00 00 00 00 00 00 00 00 00 00 00 00 00
       0.0 0.0 0.0 0.0
000090 00 00 00 00 00 00 00 00 00 00 00 00 00 00 00 00
       0.0 0.0 0.0 0.0
0000a0 00 00 00 00 00 00 00 00 00 00 00 00 00 00 00 00
       0.0 0.0 0.0 0.0
0000b0 00 00 00 00 00 00 00 00 00 00 00 00 00 00 00 00
       0.0 0.0 0.0 0.0
0000c0 00 00 00 00 00 00 00 00 00 00 00 00 00 00 00 00
       0.0 0.0 0.0 0.0
0000d0 00 00 00 00 00 00 00 00 00 00 00 00 00 00 00 00
       0.0 0.0 0.0 0.0
0000e0 00 00 00 00 00 00 00 00 00 00 00 00 00 00 00 00
       0.0 0.0 0.0 0.0
0000f0 00 00 00 00 00 00 00 00 00 00 00 00 00 00 00 00
       0.0 0.0 0.0 0.0

weight f4 [32, 64]
000000 21 06 63 3e 98 a9 5f be 3e ee 7e 3e f3 ea 8f 3d
       0.22170307 -0.21842039 0.2489557 0.07027235
000010 74 40 b5 be 0a 00 a5 3e cc 4e 86 be 82 d5 fb 3b
       -0.35400736 0.32226592 -0.26231992 0.007685364
000020 0c 50 f2 3d 97 b9 84 3e 29 4e 02 3e e6 82 38 3e
       0.11831674 0.25922844 0.12725128 0.18018684
000030 56 45 b3 3e c0 3a f8 bb ce d7 37 3e 0c 81 ab 3e
       0.35013837 -0.007575363 0.17953417 0.33496892
000040 fd 90 6f be 4b 1a 6f be 1f 10 1a 3d 99 29 af be
       -0.23395152 -0.23349874 0.03761303 -0.34211424
000050 be 63 b5 be 30 df 12 be 9a 7e b4 3e 8d b4 cf 3e
       -0.3542766 -0.14342952 0.3525284 0.40567437
000060 0d 99 b0 be 6d cb a9 3e e4 4d fa be 2a eb 97 bd
       -0.34491768 0.33163014 -0.4888755 -0.07417901
000070 87 61 a5 bd 6e ef 10 3e a4 84 14 be f3 a1 2e be
       -0.080752425 0.14153835 -0.14503723 -0.17053966
000080 f8 01 c4 3c ef e1 25 3e 12 0c 39 3e b9 39 af 3e
       0.02392672 0.16199468 0.1807101 0.34223726
000090 05 82 29 be d3 ca 88 bc c8 6e ba bd 87 af 43 3f
       -0.16553505 -0.016698277 -0.09103161 0.7643971
0000a0 1a 4a 8b be 8d e4 c0 be 05 21 cb 3e ad 3d ea 3e
       -0.27204973 -0.3767437 0.3967363 0.4575018
0000b0 1c 5a 3a bf 03 25 6f 3c fa e6 8e 3e 8f 0d 61 be
       -0.72793746 0.014596227 0.27910596 -0.21977828
0000c0 19 bd 9a 3b d4 4d 92 bd ac 38 32 bf 50 20 d9 be
       0.004722249 -0.07143751 -0.69617724 -0.42407465
0000d0 0f bf 2b 3e d0 b2 da bb 17 72 8e 3e 28 c8 5e be
       0.16772102 -0.006674148 0.2782142 -0.21756041
0000e0 a8 c6 35 3e 5a 79 93 3e 72 89 05 bf e6 20 9a be
       0.17751563 0.2880352 -0.5216285 -0.30103225
0000f0 a3 82 19 bd 86 8a 22 3c 84 a7 d3 bd 97 5e 79 bd
       -0.0374781 0.009920722 -0.103346854 -0.060881224
000100 ab ad 92 be 60 68 77 be c8 58 45 bf cc ab d8 bc
       -0.28648123 -0.2416091 -0.77088594 -0.026449107
000110 69 7a a6 bd 12 9e 3d 3f cc 0d 44 3e 37 6a 01 bf
       -0.08128817 0.7406932 0.19145888 -0.50552696
000120 c1 72 5f 3e 9c 8e 90 be 17 08 26 bf 02 05 b4 3e
       0.21821119 -0.28233802 -0.64856094 0.3516007
000130 f5 56 59 be 1b 1c bf be 25 6e ac 3e ee 94 18 be
       -0.21224578 -0.3732613 0.33677784 -0.14900562
000140 53 22 bf 3e 0a 0c bf bd 61 56 1d be dc 42 ed 3d
       0.37330875 -0.09328468 -0.15364982 0.11585018
000150 4f a1 a6 be b9 8a 26 3f d7 eb 7a 3e 88 e3 d5 be
       -0.32544944 0.65055424 0.24504028 -0.41775155
000160 dd b5 b9 3d 8d d6 5c be d4 e8 58 3d 7e 2c a9 bd
       0.09067891 -0.2156622 0.052956417 -0.08260439
000170 c2 92 4c 3e 73 24 6a bc 59 7d 36 be 7f 1e 5d be
       0.19977859 -0.014290917 -0.17821254 -0.21593665
000180 8c f6 a8 3c 5d 12 20 be 45 b9 37 3e 0d 70 65 3f
       0.020625375 -0.15632005 0.17941768 0.896241
000190 cc ce 57 be 87 12 a0 3e 43 99 77 be 1d 64 3c 3e
       -0.2107498 0.31264135 -0.24179558 0.18397565
0001a0 72 75 12 3e 2c cf 97 3e fe 20 c0 3e c8 0b 6a bd
       0.14302614 0.29650247 0.3752517 -0.05714014
0001b0 46 32 03 bc be cf 4b bc ca d1 3d bf 34 99 2e 3f
       -0.008007592 -0.012439666 -0.7414824 0.6820252
0001c0 16 de 22 3e 0c 5d a9 be d0 27 f8 be b8 6c ca 3d
       0.15905032 -0.33078802 -0.48467875 0.09884018
0001d0 81 20 d4 3c 89 b0 c4 bd 74 44 69 3d 22 c3 b8 3d
       0.025894405 -0.09603984 0.056950048 0.09021594
0001e0 5a 78 d9 be cc 59 77 be d2 aa 5e 3e e8 1f be 3d
       -0.42474633 -0.24155349 0.2174485 0.092834294
0001f0 53 bd 20 3e 5f 2f ee 3e 86 47 ad 3d 7d 11 1c be
       0.15697221 0.46520516 0.08460908 -0.15241046
000200 a8 5e c8 be 6e 7d 2e be f2 61 95 3d a5 1f 8f be
       -0.39134717 -0.17040035 0.07294072 -0.2795383
000210 c9 c6 93 be ba e0 e4 bd 6c ed d0 bd 20 a8 02 3f
       -0.288626 -0.11175676 -0.10201535 0.5103779
000220 c7 45 f6 3e 3f 5d 36 3f 45 b6 a8 bd 9f 55 11 3f
       0.4810011 0.7123603 -0.0823789 0.5677127
000230 48 4f bb bc a7 61 ec 3e 0e 0c ed 3b 6a 0d 2a be
       -0.022864953 0.46168253 0.007234103 -0.1660668
000240 f9 80 55 be 63 f6 a2 3e 42 3b 6c 3b 2e f2 41 bd
       -0.2084998 0.31828603 0.0036046063 -0.0473501
000250 cf 17 20 3d fa 32 4a be 26 1c 84 be 60 f9 ae 3c
       0.039085206 -0.19746009 -0.25802726 0.021359146
000260 56 fc 9e be e1 0e 48 3f 56 c5 79 bc 05 a9 ce 3c
       -0.31051892 0.78147703 -0.015244802 0.02522708
000270 f2 df 0f bc 47 50 ac bd 2d a0 72 bb 75 b4 94 be
       -0.00878142 -0.08413749 -0.0037021742 -0.29043928
000280 e1 cc 7a bf ec a6 79 3e e6 11 59 3b 5f 26 1e 3f
       -0.9796887 0.24380082 0.003312224 0.617773
000290 c9 f7 53 bd d6 d5 0b bf f1 a7 69 3e 03 db 2a 3f
       -0.05174998 -0.5462316 0.22817971 0.66740435
0002a0 34 4f 67 bf 4f 05 9a bd 8b c9 44 3f 6c c5 95 3d
       -0.9035523 -0.07520544 0.7687003 0.07313046
0002b0 5d 35 1f 3c e7 b1 35 be 1e fb 1e 3e f0 d1 11 bf
       0.009717313 -0.17743646 0.15525481 -0.56960964
0002c0 0a 31 a3 3e 3a 1a 3b bf 8f c9 16 bf a8 1e b6 be
       0.3187335 -0.73086894 -0.58901304 -0.35570264
0002d0 4c 91 80 bd d4 e1 f3 3d 24 20 80 3e b9 d4 92 3d
       -0.06277713 0.11908308 0.2502452 0.0716948
0002e0 96 6d de 3e ae 8e 94 be 19 61 24 be c7 a0 8b 3e
       0.43442982 -0.29015106 -0.16052665 0.272711
0002f0 c9 01 8c be 91 7c ff 3e d5 b6 75 be 91 2f 3d be
       -0.27345112 0.49899724 -0.23995526 -0.18475176
000300 8b 58 f1 3e ed 9e 33 3e 07 bf 0a bd d2 5c 6b 3b
       0.47137865 0.17541094 -0.033873584 0.003591348
000310 8a 86 38 3e c9 43 c2 3e 11 6f f2 bd f8 1d bc 3d
       0.18020073 0.3794234 -0.118375905 0.091854036
000320 1a 81 77 be ca d5 24 be 1c f1 b7 3e 4e 36 9a be
       -0.24170342 -0.16097179 0.3592614 -0.30119556
000330 54 b2 3d be c4 b7 6e bc 6a 64 9a bc 49 19 55 3d
       -0.18525058 -0.01457018 -0.01884671 0.052026067
000340 13 8b e2 3d 1c 59 a2 bd e2 4b b0 3e f8 1f 62 3d
       0.110616826 -0.079271525 0.34432894 0.05520627
000350 e5 50 19 3d 87 0b 97 3d 90 2b 09 3e d7 03 1a 3e
       0.037430663 0.073752455 0.13395524 0.15040527
000360 23 11 28 be b7 14 e7 bc 7c 9a b6 be 2b a7 3f bc
       -0.16412787 -0.02820812 -0.35664737 -0.011697571
000370 7e 64 43 bc 0e a5 87 3c d5 50 90 3e dc da bf be
       -0.011925815 0.016558196 0.2818667 -0.37471664
000380 6f 32 ba 3e 82 b2 47 bd da ce ac be b3 4b 0b 3f
       0.36366603 -0.048754223 -0.33751565 0.5441238
000390 8d 5a d4 bd a1 92 bc 3e f1 3c fd 3d 54 5c 19 bf
       -0.10368834 0.3683062 0.12365139 -0.59906507
0003a0 f4 83 ac 3d 1a 54 8c 3d b6 b0 31 bf 93 2e 99 bd
       0.084236056 0.068519786 -0.69410264 -0.074795865
0003b0 ca ff 2a bf a5 7d ac 3e bd 8f 45 be c6 2d 2a 3f
       -0.66796553 0.3368961 -0.19293113 0.66476095
0003c0 58 9a 35 3e ba 5c 07 bf 79 0c d8 3e 3a 98 0d 3f
       0.17734659 -0.52875865 0.42197016 0.55310404
0003d0 95 53 10 3d 28 36 77 be 15 bf 0a be 7e 38 80 3e
       0.03523596 -0.24141753 -0.13549455 0.250431
0003e0 4c 16 e9 3e e9 82 17 be 09 58 a7 be 57 5a 2d be
       0.45524824 -0.14796032 -0.32684353 -0.16928993
0003f0 28 35 d7 3e a0 8a 06 bd c2 af 48 3d 46 a3 89 3e
       0.42032743 -0.032847047 0.04899574 0.2688238

bias f4 [32]
000000 77 43 0c be 07 9e 06 be 7d 2f 76 be f8 2b 8a 3e
       -0.13697611 -0.1314622 -0.24041553 0.2698667
000010 93 3a 90 bc b1 a5 b8 3e 20 c7 c8 3e a2 49 de be
       -0.017606055 0.36063913 0.3921442 -0.43415552
000020 7a 68 90 3d cf 6d 4c 3e ec b8 d2 be a5 9a 3c 3b
       0.07051177 0.19963764 -0.4115671 0.0028778699
000030 e4 26 c8 3e 95 49 1d be 21 43 57 be 20 17 7b 3e
       0.3909217 -0.153601 -0.21021701 0.2452054
000040 2c f7 60 bd 52 41 bc 3d ef a7 ac be 73 d6 5e be
       -0.05492322 0.09192146 -0.33721873 -0.21761493
000050 6c 64 6f 3e 01 d6 5a 3d f0 e1 6b 3e c8 c9 0d bd
       0.23378152 0.053426746 0.23035407 -0.03461626
000060 7b 7d 0d be d0 24 cf 3c 30 35 7d 3e 0d 6a 3e be
       -0.13817398 0.025286108 0.2472732 -0.18595143
000070 cd f4 28 3d b5 98 a1 3e 54 10 99 be c8 79 e7 3e
       0.041249085 0.3156182 -0.2989527 0.452101

weight f4 [10, 32]
000000 6c 23 81 3f 38 28 21 bd 0b 9d 66 3e 72 ea be bd
       1.0088935 -0.039344996 0.22520845 -0.09322061
000010 82 71 26 3e 16 c2 03 3f a6 98 0f bf 72 51 82 3e
       0.16254237 0.51468027 -0.560923 0.25452763
000020 9e 6f 29 be 79 39 fa bd 86 c4 84 3e 49 06 f4 3e
       -0.16546485 -0.12217993 0.25931185 0.47661045
000030 c8 12 fd be 79 22 5d 3e f6 a3 a0 3e e6 8d d0 bd
       -0.4942839 0.21595182 0.31375092 -0.10183315
000040 35 ae a8 bd 22 a1 1c bf 49 90 aa 3d 9e e4 50 be
       -0.08236352 -0.6118337 0.083283015 -0.2039971
000050 a2 14 be be e3 a2 e0 3e 80 f9 64 3e 98 dd e5 3e
       -0.37125117 0.43874273 0.22360802 0.44895625
000060 48 fc 31 3e 32 a2 8e 3d 69 20 b6 be e5 ad 00 3e
       0.17381394 0.0696453 -0.35571602 0.12566335
000070 c1 7d e5 bd db 00 20 bf 4f 71 2c 3f 75 b0 42 3e
       -0.11205626 -0.62501305 0.67360395 0.19012626
000080 f7 5c a4 be 6b 1c 02 3f 20 0d fc 3d 99 ef 9b be
       -0.32102177 0.5082461 0.12307191 -0.30456236
000090 0a 12 1d 3e ef 79 1b 3e 22 26 18 bf a1 94 81 3f
       0.15338913 0.15183233 -0.59433186 1.0123483
0000a0 4c fa be bb f7 5f 01 bd 40 e1 b8 3f a8 70 2b 3e
       -0.0058281776 -0.03158566 1.4443741 0.16742194
0000b0 8c a4 ad 3e 48 ce 41 3e 99 0b 3e 3f 8e 20 29 3f
       0.33914602 0.18926346 0.74236447 0.660653
0000c0 e3 3e 4e 3f f0 58 97 3e 6b 95 0b be a6 41 08 bf
       0.8056471 0.2956004 -0.13631217 -0.5322517
0000d0 fd d9 ee be cc 25 6b 3f e2 f3 2e 3f 42 1c f3 be
       -0.46650687 0.9185455 0.68340886 -0.47482497
0000e0 d5 cf 77 3f 2d 79 17 3e be 81 3f 3e 57 33 70 3e
       0.968015 0.14792319 0.18701836 0.23457085
0000f0 63 eb c4 be ca 00 33 3f d4 72 b9 bd e8 2a b8 be
       -0.38460836 0.6992308 -0.09055105 -0.35970235
000100 6b ac ce be fa 07 d1 be e0 a0 57 bf 8f 7b 4b 3e
       -0.4036592 -0.40826398 -0.8422985 0.19871353
000110 1b 89 5c 3e fd 2a ec be fd aa 69 be e2 cc 3f 3e
       0.21536677 -0.46126547 -0.22819133 0.187305
000120 b8 18 c8 be 8a e2 0f bf 63 74 30 3f 56 ed 1a 3f
       -0.3908136 -0.56205046 0.6892759 0.60518396
000130 a6 18 c8 be ef c3 17 bf ba a2 06 3f fb d8 ef bd
       -0.39081305 -0.59283346 0.5259205 -0.117113076
000140 f7 be e1 bd 7b b8 a2 be 1d 63 55 3e 2a 2c 10 3f
       -0.11022752 -0.31781372 0.2083859 0.5631739
000150 3b 90 38 3f 04 d8 4d be dc 39 00 3f 38 46 90 be
       0.7209508 -0.20101935 0.50088286 -0.28178573
000160 20 18 22 be 89 14 1d 3f e9 5a e8 3e 19 10 57 3f
       -0.15829515 0.6135946 0.4538186 0.8400894
000170 a9 3d e3 3e 42 dc 68 be b8 51 bf 3e 99 5e 9c be
       0.4438298 -0.22740272 0.37367034 -0.30540922
000180 8e 41 a5 be b9 00 89 3e 02 86 2d 3f 78 a9 10 bf
       -0.32276577 0.26758364 0.67782605 -0.5650859
000190 99 47 a6 3e a5 1d bb be 96 cf a0 be 43 3a 55 3f
       0.324765 -0.36546054 -0.31408376 0.83292025
0001a0 b7 45 dc bc 37 7e 44 bf f5 ef 17 3f 8b af 2d bf
       -0.026888711 -0.7675509 0.5935052 -0.6784598
0001b0 59 f1 cb be 07 40 03 3f 29 dd a7 3e d1 16 3e 3e
       -0.3983257 0.5126957 0.3278592 0.18563391
0001c0 59 0d 2c 3f f4 92 29 be f7 04 fd 3e e7 55 35 3f
       0.67207867 -0.16559964 0.4941785 0.708342
0001d0 78 33 26 bf d1 71 b2 bd 0d 98 c6 be 99 23 db 3d
       -0.64922285 -0.08713115 -0.3878788 0.10700149
0001e0 58 a5 ad bd cd cc 82 bd c8 4a 91 bf 5f b5 95 be
       -0.084788024 -0.06386719 -1.1350946 -0.29239938
0001f0 61 cd df 3e fe 5c 0d bf 0f 49 94 be e2 9c 07 bf
       0.4371138 -0.5522002 -0.2896199 -0.5297376
000200 b1 84 b8 3e 4c 71 52 be d6 91 f7 bd 13 06 11 3f
       0.36038736 -0.20551032 -0.12088363 0.56649894
000210 95 60 63 be 60 af 03 3e ba 9b ba be 5d 3e 13 be
       -0.22204812 0.12859869 -0.36446935 -0.14379258
000220 23 d9 90 bd f4 89 c9 be e7 80 8b 3e 5e 50 a5 be
       -0.070726655 -0.39363062 0.27246782 -0.32287878
000230 89 d0 0a be aa 72 c5 3e d3 7f cf be df 44 07 3f
       -0.13556112 0.38564044 -0.4052721 0.52839464
000240 91 b4 8e be ac dd a7 3e 06 db 2d bf 73 ae 30 bd
       -0.27872136 0.3278631 -0.6791233 -0.043135118
000250 13 ba 07 3f 72 e5 4f 3c 7d 4b 14 bf fa c4 1a 3e
       0.530183 0.012688981 -0.57927686 0.15114203
000260 0c b2 7c bd 7a 27 9f 3e 25 16 de be 39 08 06 bc
       -0.061693236 0.31084806 -0.4337627 -0.008180671
000270 e0 15 e3 3e 36 6a d4 3e ca df 2c be d5 d6 fb bd
       0.44352627 0.41487283 -0.16882244 -0.12296835
000280 7b 3e 2e be 74 e4 0d 3e 98 d8 96 be 7f ab 7d 3e
       -0.17016022 0.13856679 -0.29462123 0.24772452
000290 a6 6a 98 3e cd 6a 37 bd 79 b1 b6 3e f0 fe e4 3e
       0.29768866 -0.044779588 0.35682276 0.44725752
0002a0 0d 81 45 3e bb 40 96 3d d5 4c 83 3e 30 80 80 3d
       0.1928751 0.07336565 0.25644556 0.0627445
0002b0 d3 4e ef be b4 01 13 3e 09 8c 2b bf 24 d9 c5 be
       -0.46739826 0.14356118 -0.6701055 -0.38642228
0002c0 7b b0 16 bf 11 31 79 3f 8d 2f a7 3e 23 9c f6 3d
       -0.5886304 0.97340494 0.32653466 0.120414995
0002d0 8f 3b 73 bc 61 43 36 3f b6 5d b4 be b1 0d 67 3c
       -0.014845743 0.7119656 -0.35227746 0.014102385
0002e0 19 9e 08 3e 2f b4 0f bf 79 cd 5d 3e ec 53 08 3f
       0.1334156 -0.56134313 0.21660413 0.53253055
0002f0 5d 67 f7 3d f0 8d af bc ef 91 db be 08 62 02 be
       0.12080262 -0.021429986 -0.42884776 -0.12732708
000300 eb 8e c0 be 01 c4 81 3f da e2 6b bf e5 23 d9 3e
       -0.37609038 1.0137941 -0.92143023 0.42410198
000310 80 c9 98 be d6 8b e1 be b2 ef d1 3d e1 a7 1a bd
       -0.29841232 -0.44052 0.102507964 -0.037757758
000320 c0 e5 f8 3e 99 78 d1 3e f7 29 24 bf b4 30 b6 3d
       0.48612785 0.4091232 -0.64126533 0.08896008
000330 f8 2c d5 be e5 74 b0 3e 23 ea 97 3e e4 60 69 3f
       -0.4163587 0.34464183 0.2967082 0.9116347
000340 b5 a7 74 be c4 5a 22 bf b7 78 41 3f 7a 68 00 be
       -0.238921 -0.6341975 0.7557482 -0.12539855
000350 13 75 74 3e 59 d9 35 bd 36 0a 5f 3d 22 0f cc 3e
       0.23872785 -0.044396732 0.054453097 0.39855295
000360 08 22 40 bf 52 93 f4 be 2d 8f 99 bd 49 4e 17 3f
       -0.7505193 -0.47768646 -0.07498012 0.5910383
000370 45 9d c5 be 2f a9 e1 3e 11 c7 89 3f 78 d8 9c be
       -0.3859655 0.4407439 1.0763875 -0.30633903
000380 f4 82 3d 3e ec 02 08 bf 14 3f 0c be 66 22 1b bf
       0.18506986 -0.5312946 -0.13695937 -0.6059936
000390 ff aa 25 3e e5 19 35 3b af f4 cb be 36 24 e5 bc
       0.16178511 0.0027633843 -0.39835116 -0.027971368
0003a0 6f 53 51 3f e1 b0 22 3f 8f 23 c1 be bf 16 30 bf
       0.81767935 0.63551146 -0.37722442 -0.6878471
0003b0 e4 62 0f 3d 0b 92 76 3e a4 2c 0b bf 91 c7 75 3e
       0.03500642 0.24079148 -0.5436499 0.2400191
0003c0 ee f5 38 bf 7f 60 5a 3e c0 0e 42 bf 4c 19 3a be
       -0.7225026 0.21325873 -0.75803757 -0.18173712
0003d0 38 31 da be af 80 46 bf d0 12 2e 3f ae 42 43 be
       -0.42615676 -0.77540106 0.67997456 -0.19068405
0003e0 44 b8 34 3f 6f c0 2a 3e 42 8a a0 be 30 73 39 3f
       0.7059367 0.1667497 -0.31355482 0.7244139
0003f0 56 59 45 bf 4c 36 01 bf 31 b1 f9 be 67 3f f9 be
       -0.7708944 -0.50473475 -0.48768 -0.48681185

bias f4 [10]
000000 1b aa 59 be bd cd 01 be 33 a7 06 be 73 37 cf be
       -0.21256296 -0.12676139 -0.13149719 -0.40471992
000010 97 4f d7 3c e9 74 08 3d 83 d1 71 be a9 22 92 3c
       0.026283069 0.03331462 -0.23615079 0.017838793
000020 dc 62 4a be 31 91 c4 be
       -0.19764274 -0.38392022

weight_ih_l0 f4 [256, 41]
000000 40 fe 8c be 3b 59 bc 3d 47 24 d0 3e 2f 73 26 3d
       -0.27537727 0.09196707 0.40652677 0.04063719
000010 81 fe fb 3e 50 94 4d bd f3 13 b7 bb 40 f4 ea 3c
       0.4921761 -0.05019027 -0.005587095 0.02868092
000020 b0 cc 49 bc 3d 06 10 bf 45 9a 6a 3c 58 a6 b7 be
       -0.012316868 -0.5625952 0.014319007 -0.35869098
000030 68 73 88 3e 07 d6 47 bf d4 2d fb bd 61 c6 42 be
       0.26650548 -0.78060955 -0.122646004 -0.19020988
000040 7f 03 16 3f 54 c6 5d 3e aa 67 9b bf 1e 90 7e bc
       0.58599085 0.21657687 -1.2141011 -0.01553729
000050 d5 a3 64 bf 04 8a f6 be d4 81 ab 3d 86 ed 24 3f
       -0.8931249 -0.48152173 0.08374372 0.6442493
000060 62 c6 cd 3d 39 66 c0 bc b2 ce 09 bf 42 f6 06 3f
       0.10047604 -0.023486244 -0.53831017 0.5271951
000070 90 57 e1 be cc cc 37 bc 99 32 af bc 6b f0 c6 3c
       -0.44012117 -0.011218261 -0.021386432 0.024284562
000080 e5 41 ca bd 99 26 fa 3d 1e 85 35 be 55 fd 87 3d
       -0.0987585 0.12214393 -0.17726561 0.06640116
000090 95 c5 a7 3d 31 b9 8d be 7f c9 00 bf a6 77 4f 3e
       0.08191983 -0.27680352 -0.5030746 0.20260486
0000a0 f4 5d 5a 3f 4d 7b 9b 3f 20 5c df 3e 55 71 02 3f
       0.8529961 1.2147003 0.43624973 0.5095418
0000b0 80 37 b1 3f 95 53 94 3e 05 15 f6 bd 3b ab 17 3e
       1.3845062 0.28970018 -0.12015728 0.14811413
0000c0 80 69 f5 bb 70 8c bd 3d e6 c6 02 be f1 f4 0f 3e
       -0.007489383 0.09255302 -0.12771186 0.14058281
0000d0 1b d2 a4 bf a7 43 bf 3c 83 8f 16 3e b4 c5 87 3f
       -1.2876619 0.023347689 0.14703183 1.0607209
0000e0 a1 88 1c bf 94 9c 84 bf d5 fa 61 be f9 d0 e2 3d
       -0.6114598 -1.0360284 -0.22068341 0.110750146
0000f0 1e e2 57 be 81 f9 f7 bd f1 01 31 3e ba 30 24 3f
       -0.2108235 -0.12108136 0.17285897 0.6413685
000100 28 4b 2e be 23 ea 7d 3f 55 37 19 bf a8 fd 1e bf
       -0.17020857 0.9918539 -0.59850055 -0.621058
000110 3e d3 8a 3e 64 5c 5a 3e 20 35 51 3d fc da 10 3e
       0.2711429 0.21324307 0.051076055 0.14146036
000120 2e c2 43 bd 1c 59 e3 3e 70 4f 01 3e e0 4d a3 3e
       -0.047792606 0.44403923 0.12627959 0.3189535
000130 2a 01 22 be b3 24 a6 bd c2 ec d7 be 66 77 de 3d
       -0.15820757 -0.081124686 -0.4217282 0.10862617
000140 50 a4 a8 bb f4 bf 39 3f 3b 25 01 3e cc a6 56 3f
       -0.0051465407 0.7255852 0.12611859 0.8384826
000150 77 8c 09 3f c5 8f 72 be ef 91 82 3d 3d fb b4 be
       0.5372996 -0.23687656 0.06375491 -0.3534793
000160 9e 36 63 be ba 6b eb bd 88 64 d4 3d 01 2f cb be
       -0.22188804 -0.114951566 0.10370737 -0.396843
000170 d7 65 ad 3e 25 0d b0 3c a3 4e 60 3e e6 57 22 bc
       0.3386676 0.021490643 0.21904998 -0.009908652
000180 95 68 f1 3b 8a 39 08 bf 18 c5 4c be 73 82 4a 3e
       0.0073672035 -0.532128 -0.1999706 0.19776325
000190 05 43 b3 be aa a8 22 3e 79 a8 6c 3e c6 3d 09 bf
       -0.3501207 0.15884653 0.23111142 -0.53609884
0001a0 7b c5 c3 3e 96 39 0b be 1e b8 02 3e b9 26 ff 3e
       0.38236603 -0.13596186 0.12765548 0.4983423
0001b0 c9 a9 66 bf e0 3f bd 3e 11 45 88 3e a3 87 9b bc
       -0.9010282 0.36962795 0.26615193 -0.018985575
0001c0 c4 a6 57 3e be a7 96 be 62 64 b9 3d 08 68 75 3d
       0.2105971 -0.29424852 0.090523496 0.059913665
0001d0 b3 ba c5 3d 8b c2 2a 3e 69 6e 11 be fd 7d b9 3e
       0.09654751 0.16675775 -0.14202274 0.36228934
0001e0 d6 72 0d 3e 9a 7e 1e 3e 03 54 a0 3f a6 1c 46 be
       0.13813338 0.15477982 1.2525638 -0.19346866
0001f0 2b 6a 19 3e a8 94 4d be a6 dd ce 3d 28 a6 09 3f
       0.14981906 -0.20076239 0.1010087 0.5376916
000200 38 b4 dd 3d 5e b9 a4 3d a6 ca a6 bd b0 c7 db bc
       0.108253896 0.080431685 -0.08144121 -0.026828617
000210 17 7f 22 bf cf 5a 75 3f 57 ba 88 be 78 7d b1 be
       -0.63475174 0.9584169 -0.26704666 -0.34666038
000220 5b 7d 0c 3f 16 4a 98 be 00 98 78 bf 95 c7 c4 3e
       0.5487878 -0.29744023 -0.97106934 0.3843352
000230 31 1c 0b bf 37 a6 3c 3e 59 6f f6 bd b9 d7 7b bd
       -0.5433989 0.18422781 -0.12032957 -0.061485026
000240 f8 6e 4c bd 41 c6 a5 be 49 07 d9 3e 44 9e 0c bd
       -0.049910516 -0.32377818 0.4238837 -0.03433062
000250 da a3 30 3f f3 71 86 3d c7 d0 f3 be cb c0 95 3d
       0.6900002 0.06564703 -0.47620222 0.07312163
000260 30 46 84 be df d8 c5 3c ab 4a a9 3e 80 c5 5c bf
       -0.258348 0.024151264 0.3306478 -0.8623886
000270 de 66 ca bd 04 aa a5 be 06 fa 2e 3e 84 39 ed 3d
       -0.098829016 -0.32356274 0.17087564 0.11583236
000280 c7 0b 32 3e 2c bf fc 3d 34 c4 93 3b 65 89 a9 3e
       0.17387305 0.12341151 0.004509473 0.33112636
000290 06 83 91 3c e6 25 71 3f a0 13 05 3f ea 0e 82 3f
       0.017762672 0.94198453 0.5198307 1.0160801
0002a0 2b df ac 3d 7f b9 9f be 69 0d 36 be 14 6a 55 bd
       0.084410034 -0.3119621 -0.17778553 -0.052103117
0002b0 12 c5 ba bd d5 e8 34 3e 0b 72 23 bf 63 29 3a be
       -0.091196194 0.17666943 -0.6384589 -0.1817985
0002c0 67 1b b4 be 02 77 e5 3c e8 8b 99 be 2a 85 01 c0
       -0.35177156 0.028010849 -0.29989552 -2.0237527
0002d0 da 8a e9 bd b4 ba df bd 54 11 8f bf 9f 56 c4 3e
       -0.11403437 -0.10924283 -1.1177163 0.38347337
0002e0 e5 d5 cc bd 7f dc 86 bf 1d cc 33 3e d6 42 0b bd
       -0.10001735 -1.053604 0.17558332 -0.033999287
0002f0 ed 42 6f be 4f 88 24 bf 08 73 9c be 5f be 8d 3f
       -0.23365374 -0.6427049 -0.30556512 1.1073722
000300 64 3f c5 bf da 1d c9 bd 19 17 a8 bd 28 6d 3e 3d
       -1.540997 -0.09820147 -0.082075305 0.04649082
000310 55 12 2e bd 86 ab 72 3e ab 9f 2e 3e 1f cf 1a be
       -0.04249795 0.23698243 0.17053096 -0.15118073
000320 9b 5a ae 3d d7 39 dd 3b 33 d0 9d 3d dd cb b1 3c
       0.08513375 0.00675128 0.077057265 0.021703655
000330 eb e5 da 3d c1 d7 97 3f b5 67 89 be 76 56 4b 3e
       0.106883846 1.1862718 -0.26836935 0.19857201
000340 c1 22 cf 3e e4 a6 13 bf dd 0f da be 8a ad 2c 3e
       0.40456203 -0.5767653 -0.42590228 0.16863075
000350 66 eb f2 3d 8e e9 db bd c3 ba 32 3f 25 ac 28 3d
       0.11861305 -0.107379064 0.69816226 0.041179795
000360 2e e8 72 be a9 05 32 be 34 a6 42 be 69 99 b3 bd
       -0.23721382 -0.17384972 -0.19008714 -0.08769495
000370 a4 2b 80 be 9c 4e 15 bf f4 ef 18 bd b6 0a 17 3e
       -0.25033295 -0.58323073 -0.037338212 0.1475018
000380 7d 8a 4a bf cd 76 07 3f 2b c8 42 3d 96 28 33 3f
       -0.79117566 0.5291565 0.047554176 0.69983804
000390 f6 ca d0 3b 12 22 b3 3d f2 d1 6a 3e 53 c9 e6 be
       0.006371851 0.08746733 0.2293165 -0.45075473
0003a0 98 67 6a 3f 5c e1 c0 bc 62 dd a8 3d c1 23 0e be
       0.9156432 -0.02354496 0.082453504 -0.13880827
0003b0 1a ef bd bc a9 1f 28 bd 0b b7 e2 bd 29 54 71 3e
       -0.023185302 -0.04104582 -0.11070069 0.23567261
0003c0 af 70 fa 3c 40 dd 56 3e 7f 0c eb 3d 43 8a 77 3d
       0.03057131 0.20982838 0.11476993 0.06043459
0003d0 7d 42 03 3f 62 3c 55 3e cc 07 41 3e b2 d5 d8 3f
       0.5127333 0.20823815 0.1885063 1.6940215
0003e0 5b 01 94 be cd 15 7a 3f 8e bc ae 3d 1c b3 d7 be
       -0.28907284 0.97689515 0.08532058 -0.42128837
0003f0 e6 58 46 3e ea 3a de 3d 1e 52 b4 3d 03 26 1c 3e
       0.1936985 0.10851081 0.08804725 0.15248875

weight_hh_l0 f4 [256, 64]
000000 2b a9 49 be 98 7c 7f be 1d 74 89 bd b8 7f e8 3e
       -0.19693439 -0.24949872 -0.067116 0.45409942
000010 24 9e 8f bd fd 0c 91 3e e0 69 26 3e 7a 27 c4 3b
       -0.07012585 0.28330222 0.16251326 0.0059861513
000020 3c ad 4a 3e 52 79 86 3f 75 66 15 3f 8d df 57 be
       0.19792646 1.0505774 0.5835946 -0.21081372
000030 fa fa a1 3e f4 07 2e bf 09 1b 16 bf d9 ac 2f 3e
       0.31636792 -0.67980886 -0.58635 0.1715578
000040 73 ad 8f be 8a 3a 7e 3a 4f 9b 46 3f 67 2e 2c be
       -0.2806202 0.0009698054 0.7758073 -0.16814576
000050 8d 8b 33 3f ae ce 9d 3e 65 6c 68 3e 3f ae 4a bd
       0.7013481 0.30821747 0.22697599 -0.04948258
000060 00 ec 25 3f da c2 b5 3e 15 aa 3b bf 7e 5a 5d 3e
       0.6481323 0.35500222 -0.733064 0.21616551
000070 b0 97 c2 be 6a fa 34 3f 4c 80 23 3f b7 9c 27 bf
       -0.38006353 0.706946 0.6386764 -0.654735
000080 ae 8d eb 3e 12 f2 ef 3e 75 67 85 3e 56 9a 8c 3e
       0.4600653 0.46864372 0.26055494 0.274615
000090 27 9b 44 bf 47 60 86 be d2 c2 06 bf f6 9b bc 3c
       -0.76799244 -0.2624533 -0.5264102 0.023023587
0000a0 be 1e 88 be d7 fa 81 3e 2d 16 96 3d a2 46 67 3e
       -0.26585954 0.25386688 0.073284484 0.22585538
0000b0 3f c3 e1 be 2b be 71 3d 94 5e 1a 3f 7d 2f 8d be
       -0.44094273 0.05901925 0.60300565 -0.27575293
0000c0 d0 45 2b bf bf e5 65 be d4 6f 46 3f 20 f6 5b 3d
       -0.669034 -0.22450922 0.77514386 0.05370152
0000d0 80 46 ec 3e ec a4 b2 3e 5f 12 cf 3e 9d de 69 be
       0.46147537 0.3489145 0.40443704 -0.22838826
0000e0 8d e0 0b 3f d9 1b b2 3e 66 4f 82 3e a3 95 ec 3e
       0.5463951 0.3478687 0.254512 0.46207914
0000f0 61 a1 1c 3f d9 26 dd 3e 47 b7 54 be c5 e2 05 bf
       0.61183745 0.431937 -0.2077304 -0.5229915
000100 fd 3c 2d bf 78 c8 bb 3d 15 d8 bc 3e ba c2 5f 3e
       -0.67671186 0.09169096 0.36883608 0.21851626
000110 df 79 1d bf 99 0e e1 3e 54 87 45 3e dc a2 a4 be
       -0.61514086 0.4395645 0.19289905 -0.32155502
000120 10 85 05 3e 48 07 13 bd c6 fd f4 3e 41 46 75 bd
       0.1303904 -0.035895616 0.47849864 -0.059881452
000130 34 ec 7f 3f 1c 37 12 be e8 d7 ce bd 61 d6 68 3d
       0.9996979 -0.14278835 -0.100997746 0.056845073
000140 c4 9d 88 be ff 54 dd bd 0e 52 ce be d8 31 21 bf
       -0.26682866 -0.10807227 -0.40296978 -0.6296668
000150 dc 1d ea 3e 82 59 65 be 9b ba ad 3f 47 4b 78 be
       0.45725906 -0.22397426 1.3572572 -0.24247466
000160 f7 12 37 be 25 dd 40 bd 02 e5 05 bf b7 cb 0b 3e
       -0.17878328 -0.0470859 -0.52302563 0.1365193
000170 d0 a6 9b be 7b 18 12 3f 82 39 c1 be 94 d1 73 be
       -0.30400705 0.57068604 -0.37739187 -0.23810416
000180 fc 8c 9b 3e 4d c6 07 be 66 05 2c bd c6 9b d2 bd
       0.30381 -0.1325924 -0.041997336 -0.10283618
000190 cf 2b 21 be fd 5f 88 3e 7d 82 2c bf 92 06 7a 3f
       -0.15739368 0.26635733 -0.6738661 0.97666276
0001a0 43 3d 67 3e ee 48 ce 3e f4 a9 71 3f 9f 83 c8 bc
       0.22581963 0.40290016 0.9439995 -0.024476824
0001b0 d3 76 b1 be 30 3a cf 3d 39 a0 91 be 7e 93 53 3f
       -0.34660968 0.1011852 -0.28442553 0.8264693
0001c0 2c 1b ae bd 35 25 3a 3e 49 77 03 3f 80 15 3c 3f
       -0.085012764 0.18178256 0.5135389 0.73470306
0001d0 f6 d2 20 3f 97 3e 26 be 95 34 ac 3e 59 4c 76 3f
       0.628219 -0.16234814 0.33633867 0.9621025
0001e0 b6 aa 22 bf 30 99 b6 be e0 ba c4 bd d4 ba 93 be
       -0.63541734 -0.35663748 -0.09605956 -0.28853476
0001f0 68 1b f6 3d 38 fb 1c bf 57 b0 d4 bd 88 d7 8e 3e
       0.12016946 -0.6132083 -0.10385197 0.27898812
000200 88 d6 ec be 97 b8 01 bf 33 db c1 3d 10 f0 a8 3e
       -0.46257424 -0.50672287 0.09465637 0.32995653
000210 92 d6 4a bd e1 cb 86 3d 61 52 97 bd e0 e7 ce be
       -0.049521036 0.065818556 -0.073887594 -0.40411282
000220 da de 87 bf 7c 09 f0 3d ed 96 37 3e 40 de 17 3f
       -1.0614884 0.11720559 0.17928667 0.593235
000230 f2 c9 95 be bc 6d 26 bf 84 04 91 3e 88 2e fc bd
       -0.29255635 -0.6501119 0.28323758 -0.12313563
000240 e4 0a 32 3d a9 a0 df bd 26 c9 8e 3e 59 d9 00 bf
       0.043467417 -0.10919315 0.2788784 -0.50331646
000250 75 ae a0 3b 0e 09 25 3e b3 b1 03 3f b3 37 78 3f
       0.0049036094 0.16116735 0.5144302 0.9695999
000260 b1 72 7c 3e 2d 4b 08 bf 29 12 0b 3f 19 a6 18 3f
       0.24653126 -0.5323971 0.54324585 0.59628445
000270 09 af 08 3e 96 9b 08 3f 66 a3 83 be 0f 90 cc be
       0.1334802 0.53362405 -0.257106 -0.39953658
000280 43 cd 44 bf fe 7e bf 3e 10 b5 87 bf db f2 58 3e
       -0.76875705 0.37401575 -1.0602131 0.21186392
000290 7c 01 b7 3e 43 44 64 3e 26 3e 64 bf 5b 48 23 bf
       0.3574332 0.22291665 -0.8915733 -0.6378228
0002a0 74 c1 e1 3e a5 7c 9a bd 64 a9 27 bf b5 00 29 be
       0.44092906 -0.07543305 -0.65492845 -0.16504176
0002b0 f4 a3 97 be a2 3f 83 3e ba 3c 94 bd 5c a6 51 3e
       -0.29617274 0.25634485 -0.07238145 0.20473617
0002c0 d9 ba 82 3e 1a 54 c7 be c7 e3 29 3d 5f d4 46 bf
       0.25533178 -0.38931352 0.04147699 -0.776678
0002d0 ca 61 1a 3e d8 5a 10 bf 05 f8 e1 bd 9c 67 46 bf
       0.15076366 -0.56388617 -0.11033634 -0.77501845
0002e0 44 43 37 be 5b 6f a1 be 58 b5 8c be 66 dd 06 3f
       -0.17896754 -0.3153027 -0.27482104 0.5268158
0002f0 f9 3f 39 3e 28 34 bc 3c 11 fa 15 bf 64 74 90 bd
       0.1809081 0.022974089 -0.58584696 -0.0705345
000300 ea 49 b0 be 0e 3a 81 be b3 9b af 3e 7b a6 11 be
       -0.34431392 -0.25239605 0.34298477 -0.14223664
000310 b6 28 8b 3e c5 2f 5c 3e 36 57 96 3d ef 4e f4 bd
       0.27179497 0.21502598 0.07340853 -0.11929118
000320 df 8f 90 bd 78 70 60 3e ce 5e 72 3f 08 69 31 bf
       -0.07058691 0.21917903 0.9467591 -0.6930089
000330 f3 3a 74 3f 64 47 d7 3d 5e 86 4b 3f ac 9f bd be
       0.9540245 0.105116636 0.79501903 -0.37035882
000340 44 ef 27 3f 69 cc f4 3e 63 f6 5d 3f 74 97 90 be
       0.65599465 0.47812203 0.8670408 -0.2824055
000350 58 f1 d9 3e 38 83 70 bf 3a 6b 8c 3e 86 ab 45 be
       0.42566943 -0.93950224 0.27425557 -0.19303712
000360 f3 e5 ed be d3 f2 55 bf ad e5 2b bf cd 96 36 3f
       -0.464645 -0.83573645 -0.6714733 0.71323854
000370 6a f0 e9 3e cc fc ca be 8e 33 29 3f e2 55 af 3e
       0.45691234 -0.39645994 0.6609429 0.3424521
000380 01 1e eb be d7 a5 a2 3e 8d c8 af be 31 57 a3 3e
       -0.4592133 0.3176715 -0.34332696 0.3190246
000390 87 c5 04 3e 46 28 9d 3e 59 54 04 be 37 e4 92 3e
       0.12965976 0.3069479 -0.12922801 0.2868974
0003a0 be c1 08 3e 5d ed 5a be 73 2f 55 bf c1 9e 00 3f
       0.13355157 -0.2137961 -0.83275527 0.5024224
0003b0 72 bc 64 3d 01 bf fb 3e b0 51 9f be 06 e6 48 3f
       0.055843778 0.49169162 -0.3111701 0.7847599
0003c0 53 3a d5 3e e0 32 34 3e fe 70 2f 3f 24 9d 29 3e
       0.4164606 0.17597532 0.6853179 0.1656385
0003d0 26 7a 8e 3f 25 31 bd 3e aa 03 85 3f 65 2e 84 be
       1.1131027 0.36951557 1.0391743 -0.25816646
0003e0 f2 c1 5e 3d 80 fa 0c 3f 27 20 9c 3d e5 37 d4 bd
       0.05438418 0.5506973 0.0762332 -0.103622235
0003f0 c0 fe ce 3e 9b 22 fa 3e 7d db 6b be 5f 1b 2e bf
       0.40428734 0.48854527 -0.23032947 -0.68010515

bias_ih_l0 f4 [256]
000000 1f ba e4 bd 1a 9e 36 3e 6d 47 c3 be a1 52 af bd
       -0.11168312 0.17833748 -0.3814043 -0.08560682
000010 26 4b c5 bd 4f c2 7a 3e dc b6 5c 3e 99 37 7e 3d
       -0.09633474 0.24488185 0.2155413 0.06206474
000020 28 12 c3 bd 48 0f fa 3d 1e 03 71 3d 22 4d 5c be
       -0.095249474 0.12209946 0.058840863 -0.21513799
000030 30 de b2 3c f3 1d 0b 3e f5 48 97 bd 33 25 61 be
       0.021834463 0.13585643 -0.07386962 -0.21986847
000040 d1 45 5a bc 29 7f 4a be 8f dd 67 bd 92 e3 15 be
       -0.01332231 -0.1977507 -0.05660778 -0.14637592
000050 9d 49 f3 3d 73 0e 8b be 51 66 78 bd b4 11 e3 3c
       0.11879275 -0.2715946 -0.06064445 0.027718402
000060 91 65 b0 be 7d 41 90 3e b2 5d 8b be ec 25 1c bd
       -0.3445249 0.28174964 -0.2721992 -0.038122103
000070 43 d6 a1 be 69 23 96 3d 40 98 8c be 65 bb aa be
       -0.3160878 0.07330973 -0.27459908 -0.33346096
000080 b4 9a af bd 17 56 90 bc 28 9e 80 be 14 6d a7 3e
       -0.08574429 -0.017619176 -0.25120664 0.32700408
000090 45 44 2c be d4 62 9a 3d 8b 0e 00 be 13 58 78 be
       -0.16822918 0.07538381 -0.12505548 -0.24252348
0000a0 88 2b 56 3e 5e 97 95 be b1 39 b5 be c4 09 18 be
       0.20915043 -0.29217046 -0.35395578 -0.14847475
0000b0 ad 13 3d 3d 5a 82 eb 3d 67 d6 f7 bb 94 9f 44 3e
       0.046161342 0.11499472 -0.0075634005 0.19201499
0000c0 1d 5e 9f bc 1b c2 9f bd f3 05 a1 3d 20 66 3e 3e
       -0.019454056 -0.078006946 0.07862463 0.18593645
0000d0 04 da 6f be 53 7c 81 3d 2e 07 1e 3e e8 71 fc 3c
       -0.2342301 0.06322541 0.15432426 0.030816033
0000e0 d1 d1 79 3e 2e 54 4f be d1 42 4d 3d fa d2 f7 bd
       0.24396445 -0.20246956 0.05011255 -0.121007875
0000f0 91 1c 11 bd 67 b5 94 be a0 79 c2 3c 80 2b ba 3e
       -0.035427634 -0.2904465 0.023739636 0.36361313
000100 2d 8b 0d be df ba a8 be bb 50 91 3d f2 08 ac bc
       -0.13822623 -0.3295507 0.07095476 -0.02100036
000110 21 f5 f6 3c 54 28 8b 3d 5e 73 7e be 7f fb 33 be
       0.030146183 0.06794801 -0.24848697 -0.17576407
000120 2c e0 58 be 88 44 a6 3b 06 11 26 3d 5c 03 b6 bd
       -0.21179265 0.0050740875 0.04054358 -0.088873595
000130 5d c9 52 bd d1 2d f4 bd 82 74 d6 bd 17 44 19 be
       -0.051461566 -0.11922801 -0.10471441 -0.1496738
000140 28 4d ea 3d 8a fc 0e bd 8d 9d 0c 3d 56 47 94 3e
       0.11440498 -0.03490881 0.03432994 0.28960675
000150 8b df 77 be e1 ab d7 bd 1f a1 a7 bd fe 25 8e bd
       -0.24206369 -0.1053083 -0.08185028 -0.0694084
000160 ff 2c 65 3d 28 52 10 bd 14 a7 ae 3c 56 28 26 be
       0.055951115 -0.0352346 0.021319903 -0.16226324
000170 39 77 f3 3d 31 8e 2c 3c e4 67 57 be 9b 17 7a bd
       0.11887974 0.010531948 -0.21035725 -0.06105767
000180 f5 76 86 3d f9 57 67 3d f2 05 14 be 9b c6 90 bd
       0.06565658 0.05648038 -0.14455393 -0.07069131
000190 92 9f 4a be d2 fe ad 3d f2 43 90 3d ff 82 f9 ba
       -0.19787434 0.08495869 0.070442095 -0.0019036232
0001a0 8d 32 3b bd 29 a5 1c 3e d9 25 2c bd 0b 27 b5 bd
       -0.045702506 0.15297379 -0.04202828 -0.088453375
0001b0 f5 da 40 be 04 c6 99 be 1b bc 99 be 1f 9e 10 bf
       -0.18833525 -0.30033886 -0.30026326 -0.56491274
0001c0 b6 ce a9 be 8b 1a f0 3c 3a d0 8b bd 31 73 84 3d
       -0.3316552 0.029309532 -0.068268254 0.064672835
0001d0 aa 39 f2 bd 6f f9 5b be a2 0e 69 3c b5 53 8b be
       -0.11827405 -0.2148187 0.01422468 -0.272123
0001e0 cb 58 80 be 06 98 9e 3d 6f 1d 8a be 21 8c 90 be
       -0.25067744 0.0774384 -0.2697558 -0.2823191
0001f0 2e 43 70 bd d7 5f 0a bd c3 1c 14 3e 6e 79 17 be
       -0.058657818 -0.033782806 0.14464097 -0.14792415
000200 00 a9 13 be 15 64 b9 be 8c 9f a2 bd 1c a4 c7 3d
       -0.14419937 -0.3620917 -0.079405874 0.09748098
000210 20 8e d9 bd 4e 68 50 3e da 12 bf bd aa 75 c1 3d
       -0.10622811 0.20352289 -0.093297675 0.09446271
000220 ba ed d4 bd 7f e3 82 bc a2 30 3b be 09 7e 51 3e
       -0.10396905 -0.01597762 -0.1828027 0.20458235
000230 34 8f ff be bc 00 ca bd b6 c1 92 be ff ea 4d be
       -0.49913943 -0.09863421 -0.28663415 -0.20109175
000240 91 77 b9 bd b9 93 68 bd d8 d4 71 bd 65 58 0e be
       -0.090560086 -0.056781504 -0.059040874 -0.13900907
000250 52 2f 82 3b 6e f0 2a bd 22 09 5e 3d 49 7f 79 bd
       0.003972926 -0.041733198 0.05420793 -0.060912404
000260 1f f3 02 3e ac 2e e2 3c db f8 dd 3d f6 8b 1a be
       0.12788056 0.027610146 0.10838481 -0.15092453
000270 d9 e1 20 3e 85 b7 17 be a6 a1 80 bd da cb 22 bd
       0.15711154 -0.14816101 -0.06280832 -0.03974519
000280 45 51 9d 3d 68 88 5b be 41 92 55 3e 3b 47 c9 3d
       0.076815166 -0.21438754 0.20856573 0.09828039
000290 09 36 06 3e 22 c1 fc 3b 55 f7 37 bc 9b e5 29 3d
       0.1310655 0.007713453 -0.011228402 0.041478734
0002a0 3c 79 83 bc cb 12 2d be 62 ef 4c 3d b8 72 44 be
       -0.01604902 -0.169017 0.05003298 -0.19184387
0002b0 68 a2 19 be 56 e3 e0 bd 03 6c 25 be b8 57 34 3e
       -0.1500336 -0.10980861 -0.16154484 0.17611587
0002c0 4a 5b 23 bd ec a2 17 3c 0f 3f a0 bd e6 3c a7 3d
       -0.039881982 0.009255152 -0.078245275 0.08165912
0002d0 80 9b 66 3d f7 43 d7 bd 65 8c 15 3d f8 32 9f bd
       0.05630064 -0.1051101 0.036510844 -0.077733934
0002e0 4d 1b a5 bd cb ad 0b 3e fb e8 4a 3e 99 d6 74 bc
       -0.08061848 0.13640516 0.19815437 -0.014943742
0002f0 7e fd fb bd 6d 72 d7 3b 11 ae 66 bd 10 44 aa 3c
       -0.12304209 0.00657492 -0.056318346 0.020784408
000300 fd 12 fd bc b7 4c 30 be d9 59 98 be ed 23 8b be
       -0.030892843 -0.17216764 -0.29756048 -0.27175847
000310 9a 70 f5 3b 12 ca 7f 3e ba 34 1e be db 42 e3 3b
       0.00749023 0.24979427 -0.15449801 0.00693546
000320 70 57 60 3e 79 fb 9c bb d9 ac 3a 3e 75 06 af be
       0.21908355 -0.00479072 0.18229999 -0.34184614
000330 a9 11 8e 3e 20 3b 4b 3e d0 ed ae bd 0f 35 01 3d
       0.2774785 0.19846773 -0.08541453 0.03154474
000340 9d 08 45 be 3b 8a 1f be b7 3b 33 be 74 19 fc bd
       -0.19241567 -0.15580074 -0.17503248 -0.12309542
000350 40 f1 65 3e 57 1d 40 be 45 dd e5 bd 58 40 db 3a
       0.22455311 -0.18761192 -0.112238444 0.001672755
000360 93 e1 0a be df 7c 5a 3d 25 55 b3 3a db 26 94 be
       -0.13562612 0.053341743 0.0013681991 -0.28935894
000370 f8 39 20 be ea e2 14 3e dd 4b 12 bd 1f 85 a2 be
       -0.15647113 0.14539686 -0.03571688 -0.31742188
000380 33 5d 71 be e5 ea 49 bc 8d 99 0a be ca fd fb 3d
       -0.23570709 -0.01232407 -0.13535137 0.12304266
000390 01 24 84 bd 09 68 bc 3d 70 94 ba 3d 88 5e 1f be
       -0.0645218 0.09199531 0.091103435 -0.15563405
0003a0 d5 f0 89 3d 29 a5 28 bd 72 67 85 be 7c ae 25 bd
       0.06735388 -0.041173134 -0.26055485 -0.040449604
0003b0 cb 94 3d 3e ad e7 df bd 5d df 20 3e 5c 6a 6c 3e
       0.18513791 -0.109328605 0.15710206 0.23087448
0003c0 9d 3c 09 bd 7f 94 f4 3d e9 07 b2 3e 9a 68 31 3e
       -0.03350507 0.11942386 0.3477166 0.17325059
0003d0 e0 1d e4 bd 93 18 5d bd 45 c2 d0 bd 6d c8 e4 3d
       -0.11138511 -0.053978514 -0.10193304 0.11171041
0003e0 d5 7f 9e 3e 50 07 d1 bc 29 2f 2b be 52 1f 84 be
       0.30956903 -0.025516182 -0.16717209 -0.25805146
0003f0 e7 c8 8a bd 3a b6 cf bc 31 08 5a bd 31 a3 b1 3d
       -0.067766 -0.025355447 -0.05323047 0.086737044

bias_hh_l0 f4 [256]
000000 17 34 1e bd 59 3f b6 3c d8 7c 45 be 92 7c cc bb
       -0.038623895 0.022247003 -0.19285905 -0.006240436
000010 63 33 27 be be 4b 4f 3e d0 08 73 3e 18 f1 69 bd
       -0.16328196 0.20243737 0.2373383 -0.05711469
000020 6f f2 54 3c 36 43 0e 3e 45 81 ea bd 79 eb 3c be
       0.012997254 0.13892826 -0.114504375 -0.184492
000030 61 d3 a0 ba 1f 95 65 3d 17 3a c3 bd 35 c6 44 be
       -0.0012270027 0.056050416 -0.09532564 -0.19216235
000040 da 09 00 3e 06 31 9c be 2d b6 71 bd b1 81 c0 bc
       0.12503758 -0.30506152 -0.059011627 -0.023499342
000050 d6 66 1d 3e 84 ae 8d be 71 1e 25 3d bb 2d 25 be
       0.1537126 -0.27672207 0.040312234 -0.16130726
000060 8d 0c 29 be 19 12 92 3e 47 89 0f be 86 66 95 3c
       -0.16508694 0.28529432 -0.14017211 0.018237364
000070 fc 1a c9 be 02 47 76 3c f5 84 62 be d7 c9 95 be
       -0.392784 0.015031578 -0.22121032 -0.29255554
000080 73 42 70 be 22 7b 83 bd 36 f8 f5 bd 0b 7f c2 3e
       -0.23462848 -0.0641997 -0.12010233 0.3798755
000090 16 7a 0a bd b8 5e 1d 3e ca ea 0a 3d a7 72 a6 bd
       -0.033807836 0.15368164 0.03391532 -0.08127337
0000a0 1b ad 8f 3e 90 e2 3f be 48 12 8d be dd b0 46 be
       0.28061756 -0.1873877 -0.2755301 -0.19403405
0000b0 7e 2a 78 bd b2 5f 37 3e bd 0c bd 3d 1f 6b 8d 3e
       -0.0605874 0.17907599 0.09230945 0.2762079
0000c0 75 cf 62 bd e5 2b 4e be ca 2a 69 bd 02 0c 90 3d
       -0.055373628 -0.20133932 -0.056925572 0.0703354
0000d0 d3 94 91 be 52 3a c5 3d f4 25 32 3e 89 2b 74 bd
       -0.28433856 0.09630264 0.1739729 -0.05961183
0000e0 f2 35 ba 3e 77 e9 af be b6 b7 1e bd 57 ae 3b be
       0.36369282 -0.34357807 -0.03874942 -0.18328224
0000f0 8e 2b 6b bb 6b a9 c8 be 73 25 2b 3e b8 06 a5 3e
       -0.0035884115 -0.39191756 0.16713504 0.32231688
000100 89 aa 80 bd ae 54 44 be 70 15 35 bd cd 6c 06 be
       -0.06282527 -0.19172928 -0.044209898 -0.13127442
000110 3a 23 9e 3d df b7 85 3d 02 63 66 be 8a 5f 15 be
       0.07721563 0.06529211 -0.22498706 -0.14587227
000120 c0 1e 23 bd af e6 ba bd ab 21 21 3d 3a 25 01 be
       -0.039824247 -0.09126031 0.03933875 -0.12611857
000130 d1 e9 3c be d4 8c 86 3d 26 95 09 be 76 20 91 be
       -0.18448569 0.065698296 -0.13435802 -0.28345078
000140 91 9d 0b 3c 7d 84 a4 bd be 3e ce bb 38 04 4d 3e
       0.0085214535 -0.08033083 -0.0062941005 0.2002114
000150 6d 77 12 be bf 44 00 bc 41 c6 2d be 66 41 a1 bd
       -0.1430337 -0.00782889 -0.16970159 -0.07873802
000160 c8 00 9e bd f6 a4 6d be 15 2d 8c 3d 92 ca 41 be
       -0.07714993 -0.23207459 0.06844536 -0.1892493
000170 ee ff a3 3d 49 39 93 3d 23 ff 51 be b7 b7 4c bd
       0.08007799 0.07188661 -0.20507483 -0.04997989
000180 e1 65 5a bd 16 67 5e 3d 76 fa 04 3d 18 98 b8 bc
       -0.053319816 0.05429753 0.03246542 -0.022533461
000190 c4 1b 3a be f1 69 6d 3e cc b7 26 bd 2d ec 4b 3d
       -0.18174654 0.23184945 -0.040702626 0.04978578
0001a0 de 79 0d 3e 11 c4 20 3e 82 88 d8 3d 86 b2 9c bd
       0.1381602 0.15699793 0.10572912 -0.07651238
0001b0 3b e5 f8 bd 2b 58 5b be 51 ba c7 be 79 c5 15 bf
       -0.12153097 -0.21420352 -0.39009336 -0.58504444
0001c0 e2 33 4a be 4f 78 f3 bd b0 15 e4 bd 54 d3 c1 bd
       -0.19746354 -0.118881814 -0.11136949 -0.09464136
0001d0 24 da 82 be c0 62 49 be 11 cf 28 3b 7a 04 8b be
       -0.25557053 -0.19666576 0.0025758187 -0.27151853
0001e0 d4 9d 24 be b0 b1 ea bd 52 33 9c be a4 5d db bd
       -0.16075832 -0.114596725 -0.30507904 -0.1071122
0001f0 88 7f bf bc 93 95 33 be d9 d3 39 3e 91 25 40 be
       -0.023376241 -0.17537527 0.1814722 -0.1876433
000200 45 20 ca bd 0e e8 97 be 23 00 c0 bd 29 5a b3 3d
       -0.09869436 -0.2966923 -0.09375026 0.08757431
000210 3c 11 22 be 5e b0 f2 3d 53 28 d3 bd 63 a5 07 bc
       -0.15826887 0.118500456 -0.103104256 -0.008279177
000220 0c 64 fa bd 0f bc 24 3c b9 59 d4 bd e8 2d 20 3e
       -0.12226114 0.010054602 -0.10368676 0.15642512
000230 e5 78 c7 be bc 90 97 3a de 36 6f bd 74 77 1d be
       -0.38959423 0.001156352 -0.058401935 -0.15377599
000240 ce b8 82 bc 34 e9 f8 bc c9 5c cd 3b f9 75 c2 bc
       -0.015957262 -0.030384637 0.0062671644 -0.023737894
000250 a7 94 00 be 6d d8 1f 3e 19 5c 2c 3d f0 05 0c bb
       -0.12556706 0.15609904 0.04208002 -0.0021365844
000260 76 ae 40 bd 7f b7 64 bc 5d 4c ce 3d c1 f6 86 3c
       -0.04704138 -0.0139597645 0.10073159 0.016475083
000270 7c 42 05 3e 46 21 3a 3b fc df 4c bd 91 e1 04 3d
       0.13013643 0.002840118 -0.050018296 0.03244168
000280 13 be c8 3c 11 d0 51 bd 90 3c d9 3c 91 f8 25 3d
       0.024504697 -0.05122382 0.026518136 0.040520255
000290 36 e5 24 3d 75 78 a1 bc 24 69 b1 bd fa 87 7a bd
       0.040257655 -0.019710759 -0.08662632 -0.061164834
0002a0 ef 48 24 3e a5 99 ec bd 97 70 d4 bb 26 43 24 be
       0.16043447 -0.11552743 -0.0064831483 -0.1604124
0002b0 24 4c 57 be 04 dc 12 bd 5d 29 16 be 8d c1 48 3c
       -0.21025139 -0.035854355 -0.14664216 0.012253177
0002c0 fd b7 35 3c 30 20 82 bd b4 03 77 bd 40 c9 85 bd
       0.0110912295 -0.063537955 -0.060306266 -0.06532526
0002d0 40 cf 87 3e 1f d6 97 be 6f ed 28 3d 65 e2 54 3d
       0.26525307 -0.2965555 0.04124206 0.05197372
0002e0 68 eb 48 be 77 fe 2b 3e a6 2e 4e 3e 59 07 61 3c
       -0.1962105 0.1679629 0.20134982 0.013734662
0002f0 ef 04 03 be cd 6b 00 be 9f ff d8 bb ea 8d 88 3d
       -0.12794851 -0.12541123 -0.0066222693 0.06667693
000300 96 66 2a bd ed 10 8e bd 93 fb bf be d6 ac 77 be
       -0.04160174 -0.06936822 -0.37496623 -0.24187025
000310 33 96 ca 3d 3d a4 84 3e 11 6b 0a 3d a7 ab de 3d
       0.098919295 0.25906554 0.033793513 0.10872584
000320 a0 7a a5 3d d2 42 ff bd cf 5d 39 3e 14 94 c6 be
       0.080800295 -0.12463917 0.18102191 -0.3878485
000330 34 34 87 3e 13 65 bd 3c 69 49 9e bd ef 90 bc 3c
       0.26407015 0.023119485 -0.077288456 0.023018328
000340 4d 3a 5f be d3 b8 a9 bb 0f 38 df bd 34 1c 0f be
       -0.21799584 -0.0051795035 -0.10899364 -0.13975602
000350 36 8a fa 3d db 86 21 be ba 15 62 be dd fb 36 bd
       0.12233393 -0.157741 -0.220786 -0.04467379
000360 13 80 29 be a5 2c 4a 3e 9d 53 28 3e c9 21 8a be
       -0.16552763 0.19743593 0.16438146 -0.269789
000370 50 f7 8f be b1 78 15 bd 82 b4 bd bd 40 cc e6 be
       -0.28118372 -0.036492053 -0.09262945 -0.45077705
000380 71 a5 3a be 98 3b 85 3c f6 30 81 bd 4c 7f 5a 3e
       -0.18227173 0.016263768 -0.06308167 0.21337622
000390 f5 71 df bd cf 37 ee 3c 70 37 dd 3c 76 04 77 bc
       -0.109104075 0.029079346 0.027003974 -0.015076747
0003a0 48 b4 b3 bc ff 75 79 bd 11 67 7b bd b5 17 a1 bd
       -0.02193655 -0.060903545 -0.06137759 -0.0786585
0003b0 2c 70 ab 3d 86 ab 2e be f4 b6 58 bd 13 f5 35 3e
       0.083710045 -0.17057618 -0.052908853 0.1776927
0003c0 cb 26 b8 3d 91 45 d2 ba 46 53 87 3e be 77 d9 3d
       0.08991774 -0.0016042461 0.2643072 0.10618542
0003d0 99 09 38 be 1d bf 3c 3e 69 d4 87 be de 86 9b 3c
       -0.17972411 0.18432279 -0.26529244 0.018985208
0003e0 74 9a 4f 3e f1 c6 b2 3c 04 34 ab bd 5c f1 49 be
       0.20273763 0.021823378 -0.083595306 -0.19720978
0003f0 28 e6 99 3d 35 10 89 bb 65 57 94 b6 cf 9e 9a 3e
       0.07514602 -0.00418284 -4.420918e-06 0.30199286
